log/alpha=0.1/version_None/checkpoints/epoch=2499-step=4999.ckpt (torch, 116924 bytes, 21 tensors)

dec.lin0.bias f4 [64]
0	0xbcc4dfbc	-0.024032466
1	0xbdb0a8e8	-0.08625966
2	0xbf0b8191	-0.5449458
3	0x3f0d2a20	0.551424
4	0xbead4363	-0.33840474
5	0x3ec98dec	0.3936609
6	0xbeddd179	-0.43323877
7	0xbe9754e7	-0.29556963
8	0xbd1aa6fa	-0.037756898
9	0x3f03c4f4	0.514724
10	0x3e82fbaa	0.2558263
11	0xbf0afb00	-0.54289246
12	0x3c4c9508	0.012486704
13	0x3ce6082e	0.028080072
14	0xbebc78b0	-0.36810827
15	0x3eab0f42	0.33410078
16	0xbeb33f4a	-0.35009223
17	0x3dfdb16f	0.123873584
18	0x3e3b62ab	0.18299358
19	0x3edede06	0.43528765
20	0xbe7e6ff0	-0.24847388
21	0xbe870fd9	-0.26379278
22	0xbf20569d	-0.6263216
23	0x3e5a5229	0.21320404
24	0x3dc39115	0.095491566
25	0x3d4c3a47	0.049860265
26	0xbf052c23	-0.5202047
27	0x3d0d51c5	0.03450181
28	0xbe2baa91	-0.16764285
29	0xbeea2dad	-0.45737973
30	0x3e5c3eb9	0.21508302
31	0x3d60099f	0.054696675
32	0x3f13b4fe	0.5769805
33	0x3e3621c5	0.1778632
34	0x3efaf50a	0.49015075
35	0xbeb46dd2	-0.35240036
36	0xbc6b089e	-0.014345316
37	0x3f020c0e	0.50799644
38	0xbece335e	-0.40273565
39	0xbdd2de33	-0.102962874
40	0xbe97cc1c	-0.2964791
41	0x3e52353c	0.2052812
42	0x3eb1bfbb	0.3471659
43	0xbddc6cc4	-0.10762933
44	0xbe0e9117	-0.13922535
45	0xbe8689d7	-0.26277038
46	0xbeaea59c	-0.34110725
47	0x3e21f924	0.15817696
48	0xbe305a54	-0.17221957
49	0x3e4a2a01	0.19742586
50	0xbe9f1846	-0.31073207
51	0x3e0d690f	0.13809608
52	0xbd43c1db	-0.047792297
53	0xbeb4e5a8	-0.35331464
54	0xbdb9b554	-0.09067789
55	0x3e8837d9	0.26605108
56	0xbed03afd	-0.40670004
57	0xbef54f6e	-0.47912163
58	0xba2569bc	-0.0006310006
59	0xbead1c1e	-0.33810514
60	0x3de21417	0.11038988
61	0x3ec1a8ed	0.37824193
62	0xbe506d37	-0.20354162
63	0xbe7c1ca2	-0.24620298

dec.lin0.weight_v f4 [64, 4]
0	0x3e4fae08	0.20281231
1	0x3e82dc59	0.25558737
2	0xbec49737	-0.38396618
3	0x3d85997f	0.06523418
4	0xbe924e2d	-0.28575268
5	0xbe0d77e8	-0.13815272
6	0x3ecb4719	0.3970268
7	0x3e0844a7	0.13307439
8	0x3cb24ed1	0.021766098
9	0xbe6927aa	-0.22769037
10	0xbe5d7d0e	-0.21629736
11	0xbd030259	-0.03198466
12	0xbe2315f3	-0.15926342
13	0x3ed76896	0.4207198
14	0x3c5e5d97	0.013572118
15	0x3e3ce8ea	0.18448225
16	0xbc934350	-0.017976433
17	0xbe89c3da	-0.26907235
18	0x3e2da1a4	0.16956192
19	0x3eda93ea	0.42690974
20	0x3e44cbfa	0.19218436
21	0xbdf2077a	-0.11817832
22	0x3e5122e5	0.20423467
23	0xbad8b4f6	-0.0016533423
24	0x3c9b55e4	0.018961854
25	0xbec9d9b8	-0.3942392
26	0x3e16b7a7	0.14718495
27	0x3f070dcc	0.5275543
28	0x3c232d9d	0.0099596055
29	0x3eb7fddf	0.35935876
30	0x3e444e61	0.19170524
31	0xbdb68419	-0.089119144
32	0xbc19cb25	-0.009386812
33	0xbe8920f7	-0.26782963
34	0x3e0be021	0.13659717
35	0x3ee67d5c	0.45017517
36	0x3dee2a7a	0.116291955
37	0xbea5ab11	-0.32357076
38	0x3e655957	0.22397362
39	0xbb53ea11	-0.003233556
40	0x3e9f128e	0.31068844
41	0xbe324180	-0.17407799
42	0x3ee5b897	0.44867393
43	0x3ed66398	0.4187286
44	0xbe0c1080	-0.13678169
45	0x3e8d0829	0.27545288
46	0xbec2cd73	-0.3804737
47	0x3d177232	0.03697414
48	0xbed2db7c	-0.41183078
49	0x3c69aa42	0.014261784
50	0x3ec4bb59	0.38424185
51	0x3e8d95fe	0.27653497
52	0xba92edc4	-0.0011209776
53	0xbeb5e5f0	-0.3552699
54	0xbe0ced09	-0.13762297
55	0xbe1be9a8	-0.15225852
56	0xbe73493c	-0.23758405
57	0xbd226655	-0.039648373
58	0x3f0f889f	0.5606784
59	0x3e92fb57	0.28707382
60	0x3e9147a5	0.28374973
61	0xbdf396bc	-0.11893985
62	0x3e584450	0.21119809
63	0x3e5a1b76	0.21299538
64	0x3b5aa4b8	0.003336234
65	0xbebd5d19	-0.3698509
66	0xbe562994	-0.20914298
67	0x3d519e5c	0.051176414
68	0x3a144fed	0.0005657662
69	0xbe39fed8	-0.18163621
70	0xbead83a5	-0.338895
71	0x3e27ca1b	0.16385691
72	0x3ee0eec1	0.43932155
73	0xbea802ea	-0.32814723
74	0x3e44745d	0.19185014
75	0x3ee1cbf4	0.44100916
76	0x3e7f66bc	0.24941534
77	0xbec7efef	-0.39050242
78	0xbea27536	-0.3173005
79	0xbec5db23	-0.3864375
80	0xbe6eaff1	-0.23309304
81	0x3e7821c9	0.24231638
82	0x3f0e6de1	0.5563641
83	0x3eb59059	0.3546169
84	0x39887951	0.0002603033
85	0x3b54e186	0.0032483055
86	0x3ec31df0	0.38108778
87	0x3e76d5df	0.24105023
88	0xbe7a4e84	-0.24444014
89	0x3b83a83d	0.0040178583
90	0x3f24993e	0.6429633
91	0xbd7ecc31	-0.06220645
92	0x3d1ce80f	0.038307246
93	0x3e475622	0.19466451
94	0x38a40d2c	7.822583e-05
95	0x3eafc2bb	0.34328255
96	0x3c3aa8cf	0.011392786
97	0xbeb2ddcb	-0.3493484
98	0xbeb0a840	-0.34503365
99	0x3eef3855	0.46722665
100	0x3e5144e1	0.20436431
101	0xbeab1c4a	-0.3342002
102	0xbc272800	-0.010202408
103	0xbece8d34	-0.40342104
104	0xbd4385e1	-0.0477351
105	0x3ca47d88	0.02007939
106	0xbd1f72f7	-0.038928
107	0x3e9e8779	0.30962732
108	0xbeb425cd	-0.3518509
109	0x3ec2eb1a	0.38069993
110	0x3eda432d	0.42629376
111	0x3f082c6c	0.5319278
112	0xbe96ed99	-0.29478148
113	0x3e099c5c	0.13438553
114	0x3ea8115c	0.32825744
115	0xbe751f74	-0.2393778
116	0xbe8c3bb0	-0.27389288
117	0x3c8872e4	0.016656347
118	0xbed1d0c1	-0.4097958
119	0xbf1a7f67	-0.6035065
120	0x3c6b4d8f	0.014361753
121	0x3e9a214a	0.30103523
122	0xbecf4934	-0.40485537
123	0xbec48a38	-0.38386703
124	0xbd9cd091	-0.076569684
125	0x3eeacf6d	0.45861378
126	0xbda51692	-0.080609456
127	0xbed3b546	-0.41349238
128	0x3e4c9f7d	0.19982715
129	0xbec7bf85	-0.39013305
130	0x3dd02732	0.10163726
131	0xbe8b01b9	-0.27149752
132	0x3e213d16	0.15745959
133	0x3d04c526	0.032414578
134	0x3eacc3a9	0.33743027
135	0xbe60ef2d	-0.21966238
136	0x3e26829a	0.16260758
137	0x3ec4fc58	0.38473773
138	0xbeef9e10	-0.4680028
139	0x3e5979de	0.21237895
140	0xbe83c8c1	-0.257391
141	0xbe6d4eb7	-0.23174559
142	0xbe39bd5c	-0.18138641
143	0x3c917249	0.01775469
144	0xbc5ca8ec	-0.0134680085
145	0x3ec87ef0	0.39159346
146	0xbeae0d95	-0.33994737
147	0x3c1a066a	0.009400943
148	0xbe91da1d	-0.2848672
149	0xbd8b44d6	-0.06800239
150	0x3ed42bbf	0.41439626
151	0x3f0f092c	0.5587337
152	0x3c8cf428	0.017206267
153	0xbde18da7	-0.11013346
154	0xbefe6f99	-0.49694517
155	0xbe491cf1	-0.19639947
156	0xbdd9e9b8	-0.106402814
157	0x3ec4006b	0.3828157
158	0x3ebd5086	0.36975497
159	0xbead7d2d	-0.33884564
160	0xbe91adf6	-0.28453034
161	0x3ef8f218	0.48622203
162	0xbead6fff	-0.3387451
163	0xbd39b4b5	-0.04533835
164	0xbea4c7af	-0.32183596
165	0x3d1b8d2d	0.037976433
166	0xbef3560f	-0.47526595
167	0xbe729c58	-0.23692453
168	0x3de65a69	0.11247713
169	0xbe8c8869	-0.27447823
170	0x3e949b97	0.29024956
171	0x3ebdfe79	0.3710821
172	0x3e160ffd	0.14654537
173	0xbdf302c3	-0.11865761
174	0xbeea5a40	-0.4577198
175	0x3d4f01b7	0.050538745
176	0xbdd85abf	-0.105641834
177	0x3e8f1123	0.27942762
178	0xbe33144f	-0.17488216
179	0xbf044b35	-0.51677257
180	0x3e5d7187	0.21625338
181	0x3ebb249e	0.36551374
182	0xbef0eceb	-0.47055754
183	0xbea91759	-0.33025625
184	0x3e7a7896	0.24460062
185	0xbee1127b	-0.43959412
186	0xbeeedd1b	-0.46653065
187	0x3ef03f98	0.46923518
188	0x3e8dc35d	0.27688113
189	0xbeb6d7b9	-0.35711458
190	0x3e249c07	0.16075145
191	0x3e8870e7	0.26648638
192	0xbe2b7700	-0.16744614
193	0xbea8a6b5	-0.32939687
194	0x3dd9a0b1	0.106263526
195	0x3be5fed5	0.0070189037
196	0xbe0b8824	-0.13626152
197	0xbe95cc7d	-0.29257575
198	0xbe27cb6e	-0.16386196
199	0x3e7759d6	0.24155363
200	0xbea1791e	-0.31537718
201	0xbe8c8eb9	-0.2745264
202	0xbd45edba	-0.048322417
203	0x3ea3d59d	0.31998911
204	0xbe057c93	-0.13035803
205	0xbd7644d1	-0.060124222
206	0x3e2e736c	0.17036217
207	0xbf0d1c35	-0.55121166
208	0x3e0ab0c1	0.13543989
209	0xbec543d0	-0.385283
210	0x3e3cbaa2	0.1843057
211	0xbef0b17c	-0.4701041
212	0xbe8508d2	-0.25983292
213	0xbef6718e	-0.4813351
214	0x3e232c2c	0.15934819
215	0x3bf09f80	0.0073432326
216	0x3eb511d2	0.35365158
217	0xbe871511	-0.2638326
218	0x3e760c5a	0.24028149
219	0xbe90651f	-0.2820215
220	0xbe222ae8	-0.1583668
221	0x3ea3c464	0.31985772
222	0xbd359e7a	-0.04434059
223	0x3ea81478	0.32828116
224	0x3dbdab53	0.09261193
225	0x3ea9d221	0.33168128
226	0xbe8c5df6	-0.27415437
227	0xbaa2dae2	-0.0012424851
228	0xbe51a53f	-0.20473193
229	0x3e4a067d	0.19729038
230	0x3e9c957e	0.30582803
231	0x3eb2cca0	0.3492174
232	0xbee55525	-0.44791523
233	0xbe9fede3	-0.3123618
234	0xbdb3cc70	-0.08779228
235	0x3c4767b3	0.01217072
236	0xbec9300f	-0.39294478
237	0x3ece88c7	0.40338728
238	0x3e2e5b6b	0.1702706
239	0x3e8f0ef6	0.27941102
240	0xbd0e686e	-0.03476756
241	0x3e2501b7	0.16113935
242	0x3e5fe291	0.21863772
243	0xbe37dd89	-0.17955603
244	0x3d97d15c	0.07412979
245	0xbe9e0e2e	-0.30870193
246	0xbe7cf19d	-0.24701543
247	0xbee6ccf0	-0.4507823
248	0xbe888373	-0.26662788
249	0xbd3c36c3	-0.045950662
250	0xbea9c017	-0.33154365
251	0x3e70074e	0.23440287
252	0x3d5968db	0.053078514
253	0xbe7e75f5	-0.24849685
254	0x3e1c6a67	0.15274964
255	0xbf062bf3	-0.5241081

dec.lin1.bias f4 [64]
0	0x3d822252	0.06354202
1	0x3d2827bc	0.04105352
2	0x3d47c731	0.048773948
3	0x3d1bd627	0.03804603
4	0x3d89bf79	0.06725974
5	0xbb6bef45	-0.003600077
6	0xbdd50c60	-0.10402751
7	0xbdfaa284	-0.12238029
8	0x3d32abfc	0.04362105
9	0xbdcecd22	-0.1009772
10	0x3a3e84db	0.0007267722
11	0x3d993f2e	0.07482754
12	0xbc8f08a2	-0.017460171
13	0x3d7ea281	0.062166695
14	0xbd3b05ec	-0.045659944
15	0x3e16e690	0.1473639
16	0xbdad037b	-0.084479295
17	0x3dbc82db	0.09204646
18	0x3d5791ac	0.052629158
19	0xbbc14e80	-0.0058992505
20	0xbe026d7d	-0.12737079
21	0x3d5603fb	0.05224989
22	0xbda4333c	-0.08017585
23	0x3df6c011	0.120483525
24	0x3db96166	0.090517804
25	0xbdcc86a7	-0.099866204
26	0xbd9ce28e	-0.076603994
27	0x3da3c841	0.0799718
28	0xbd9872b6	-0.074437544
29	0xbd3266cf	-0.043555077
30	0x3e09bb22	0.13450292
31	0xbbee19e5	-0.0072662705
32	0x3df0ddb8	0.117610395
33	0x3d9e43e5	0.077277936
34	0xbca806b6	-0.020511013
35	0x3e0c5732	0.13705137
36	0xbe282788	-0.1642133
37	0x3db74937	0.089495115
38	0x3d8d5cf5	0.06902496
39	0xbe0d9e29	-0.13829865
40	0xbe598ed7	-0.21245895
41	0xbea5b887	-0.32367346
42	0xbdfb3064	-0.12265089
43	0xbd9d77fa	-0.07688899
44	0xbc3799f9	-0.011206144
45	0xbe0a250a	-0.13490692
46	0xbd958c76	-0.073021814
47	0x3dabc29d	0.08386729
48	0x3cd3fe88	0.025878206
49	0xbe471318	-0.19440877
50	0x3c37c35d	0.011216012
51	0x3c077f6b	0.008270125
52	0x3dab8ce2	0.08376481
53	0x3d6e776b	0.058219355
54	0xbde90af2	-0.11379041
55	0xbd16fb22	-0.036860593
56	0xbd22fd04	-0.039792076
57	0xbdcbc94e	-0.09950505
58	0x3dd0b78e	0.1019126
59	0xbdd66b61	-0.104697
60	0xbdc0480b	-0.09388741
61	0x3dba8440	0.09107256
62	0xbd82b028	-0.063812554
63	0xbb8f6605	-0.0043761753

dec.lin1.weight_v f4 [64, 64]
0	0x3df15f3f	0.11785745
1	0x3e0f558a	0.13997474
2	0x3dbaea6c	0.09126744
3	0xbc2a157e	-0.010381101
4	0x3d1b4a2a	0.037912525
5	0xbd898273	-0.06714334
6	0x3cc2c1e3	0.023774093
7	0xbdfe791e	-0.12425445
8	0xbdc7542d	-0.09732852
9	0xbdc8c7e1	-0.09803749
10	0xbd879041	-0.06619311
11	0x3da79082	0.081818596
12	0x3dc56ef7	0.096403055
13	0xbd5bc4c3	-0.053654443
14	0xbd46bfda	-0.048522808
15	0xbd4ed744	-0.050498262
16	0xbcdf5420	-0.027261794
17	0x3e1ccc31	0.15312268
18	0x3dc3bc4d	0.095574
19	0x3d54c82d	0.051948715
20	0xbdbe5db0	-0.09295213
21	0x3db85415	0.090004124
22	0x3d856cdd	0.06514905
23	0xbdfe073c	-0.124037236
24	0x3ca461d4	0.02006618
25	0x3e3033ed	0.17207308
26	0xbd829605	-0.0637627
27	0xbe0befb0	-0.13665652
28	0x3ddebd86	0.108759925
29	0x3dc8f9bb	0.09813257
30	0xbb61ae9f	-0.0034436358
31	0xbdbdbee3	-0.092649244
32	0x3d3db7ff	0.04631805
33	0x3d0220d7	0.0317696
34	0x3dfe97c5	0.124312915
35	0x3de98bde	0.11403631
36	0x3dd8ee60	0.105923414
37	0xbbf16872	-0.007367187
38	0x3e291a2a	0.16513887
39	0x3dc86f8a	0.097868994
40	0x3d0bc173	0.034120034
41	0x3dc0fd60	0.094233274
42	0xbd63fb6e	-0.055659704
43	0xbdc3e411	-0.095649846
44	0xbda37b0a	-0.07982452
45	0x3dbba977	0.09163182
46	0xbda7da32	-0.08195914
47	0xbdda1f1b	-0.10650464
48	0xbd880757	-0.06642025
49	0xbc04155a	-0.008061731
50	0xbd25d807	-0.040489223
51	0x3d17dbff	0.03707504
52	0xbdf0498e	-0.117327794
53	0xb690ce20	-4.3155305e-06
54	0xbd079b8f	-0.033107337
55	0xbc6349bb	-0.013872559
56	0x3ce20977	0.027592404
57	0x3c631e3f	0.013862192
58	0xbdbb216d	-0.09137235
59	0xba3e030b	-0.0007248378
60	0xbdb7b648	-0.08970314
61	0x3b254d9d	0.0025223263
62	0xbd90b260	-0.07065272
63	0x3d460f05	0.048354167
64	0x3dc54a75	0.09633342
65	0xbd739380	-0.05946684
66	0xbae5f1aa	-0.0017543335
67	0xbd6fb969	-0.05852643
68	0xbd790bbc	-0.060802206
69	0x3e0aa8d4	0.13540965
70	0xbb896c89	-0.0041938466
71	0x3da3a644	0.07990697
72	0x3cf26c3a	0.029592622
73	0x3d3f8802	0.046760567
74	0x3dad721d	0.08469031
75	0x3dd1f565	0.102518834
76	0x3d3315a3	0.043721806
77	0xbcbb6592	-0.022875581
78	0xbdda5c15	-0.106620945
79	0xbd3c4d07	-0.045971896
80	0x3cc93460	0.024561107
81	0x3c6c5581	0.014424683
82	0xbd53a9ec	-0.051675722
83	0x3c9410e8	0.018074468
84	0x3d36a609	0.044591937
85	0x3dc8816c	0.0979031
86	0x3db858e1	0.09001327
87	0x3e00a117	0.12561451
88	0x3e0297cc	0.12753218
89	0xbd34e8a8	-0.04416719
90	0xba573ae7	-0.0008210376
91	0xbde70702	-0.112806335
92	0x3d841516	0.06449334
93	0xbdd278fb	-0.102769814
94	0xbe001f37	-0.12511908
95	0xbdf13e96	-0.117795154
96	0x3df3289a	0.118729785
97	0x3dce3503	0.10068705
98	0xbdddd3e6	-0.10831432
99	0x3d47864a	0.048712052
100	0xbd8061c9	-0.06268651
101	0x3dfdaf73	0.1238698
102	0xbdaf5af5	-0.085622706
103	0xbd96ad8c	-0.0735732
104	0xbd634bd7	-0.05549225
105	0x3db32f0c	0.08749208
106	0x3db12bf3	0.08650961
107	0x3d84bd59	0.06481428
108	0xbdd813a8	-0.10550624
109	0x3b7e62b7	0.0038816163
110	0xbdb2c84d	-0.087296106
111	0x3dd9e2ad	0.10638938
112	0x3d79afb2	0.06095857
113	0x3d30a889	0.043129478
114	0x3d91a083	0.07110693
115	0xbd932ec9	-0.07186658
116	0x3a0413d2	0.0005038354
117	0xbd9fbc4d	-0.077995874
118	0x3d044702	0.03229428
119	0x3baebef2	0.005332821
120	0xbe2b0b82	-0.16703609
121	0x3c755930	0.014974877
122	0x3d80b186	0.0628386
123	0x3d89bcb8	0.06725448
124	0xbc8befab	-0.017082056
125	0x3ad7f3bc	0.0016475837
126	0x3dcd5a90	0.10027039
127	0x3bf45fed	0.0074577243
128	0x3d1ab324	0.037768498
129	0x3c24b0d8	0.010051928
130	0xbde17f84	-0.1101065
131	0x3d703c26	0.058651112
132	0xbe399842	-0.18124488
133	0x3cc294f0	0.02375266
134	0xbe2ae9ed	-0.16690798
135	0xbde86563	-0.11347463
136	0x3dfb6cea	0.12276633
137	0xbe1ac9fd	-0.15116115
138	0xbddcfac3	-0.107900165
139	0xbd5bfaec	-0.053706095
140	0x3d118afb	0.035532933
141	0xbdad3905	-0.08458141
142	0xbd521dbd	-0.051297892
143	0xbdba993e	-0.0911126
144	0x3d9ec876	0.07753079
145	0x3d37b534	0.044850543
146	0xbdce4c87	-0.1007319
147	0x3d80832f	0.06275021
148	0xbd09673a	-0.03354571
149	0xbd4b663f	-0.049658056
150	0x80005968	-3.2073e-41
151	0xbcc80d7b	-0.02442049
152	0x3e13ddb4	0.14440042
153	0x3baa147e	0.005190431
154	0xbd9422b3	-0.07233181
155	0xbdb710c5	-0.089387454
156	0x00009dbf	5.6589e-41
157	0xbe0548e5	-0.13016088
158	0x3c322783	0.010873678
159	0x3cd206d3	0.02563802
160	0xbdd63a07	-0.104602866
161	0xbc2b9a85	-0.010473852
162	0x3d50794d	0.05089693
163	0x3cddd0a5	0.027077029
164	0xbc321a99	-0.010870599
165	0x3a005784	0.00048958533
166	0x3d2c227a	0.042025067
167	0xb86e6d49	-5.68454e-05
168	0xbc039d2c	-0.008033078
169	0x3e2c2f94	0.16815025
170	0x3d44c268	0.048036963
171	0x3d3df9bc	0.046380743
172	0xbd5f5868	-0.05452767
173	0xbdef38d2	-0.116807595
174	0xbd2a0fb2	-0.041518874
175	0xbc099ce0	-0.008399218
176	0xbba430e3	-0.0050107106
177	0x3df3be7f	0.119015686
178	0xbc749365	-0.01492772
179	0xbd768615	-0.060186464
180	0x3b1efc15	0.002425914
181	0xbb772df9	-0.003771661
182	0x3c8a3854	0.016872562
183	0x3d744497	0.059635725
184	0xbe132345	-0.14368923
185	0xbcbb4cc9	-0.022863762
186	0x3d27384b	0.04082517
187	0xbc57ce09	-0.013171681
188	0xbe20ba0a	-0.15695968
189	0x3d2b2ed8	0.04179272
190	0x3cad8377	0.021180851
191	0xbd4e4cfe	-0.050366394
192	0xbb8b3322	-0.004248039
193	0xbde3f360	-0.111304045
194	0x3dc76856	0.097366974
195	0x3d97df0d	0.074155904
196	0x3ddd0e9b	0.107938014
197	0x3dbd2a82	0.09236623
198	0x3d8ee503	0.06977274
199	0xbd6cbce5	-0.05779733
200	0xbdb79a4e	-0.08964978
201	0x3ba9e10b	0.005184298
202	0xbe0cb83f	-0.1374216
203	0xbbd46e1a	-0.0064828517
204	0xbd17afb9	-0.037032817
205	0x3daba770	0.083815455
206	0xbd6e3fc1	-0.05816627
207	0xbdc63113	-0.09677329
208	0x3de4fd8f	0.11181175
209	0xbdc5806a	-0.09643634
210	0xbdfecff2	-0.12442006
211	0x3dbd00bf	0.09228658
212	0x3d77ec15	0.06052788
213	0xbd93350f	-0.071878545
214	0xbe9272af	-0.28603122
215	0xbdab7e3b	-0.08373686
216	0x3dc1f7db	0.09471103
217	0x3cd7f194	0.02636031
218	0x3df56237	0.119816236
219	0xbd857a4b	-0.06517466
220	0xbd980675	-0.074231066
221	0xbbff7586	-0.0077959923
222	0xbdaa7311	-0.083227284
223	0xbcd902f7	-0.026490672
224	0x3de9f9d4	0.11424604
225	0x3d0d7563	0.034535777
226	0x3dc4949e	0.09598659
227	0x3d4f5e44	0.050627008
228	0xbdf6b72b	-0.12046655
229	0x3dca3e4e	0.09875165
230	0x3db1aa42	0.08675052
231	0x3d75c2b2	0.06000013
232	0x3c281b4f	0.010260417
233	0x3d96e0ee	0.07367121
234	0xbda29e29	-0.07940323
235	0x3d10f63f	0.03539109
236	0x3ddc2b09	0.10750396
237	0x3e04bd69	0.12962879
238	0x3e0234e9	0.12715496
239	0xbc95e58b	-0.018297931
240	0xbe0e1382	-0.13874629
241	0x3ce013c7	0.02735318
242	0x3d6ed37b	0.058307152
243	0xbd85301b	-0.06503316
244	0x3d54e737	0.051978316
245	0xba166151	-0.0005736547
246	0x3d91ca96	0.07118718
247	0x3a853db7	0.0010165487
248	0xbd1868f0	-0.03720945
249	0x3d119d53	0.035550427
250	0x3d4730c9	0.04863051
251	0xba97d4a2	-0.0011583755
252	0xbd89e8d7	-0.06733864
253	0xbd5a3680	-0.05327463
254	0x3e1f1f25	0.15539224
255	0xbda451d3	-0.08023419

dec.lin2.bias f4 [64]
0	0xbdde76e1	-0.10862518
1	0xbcadb075	-0.021202305
2	0x3dd9b90b	0.10630997
3	0xbac1ec0d	-0.001479508
4	0x3c8d7d21	0.01727158
5	0x3e0448ed	0.12918444
6	0xbd8d8ad0	-0.06911242
7	0x3dbb21bf	0.09137296
8	0x3d64c37a	0.055850483
9	0x3c761b3a	0.01502114
10	0xbd7d4cfa	-0.06184099
11	0x3dd23ced	0.10265527
12	0xbd09d04c	-0.033645913
13	0xbd43be82	-0.047789104
14	0x3cf64b4e	0.030065205
15	0xbd8425bc	-0.0645251
16	0xbd959fc5	-0.07305864
17	0x3c867844	0.016414769
18	0x3cbf3a69	0.023343282
19	0x3dd7dc74	0.10540095
20	0x3c27345e	0.010205356
21	0x3df28119	0.1184103
22	0xbde2e73e	-0.11079262
23	0x3bc34902	0.005959631
24	0x3d69ab36	0.057048045
25	0x3d4f9dac	0.050687477
26	0x3cd2ae60	0.025717914
27	0x3d9675d4	0.07346693
28	0x3d199d56	0.037503563
29	0xbd95caa0	-0.07314038
30	0x3ddbdd72	0.10735597
31	0x3daec7b3	0.08534183
32	0x3ca135a2	0.019678894
33	0xbd0fb599	-0.035085294
34	0xbeaa76f3	-0.33293876
35	0x3ded083f	0.115738384
36	0x3d76c481	0.060245994
37	0xbd2c39f7	-0.042047467
38	0xbd746931	-0.05967063
39	0x3de34f48	0.11099106
40	0xbcd10a74	-0.02551768
41	0xbd075dc1	-0.033048395
42	0x3d981642	0.0742612
43	0xbc7a1771	-0.015264378
44	0xbdabb8d6	-0.08384864
45	0x3d9c5cef	0.07634913
46	0xbdc0286d	-0.093827106
47	0xbc8379d8	-0.01604931
48	0x3dde5067	0.10855179
49	0xbca70f9e	-0.020393189
50	0xbe0a1099	-0.13482894
51	0xbd42bca7	-0.047543194
52	0x3d948e43	0.07253697
53	0x3dd775f5	0.105205454
54	0xbdeb3131	-0.11483992
55	0xbd6eeaac	-0.05832927
56	0x3e02997e	0.12753865
57	0xbcc2bf22	-0.02377278
58	0x3d92a040	0.071594715
59	0x3d49f7c6	0.04930856
60	0x3d97e598	0.074168384
61	0x3d5dd504	0.054158226
62	0x3e1465ea	0.14492002
63	0xbd3917b8	-0.045188636

dec.lin2.weight_v f4 [64, 64]
0	0xbd9e4c6d	-0.07729421
1	0x3d439d14	0.047757223
2	0xbdadac88	-0.08480173
3	0x3d4534e9	0.048146162
4	0x3e09ba28	0.13449919
5	0x3de3feb9	0.11132569
6	0xbc0363d5	-0.008019407
7	0x3e2ac5fd	0.16677089
8	0x96829446	-2.1096206e-25
9	0x3d54979b	0.051902395
10	0xbd6e5ffa	-0.058197
11	0xbcadce46	-0.021216523
12	0xbdeb690a	-0.11494644
13	0xbc065b58	-0.008200489
14	0x3c0dd946	0.008657759
15	0x3e62b9af	0.22141145
16	0x3d76eb53	0.060283016
17	0x3da7c73c	0.08192298
18	0xbdb6e5d4	-0.08930555
19	0x34e7df47	4.318956e-07
20	0xbd480eb9	-0.048842166
21	0xbdcd2c66	-0.10018234
22	0x3d95e6b0	0.07319391
23	0x3e0cb9d3	0.13742761
24	0x000019d3	9.264e-42
25	0x3d8dd529	0.06925423
26	0xbcd5c7fb	-0.026096335
27	0xbd305d93	-0.04305799
28	0x3c6fef48	0.014644451
29	0xbb9270ca	-0.004469012
30	0xbd273b41	-0.040827993
31	0xbda6ac8f	-0.08138382
32	0x3dfec79b	0.124404155
33	0xbce40993	-0.027836597
34	0x1ff01a20	1.01687174e-19
35	0x3cb4528c	0.022012018
36	0xbdd42ea5	-0.10360459
37	0x3dbb7f35	0.09155122
38	0xbca5696a	-0.020191867
39	0x3d89801c	0.06713888
40	0x3e2656d2	0.16244057
41	0x3df867cc	0.12129173
42	0xa6a392a6	-1.1350146e-15
43	0xbda48ce9	-0.08034689
44	0xbd436c3a	-0.047710635
45	0x3db9cd78	0.09072393
46	0xbb87a99d	-0.0041400925
47	0x3dbbbb3d	0.09166572
48	0x3b712c4d	0.0036800087
49	0x3dd1182b	0.10209688
50	0x3e18d4b4	0.1492489
51	0x3dad3710	0.08457768
52	0xbd01b74f	-0.031668957
53	0xbd9de2c1	-0.077092655
54	0x3d8216e3	0.063520215
55	0xbdc5ef2a	-0.096647575
56	0x3a8b6d9f	0.0010637528
57	0x3d26100f	0.04054266
58	0x3d9d6c6a	0.07686694
59	0x3e0a1021	0.13482715
60	0xbbe2e12a	-0.0069238143
61	0x3d483c2f	0.04888552
62	0x3d86f53f	0.06589746
63	0xbdad50b0	-0.084626555
64	0xbddd5728	-0.10807639
65	0x3d5f2ad5	0.054484207
66	0xbdfd538d	-0.12369452
67	0x39d1632f	0.00039937484
68	0xbdb65812	-0.08903517
69	0xbd661578	-0.056172818
70	0x3a788e47	0.000948165
71	0xbd2aa953	-0.041665386
72	0xbda5f313	-0.08103003
73	0xbdca8a9a	-0.098897174
74	0xbdf1fdf4	-0.11816016
75	0xbcf76527	-0.0301996
76	0x3d236622	0.039892323
77	0xbdee03dd	-0.116218306
78	0x3dd8601f	0.10565209
79	0x3dd63d75	0.10460941
80	0xbd1fb5fd	-0.038991917
81	0x3da0712f	0.07834088
82	0x3d80be8c	0.06286344
83	0x3dddd663	0.10831907
84	0xbd960c13	-0.07326522
85	0xbdf220f9	-0.11822695
86	0x3d06746b	0.03282587
87	0xbcb90322	-0.022584502
88	0x3d9ace49	0.07558877
89	0xbc6993a9	-0.014256396
90	0x3d2ad778	0.041709393
91	0xbd95337c	-0.072852105
92	0xbdc6f25e	-0.097141966
93	0xbd638630	-0.055547893
94	0x398b8172	0.0002660859
95	0xbdcf3f3b	-0.10119482
96	0x3d00919f	0.031388875
97	0x3ddd61c5	0.10809664
98	0xbd1d0990	-0.038339198
99	0x3d9487d8	0.07252473
100	0xbd075510	-0.033040106
101	0x3d41297f	0.047158714
102	0x3a2a5836	0.000649813
103	0xbdee2c7e	-0.1162958
104	0xbde53a2a	-0.111927345
105	0x3dab9e93	0.08379855
106	0x3dd44a48	0.103657305
107	0xbb0c0bba	-0.0021369294
108	0x3db7a45e	0.089668974
109	0x3d579b20	0.052638173
110	0xbd40744b	-0.046985906
111	0xbd847eca	-0.064694956
112	0x3da9505e	0.08267282
113	0x3d41e781	0.04733992
114	0xbd28ba00	-0.04119301
115	0xbdc0a4e3	-0.0940645
116	0x3d861b07	0.06548124
117	0x3cb90f69	0.022590356
118	0xbc050cca	-0.008120725
119	0x3d8ed3a7	0.06973963
120	0x3dc2b0bd	0.095063664
121	0x3d918ccc	0.07106933
122	0x3c9db041	0.019249083
123	0xbdf4f710	-0.11961186
124	0xbdf78c7f	-0.120873444
125	0xbde0f42d	-0.10984073
126	0xbd36feb7	-0.04467651
127	0xbdd0066f	-0.10157477
128	0xbc926a2d	-0.017872894
129	0x3dae9aa9	0.08525593
130	0x3e32bb12	0.17454174
131	0xbd75b805	-0.059989948
132	0xbdd41f90	-0.103575826
133	0xbe14b696	-0.14522776
134	0x3df07240	0.117405415
135	0xbe8001d5	-0.25001398
136	0x8001d24e	-1.67279e-40
137	0xbd34e667	-0.04416504
138	0xbde1aa2b	-0.11018785
139	0x3d1d2126	0.03836169
140	0xbd3eaf01	-0.046553615
141	0x3e00283a	0.12515345
142	0x36c02bce	5.7271454e-06
143	0xbd5f7ef9	-0.05456445
144	0xbcf16d7d	-0.029471153
145	0x3d78a7f2	0.06070704
146	0x3e0a6ceb	0.13518111
147	0x3c87fb3a	0.016599286
148	0x1dcefadf	5.478714e-21
149	0x3dab257a	0.083567575
150	0x80005298	-2.9629e-41
151	0xbe05eb3d	-0.13078018
152	0xbb10ba9b	-0.0022083882
153	0x3dc9abce	0.09847222
154	0x3bd6a942	0.006550939
155	0x3daf79fe	0.0856819
156	0x3d92cc81	0.07167912
157	0x3da3e3ec	0.08002457
158	0x3e0abc87	0.1354848
159	0x3d404c49	0.04694775
160	0x3d107b2a	0.03527371
161	0x800093c1	-5.3004e-41
162	0xbb80b7d1	-0.0039281626
163	0x3ceab531	0.028650852
164	0xbcdab7ae	-0.026698913
165	0x3d572d6f	0.052533563
166	0xbccad5c8	-0.024760142
167	0x9f642213	-4.8309064e-20
168	0xbe16833d	-0.14698501
169	0xbda5646e	-0.08075796
170	0x800059c7	-3.2206e-41
171	0xbd65783d	-0.05602287
172	0x3d141cd3	0.0361603
173	0xbdfe720e	-0.12424098
174	0x3cbb6d2d	0.022879208
175	0x3d4311e9	0.047624502
176	0x00014564	1.16728e-40
177	0xbc8db99e	-0.017300423
178	0xbde8530b	-0.11343964
179	0x3cdb01f6	0.026734333
180	0x3db8e652	0.09028305
181	0xbd7b04ac	-0.061283752
182	0x84c8b1bd	-4.7183e-36
183	0x3d7772d0	0.060412228
184	0xb98f7313	-0.00027360822
185	0x3bf95f3b	0.0076102293
186	0xbcfb9e5a	-0.030715156
187	0xbc7cadfb	-0.01542234
188	0xbd76e873	-0.060280275
189	0xbc12dbed	-0.008963567
190	0x0000f5e8	8.8215e-41
191	0xbd4af381	-0.04954863
192	0x3dce0850	0.10060179
193	0x3e064600	0.1311264
194	0x3d5733f3	0.052539777
195	0x3da7624c	0.081730455
196	0x3d9f940b	0.07791909
197	0x3d62c7eb	0.055366438
198	0x3e0df98a	0.13864723
199	0xbe411a0c	-0.18857592
200	0x3d3e1ce1	0.04641426
201	0x3bc1f09c	0.0059185755
202	0x3dc6227b	0.096745454
203	0x3d9a76a2	0.07542159
204	0x3d553d9c	0.05206071
205	0x3dccb928	0.09996253
206	0xbd89e30b	-0.06732758
207	0xbe05f533	-0.13081817
208	0xbde0ad9f	-0.109706156
209	0xbe00e3eb	-0.12586944
210	0x3dfcf72d	0.123518325
211	0x3d525683	0.051352035
212	0xa36229d0	-1.2260339e-17
213	0x3e13e0dc	0.14441246
214	0xbcddf221	-0.027092995
215	0x3d9145fc	0.070934266
216	0x3ce91cce	0.028456118
217	0xbd4223df	-0.04739749
218	0x3c861f73	0.016372418
219	0xbd29db34	-0.041468814
220	0x3d7dc2fe	0.061953537
221	0xbdc62735	-0.09675447
222	0x3cad9eb7	0.021193845
223	0x3e29f9a6	0.1659914
224	0x3c849bbe	0.016187545
225	0x3ccfbf8c	0.025359891
226	0x3d97d794	0.07414165
227	0xbca4f3a1	-0.020135703
228	0xbb27d7c5	-0.0025610786
229	0x3dad6801	0.08467103
230	0xbdca9ce4	-0.09893206
231	0xbcc838e8	-0.024441198
232	0xbe071c36	-0.13194355
233	0xbe02ce9a	-0.12774125
234	0x3d8efbac	0.06981596
235	0x3d27c36c	0.040957853
236	0xbcaab50b	-0.020838281
237	0xbd3a6a0a	-0.045511283
238	0x3db002e0	0.08594298
239	0x3d502c77	0.050823655
240	0x3a5cc3cb	0.00084215094
241	0xbc97d058	-0.018531963
242	0xbdea0f4a	-0.114286974
243	0x3d8c3b30	0.068472266
244	0xbdccf911	-0.10008443
245	0xbdaddfa7	-0.08489924
246	0xbc76f4d2	-0.015073018
247	0x3ceb19b7	0.028698785
248	0x3d9ab3e8	0.07553846
249	0x3cc705cb	0.024294754
250	0xbbb2f2e4	-0.0054610837
251	0xbd5e17d1	-0.05422193
252	0xbc9ab8ab	-0.018886885
253	0x3ca5d08f	0.02024105
254	0x38c25dfe	9.268148e-05
255	0xbcec21dc	-0.02882474

dec.lin3.weight_v f4 [1, 64]
0	0xbd9fb597	-0.077983074
1	0x321f621f	9.277328e-09
2	0x3d95554a	0.07291658
3	0x3db74edb	0.08950587
4	0xbd7d8f94	-0.061904505
5	0xbd8a4216	-0.06750886
6	0x3d53d48c	0.051716372
7	0x3d7f0cd8	0.062268108
8	0xbd577f7c	-0.052611813
9	0x3e0ba433	0.13636856
10	0x3daeddeb	0.08538421
11	0x3d3a1557	0.045430508
12	0xbdd25c14	-0.10271469
13	0xbdafa8b4	-0.085770994
14	0x3dcf6ecd	0.101285554
15	0xbe16815b	-0.14697783
16	0xbdbd0b41	-0.09230662
17	0x3c4e76f5	0.012601604
18	0xbd271869	-0.040794764
19	0x3da3efa5	0.08004693
20	0xbda3d2a3	-0.0799916
21	0x3d68abb5	0.056804378
22	0x30a900f6	1.2296641e-09
23	0xbb04e401	-0.0020277502
24	0xbd2f0050	-0.042724907
25	0xa8c801c7	-2.2205231e-14
26	0x3cd7cbab	0.026342234
27	0x3c6812b4	0.014164615
28	0x3cd216c7	0.025645627
29	0xbe2272fa	-0.15864173
30	0xbdc9ba96	-0.098500416
31	0x3d83f4eb	0.06443199
32	0xbd6ac75e	-0.057319038
33	0x3d9ebf42	0.07751323
34	0xbe6214c7	-0.22078238
35	0xbd4572f4	-0.04820533
36	0xbd7da83f	-0.06192803
37	0x3a73efa7	0.00093054253
38	0x3d8caf94	0.06869426
39	0xbcf6e67b	-0.030139199
40	0xbaa78615	-0.0012781048
41	0x3dd3c7fd	0.10340879
42	0x3db2f72b	0.0873855
43	0xbe068779	-0.13137616
44	0xbd888d16	-0.06667535
45	0x3ddff8ba	0.10936113
46	0xbe24a0eb	-0.1607701
47	0xbdabd48e	-0.08390151
48	0xbd503ba1	-0.050838117
49	0x3d69545b	0.056965213
50	0x3d81439d	0.06311724
51	0x3b146814	0.0022645043
52	0xbd3eda88	-0.046595126
53	0xbda12813	-0.07868972
54	0xbe2f3ebb	-0.17113774
55	0x3da053e6	0.07828502
56	0x3db02978	0.086016595
57	0xbd70be91	-0.05877549
58	0x3cb36fd5	0.021903912
59	0x3db64eb7	0.089017324
60	0x3dddc3ce	0.108283624
61	0x3d86d9f7	0.06584542
62	0x3dc53192	0.096285954
63	0x38eff40a	0.00011441864

exp_avg f4 [64]
0	0xb719bb68	-9.163145e-06
1	0x38b5619c	8.648934e-05
2	0x3648248c	2.9823595e-06
3	0xb9d920c9	-0.00041413892
4	0x38cb6304	9.6982374e-05
5	0xb941e161	-0.00018489874
6	0x38047cbb	3.1587417e-05
7	0x386d0b0c	5.651549e-05
8	0xb8160e10	-3.5775884e-05
9	0xb92ca7bd	-0.00016465686
10	0x385001e5	4.959283e-05
11	0xb90ef4bb	-0.00013633344
12	0x373381bf	1.069944e-05
13	0x3797b6d7	1.8085744e-05
14	0x396355ad	0.00021680324
15	0x387bb72d	6.001366e-05
16	0x37309036	1.0523994e-05
17	0x38bebd28	9.095139e-05
18	0x387b5396	5.992091e-05
19	0x38b8bf08	8.809386e-05
20	0x39b48cc9	0.00034437169
21	0x394a9599	0.0001931995
22	0x399ae054	0.00029540306
23	0xb8c0f857	-9.20153e-05
24	0x3850fb44	4.9825074e-05
25	0x38de085b	0.00010587341
26	0xb88a09f4	-6.582207e-05
27	0xb8ba87d7	-8.894473e-05
28	0x39440637	0.00018694332
29	0x398c0bb7	0.0002671161
30	0xb7c43b70	-2.3392698e-05
31	0xb866d4c2	-5.503442e-05
32	0xb934eb40	-0.00017253775
33	0x3921d3a7	0.00015433003
34	0xb9586de9	-0.0002064031
35	0x37f0eafd	2.8719654e-05
36	0xb85992d9	-5.1873594e-05
37	0x38909941	6.895001e-05
38	0x38d60949	0.00010206045
39	0x394af627	0.0001935592
40	0x376d8cc2	1.41590735e-05
41	0x3891b38a	6.9475806e-05
42	0x38481335	4.7701604e-05
43	0xb8ecf532	-0.00011299028
44	0x39084c09	0.00012998296
45	0xb84b6180	-4.8489776e-05
46	0xb882c1d5	-6.234987e-05
47	0xb90a883b	-0.00013211455
48	0x38536bbc	5.0406656e-05
49	0xb8e9b899	-0.0001114469
50	0xb6163e5d	-2.2388042e-06
51	0x3919d559	0.00014670695
52	0x39625c4f	0.00021587427
53	0x00000000	0.0
54	0x38e2ff3f	0.00010824063
55	0x386705a4	5.5079945e-05
56	0xb92dbbcc	-0.00016568525
57	0x382b07a7	4.0776704e-05
58	0xb789203f	-1.6346688e-05
59	0xb7e28887	-2.7004875e-05
60	0x379b3d25	1.8505913e-05
61	0xb91741fe	-0.00014425066
62	0xb8213247	-3.8432216e-05
63	0x393c2810	0.00017944002

exp_avg_sq f4 [64]
0	0x34fa6022	4.6636075e-07
1	0x33a75e73	7.793724e-08
2	0x35017580	4.822723e-07
3	0x36254fd7	2.463339e-06
4	0x350a7633	5.158101e-07
5	0x35f4eda7	1.8248583e-06
6	0x348470f2	2.4669095e-07
7	0x34dc3e25	4.102341e-07
8	0x32d7eb0c	2.5136181e-08
9	0x34eaa6fb	4.370739e-07
10	0x35041258	4.9200526e-07
11	0x35d24965	1.566758e-06
12	0x34b46822	3.360338e-07
13	0x34771f02	2.3014948e-07
14	0x346ce8d2	2.2063912e-07
15	0x345be16a	2.047797e-07
16	0x34268938	1.5509875e-07
17	0x35bdce4e	1.414164e-06
18	0x349ed439	2.9584206e-07
19	0x34d20881	3.9121736e-07
20	0x354dd331	7.6675775e-07
21	0x34874ef3	2.5203153e-07
22	0x348dc8e9	2.6409478e-07
23	0x353f98a2	7.1375155e-07
24	0x35273d41	6.2301484e-07
25	0x3591816c	1.0841009e-06
26	0x3422db9d	1.516732e-07
27	0x362b3b95	2.5515667e-06
28	0x34f579d2	4.5723442e-07
29	0x35139345	5.497607e-07
30	0x3506d3ac	5.0226913e-07
31	0x3579f570	9.3116887e-07
32	0x35a777c7	1.2477329e-06
33	0x35137cdc	5.494346e-07
34	0x3514f0ac	5.548452e-07
35	0x3408a343	1.2725381e-07
36	0x35035842	4.8929735e-07
37	0x352afa1e	6.3693903e-07
38	0x35b9562d	1.3808655e-06
39	0x33e437dc	1.0627238e-07
40	0x354a0297	7.525463e-07
41	0x35045614	4.929909e-07
42	0x34605e75	2.0895989e-07
43	0x34ef0d2f	4.452681e-07
44	0x35f298fc	1.8074929e-06
45	0x344906ac	1.8722011e-07
46	0x3491e376	2.7173854e-07
47	0x35f4b056	1.8230737e-06
48	0x33ae8771	8.127143e-08
49	0x347ccfa2	2.3544865e-07
50	0x338a2a5a	6.4338295e-08
51	0x3580ceb4	9.596902e-07
52	0x343440bc	1.6787357e-07
53	0x00000000	0.0
54	0x340a8d01	1.2903548e-07
55	0x34e9cbf7	4.3548036e-07
56	0x35745436	9.1019626e-07
57	0x344acf53	1.888814e-07
58	0x331c7dcd	3.6435996e-08
59	0x3420a8ca	1.4962566e-07
60	0x34f63fdc	4.5867534e-07
61	0x35aa5f65	1.269375e-06
62	0x345e956a	2.0729718e-07
63	0x349ca0b7	2.91742e-07

exp_avg f4 [64, 4]
0	0x37a9cf41	2.024288e-05
1	0x378be72c	1.6677739e-05
2	0x37e3a4ac	2.713719e-05
3	0x37f7e3da	2.9550796e-05
4	0x38187d63	3.63564e-05
5	0x37a249a7	1.9346202e-05
6	0x382c2f80	4.1052233e-05
7	0xb7d996f5	-2.593871e-05
8	0x35ebbb67	1.7563406e-06
9	0xb73879b7	-1.0995594e-05
10	0x385b54a9	5.2292515e-05
11	0xb9755f6c	-0.00023400568
12	0x380f7100	3.4199096e-05
13	0xb98722c5	-0.00025775112
14	0xba23e41a	-0.00062519463
15	0x3a2ba75b	0.000654807
16	0x3874b01b	5.8338144e-05
17	0x38cc3226	9.736819e-05
18	0x366d3c61	3.5350897e-06
19	0x38803211	6.112841e-05
20	0xb9f3688e	-0.0004642647
21	0xb9e38909	-0.00043398913
22	0x393d548f	0.00018055945
23	0xb8bde3aa	-9.054628e-05
24	0xb3ecac85	-1.10209875e-07
25	0x367e172d	3.786244e-06
26	0xb6b0e0e7	-5.271391e-06
27	0x368442c4	3.941679e-06
28	0xb8efc5f8	-0.000114332826
29	0xb93ec1fe	-0.0001819208
30	0x398fa74d	0.00027399734
31	0xb91b0738	-0.00014784641
32	0xb7ce4abf	-2.459192e-05
33	0xb814fdd4	-3.5522346e-05
34	0x37eebf66	2.8460938e-05
35	0xb80100c7	-3.075672e-05
36	0xb7f7a5c7	-2.952189e-05
37	0xb91cd6ae	-0.00014957294
38	0xb953e592	-0.0002020805
39	0x396a6663	0.00022354121
40	0x392fd255	0.00016767655
41	0x391556a2	0.0001424202
42	0xb92c748a	-0.00016446612
43	0x38e66a41	0.00010987046
44	0xb9e17fbd	-0.00043010517
45	0xb8baf1c9	-8.914207e-05
46	0x38403bfa	4.5832225e-05
47	0xba01dd12	-0.00049539015
48	0xb7bee142	-2.2754659e-05
49	0xb7324b90	-1.062722e-05
50	0xb7caed48	-2.419077e-05
51	0xb4d55eb3	-3.9743244e-07
52	0x331c936e	3.6455667e-08
53	0x37461dce	1.1808659e-05
54	0x381c8ac7	3.7322545e-05
55	0xb87b2307	-5.9875685e-05
56	0x38bb7655	8.938896e-05
57	0x379d1f36	1.8730392e-05
58	0x388eea3e	6.814719e-05
59	0xb872b2cd	-5.7863817e-05
60	0x3807ca6d	3.2375032e-05
61	0x376336ed	1.3543043e-05
62	0xb96249c2	-0.00021580516
63	0x393791a1	0.00017506491
64	0x3401d692	1.2092121e-07
65	0xb72ea435	-1.0409441e-05
66	0x35d762cc	1.6047502e-06
67	0xb8a14b53	-7.6911085e-05
68	0x3987ae95	0.0002587928
69	0x39785cc1	0.00023685677
70	0xb91b1bb6	-0.00014792275
71	0xb845df99	-4.71767e-05
72	0x386d2bef	5.654612e-05
73	0x38aa17c1	8.110656e-05
74	0xb8f915f7	-0.000118773365
75	0x38674155	5.5135537e-05
76	0x392ee221	0.00016678173
77	0x38ff1e7b	0.00012165025
78	0xb913665c	-0.00014057144
79	0x38d4358c	0.00010118922
80	0x39276dc0	0.00015967246
81	0xb73951d6	-1.1045913e-05
82	0x390f4d7e	0.00013666411
83	0xb8dab9a4	-0.00010429628
84	0x390528de	0.00012699093
85	0x3903338d	0.00012512338
86	0x38cc6118	9.745563e-05
87	0xb92703cd	-0.00015927777
88	0x392f8ccb	0.0001674175
89	0x38630759	5.412786e-05
90	0x38865344	6.405127e-05
91	0x3799493c	1.8273124e-05
92	0xb96ae87f	-0.0002240259
93	0xb97fb7a3	-0.00024387105
94	0xb902a2d3	-0.00012458423
95	0x3929ea35	0.00016204345
96	0x391184cf	0.00013877753
97	0x3906b8f6	0.00012848139
98	0xb91d619c	-0.00015009049
99	0xb79f672a	-1.9002317e-05
100	0x3951b2c1	0.00019998384
101	0x3975824c	0.0002341356
102	0xb8e4a848	-0.00010903232
103	0xb8ba55b7	-8.885137e-05
104	0xb9551525	-0.0002032114
105	0xb92bfe6e	-0.00016402613
106	0x39f1ec3c	0.0004614311
107	0x381107c9	3.4577944e-05
108	0xb97a005f	-0.00023841996
109	0xb982d962	-0.00024957495
110	0x394527ca	0.00018802207
111	0xb908f988	-0.00013062928
112	0x39001f28	0.00012218638
113	0x33cfb96f	9.672919e-08
114	0x38ee6806	0.000113681
115	0x36f3c419	7.264793e-06
116	0x3941d284	0.00018484337
117	0x38d7dc5b	0.00010293043
118	0xb8922192	-6.9680755e-05
119	0xb80a3657	-3.2952372e-05
120	0x3856fa36	5.1254603e-05
121	0x37cb0582	2.420205e-05
122	0xb9317b43	-0.00016925954
123	0x39524726	0.00020053666
124	0xb944b609	-0.0001875983
125	0xb90caff8	-0.00013416994
126	0x38f6a4a6	0.00011760862
127	0xb90e7f20	-0.00013589533
128	0xb77dbca3	-1.51238955e-05
129	0xb97397fc	-0.00023230904
130	0xb9191011	-0.00014597202
131	0x398e7243	0.00027169482
132	0xb7f82986	-2.958324e-05
133	0x383e33c9	4.534776e-05
134	0xb83020ed	-4.1992334e-05
135	0xb8a29145	-7.7518205e-05
136	0xb89ef39d	-7.5794036e-05
137	0xb8eb932e	-0.000112330876
138	0xb7d4b483	-2.5356427e-05
139	0x3955b28d	0.00020379778
140	0x3700a5c9	7.667994e-06
141	0x36e6dfa7	6.8805707e-06
142	0xb7bc67b5	-2.2459639e-05
143	0xb84f9894	-4.9494745e-05
144	0xb89a6586	-7.3622025e-05
145	0xb7efa3ac	-2.8567236e-05
146	0xb7e95e9d	-2.7819822e-05
147	0x38480fca	4.769842e-05
148	0x380dad0e	3.377819e-05
149	0x388613db	6.393316e-05
150	0xb85f4901	-5.3235333e-05
151	0x3885e4ef	6.3845764e-05
152	0x3883fecb	6.294026e-05
153	0x38c6ce12	9.479759e-05
154	0x38f6803f	0.00011754082
155	0xb9b1c470	-0.00033906428
156	0x384569d0	4.7067006e-05
157	0xb8aaeba0	-8.15012e-05
158	0x386f5c3c	5.706794e-05
159	0xb835f1d1	-4.3378972e-05
160	0xb7c08c8e	-2.2953634e-05
161	0x36c07748	5.735932e-06
162	0x3880d430	6.1430386e-05
163	0xb97d0c20	-0.00024132477
164	0x39130129	0.00014019445
165	0x38f066cb	0.000114632385
166	0xb884d401	-6.333739e-05
167	0xb8382c95	-4.391054e-05
168	0x3899008f	7.2957126e-05
169	0x37e0808d	2.6762742e-05
170	0xb824c6e3	-3.9285875e-05
171	0x37e5a59c	2.7376045e-05
172	0xb9121bec	-0.00013934047
173	0xb98a0baf	-0.00026330116
174	0x35638e31	8.4771006e-07
175	0xb965e388	-0.00021923904
176	0xb77941f1	-1.485691e-05
177	0xb910e7d8	-0.00013819279
178	0x38cf5b03	9.8874814e-05
179	0xb8da0aee	-0.00010397086
180	0xb8ac4d83	-8.216037e-05
181	0xb8a0e9e8	-7.672963e-05
182	0x386357ac	5.420267e-05
183	0xb96152c2	-0.00021488502
184	0xb6dd2973	-6.5911386e-06
185	0xb8b8aa3e	-8.805514e-05
186	0x384bbedd	4.8576727e-05
187	0xb802d23a	-3.1190204e-05
188	0xb99b3f16	-0.00029610906
189	0xb9936a66	-0.00028117298
190	0x3939501a	0.00017672815
191	0xb93a1a08	-0.0001774804
192	0x373b804d	1.1175941e-05
193	0x37b95f82	2.2098193e-05
194	0x38b5fc05	8.677695e-05
195	0xb85c7d3a	-5.2568714e-05
196	0xb827a01b	-3.9965013e-05
197	0xb821f065	-3.8609276e-05
198	0xb84c3a6b	-4.8691796e-05
199	0xb8ddc3a9	-0.00010574546
200	0xb6077199	-2.018269e-06
201	0xb5ecf310	-1.7654111e-06
202	0x36e3172e	6.7678257e-06
203	0xb6406be6	-2.8673035e-06
204	0x3952feaa	0.0002012203
205	0x394c026c	0.00019455858
206	0xb8b80a44	-8.775716e-05
207	0xb8c7b0d1	-9.521994e-05
208	0x38a4ba0e	7.854785e-05
209	0x39480120	0.00019073905
210	0x37f8bd7d	2.9652141e-05
211	0xb8fd1fb5	-0.00012069886
212	0x00000000	0.0
213	0x00000000	0.0
214	0x00000000	0.0
215	0x00000000	0.0
216	0x38e90a91	0.00011112274
217	0x39140cb3	0.0001411911
218	0xb7f53b47	-2.923388e-05
219	0xb78a9d4e	-1.6524133e-05
220	0x399307b4	0.00028043764
221	0x38b79e12	8.755563e-05
222	0xb99641b5	-0.00028659185
223	0x3723f814	9.773317e-06
224	0xb988cfb3	-0.0002609469
225	0xb84cfe6e	-4.8874346e-05
226	0xb915b425	-0.00014276856
227	0xb93d4233	-0.00018049106
228	0xb75c2088	-1.3120596e-05
229	0xb845f94f	-4.7200647e-05
230	0x37bc2b95	2.243164e-05
231	0xb5d54ee3	-1.5892696e-06
232	0x35870360	1.0059266e-06
233	0x353bac96	6.9914074e-07
234	0xb6db819b	-6.5417967e-06
235	0x360c94be	2.0948205e-06
236	0xb8a9c01e	-8.0943326e-05
237	0xb85f56e0	-5.324825e-05
238	0xb8198bea	-3.6608348e-05
239	0xb7864188	-1.600456e-05
240	0xb882400a	-6.210811e-05
241	0xb873333d	-5.7983434e-05
242	0xb92123e1	-0.00015367522
243	0xb968659a	-0.00022163094
244	0xb8b0e9f9	-8.435915e-05
245	0xb92be50b	-0.00016393156
246	0x37b696af	2.1766258e-05
247	0x38b6e11b	8.7203654e-05
248	0xb97d0504	-0.00024129829
249	0xb95475c6	-0.0002026177
250	0x38315627	4.2280324e-05
251	0xb9872041	-0.00025773238
252	0x38cce643	9.7703676e-05
253	0x392b6134	0.00016344042
254	0xb873b44d	-5.8103633e-05
255	0xb8af77e3	-8.366981e-05

exp_avg_sq f4 [64, 4]
0	0x3490ca83	2.6969437e-07
1	0x34610a34	2.095847e-07
2	0x34b9afcb	3.4586841e-07
3	0x34aa657c	3.1738807e-07
4	0x32c327fc	2.271917e-08
5	0x32285ef0	9.800473e-09
6	0x3301ff89	3.026756e-08
7	0x33620fc6	5.263407e-08
8	0x32bfc353	2.232415e-08
9	0x3597af2f	1.1301362e-06
10	0x35be40fc	1.4175016e-06
11	0x359e05a3	1.1773558e-06
12	0x369be172	4.6456053e-06
13	0x35d93ab6	1.6184847e-06
14	0x367d4049	3.7737357e-06
15	0x361b0c85	2.3104087e-06
16	0x342475ec	1.531659e-07
17	0x34dd27e6	4.1193488e-07
18	0x34f4b862	4.5582698e-07
19	0x345afd9e	2.0395098e-07
20	0x3757f425	1.2871843e-05
21	0x37468a39	1.1833902e-05
22	0x365c6430	3.2840871e-06
23	0x364bd4e4	3.0373276e-06
24	0x30a113be	1.1719903e-09
25	0x33ae95d3	8.129759e-08
26	0x3409778c	1.280261e-07
27	0x333b3c00	4.35939e-08
28	0x360ad476	2.068727e-06
29	0x34a7b1ff	3.1235683e-07
30	0x35d5c6d1	1.59276e-06
31	0x352c60af	6.4215686e-07
32	0x335ea377	5.1837073e-08
33	0x3390a88e	6.7361825e-08
34	0x3306b37e	3.1362553e-08
35	0x33047f93	3.0849673e-08
36	0x35007717	4.7857014e-07
37	0x3507c9be	5.058499e-07
38	0x353b92a1	6.98763e-07
39	0x35568194	7.9909773e-07
40	0x351c3de7	5.820461e-07
41	0x35886361	1.0161713e-06
42	0x34423ed2	1.8090512e-07
43	0x341431ec	1.3801736e-07
44	0x36b3c05c	5.3570093e-06
45	0x359ba917	1.1597612e-06
46	0x35466e1b	7.392097e-07
47	0x35f17b92	1.7991863e-06
48	0x33e264c0	1.05422714e-07
49	0x32e8229c	2.7024093e-08
50	0x33cc68a0	9.5185214e-08
51	0x33e89b59	1.08315994e-07
52	0x3056f50d	7.8200985e-10
53	0x33a69bda	7.7583266e-08
54	0x3404f97b	1.2384218e-07
55	0x34b771ae	3.416912e-07
56	0x337efecf	5.937073e-08
57	0x323ad7f0	1.0875723e-08
58	0x3378f674	5.7966147e-08
59	0x34067058	1.2520593e-07
60	0x350cdc53	5.247468e-07
61	0x354a8200	7.544004e-07
62	0x35269712	6.2059655e-07
63	0x34bb1223	3.484466e-07
64	0x309ca86f	1.1398366e-09
65	0x340ef7c3	1.3314916e-07
66	0x34f4b904	4.5583158e-07
67	0x3481f0f1	2.420343e-07
68	0x36a079ac	4.782536e-06
69	0x36b5d659	5.4191737e-06
70	0x35e23425	1.6853488e-06
71	0x357d35f1	9.432834e-07
72	0x340553a4	1.2417019e-07
73	0x34396ec5	1.7269765e-07
74	0x34162a7b	1.3985293e-07
75	0x33366927	4.2470813e-08
76	0x34fee19b	4.7475336e-07
77	0x353268de	6.646277e-07
78	0x348c53ab	2.6137909e-07
79	0x3422c56d	1.5159249e-07
80	0x3517ad88	5.6504405e-07
81	0x34abcf57	3.2002092e-07
82	0x340f7ce6	1.336335e-07
83	0x34858253	2.4868004e-07
84	0x3560db3b	8.3765525e-07
85	0x355f1217	8.31003e-07
86	0x336889c4	5.4142006e-08
87	0x342222ed	1.5100132e-07
88	0x336de5df	5.538993e-08
89	0x312bd0e8	2.5002524e-09
90	0x3267ee18	1.3500106e-08
91	0x341d613e	1.4657141e-07
92	0x368bba7d	4.164233e-06
93	0x3682bad3	3.896051e-06
94	0x3585be2d	9.964621e-07
95	0x35fea7f6	1.8973358e-06
96	0x3525df4f	6.1792247e-07
97	0x3551d394	7.8166454e-07
98	0x3411315f	1.3522138e-07
99	0x34768b95	2.2961315e-07
100	0x3646a5a4	2.9600715e-06
101	0x368d3eb8	4.209429e-06
102	0x34abacd4	3.197698e-07
103	0x353ec6a4	7.1069576e-07
104	0x359d43da	1.1717159e-06
105	0x35585cb5	8.0601177e-07
106	0x355cc4e3	8.2242894e-07
107	0x33a55899	7.699527e-08
108	0x368dedb6	4.2298007e-06
109	0x362bb03d	2.558357e-06
110	0x34e8270b	4.3241775e-07
111	0x350312c5	4.8828616e-07
112	0x344e77cc	1.9228827e-07
113	0x3381ec69	6.0500334e-08
114	0x33aa65e0	7.934773e-08
115	0x34a9005e	3.147897e-07
116	0x348d969b	2.6372877e-07
117	0x33f8e4b8	1.15900036e-07
118	0x341b49db	1.4462368e-07
119	0x337d91f7	5.9038907e-08
120	0x358c9da6	1.0476695e-06
121	0x34c63f41	3.6926397e-07
122	0x343ba4f7	1.7475746e-07
123	0x34a363b3	3.0433657e-07
124	0x3628ca3b	2.5151664e-06
125	0x35864635	1.0004211e-06
126	0x343fe354	1.7870963e-07
127	0x353d4c7c	7.0519286e-07
128	0x35b627eb	1.3571674e-06
129	0x35823f87	9.704244e-07
130	0x35d6d331	1.6005707e-06
131	0x359010c3	1.0733714e-06
132	0x350cd895	5.246923e-07
133	0x355ceb6f	8.229899e-07
134	0x34a413c2	3.0561756e-07
135	0x35807dd3	9.573363e-07
136	0x350b55ee	5.190658e-07
137	0x34b28e58	3.3258652e-07
138	0x3512354f	5.446681e-07
139	0x34c9a772	3.7561e-07
140	0x338972a2	6.400411e-08
141	0x336037f0	5.220494e-08
142	0x35021375	4.845709e-07
143	0x348090bf	2.3947175e-07
144	0x3508ccb5	5.0961836e-07
145	0x34a06be7	2.9880832e-07
146	0x34da46a8	4.0657073e-07
147	0x355c3f3c	8.2048405e-07
148	0x34d80e48	4.0243526e-07
149	0x34bfa408	3.569587e-07
150	0x34cc4993	3.8051493e-07
151	0x3421f356	1.5082819e-07
152	0x35d9702d	1.6200407e-06
153	0x361d789a	2.3465022e-06
154	0x348607f1	2.4965223e-07
155	0x35718162	8.9967773e-07
156	0x33d90667	1.01060145e-07
157	0x3347a0dc	4.64796e-08
158	0x335ff4e1	5.214395e-08
159	0x33813900	6.017399e-08
160	0x35d8fc1f	1.6166631e-06
161	0x34d0ec18	3.89148e-07
162	0x3510e0cf	5.397132e-07
163	0x34d0ed83	3.8915832e-07
164	0x35123ebf	5.4480546e-07
165	0x34e89e5d	4.3328592e-07
166	0x3461504e	2.0983973e-07
167	0x34869604	2.5068596e-07
168	0x3483bb1f	2.45368e-07
169	0x34a4a789	3.0669278e-07
170	0x34643449	2.1253176e-07
171	0x3409a479	1.2818954e-07
172	0x3537958a	6.839042e-07
173	0x35d92ed6	1.6181391e-06
174	0x333365aa	4.1769148e-08
175	0x3502d87b	4.8743794e-07
176	0x366bea1d	3.5154e-06
177	0x35e137b6	1.678002e-06
178	0x358131bd	9.625725e-07
179	0x34977eb9	2.8218145e-07
180	0x340537b5	1.2406856e-07
181	0x33c3c222	9.115708e-08
182	0x33b1127b	8.2455664e-08
183	0x3440c0a9	1.7951483e-07
184	0x33cafd1a	9.452397e-08
185	0x3481a643	2.4149094e-07
186	0x33deed16	1.0380806e-07
187	0x334c2f3f	4.754042e-08
188	0x36b10b2c	5.2763116e-06
189	0x36c536fc	5.8774585e-06
190	0x35076c87	5.0449347e-07
191	0x35c77e31	1.4863382e-06
192	0x317a21ae	3.6398933e-09
193	0x3261c62b	1.3141782e-08
194	0x348b2143	2.591497e-07
195	0x3425d431	1.5444017e-07
196	0x33a40897	7.6384076e-08
197	0x33d62350	9.971575e-08
198	0x34af4010	3.2642902e-07
199	0x3489cc4d	2.5666887e-07
200	0x32a08f46	1.8691605e-08
201	0x32762c16	1.4329109e-08
202	0x33122b93	3.4032904e-08
203	0x335a71a8	5.086045e-08
204	0x362314be	2.4300966e-06
205	0x361a3263	2.2977117e-06
206	0x3483d7af	2.4557582e-07
207	0x34c05cb8	3.583025e-07
208	0x3410c40f	1.3482371e-07
209	0x347369ce	2.266963e-07
210	0x341e8407	1.4762928e-07
211	0x33c2fe3b	9.080073e-08
212	0x00000000	0.0
213	0x00000000	0.0
214	0x00000000	0.0
215	0x00000000	0.0
216	0x3453c119	1.9721155e-07
217	0x34ddc3ab	4.1306825e-07
218	0x342bf64f	1.6015223e-07
219	0x34185cb5	1.418983e-07
220	0x35de3ef8	1.6558615e-06
221	0x34dd3b0e	4.1207426e-07
222	0x34b56722	3.3788916e-07
223	0x338f0846	6.660461e-08
224	0x360bbcff	2.0822624e-06
225	0x357da756	9.449335e-07
226	0x3613e6ea	2.2039117e-06
227	0x35aac7e1	1.272416e-06
228	0x35326983	6.6463707e-07
229	0x3482b680	2.4347173e-07
230	0x32e7541e	2.6930191e-08
231	0x337a22d5	5.823934e-08
232	0x30484cb0	7.2868556e-10
233	0x2fdbd605	3.9987938e-10
234	0x32d8682a	2.5193078e-08
235	0x33a3a649	7.620526e-08
236	0x34dd7b18	4.125402e-07
237	0x3415b4d6	1.3942494e-07
238	0x3340e4f2	4.4911708e-08
239	0x33eccec7	1.1027219e-07
240	0x360c7ab9	2.093306e-06
241	0x35b3270e	1.3347906e-06
242	0x3523ddfd	6.104527e-07
243	0x35b5cb7b	1.3544771e-06
244	0x35cf2bdc	1.5435467e-06
245	0x35b816fe	1.371576e-06
246	0x35500065	7.748661e-07
247	0x3443d9fa	1.824009e-07
248	0x3475a839	2.2878602e-07
249	0x34043d48	1.2315752e-07
250	0x34b316d4	3.3357958e-07
251	0x34ba4b92	3.4700184e-07
252	0x34960634	2.794419e-07
253	0x34f0b8aa	4.4837844e-07
254	0x33e63505	1.0719854e-07
255	0x33a84405	7.835482e-08

exp_avg f4 [64]
0	0x3958b317	0.00020666081
1	0x38e23160	0.000107857166
2	0x3850aae7	4.975023e-05
3	0xb8637806	-5.4232798e-05
4	0x38bff25a	9.152731e-05
5	0xb9be6982	-0.00036318233
6	0x398be716	0.00026684318
7	0x3a5cf635	0.00084290217
8	0x00000000	0.0
9	0x38f4500e	0.00011649738
10	0xb917e56b	-0.00014485947
11	0xb7ba0952	-2.2177268e-05
12	0x39196604	0.00014629221
13	0xb9013329	-0.00012321457
14	0x00000004	6e-45
15	0xb9a748b8	-0.00031906902
16	0xb7cc244a	-2.4335593e-05
17	0x35af1f8d	1.3047699e-06
18	0x37adde6a	2.0726777e-05
19	0x00000000	0.0
20	0x00000004	6e-45
21	0x3945c301	0.00018860029
22	0x00000004	6e-45
23	0xb8b0cc17	-8.430349e-05
24	0x00000004	6e-45
25	0x394989de	0.00019220213
26	0xb6bc9c27	-5.621015e-06
27	0xb8c8c066	-9.57258e-05
28	0x384c35af	4.8687387e-05
29	0x37f5a41e	2.9282699e-05
30	0x39575e33	0.0002053909
31	0xb877d9b9	-5.909216e-05
32	0xb8f7af7a	-0.00011810563
33	0x00000004	6e-45
34	0x00000004	6e-45
35	0xb9257e90	-0.00015782774
36	0x3885f8eb	6.388299e-05
37	0x38e996cd	0.000111383946
38	0xb8a51200	-7.871166e-05
39	0x00000004	6e-45
40	0xb9866442	-0.0002563317
41	0xb8fc0456	-0.00012017104
42	0x00000000	0.0
43	0xb6ec879d	-7.0491355e-06
44	0x38d855d0	0.000103156664
45	0x38d87c1b	0.00010322799
46	0xb78e618d	-1.6973145e-05
47	0xb8ff5d8f	-0.00012176774
48	0x00000000	0.0
49	0x375a4493	1.3009779e-05
50	0x380a107c	3.2917116e-05
51	0xb71596f8	-8.916242e-06
52	0xb92309ca	-0.00015548538
53	0xb71a42e5	-9.19469e-06
54	0x00000000	0.0
55	0x38386462	4.3962507e-05
56	0x00000000	0.0
57	0x00000004	6e-45
58	0x2851a9e2	1.1638668e-14
59	0xb9978441	-0.000288995
60	0x38e61b19	0.00010972302
61	0x38a17e33	7.700585e-05
62	0x00000000	0.0
63	0x37d872d2	2.5802674e-05

exp_avg_sq f4 [64]
0	0x36710b4e	3.5918379e-06
1	0x3646a511	2.960038e-06
2	0x3582d097	9.746462e-07
3	0x3543f0e4	7.29937e-07
4	0x3394a8d9	6.9225e-08
5	0x369b32d9	4.6252794e-06
6	0x366dedd6	3.545419e-06
7	0x36108b00	2.153858e-06
8	0x00000000	0.0
9	0x3547a183	7.436831e-07
10	0x35d1dd98	1.5636206e-06
11	0x32dd279c	2.5745798e-08
12	0x36012af9	1.9247511e-06
13	0x34993a48	2.8540876e-07
14	0x2b92c2b8	1.0427969e-12
15	0x373fc949	1.14313525e-05
16	0x350e3765	5.297973e-07
17	0x3414e585	1.3867073e-07
18	0x36394a30	2.761033e-06
19	0x00000000	0.0
20	0x29fde0eb	1.1274474e-13
21	0x35d01444	1.5503106e-06
22	0x2d9e4533	1.7993251e-11
23	0x346a8f88	2.1845165e-07
24	0x310cd1b2	2.049188e-09
25	0x35ec3fb0	1.7601906e-06
26	0x34e4bd3a	4.260599e-07
27	0x353e8a53	7.0981804e-07
28	0x362269d6	2.4201486e-06
29	0x362b1bd9	2.5497195e-06
30	0x362c8bb2	2.571131e-06
31	0x35d13f91	1.5590214e-06
32	0x34a8bd94	3.1430375e-07
33	0x2e56abee	4.881067e-11
34	0x2d0a4204	7.85905e-12
35	0x34a9093f	3.148543e-07
36	0x330a3ff9	3.218881e-08
37	0x35192cfb	5.7062397e-07
38	0x350b777a	5.1955396e-07
39	0x27a9ad92	4.709511e-15
40	0x3606d852	2.009347e-06
41	0x35b9bd3f	1.3838652e-06
42	0x00000000	0.0
43	0x327d9807	1.4761105e-08
44	0x3513a1bc	5.499712e-07
45	0x33f2cd34	1.13063294e-07
46	0x3240fe75	1.1233728e-08
47	0x3547fabd	7.449815e-07
48	0x00000000	0.0
49	0x35c44737	1.4623864e-06
50	0x360d057f	2.1013836e-06
51	0x328db3be	1.6496298e-08
52	0x360c94bd	2.0948203e-06
53	0x346ff408	2.2347388e-07
54	0x00000000	0.0
55	0x359ea93b	1.182117e-06
56	0x00000000	0.0
57	0x309153e2	1.057398e-09
58	0x3138e97c	2.6908245e-09
59	0x370cec1a	8.399622e-06
60	0x34000c85	1.1925484e-07
61	0x351fb299	5.949201e-07
62	0x00000000	0.0
63	0x3442ea1b	1.8152825e-07
