log/alpha=0.1/version_None/checkpoints/epoch=2499-step=4999-v1.ckpt (torch, 116860 bytes, 21 tensors)

dec.lin0.bias f4 [64]
000000 94 1b 98 3e 5e cd d4 3d 63 2b 73 be 23 4b 1c bf
       0.2970854 0.10390733 -0.2374702 -0.6105215
000010 b2 db e2 be 0e 66 18 3e ae 26 7c be 92 87 d7 bc
       -0.4430824 0.14882681 -0.2462413 -0.026309762
000020 40 cb f1 bd 02 1f 90 be 7a ec ad 3e 2f a0 d7 be
       -0.11806345 -0.28148657 0.3396948 -0.42114398
000030 2a 9c bc be e6 b8 6b 3e 5e 5b 87 3e fe 32 79 bd
       -0.36837894 0.23019752 0.26436895 -0.060839646
000040 c7 a5 36 be 6c 45 33 bc ae 57 0a 3e a3 53 3f be
       -0.17836677 -0.010941844 0.1351001 -0.18684249
000050 89 b6 01 3f b5 99 2a be 57 d3 b9 3e c6 a6 3a bd
       0.5066915 -0.16660197 0.36294052 -0.045569204
000060 04 f3 9c be 69 ad 92 3d f8 be 30 3e 7d e4 b4 3e
       -0.30654156 0.071619816 0.17260349 0.35330573
000070 d2 96 78 3e d0 8d ae be f9 3f e8 3e 54 f0 db 3e
       0.24276283 -0.3409257 0.45361307 0.42956793
000080 83 cc 52 3e 90 8d 87 3d f2 11 61 3e e5 4e 80 3e
       0.20585828 0.06618798 0.21979502 0.25060192
000090 26 81 63 be 9a 07 a3 3e 55 cf 2b bf ff f1 48 3e
       -0.22217235 0.31841737 -0.6711324 0.19623564
0000a0 21 75 10 3e ad 1b dd be 9e 00 23 3e e9 d5 bd be
       0.14107181 -0.43185177 0.15918204 -0.37077263
0000b0 d2 d5 a0 bb 3f 0c 22 3e 44 f2 6f 3e ab 74 ec bd
       -0.004908302 0.15824984 0.23432261 -0.1154569
0000c0 55 d9 ff 3e a3 43 05 bf 0e 3c 22 3e 72 fc b7 be
       0.499705 -0.5205633 0.15843222 -0.35934788
0000d0 77 15 a9 3e f6 0a b9 be a1 ac 21 3f 97 09 e3 bd
       0.3302419 -0.36141175 0.63154036 -0.110858135
0000e0 36 3a c4 be 62 51 54 bd 3a d5 b3 3e d5 cc 66 be
       -0.3832566 -0.051835425 0.35123616 -0.22539075
0000f0 ae c4 32 be 43 1b 04 be 2e 82 c8 be 31 74 9f be
       -0.1745784 -0.12901025 -0.3916182 -0.31143335

dec.lin0.weight_v f4 [64, 4]
000000 d6 61 99 3d 5d 58 d1 bd 42 8c 24 3e 68 2a 9d 3e
       0.07489364 -0.10221932 0.16069129 0.30696416
000010 29 ff f0 be ea ae 94 3e ba ac 8a 3d ee 9b fa be
       -0.47069672 0.290397 0.06771226 -0.4894709
000020 75 41 d3 3e 59 2b fa 3d 06 45 8c bd 21 78 aa be
       0.41260877 0.12215299 -0.06849103 -0.33294776
000030 0a 74 e1 3d 42 04 e0 be cb d2 c4 3e f7 32 94 bb
       0.11008461 -0.43753248 0.38442072 -0.004522677
000040 6c 1f a3 be ff 63 6d bd a0 7d f2 3e 0e bf 4a be
       -0.3185991 -0.05795669 0.4736147 -0.19799444
000050 28 a4 8f be f4 54 61 be 52 44 21 be fc 8c 3b 3e
       -0.2805493 -0.22005063 -0.15748718 0.183155
000060 2d 68 e4 bd f1 33 b6 3d a9 19 8a be 95 90 12 3e
       -0.111526825 0.08896626 -0.26972702 0.14312966
000070 c2 32 8a be 0f e6 17 3e c4 28 8c be 75 ad aa 3d
       -0.2699185 0.14833854 -0.27374852 0.083338656
000080 3d 79 2c 3e ac 0b 07 3d 17 e7 e3 be f1 27 7d be
       0.16843124 0.032970116 -0.44512245 -0.24722268
000090 9e 49 08 3e 27 44 eb 3e 8e 1d 83 3e 48 06 f7 3e
       0.13309333 0.45950434 0.25608486 0.4824698
0000a0 ef b3 c4 3d a2 76 ab be 05 79 7c be a1 76 be 3d
       0.09604632 -0.33488947 -0.2465554 0.092999704
0000b0 e5 85 31 be b1 d6 37 3e 81 c2 28 be 3b 72 c3 be
       -0.17336233 0.17952992 -0.16480447 -0.38173088
0000c0 a0 a5 da be b0 4b 0f be 28 5c e1 bd 00 c0 c8 b8
       -0.42704487 -0.13993716 -0.110039055 -9.572506e-05
0000d0 d2 bf c3 3d 92 71 ce be df 6b f0 3c 9c 96 0e bf
       0.09558071 -0.40321022 0.029348312 -0.5569856
0000e0 c6 b6 b1 bd 7b fc e8 3b a6 33 26 3e 29 11 9e be
       -0.086774394 0.007110176 0.1623064 -0.30872467
0000f0 e6 dd ac be 76 c0 e2 be 14 70 d8 be c0 93 11 3e
       -0.33763045 -0.4428746 -0.4227301 0.14216518
000100 01 81 49 3e a0 be bf 3e be 1f a4 bd c4 ed 97 3e
       0.19678117 0.37450123 -0.08013867 0.29673588
000110 54 19 d7 3e d0 9d 18 bd 16 cb fd 3e 30 31 10 be
       0.4201151 -0.037259877 0.49569005 -0.14081264
000120 82 b5 23 be c5 0c aa 3d c6 a2 c3 be 91 d3 c7 3e
       -0.15987208 0.08303217 -0.38210124 0.390286
000130 78 c4 a1 3e 62 0d e1 bd b8 b6 35 be 7c 22 8a be
       0.31595206 -0.10988881 -0.17745483 -0.26979434
000140 a0 dc e3 3b ca 7c 94 be 72 fc 0b bf bf 3a b2 bc
       0.006953791 -0.29001456 -0.54682076 -0.021756528
000150 3a a5 b6 be 75 13 85 3e 9d d5 12 be 66 2a 7e bd
       -0.35672933 0.25991407 -0.143393 -0.062052153
000160 3a 7e 90 be 2f 5a ea be 1b d0 61 be 32 d8 07 3e
       -0.28221303 -0.4577193 -0.22052042 0.13266066
000170 14 90 46 3e db c7 49 be 5c 90 8b be b9 10 97 be
       0.19390899 -0.19705145 -0.27258575 -0.29504946
000180 b9 5d 0a 3e 38 3e 1d be 72 ff c1 bc 7e f0 a7 3e
       0.13512315 -0.15355766 -0.023681376 0.32800668
000190 ab 8c 85 3e 34 62 cb 3d b3 6e 84 be 50 90 c8 3d
       0.26083884 0.0993084 -0.25865707 0.097931504
0001a0 24 dd ef 3e f9 98 5a be b5 4c 80 be b6 01 a8 3e
       0.46848404 -0.21347417 -0.25058523 0.32813805
0001b0 ed 1a f0 be ed c5 2e 3e 45 9a b7 3c 1e e4 2a be
       -0.46895543 0.1706769 0.022412429 -0.16688582
0001c0 a6 61 46 3e 8d bf 9f be 92 7c af 3e 85 ee 86 3e
       0.19373187 -0.3120083 0.34274727 0.2635385
0001d0 c5 6f 32 3c ad 64 c9 bc 91 5c 74 be 3c 01 ee 3e
       0.010890906 -0.024584139 -0.23863436 0.46485317
0001e0 c6 32 52 3e 74 35 cb be 93 a6 d1 3e 4e 3b ab be
       0.20527181 -0.3968922 0.409474 -0.33443683
0001f0 9b 54 17 3e bc ee ba be 62 5a c1 3e bc ce 61 3e
       0.14778368 -0.36510265 0.3776427 0.22051519
000200 83 5c e2 be e8 57 52 3d 71 4b 1a be 5d 1e 97 3e
       -0.44211206 0.051353365 -0.15067841 0.29515353
000210 64 52 ff be 5f ce 91 bd 3d dc 0f 3b 6b 69 c7 3e
       -0.49867547 -0.0711944 0.002195134 0.38947615
000220 58 af b4 3e 80 f7 b0 be 09 a6 70 bd bf 7f 35 3d
       0.35290027 -0.34563828 -0.058752093 0.04431128
000230 af 5e a3 be 50 dd 71 bd b1 c2 d2 be 53 86 90 bc
       -0.31908175 -0.05904895 -0.41164163 -0.017642176
000240 f7 be af 3e 8c f5 be bd d6 71 c5 bd 1c b8 fd bd
       0.34325382 -0.09324178 -0.09640853 -0.12388632
000250 4a a9 ee 3e ce 0d 89 be 21 06 91 bd 0f 3e 7f be
       0.46613532 -0.26768345 -0.07081247 -0.24926017
000260 cb d5 b3 3e ce 87 b2 be 41 41 1f bf 49 06 4a bd
       0.3512405 -0.34869236 -0.62208945 -0.0493224
000270 25 34 81 3c 86 b8 89 3d d9 a9 95 bd 2b 46 0b bb
       0.015771935 0.06724648 -0.073077865 -0.002125154
000280 42 66 1f be 01 64 35 3e c7 47 18 3c e7 25 9e 3e
       -0.15566352 0.1771393 0.009294457 0.30888292
000290 44 1b 0a 3d 29 97 c3 3d d2 ae 36 be b1 65 96 be
       0.03371741 0.09550316 -0.17840126 -0.2937446
0002a0 ab 3c cd be b1 2d 72 be 22 a5 42 be cc c8 da bd
       -0.40085348 -0.23650242 -0.19008306 -0.1068283
0002b0 0f ac bc 3d 7d b9 6e 3e c1 d0 ae be e8 85 76 be
       0.09212505 0.23312946 -0.34143642 -0.24074519
0002c0 42 cd e6 bd 1a 5c 48 3e ef dd 93 3e 95 dd e4 bd
       -0.112696186 0.19566384 0.2888026 -0.11175076
0002d0 d9 1e 5a 3e 7c 47 ce 3e 48 f6 f4 bd ee a2 1d be
       0.2130083 0.40288913 -0.11961037 -0.15394184
0002e0 66 ab 53 3e fe 50 a8 be c4 db 51 3e ca fe af 3e
       0.20670852 -0.32874292 0.2049399 0.34374076
0002f0 90 01 bc 3e 79 20 70 3d ac a2 c3 3e c0 29 a5 bc
       0.36719942 0.05862472 0.38210046 -0.02016151
000300 2a 2f c2 3c 81 72 e1 be f8 08 1a 3e ad 0d c2 be
       0.02370413 -0.44032672 0.15042484 -0.3790106
000310 d5 3d 26 be 11 7f 1a bd ec 47 cc be 56 55 15 be
       -0.16234525 -0.037718836 -0.39898622 -0.14583334
000320 81 14 83 be cb 5a de be 53 fc ed 3c 9b 1f ca 3e
       -0.2560158 -0.43428645 0.029050982 0.39477238
000330 93 af 1f 3e 3d 10 f0 3e 07 9d 7f 3d 20 7b 80 3b
       0.1559432 0.4688739 0.062405612 0.0039209276
000340 48 55 d3 be 7a 7d ca be 1c a1 00 bf 8a d8 79 3e
       -0.41276002 -0.39548856 -0.50245833 0.2439901
000350 5f 49 c3 be af dd 47 bd 7e bc 6f bd ea 69 7c be
       -0.38141915 -0.0487954 -0.05852937 -0.24649778
000360 ab c3 e0 be 4c 96 bb 3d f0 9f d0 3e 2c 46 23 3b
       -0.43899283 0.09159526 0.40747023 0.0024913652
000370 11 4c f2 3e f8 51 a0 3d 6b b3 1e be 1a 32 c3 3e
       0.4732366 0.07828134 -0.1549813 0.38124162
000380 6b f2 98 3e 9e 8f a6 3e a1 68 be bd 54 a8 a4 be
       0.2987245 0.32531446 -0.092973 -0.32159674
000390 ec 6c ca 3e 74 8f 4f be 93 e2 d6 bd af 2e 03 bf
       0.39536226 -0.20269567 -0.10492434 -0.5124311
0003a0 81 d3 01 bf d1 a5 a6 3e 1a 6b b6 3d 05 30 44 be
       -0.50713354 0.32548383 0.08907147 -0.19158943
0003b0 bb 1a 8e 3e e9 9d 59 3e b3 73 a1 3e d3 cf 8b bd
       0.2775477 0.21251644 0.31533584 -0.06826749
0003c0 18 c8 42 3e b9 4a 26 be 50 50 ba be 94 87 fa 3e
       0.19021642 -0.16239442 -0.363894 0.48931563
0003d0 d1 9f 20 3d 22 00 07 3e ab 31 df 3d 6a 99 d5 3e
       0.039214913 0.13183644 0.10898145 0.41718608
0003e0 7c 5f da be ad c8 d9 3e ac 8c e7 3e 9b ef 08 be
       -0.42650974 0.42535916 0.45224512 -0.13372652
0003f0 bb 1f d2 be 1c c3 db be 43 be 5b be 7e 29 b9 3e
       -0.41039833 -0.42922294 -0.21459298 0.3616447

dec.lin1.bias f4 [64]
000000 c0 23 0c 3d 66 76 aa 3d 88 e1 57 be 0b 16 d6 bd
       0.03421378 0.08323364 -0.21082127 -0.10453423
000010 2a d3 93 3d b6 10 9d bd 5e 70 f2 bc 22 88 f7 bd
       0.07218011 -0.07669203 -0.029594596 -0.12086512
000020 2c ee c4 3d b9 4e e9 3d be f7 83 3c 43 b0 8e bd
       0.0961574 0.11391968 0.016109344 -0.06967213
000030 62 7f 03 be aa ab 87 3c cf 3d 08 3e 9a b9 e2 bd
       -0.12841561 0.016561348 0.13304828 -0.11070557
000040 56 3e 13 3e 1f 63 ba bd 4a 7b 81 bd 81 55 ad bd
       0.14379248 -0.09100937 -0.06322344 -0.08463574
000050 45 e8 14 3e d8 3f e7 bc 28 c4 3c 3d 33 cb f2 3c
       0.14541729 -0.028228685 0.046085507 0.029637909
000060 ac 98 57 be a7 83 a2 3c c2 49 90 bd 22 40 17 3e
       -0.21054333 0.019838167 -0.07045318 0.14770558
000070 b7 d5 30 bd 8a c0 8c bd 68 7f 46 3d ab d8 c3 3d
       -0.043172564 -0.068726614 0.048461348 0.095628105
000080 6f 7c e2 3d 2a b8 4d 3c 3b 25 20 bd 7c 76 7a bd
       0.1105889 0.012556115 -0.039098006 -0.06114815
000090 f8 01 13 3e 6d 3c a5 bd 21 1e 35 3d 67 cf e8 bd
       0.1435622 -0.08068166 0.044218186 -0.11367684
0000a0 4b c3 49 bd 6b 65 10 bd 2f 29 77 bc 8d f9 18 3d
       -0.04925851 -0.03525297 -0.0150855025 0.037347365
0000b0 e0 be c0 bd 79 4e 97 bb 89 e5 f3 3d 42 43 af bb
       -0.094114065 -0.004617509 0.11909015 -0.005348594
0000c0 57 82 5a 3d 74 99 8d bc 4a e1 ea 3d 2e 2b fc bd
       0.053346958 -0.017285086 0.11468752 -0.12312923
0000d0 ca 2a e8 bc bd 67 02 3b 03 e8 d5 3d 71 4b f3 bc
       -0.028340716 0.0019898259 0.10444643 -0.02969906
0000e0 1a b8 04 be ee f8 e7 3d f1 4a 96 3d 84 c4 e8 bd
       -0.12960854 0.113267764 0.07338513 -0.113656074
0000f0 41 0d fb bc 04 5e d9 bc d3 33 0f bd 48 40 5c 3d
       -0.030645968 -0.026534088 -0.034961533 0.05377224

dec.lin1.weight_v f4 [64, 64]
000000 01 d8 67 bc e6 31 00 00 1e d7 2d bc 37 de 05 00
       -0.01415062 1.79e-41 -0.01061037 5.38893e-40
000010 14 06 05 80 55 ad d1 3d 84 e5 91 bc 6e 57 7f bc
       -4.61358e-40 0.102381386 -0.017809637 -0.01558481
000020 a5 37 b6 3c 1f 82 2e 3e d5 91 de bd cb 2e 09 00
       0.02224333 0.17041825 -0.10867659 8.43306e-40
000030 2b ac 05 00 b0 79 03 00 09 da 0b 80 71 72 c8 bd
       5.2094e-40 3.1916e-40 -1.088407e-39 -0.09787453
000040 de a0 f3 bc 49 37 f2 bd 8b c4 d8 bc 06 7e f9 bb
       -0.029739793 -0.11826951 -0.026460906 -0.0076139
000050 55 3b 19 be d2 55 a9 1c 1f 5c 4b 3d 93 70 00 80
       -0.1496404 1.1205666e-21 0.0496484 -4.0384e-41
000060 17 1d 42 bd fa 13 e0 bd 67 c0 19 3d 36 38 57 be
       -0.047391023 -0.1094131 0.037537005 -0.21017537
000070 cb c6 4e bd a8 c3 28 3e 3a 80 37 be 29 98 bf 3b
       -0.050482552 0.16480887 -0.17920008 0.0058469963
000080 f1 7e 6f 3b 8a 7d 8f 3d a7 b7 58 bb 3b cf 2c be
       0.0036544169 0.070063666 -0.003306845 -0.16875927
000090 b3 a5 40 3c 5e 84 8b 3b 0e 13 03 00 54 36 3b be
       0.011758256 0.0042577228 2.82342e-40 -0.18282443
0000a0 8f ca b9 3d c0 a1 08 80 ed e2 9b bd d4 bc 94 3c
       0.09071838 -7.92709e-40 -0.07611642 0.018156447
0000b0 22 f9 1f bd 7b 16 c2 3c 14 a9 eb bb 1f 35 bc bd
       -0.03905595 0.02369236 -0.0071917865 -0.091898195
0000c0 ff 5c 26 be ab 6c 03 80 0c 04 7d 3d 0f d1 95 3c
       -0.16246413 -3.14489e-40 0.061771438 0.018288163
0000d0 1a 7e c8 3c 80 01 01 80 4a a5 ed bd e2 f5 a7 3c
       0.024474192 -9.2374e-41 -0.11603792 0.020502988
0000e0 95 62 53 3a e1 13 03 00 66 d5 38 be 3d 5b 81 bd
       0.0008063701 2.82638e-40 -0.18050155 -0.063162304
0000f0 57 48 11 3e e4 9f c1 3d 7d 98 01 80 1e c7 15 3e
       0.14187752 0.09454325 -1.46538e-40 0.14626738
000100 47 b5 ac 3d 16 71 68 3d 34 0d 9d 3d 11 b5 05 3d
       0.084330134 0.056748472 0.07668534 0.03264338
000110 1d 13 ec bc af cc 4c 3d 2c 6e 9e 3c 8a e5 86 bc
       -0.028817708 0.04999989 0.019339643 -0.016466875
000120 5a ef de bd e5 56 d1 3d da f5 b8 bd 0f 5f 8d 3d
       -0.108854964 0.10221652 -0.090312675 0.069028966
000130 1b 12 8e bc d0 43 b1 bd 13 32 2b bd c6 4a 40 bd
       -0.017342618 -0.08655512 -0.0417958 -0.04694631
000140 cb 24 1b 3c b7 24 d5 3d 91 01 64 bd 1f 7c c2 bd
       0.009469221 0.104073934 -0.055665556 -0.094963305
000150 ad 98 b4 bd be 21 d8 3d dc 03 d0 3d b9 16 8c bd
       -0.08818183 0.10553311 0.10156986 -0.068402715
000160 8c d3 f2 bd c6 59 80 bd 96 aa 9d bd 09 fc 8f 3c
       -0.118567556 -0.06267123 -0.07698552 0.017576234
000170 ed 66 39 bd 8d 9d c0 3d 91 c7 21 bd 8d ab 43 bd
       -0.045264173 0.094050504 -0.039496962 -0.047771025
000180 77 ed 2e bd 63 24 db bd 38 85 56 bd 70 c2 c9 bb
       -0.042706933 -0.107002996 -0.05237314 -0.006157212
000190 a9 0c b6 bd 59 7c ab 3a a5 71 99 bc bc cf e7 bd
       -0.088891335 0.0013083323 -0.018730948 -0.11318919
0001a0 e9 d7 05 3d 8c 50 e1 3c f7 5f e2 bd 76 6d e9 bc
       0.03267661 0.027504228 -0.1105346 -0.028494578
0001b0 d0 bf 31 3d c7 7f 33 3d c8 69 39 3c a8 1d f0 bd
       0.043395817 0.04382303 0.011316724 -0.117244065
0001c0 79 12 39 bd fc 89 72 3d 78 87 e5 bb d7 94 a8 bd
       -0.045183633 0.059213623 -0.0070046745 -0.08231514
0001d0 28 71 cc 3d e1 83 28 bd 41 e8 fb bd ae 94 da 3c
       0.0998252 -0.041141395 -0.12300158 0.026682224
0001e0 94 66 d0 3d d3 2f bd bd 84 d5 bc 3d e1 d1 8f bd
       0.10175815 -0.09237637 0.092204124 -0.07022453
0001f0 f0 e4 5d 3d 2e d7 a5 bd ba 9e 88 bd e9 27 ba bd
       0.05417341 -0.08097683 -0.066709 -0.090896435
000200 08 25 15 be 7e 95 25 bd 12 29 cb bd 87 36 00 80
       -0.14564908 -0.04042577 -0.09919943 -1.9561e-41
000210 d2 00 00 00 5b 35 a7 bd 10 cc f1 3d 7e 83 0e 3e
       2.94e-43 -0.081644736 0.118065 0.13917348
000220 73 fe 16 3e 66 9e bb bc c3 74 19 bd 0a c1 a5 3d
       0.14745502 -0.022902679 -0.03746487 0.0809346
000230 86 4f 00 80 00 7d e7 bc 3b ad 96 bd f2 9b d0 3d
       -2.8528e-41 -0.028257847 -0.0735726 0.10185994
000240 3a e8 3c 3d ca 20 07 bd 51 d9 5a 3d 83 a0 c8 3d
       0.046119906 -0.032990254 0.053429905 0.0979624
000250 32 5b 5a bb ac 00 05 3e 7c 9b c7 3c 75 71 0a 3e
       -0.0033318517 0.12988538 0.024366133 0.13519843
000260 08 7a 85 3c 56 46 40 bd 2d 33 a2 3c f5 d3 ee bd
       0.01629354 -0.046942078 0.019799793 -0.11661521
000270 38 86 eb bc 86 80 6f 3c c9 72 23 be d0 b8 c9 bd
       -0.028750524 0.014618045 -0.15961756 -0.09849703
000280 78 8b fa 3b 47 a9 aa bd 9a 24 ba bd b8 87 9a bd
       0.0076460205 -0.08333068 -0.090890124 -0.075454175
000290 04 f0 9a 3c a2 d8 8b bd a1 3c 63 3f 4a d3 53 bd
       0.018913276 -0.06828429 0.8876439 -0.051715173
0002a0 67 7a a2 3c b0 04 06 3e c0 21 21 3d 92 ae 48 3e
       0.019833757 0.13087726 0.039338827 0.19597843
0002b0 14 06 00 00 fc b7 e8 bd f0 04 1c bd 16 a7 97 bd
       2.18e-42 -0.11363217 -0.038090646 -0.07404916
0002c0 99 dd 1f be 76 ae 41 3e 13 7e 07 3c 67 6d a0 bd
       -0.15611877 0.18914208 0.0082698045 -0.07833367
0002d0 be 26 00 bd ce 74 7b 3b f3 c8 09 3b 77 44 bf 3d
       -0.031286947 0.0038369182 0.0021024316 0.093392305
0002e0 85 bf f8 bc 9c 93 70 bc fa 55 ea bd ca 87 71 be
       -0.030364761 -0.01468363 -0.1144218 -0.23586956
0002f0 d8 47 24 3e af da 58 3d 72 3a 00 80 2d 3f bf 3d
       0.16043031 0.052942928 -2.0966e-41 0.09338222
000300 8c cb 0a bd cb 4a 2b 3d 66 c5 90 3d 06 24 db 3d
       -0.033885524 0.041819375 0.07068901 0.1070023
000310 42 05 be bd fe d0 45 3d 35 c2 f2 3d 95 92 48 3d
       -0.092783466 0.048295014 0.11853448 0.048967917
000320 84 99 71 3d 88 5e 0a 3d 5d 1f 6d 3d be 35 f4 bc
       0.058984295 0.03378156 0.05789124 -0.029810783
000330 03 fe a6 3d 28 23 eb 3d 56 70 97 3d 9d ec f2 3d
       0.08153918 0.11481315 0.07394473 0.11861537
000340 55 6d d3 bb eb ca aa 3d a0 7c 8f 3d 93 08 57 3b
       -0.0064522424 0.08339485 0.07006192 0.0032811507
000350 e7 8a aa 3d 5a 0e d4 3c 0b 52 d4 3d c2 a0 a7 bd
       0.08327275 0.02588575 0.10367211 -0.08184959
000360 e1 19 55 3d 49 9a a2 bc d8 df ef 3b 2f 5f d6 bd
       0.052026633 -0.01984896 0.0073203854 -0.104673736
000370 0c ad 71 bd 8a 63 b7 bd ed 25 7e 3c b5 37 05 be
       -0.05900292 -0.089545324 0.015511972 -0.13009532
000380 75 96 52 3d d0 8f 42 bd 0e c8 eb 3d fa 7d 15 3e
       0.05141302 -0.04750043 0.11512767 0.14598837
000390 17 9b 20 3b 72 51 e1 bd cb a4 bd bd fb 93 45 3c
       0.0024506503 -0.110018626 -0.092599474 0.012059207
0003a0 2f 77 24 3e 2f 34 ce 3d 44 1a eb 3d 0a 26 01 3e
       0.1606109 0.10068547 0.11479619 0.12612167
0003b0 00 86 fa 3d f8 0f ca bd 28 b9 b0 bd 01 39 f5 bd
       0.1223259 -0.09866327 -0.08629066 -0.11973763
0003c0 ca 40 ad 3d b1 36 c1 bd 8c 69 56 3d 0a fa e0 3d
       0.08459623 -0.0943426 0.05234675 0.10985191
0003d0 6e cb d2 bd 5b ce 98 3d ea 95 64 bd e1 d4 ac bd
       -0.102927074 0.07461234 -0.05580703 -0.08439041
0003e0 9a 73 01 3e b9 e8 d9 3c d2 59 9e bd 1c 85 a6 ba
       0.12641755 0.026600229 -0.077319756 -0.0012704465
0003f0 6a 2c b9 3d 27 0c 00 3e c1 51 8b bd 57 0d 80 bc
       0.090416744 0.12504636 -0.06802703 -0.015631361

dec.lin2.bias f4 [64]
000000 92 a4 8a 3d 9f 06 d0 3c 3b 0e f3 3d fe 2e a1 3d
       0.067696705 0.025393782 0.118679486 0.07870291
000010 ca ba c7 3d 0d cd 93 bc f0 b0 c6 3c a1 32 b2 bd
       0.09752424 -0.018042112 0.024254292 -0.08701063
000020 97 87 c1 3d ca df 40 be 1f 50 a8 3b b6 08 d1 3d
       0.0944969 -0.18835369 0.0051365043 0.102067396
000030 21 f3 21 3d 6e f4 e2 bd 5d e0 cf 3d 01 4c eb bd
       0.039538506 -0.110817775 0.10150216 -0.11489106
000040 b8 8b e1 3c 81 19 2a bc 48 67 99 bd 7c 92 30 bd
       0.027532443 -0.010382057 -0.074904025 -0.04310845
000050 3d 1a ee bd 3d 24 01 bc c3 40 46 3c 2d 2f cd bc
       -0.11626098 -0.007882175 0.012100401 -0.02504691
000060 1e 8a 6b be 6f 83 89 3c af ef aa 3d ff 60 58 3c
       -0.23001906 0.016786305 0.08346497 0.013206719
000070 98 e6 29 be 26 b2 c4 3d 7d e0 bb 3b f9 9f fa bc
       -0.16591871 0.096042916 0.005733548 -0.030593859
000080 e1 ad c2 3b ba b5 ad bd 06 ca ae bd 7f 30 9e 3d
       0.005941138 -0.08481927 -0.08534627 0.07724094
000090 b0 81 9b 3d fe 26 0b 3e ca d1 9a 3d 3d 01 80 3d
       0.07593095 0.13589093 0.07559545 0.06250236
0000a0 ee 50 0f be 64 2e aa bd 50 fe 20 3c 68 a8 25 3d
       -0.13995716 -0.083096296 0.009826258 0.040443808
0000b0 c0 57 af 3d 5c af cc bd 84 34 92 3a b5 6f df 3d
       0.08561659 -0.09994385 0.0011154567 0.10909978
0000c0 d3 57 c5 3c 17 e6 fb 3d b5 6e a5 3d ad b4 d5 bd
       0.02408973 0.122997455 0.08077756 -0.10434852
0000d0 dc 68 a0 3d c5 43 d3 bc 08 09 fb bb 7c 91 1c bd
       0.078325 -0.025789151 -0.0076609887 -0.038224682
0000e0 ba 61 ec 3b d2 b3 b5 bd da b4 3a bc 9f 2b cf 3d
       0.0072137984 -0.08872189 -0.011395657 0.10115742
0000f0 09 62 ba 3d a0 0b 27 be 6b 91 83 3d 84 ae 3d bd
       0.0910073 -0.16313028 0.06424221 -0.04630901

dec.lin2.weight_v f4 [64, 64]
000000 91 48 6c 3d e3 25 92 3d d8 98 3c bd 4a 33 c7 3d
       0.057686392 0.071361326 -0.0460442 0.097265795
000010 7a 73 87 bc 76 75 f9 bd ac 13 91 3c ef 4f ed 3c
       -0.016534556 -0.12180607 0.017709576 0.02896878
000020 d4 e4 e2 bd ea 07 a0 bd 36 37 81 bc ee 99 90 3d
       -0.11078802 -0.078140095 -0.015773397 0.0706061
000030 5a 7d aa 3c 80 11 99 bd ee 41 89 bd 16 97 2e 3d
       0.020811725 -0.07474041 -0.06702028 0.042624556
000040 bb 86 0e 3c b0 a1 55 3d 25 dd fb 3d d7 36 9f 3d
       0.008699114 0.05215615 0.12298039 0.07774132
000050 ad 8e bf bd 12 f1 09 bd 5a 65 49 bd 42 21 8d bc
       -0.09353385 -0.03367717 -0.049168922 -0.017227773
000060 a2 60 d4 bd 24 e9 24 3d 4c 42 c7 bd 51 a0 fe bd
       -0.10369994 0.040261403 -0.09729442 -0.12432922
000070 df 39 7a 3d 36 d4 9a bd 89 f0 09 3c d9 97 bd bd
       0.061090346 -0.07560007 0.008419164 -0.09257478
000080 1e d4 5b 3d a0 d0 91 3d 58 21 d2 bd ec f9 6b 3d
       0.053669088 0.0711987 -0.10260266 0.05761139
000090 23 88 8f 3c d3 6a 84 3d e8 a7 ba bd a2 07 83 bc
       0.01752097 0.064656876 -0.09114057 -0.01599485
0000a0 1a db db bd b9 30 ed bd 99 d3 f7 bd f7 64 08 bd
       -0.1073515 -0.11581559 -0.12100906 -0.033299413
0000b0 31 a2 e6 bd 62 b2 4e 3c 9d ff 8a 3d 46 3f 4b 3d
       -0.11261404 0.012615772 0.067870356 0.04962089
0000c0 a3 d3 ec bd 3d e6 d4 bd 39 42 3c 3d ae 89 93 3d
       -0.11563804 -0.10395477 0.045961592 0.07203995
0000d0 45 66 c9 bd a9 76 b7 3b 3a 64 8f 3c 25 c9 04 be
       -0.098339595 0.005598862 0.017503846 -0.12967356
0000e0 73 04 fb 3d 81 57 3f bb c7 84 f9 3d 38 0c 7e bd
       0.12256708 -0.0029196444 0.121835284 -0.06202337
0000f0 d0 6e c4 bd 4e 3d d3 3d a3 32 f3 3d 06 a0 c5 bd
       -0.09591448 0.10314427 0.118748926 -0.09649663
000100 95 fe 21 be e2 6c d3 b9 db 19 67 3f e2 99 b6 3c
       -0.15819772 -0.0004032618 0.9027383 0.022290174
000110 f0 05 e5 3d 53 43 b9 33 4c 11 83 b1 57 12 65 3e
       0.11182773 8.62698e-08 -3.814568e-09 0.22370277
000120 01 fa a4 bd 39 b8 6b 3c a0 34 ca 3c 3d ab b8 3d
       -0.08055497 0.014387184 0.024683297 0.09017036
000130 2d d2 be 3a e8 a7 9d 3d 49 99 42 be 4a 54 14 b8
       0.0014558487 0.07698041 -0.19003786 -3.536445e-05
000140 a6 93 76 3d f2 23 9e bc 8e 8c 86 bd 75 87 68 b3
       0.060199402 -0.01930425 -0.065697774 -5.4139907e-08
000150 e3 a5 80 bd b2 e8 6c 3c db 84 4b bd e2 e0 cd 3b
       -0.062816404 0.014459776 -0.049687248 0.0062829116
000160 9e f0 c3 bd 97 76 18 be 64 ff 01 ba 12 6c a0 3c
       -0.095673785 -0.14888988 -0.00049590156 0.019582782
000170 4a aa 96 3d 62 86 f0 bc 7b 7d a7 bc 58 4e 05 3d
       0.07356699 -0.029360954 -0.020445576 0.032545418
000180 c3 b1 71 bd b4 41 a6 b9 2a 68 57 bd 02 5e 59 b1
       -0.059007417 -0.0003171094 -0.052589573 -3.1631093e-09
000190 84 c4 11 bd a4 dc 0e 3d 5b bb 57 3c c1 c3 eb 3c
       -0.035587803 0.034878388 0.013167228 0.028779866
0001a0 b8 02 0b be 96 0b ec bd 79 3b 0a bc 2f 10 1d bc
       -0.13575256 -0.11525647 -0.008437031 -0.009586378
0001b0 88 d4 49 be 75 1c f3 3b f7 55 37 bc 1e 4e e2 ba
       -0.1970998 0.007419164 -0.011189929 -0.0017265712
0001c0 83 d5 f6 bd 8f 01 3d bc 12 f3 c1 3c ae f1 7e 3d
       -0.12052443 -0.011536016 0.023675475 0.062242202
0001d0 19 1f 4e bd a0 2c 79 3d b3 a2 c6 36 68 2a e4 3b
       -0.050322626 0.060833573 5.9198005e-06 0.006963063
0001e0 f1 ff 4e 3c 78 3a 90 3d 40 a1 65 3d 03 ef ea bc
       0.012634263 0.07042402 0.056061983 -0.028678423
0001f0 2a d8 79 bd f0 e6 b4 3d e4 e1 85 3d e5 4c 2a 3e
       -0.060997166 0.0883311 0.06537226 0.16630895
000200 08 1f cb 3d f3 f7 35 bb 37 38 ce be c7 50 12 bd
       0.09918028 -0.0027766197 -0.40277264 -0.035721567
000210 ff cb c2 3c a7 a4 3d bc 0b 12 9c 3a e4 c1 4e be
       0.023778914 -0.011574901 0.0011907233 -0.20191151
000220 5e 7d 73 bd 1c 23 a3 3d be 26 d6 bd 6d 46 9a bd
       -0.05944573 0.07965681 -0.10456608 -0.07532964
000230 aa 5a 73 b6 51 ae e5 3d 15 2e 24 bd 43 f8 10 bb
       -3.6262595e-06 0.11214889 -0.04008301 -0.0022120632
000240 ce b4 9e bc 96 aa 06 bc 33 08 0f bd de cb 88 3c
       -0.019373324 -0.008219382 -0.03491993 0.016698774
000250 b1 2f 17 3e a2 84 32 bd 42 bc 34 bd fc f2 8f bd
       0.14764287 -0.04358352 -0.04412485 -0.070287675
000260 ca 80 82 3d a0 3d 5e 3d 44 28 89 bb e3 da 49 bd
       0.06372221 0.05425799 -0.0041857082 -0.049281012
000270 70 9a 83 bd 3d 5f 7f bd f7 7e fc bb d2 bc bd bd
       -0.06425941 -0.062346686 -0.007705565 -0.0926453
000280 1e aa ca bc b0 20 00 00 5b bd af 3d 8e b3 97 37
       -0.024739321 1.1726e-41 0.085810386 1.8084214e-05
000290 75 70 a6 3c 7c 8e cc 3c ab 2a c8 bd 3e 02 94 3d
       0.020317296 0.024970286 -0.09773763 0.0722699
0002a0 96 a2 a7 bd b6 e8 0d bd 83 86 f3 3d a7 0b 23 be
       -0.08185308 -0.03464576 0.118908904 -0.15922414
0002b0 cb d9 fd 3c 68 f1 c5 bd 82 e6 a4 bc 1b a7 84 3c
       0.03098764 -0.09665185 -0.020129446 0.016192963
0002c0 62 a2 84 3d 50 ff c1 bd 13 c0 eb 3b ad c9 65 bc
       0.064762846 -0.09472525 0.007194528 -0.014025134
0002d0 99 53 dc 3c ff 2c f7 3d f9 66 00 00 74 00 fb 3d
       0.026895331 0.12069129 3.694e-41 0.12255946
0002e0 63 04 ca 3d dc 69 bf bd c9 45 a8 bd c1 7c a7 3d
       0.09864118 -0.09346363 -0.082164355 0.08178092
0002f0 9f 0b 86 bc 1b 65 df bd 52 37 64 3d f9 30 d3 bd
       -0.016362963 -0.10907956 0.05571682 -0.10312075
000300 63 56 91 3d 5f 77 02 00 d0 c5 0c bf 78 65 0e 3d
       0.07096555 2.26493e-40 -0.5498934 0.034764737
000310 10 2b ce bd 84 59 50 32 2c a9 a0 0f b0 68 28 be
       -0.10066807 1.2127547e-08 1.584238e-29 -0.16446185
000320 9d f1 24 3c 5d 7a 8e 3d 93 62 29 3d 3c a9 37 bd
       0.010067371 0.06956933 0.041353773 -0.04483913
000330 f9 43 3f 2f 14 fc a5 bd f6 6e f1 bd 21 1d 7f 37
       1.7395498e-10 -0.08104721 -0.11788742 1.52059665e-05
000340 05 82 86 3c 75 13 26 be b3 fa f2 bd b3 59 c9 36
       0.01641942 -0.1621836 -0.11864223 6.000709e-06
000350 62 00 b4 3d 52 36 60 be 21 fa cb 3d e7 46 98 3d
       0.087891355 -0.21895722 0.09959818 0.074353985
000360 47 87 9d 3c 03 2a af 3d 04 18 2c 24 d8 42 0b 3d
       0.019229544 0.08552935 3.7316897e-17 0.033999294
000370 6f 04 96 be 6d 2a eb bd db 6e b2 bd cb 8b 39 bd
       -0.29300258 -0.114827015 -0.0871255 -0.045299333
000380 1d c1 16 bd 4c 24 97 bb c1 07 3a bc 0b 53 6a 35
       -0.03680526 -0.004612481 -0.011354388 8.7292636e-07
000390 3c f4 56 3d 07 64 d9 bc de 2e e1 3d ff bb 4a 3c
       0.052479014 -0.026536955 0.10995267 0.012373923
0003a0 59 55 37 bd c1 a8 a2 bd e1 f2 bf bd f2 18 1d bb
       -0.04475913 -0.079423435 -0.09372497 -0.0023971167
0003b0 fa 4d 72 3d a9 79 9d 3d 2c 14 2e bd e2 d1 08 be
       0.059156395 0.076892205 -0.042499706 -0.13361314
0003c0 d3 7f cc 3d 0d f7 f0 bd f8 8f 41 bb 98 bf 59 bd
       0.09985318 -0.11765871 -0.0029535275 -0.053161234
0003d0 ba f1 59 3d aa 0e 00 be 00 6a 43 38 8f 98 bd 3d
       0.053209044 -0.12505594 4.6590343e-05 0.09257614
0003e0 a0 96 de bd 6b 6e c7 bc a0 5f 81 bd 75 20 12 3d
       -0.10868573 -0.024344644 -0.06317067 0.035675485
0003f0 66 5a 95 bd 12 6c 8f 3d 18 89 d6 3c 47 3d a5 bd
       -0.07292633 0.07003035 0.026188418 -0.08068328

dec.lin3.weight_v f4 [1, 64]
000000 e2 e2 0c 36 37 c5 5d bd 94 b2 c4 3d 91 3e 8d 3d
       2.0993689e-06 -0.054143157 0.096043736 0.06896699
000010 e1 24 4d bd ab 56 c0 bc f2 0f 22 bd 86 0e 7c 3d
       -0.050084 -0.023478827 -0.039565988 0.061537288
000020 3a d3 a2 3d 81 72 11 be 3b e1 2e bc a2 f0 f6 bc
       0.079504445 -0.14203836 -0.010673816 -0.03014404
000030 d0 ce 22 3d 38 10 8f bb 67 a6 c3 3c a6 72 53 3c
       0.039748013 -0.004365947 0.023883058 0.012905752
000040 78 d5 1e 3b bc 1e 6d 3d 81 9f 33 bb dd 3f 9e 29
       0.0024236124 0.05789064 -0.0027408304 7.027688e-14
000050 88 27 70 3d f7 b4 11 3d 69 6b c7 bc 06 0d 82 3b
       0.05863145 0.035572972 -0.02434321 0.0039688377
000060 0f 24 50 be 04 54 31 bd 10 10 92 3d f1 d6 86 3c
       -0.20326255 -0.043293014 0.0713197 0.016459914
000070 30 3a df bd 64 77 9d 3d 08 39 db bd d2 22 ab bc
       -0.1089977 0.076887876 -0.10704237 -0.020890627
000080 fa 6d 81 bb 8e 8a d3 3b 2a d0 4f bd e7 a7 5a ba
       -0.003949878 0.006455726 -0.05073563 -0.00083410594
000090 f0 c8 5e bd 53 49 05 3d e5 40 04 b8 5f 03 a9 3c
       -0.054390848 0.03254063 -3.153169e-05 0.02063149
0000a0 b1 b7 bd bd 28 7b 95 bb 26 12 2f b7 81 8c 84 bd
       -0.09263552 -0.0045618005 -1.0435038e-05 -0.064721115
0000b0 c4 e2 62 3d 68 b6 f8 bd 29 9f 81 3d 7c 92 c8 3d
       0.05539204 -0.12144166 0.063291855 0.09793565
0000c0 83 86 0b bd 62 0a f2 bd 00 a6 43 3d 6c df 96 3b
       -0.034063827 -0.118183866 0.04776573 0.0046042707
0000d0 28 09 c8 3d 9f b0 d3 3d 4d cc 55 3d ce 4f b4 3d
       0.097673714 0.10336422 0.05219679 0.08804284
0000e0 8b 05 89 bd f4 c6 59 3d 4a a8 e9 bd f8 39 2b 3d
       -0.0669051 0.053168252 -0.11409052 0.04180333
0000f0 ea 0b c9 bd 0d 77 56 be be 23 ec 3d 18 41 3b 3d
       -0.098167256 -0.20943852 0.11530255 0.045716375

exp_avg f4 [64]
000000 37 1f 9b b6 b9 ef 24 38 37 bf 0b 39 c0 91 b8 38
       -4.622994e-06 3.9323906e-05 0.00013327306 8.800952e-05
000010 bf 5a 8d 38 66 b8 a6 38 89 32 eb 38 c0 e7 34 39
       6.740307e-05 7.949844e-05 0.00011215086 0.00017252471
000020 0d 9e 8e 38 82 3f df 38 6b e2 40 37 a3 c2 62 b7
       6.800527e-05 0.00010645298 1.1496809e-05 -1.3515967e-05
000030 00 00 00 00 ac 43 95 38 b2 a4 5c b7 7c bf 21 38
       0.0 7.1174785e-05 -1.3151368e-05 3.8563725e-05
000040 6a 5a 9c b7 62 46 60 39 31 71 00 39 b2 a1 10 38
       -1.8638751e-05 0.00021388524 0.00012249198 3.4482866e-05
000050 4a 23 12 b9 e9 e5 2c b8 99 63 8f b8 86 1d 9f b8
       -0.00013936791 -4.1222116e-05 -6.837323e-05 -7.58721e-05
000060 49 9d 8f b6 e0 64 0d b9 bc 71 c3 b7 36 e0 c5 b8
       -4.2800425e-06 -0.00013484387 -2.3298773e-05 -9.4354546e-05
000070 3a fb 9d b6 f7 9f 1e b9 52 a1 e5 b7 86 22 3a b9
       -4.7082112e-06 -0.00015127646 -2.7374048e-05 -0.00017751203
000080 41 df 4a 38 7c 17 d6 b7 bd f0 90 b8 a7 b9 e0 38
       4.8368474e-05 -2.5521724e-05 -6.911296e-05 0.00010715733
000090 df f2 e1 b8 2d 5f 61 b9 d5 f0 9a 39 37 7a 8a b8
       -0.00010774074 -0.00021493128 0.00029552603 -6.603117e-05
0000a0 0a e4 00 39 2f 31 3f b9 a1 14 16 38 27 e8 ec 38
       0.00012291982 -0.00018233502 3.5782e-05 0.00011296599
0000b0 fb 27 18 39 dc 14 d1 b8 58 1b 79 b8 b8 40 a2 38
       0.00014510743 -9.969782e-05 -5.9391692e-05 7.736817e-05
0000c0 b3 0c 2d 38 77 93 ff b7 c1 42 a0 37 87 42 55 38
       4.125824e-05 -3.0467038e-05 1.9104571e-05 5.0845116e-05
0000d0 0a 19 b4 b7 30 63 2c 37 40 35 55 b9 2c 82 4e 36
       -2.1469332e-05 1.0275093e-05 -0.000203331 3.0772162e-06
0000e0 bc c9 4e 37 86 92 6c 36 35 ee fd b8 98 dd 1b 39
       1.2325527e-05 3.5252028e-06 -0.000121083496 0.00014864502
0000f0 cd 50 81 b8 25 7b 26 39 8d 7a 3e 3a 91 06 7b 38
       -6.16625e-05 0.00015876869 0.00072661863 5.984918e-05

exp_avg_sq f4 [64]
000000 4a b0 e1 34 87 0c 90 34 ff 85 00 35 6f 33 c3 37
       4.2037783e-07 2.6831205e-07 4.7878706e-07 2.3269762e-05
000010 58 02 ef 35 dd 3e 99 34 ad f3 b8 34 33 3d 51 35
       1.780757e-06 2.854421e-07 3.4449968e-07 7.7947624e-07
000020 a1 d8 92 35 30 e7 26 35 41 d6 2e 35 5f 4e 86 36
       1.0940895e-06 6.217624e-07 6.513183e-07 4.002635e-06
000030 00 00 00 00 c8 cd 8f 35 31 9e 48 34 f7 54 ca 33
       0.0 1.071422e-06 1.8684001e-07 9.421813e-08
000040 5f ba ad 34 a6 9c aa 35 c2 db ad 35 03 19 8a 34
       3.2359364e-07 1.2711578e-06 1.2953462e-06 2.5722701e-07
000050 9c 5b 93 35 b3 30 9a 34 2b 54 df 34 77 d0 b5 35
       1.0979015e-06 2.872017e-07 4.1598227e-07 1.3546222e-06
000060 f3 ba 54 34 74 58 1a 36 a0 02 8c 34 ef 0b 4a 35
       1.981205e-07 2.2999275e-06 2.6078942e-07 7.526823e-07
000070 7f ba 0c 35 71 06 0d 35 40 94 6f 35 57 ff 83 35
       5.242545e-07 5.2535967e-07 8.925017e-07 9.834574e-07
000080 a9 1a 0d 34 da 9a 94 33 5a e2 22 36 41 5e d3 35
       1.3141347e-07 6.9199544e-08 2.4271635e-06 1.5748157e-06
000090 18 d9 d3 34 0e ed a7 35 3f 56 45 37 00 15 6d 36
       3.945977e-07 1.2511462e-06 1.1762196e-05 3.5327976e-06
0000a0 9a 2d bf 35 b7 45 c3 34 8d 0d 1f 34 dd e0 2d 36
       1.4243881e-06 3.6372305e-07 1.4812959e-07 2.5909897e-06
0000b0 07 aa 6d 36 dd 14 f8 35 a5 ce 40 34 32 d4 52 35
       3.541472e-06 1.8483512e-06 1.795657e-07 7.853988e-07
0000c0 ac 50 3b 35 51 88 25 35 90 58 8e 33 ad f3 a4 33
       6.978032e-07 6.1665656e-07 6.6285e-08 7.6811695e-08
0000d0 c3 06 47 34 df 7b 56 35 93 0c 75 36 4a 62 cb 34
       1.8535779e-07 7.990147e-07 3.6515164e-06 3.788321e-07
0000e0 4d 4c f6 34 95 ad 6d 35 03 58 88 35 bb 46 65 35
       4.5876587e-07 8.8541975e-07 1.0158404e-06 8.5412074e-07
0000f0 ca d5 a2 34 f5 8d ed 35 6d d0 2d 37 c1 30 ef 33
       3.0330403e-07 1.7699191e-06 1.03601315e-05 1.1138173e-07

exp_avg f4 [64, 4]
000000 84 41 96 38 e9 5b de 38 d1 30 52 39 c1 8b bb b8
       7.1647606e-05 0.000106029045 0.00020045346 -8.942886e-05
000010 bb 89 0e b8 4e 32 44 b8 3f f7 3f b8 9d ef 5b b5
       -3.398371e-05 -4.677689e-05 -4.5768214e-05 -8.193254e-07
000020 49 0e 4d 38 c0 b7 0c 39 dd e0 38 39 0c 33 a2 38
       4.8889113e-05 0.00013419893 0.00017631376 7.73427e-05
000030 a2 a7 46 34 cc 64 12 36 bd 4b f1 b4 8a 59 fa 38
       1.8501171e-07 2.1814367e-06 -4.4944855e-07 0.00011937607
000040 95 0c 8f b7 54 71 43 b8 27 94 3a 37 2a 6c 98 38
       -1.7052787e-05 -4.6597168e-05 1.1120958e-05 7.268072e-05
000050 3e 1c 07 37 88 39 d3 36 af 99 1a b9 e1 b6 e3 b8
       8.053203e-06 6.2949875e-06 -0.00014743836 -0.00010858267
000060 7d 18 82 39 8f d4 cb 38 ad 0c 42 38 cd fb 5e 39
       0.00024813777 9.7193864e-05 4.626501e-05 0.00021265373
000070 c0 98 67 39 17 55 b9 38 1d 98 08 b9 05 a7 fb 38
       0.0002208678 8.837337e-05 -0.00013026637 0.000119997225
000080 c3 2d e1 b6 3b 35 a1 b6 82 b1 09 b9 dc b8 75 39
       -6.71085e-06 -4.8043707e-06 -0.00013131465 0.00023433886
000090 b9 98 f8 38 dc a1 c0 38 e8 1d 0a 39 01 5c 49 b9
       0.00011854008 9.185422e-05 0.00013171847 -0.00019203128
0000a0 61 12 a3 38 9a ac e6 37 c5 45 b5 b7 2f e3 33 b8
       7.775869e-05 2.749851e-05 -2.160937e-05 -4.2888507e-05
0000b0 41 9c 51 b9 e9 4c 06 b8 c7 54 f7 39 07 81 fa b8
       -0.00019990002 -3.2019718e-05 0.00047174675 -0.00011944962
0000c0 00 00 00 00 00 00 00 00 00 00 00 00 00 00 00 00
       0.0 0.0 0.0 0.0
0000d0 7c dc aa b8 cd 04 b6 b7 06 fb bd b8 d9 b4 0f b6
       -8.1473e-05 -2.1698326e-05 -9.058979e-05 -2.1413928e-06
0000e0 38 3c cd b8 18 94 f5 b8 7d 35 87 b8 99 ba f2 b6
       -9.786378e-05 -0.00011710095 -6.4472646e-05 -7.233885e-06
0000f0 be 02 6b 37 1e 5c 9a 37 0f 4c 9b b7 85 db 0d 38
       1.400773e-05 1.8401126e-05 -1.8512857e-05 3.3821463e-05
000100 86 23 b4 b8 eb 20 9d b8 b8 67 66 b9 a4 0f b8 38
       -8.5896856e-05 -7.492475e-05 -0.00021973148 8.776717e-05
000110 01 fe 2e 37 f1 6f 83 39 47 04 78 35 e2 f8 cf b7
       1.0430348e-05 0.0002506967 9.2393424e-07 -2.4792218e-05
000120 a8 6e 20 38 02 16 9c b7 77 ef 82 b9 24 31 6e b9
       3.825003e-05 -1.8606897e-05 -0.00024973947 -0.00022715755
000130 f7 18 d7 38 f5 9d 7c 38 42 05 88 38 2c f5 67 38
       0.00010256649 6.022859e-05 6.485965e-05 5.5303026e-05
000140 da 69 94 38 dc d7 ac 37 56 20 20 b7 85 8f f8 b5
       7.076906e-05 2.0604515e-05 -9.544272e-06 -1.851921e-06
000150 83 37 fe b8 46 90 7a b8 1f 01 dc 38 35 28 60 39
       -0.00012122004 -5.973901e-05 0.00010490626 0.00021377283
000160 fa 05 b3 b6 8b bf 10 b7 0d d5 8e 38 ac d5 92 38
       -5.3353115e-06 -8.627666e-06 6.8107714e-05 7.001622e-05
000170 21 a3 85 38 c8 4d f3 b8 2b e6 8e 39 4b 24 05 b9
       6.372319e-05 -0.00011601631 0.0002725584 -0.00012697389
000180 5b e7 8f b8 fe 91 01 b9 9a a5 6a b9 79 cc 52 b8
       -6.861865e-05 -0.00012356785 -0.0002237767 -5.025833e-05
000190 2a 43 31 ba 22 68 40 ba 1e 1f 66 ba 5d 2f 14 39
       -0.00067620224 -0.0007339736 -0.00087784405 0.00014132024
0001a0 33 44 ed b8 31 7e af b8 73 65 0a b9 70 32 2f 36
       -0.00011313744 -8.368155e-05 -0.00013198498 2.610639e-06
0001b0 20 d9 80 b7 4b 02 ce b8 db a0 fb 37 ec 41 4e b8
       -1.5359896e-05 -9.8232726e-05 2.9996436e-05 -4.9175622e-05
0001c0 43 e2 89 38 68 1a 30 38 85 4a 4c 38 71 94 88 b8
       6.5748136e-05 4.1986263e-05 4.8706792e-05 -6.512635e-05
0001d0 f6 1b c3 b9 98 67 c6 b9 91 9a c0 b9 b8 03 55 b9
       -0.0003721413 -0.00037842686 -0.00036736255 -0.00020314648
0001e0 5e b1 e7 b8 6c 32 0e b9 f9 4b bb b8 5c 9f 60 b7
       -0.000110479756 -0.00013560959 -8.931006e-05 -1.3388544e-05
0001f0 06 62 11 b9 d1 8d 16 b9 6c f7 2c b9 5a ab 07 39
       -0.00013864794 -0.00014357945 -0.0001649537 0.00012938437
000200 1e 7e 73 37 cd 85 b3 36 4e 6e 0e b8 75 d0 4b 36
       1.4513293e-05 5.350192e-06 -3.3958167e-05 3.0370695e-06
000210 b2 1b 43 b7 0a 29 e0 b5 10 d4 6a 35 3e 1c 82 b7
       -1.1629354e-05 -1.6701244e-06 8.7480385e-07 -1.5510359e-05
000220 da 58 93 b9 42 49 52 b9 00 36 ff b9 bd 67 d5 b7
       -0.00028104224 -0.00020054451 -0.00048677623 -2.5439886e-05
000230 b8 15 72 38 cf 01 33 35 8e c4 1d b8 bd 46 12 b9
       5.7717523e-05 6.668533e-07 -3.7614773e-05 -0.00013949997
000240 e1 2c c0 b9 3e c9 09 ba 2e b1 11 ba 8d 21 2e b9
       -0.0003665453 -0.00052561227 -0.0005557713 -0.00016606432
000250 40 95 59 b9 0c b2 89 b9 1f d3 e8 b8 21 41 91 b8
       -0.00020750333 -0.00026263332 -0.000111019464 -6.92627e-05
000260 1e dc 45 39 0f 5a 86 39 d3 a7 eb b8 4b ad 84 3a
       0.00018869384 0.0002562557 -0.00011236933 0.0010122446
000270 20 ac 86 bb 21 92 8f bb 7b 75 73 bb ca 26 25 3a
       -0.0041098744 -0.0043814336 -0.0037148881 0.00063000305
000280 c7 04 b2 39 26 20 80 39 d0 23 51 b9 9f 02 0f 38
       0.00033954365 0.00024438015 -0.00019945134 3.4096298e-05
000290 f8 98 9a b9 b1 a0 65 b9 44 22 f9 38 fb b5 36 b9
       -0.0002948714 -0.00021899004 0.00011879628 -0.00017424666
0002a0 74 84 b7 b7 f2 ea 58 b7 ad 63 d7 38 2a 95 89 b8
       -2.1876978e-05 -1.2929306e-05 0.00010270565 -6.560453e-05
0002b0 f7 7f 65 36 aa 54 a4 b7 87 eb 46 b9 a6 c3 85 39
       3.4198144e-06 -1.9589748e-05 -0.00018970492 0.00025513506
0002c0 5a a5 58 39 82 b0 e2 38 94 4e 9b 38 95 35 3d 39
       0.00020660963 0.00010809397 7.405612e-05 0.00018044405
0002d0 5a 1b 06 b9 2e eb 8a b8 9e 2e 26 b9 34 7a 66 b9
       -0.00012789425 -6.6241584e-05 -0.0001584836 -0.00021980033
0002e0 ab c3 54 b8 92 f2 aa b8 2b dd d4 37 fc c7 84 b8
       -5.072697e-05 -8.151414e-05 2.5375359e-05 -6.3315005e-05
0002f0 2d db e1 b8 26 81 9a 38 aa 96 b1 38 12 52 d9 b8
       -0.00010769661 7.367348e-05 8.468081e-05 -0.00010362653
000300 6c 60 42 b8 b3 d7 21 b8 d6 1b 86 b9 f0 5e 70 b8
       -4.6343004e-05 -3.8586277e-05 -0.0002557921 -5.7308876e-05
000310 64 29 ff b8 a5 b9 95 b8 ef 2f 1a b8 54 5c 87 39
       -0.00012167057 -7.139453e-05 -3.6761103e-05 0.00025817996
000320 d7 d9 c1 b6 3b 21 24 b7 0e cf 34 b8 7b 0e 42 b7
       -5.777208e-06 -9.782899e-06 -4.310818e-05 -1.1566673e-05
000330 07 c7 75 38 21 5f df b7 c6 16 55 38 47 96 5c b8
       5.859791e-05 -2.662797e-05 5.0804367e-05 -5.2592044e-05
000340 90 1f 1c b7 4f 33 18 b7 58 db 1e 36 3e 44 dc b7
       -9.305673e-06 -9.071852e-06 2.367151e-06 -2.6257821e-05
000350 b7 46 c5 b7 98 eb 5e b6 7d bd 38 39 7e 4f 39 b5
       -2.351716e-05 -3.3217711e-06 0.00017618197 -6.9033547e-07
000360 07 f9 c0 39 bd b7 76 39 7d d0 b1 39 f6 8d f3 38
       0.00036806634 0.00023528836 0.00033915407 0.00011613585
000370 4f b5 83 b8 66 cb ba b7 55 a3 07 b9 3d e5 f2 37
       -6.280338e-05 -2.2267643e-05 -0.00012935449 2.8955395e-05
000380 64 eb 84 b7 19 3f 13 b7 2e 90 c2 b6 0f ee 88 b7
       -1.5845239e-05 -8.776574e-06 -5.7984353e-06 -1.6323318e-05
000390 05 54 59 b8 d6 27 d5 b8 d2 02 77 37 78 3e 11 b6
       -5.181508e-05 -0.000101640515 1.4723004e-05 -2.1643045e-06
0003a0 89 98 c5 b6 67 7e 15 b8 62 3a 5f b8 6c ce 8e b8
       -5.888815e-06 -3.564209e-05 -5.3221716e-05 -6.809537e-05
0003b0 15 52 60 b8 9e d4 61 37 1e df 59 37 5a 82 d8 b8
       -5.3482207e-05 1.3460549e-05 1.2986156e-05 -0.000103239625
0003c0 f7 f5 df b8 90 cb 92 b8 96 a4 4d b9 80 54 08 b9
       -0.00010679283 -6.999739e-05 -0.00019611637 -0.0001300145
0003d0 52 ee 76 39 c7 41 53 39 c9 62 72 b9 6e 0a e9 b7
       0.0002354917 0.00020147032 -0.00023115719 -2.7780621e-05
0003e0 12 90 80 3a 69 0b cd 39 7f 3d fc 39 a9 a1 5b b9
       0.0009808561 0.00039109148 0.00048111004 -0.0002094569
0003f0 67 b4 dd 37 30 ea e7 37 69 14 03 b8 b2 e6 36 38
       2.642926e-05 2.7646398e-05 -3.1251842e-05 4.3607033e-05

exp_avg_sq f4 [64, 4]
000000 3e be f0 35 14 c2 21 36 d5 fe a3 35 25 49 90 34
       1.7936761e-06 2.4103838e-06 1.2218612e-06 2.687531e-07
000010 af 48 d9 34 f3 76 a5 34 19 11 2c 34 e2 62 ea 33
       4.0472284e-07 3.0820192e-07 1.6024968e-07 1.0914461e-07
000020 10 5c 41 34 2d 00 f4 34 3d 4f 22 35 15 f2 0a 35
       1.8008018e-07 4.544867e-07 6.046501e-07 5.176128e-07
000030 32 a4 80 35 b6 86 6e 37 b2 08 b7 37 17 d2 82 37
       9.58453e-07 1.421727e-05 2.1819349e-05 1.5595038e-05
000040 83 19 78 35 a1 3e 62 33 75 40 0d 35 c8 75 7f 35
       9.2424324e-07 5.2676686e-08 5.262039e-07 9.5166297e-07
000050 77 50 9c 33 5c bb 3d 33 c0 aa 0c 35 9d a2 0e 34
       7.2789526e-08 4.4175394e-08 5.240254e-07 1.3283939e-07
000060 16 bf 25 36 22 cb a7 35 bd 00 50 34 c1 a5 d3 34
       2.4698143e-06 1.2501589e-06 1.9371778e-07 3.9422414e-07
000070 74 85 51 36 9a cf 04 36 d6 c2 74 35 fa cc f3 34
       3.1221107e-06 1.9790373e-06 9.1180607e-07 4.5411417e-07
000080 9a 6f f6 35 81 78 3a 36 f0 1c 80 34 b7 e4 05 35
       1.8360909e-06 2.7786302e-06 2.3862913e-07 4.9879185e-07
000090 79 3e 1b 35 82 45 a1 34 97 cf cf 34 72 95 e4 34
       5.783291e-07 3.003916e-07 3.8707796e-07 4.2577045e-07
0000a0 d7 35 0e 36 f9 e4 00 36 c3 58 d6 35 c0 4b 43 35
       2.1190988e-06 1.9206766e-06 1.5970076e-06 7.275339e-07
0000b0 71 13 46 37 fb 50 8d 36 61 77 d3 36 18 c8 46 36
       1.1806246e-05 4.211555e-06 6.3021876e-06 2.962077e-06
0000c0 00 00 00 00 00 00 00 00 00 00 00 00 00 00 00 00
       0.0 0.0 0.0 0.0
0000d0 79 da 94 35 88 78 a5 35 87 37 f5 34 5a 44 d4 34
       1.1090443e-06 1.2328537e-06 4.5675208e-07 3.953781e-07
0000e0 c9 68 5f 35 4e 1c 43 35 6e ea c1 34 d7 26 01 34
       8.3226456e-07 7.268435e-07 3.6119621e-07 1.2028191e-07
0000f0 36 0c 6e 32 6f 15 cd 32 b5 a0 67 33 f5 3b b0 33
       1.38562e-08 2.3874888e-08 5.393004e-08 8.206545e-08
000100 0c be ac 34 f8 b1 d7 33 8e d2 ea 34 c1 ad 02 35
       3.2175774e-07 1.004409e-07 4.3739095e-07 4.868162e-07
000110 07 7b cc 34 09 33 91 35 52 02 6e 34 cf d5 19 35
       3.8087475e-07 1.0818195e-06 2.2166321e-07 5.7308074e-07
000120 bf 97 2f 36 b1 d8 f2 35 1d 9e f6 34 f7 0a 9c 34
       2.616536e-06 1.809347e-06 4.5936113e-07 2.9065242e-07
000130 83 2a a2 34 e3 2b 55 35 a6 3d f5 34 f1 40 fc 34
       3.0205783e-07 7.9412547e-07 4.567966e-07 4.698591e-07
000140 d0 58 98 34 eb d3 b3 34 ae 61 cb 33 6d b5 05 35
       2.8376826e-07 3.349554e-07 9.470692e-08 4.981037e-07
000150 6d b0 38 34 95 8c dc 33 90 83 86 35 4d 1e 06 35
       1.7200519e-07 1.027012e-07 1.0022068e-06 4.9962983e-07
000160 87 ee fb 31 46 3b b0 32 d6 82 46 34 42 f0 00 34
       7.332179e-09 2.0516051e-08 1.8487785e-07 1.2008334e-07
000170 85 cc 05 36 a3 62 91 36 65 9b dc 35 cc ea dd 35
       1.993759e-06 4.3328196e-06 1.6436503e-06 1.6534118e-06
000180 03 b4 9f 34 2f 67 29 35 17 13 90 35 6b ff c4 33
       2.9747034e-07 6.310756e-07 1.0734392e-06 9.1734215e-08
000190 42 49 ae 36 dc b8 00 37 4b ae 45 37 5f 1f 6a 36
       5.1941324e-06 7.6724355e-06 1.1782696e-05 3.4886978e-06
0001a0 05 ce 7f 34 05 b8 e7 34 96 a3 a6 34 38 f6 b3 33
       2.3823675e-07 4.3160995e-07 3.1038934e-07 8.380124e-08
0001b0 e2 93 ac 34 2a 0c 08 35 69 ce e8 35 bc 23 56 35
       3.2145095e-07 5.068165e-07 1.734542e-06 7.977321e-07
0001c0 47 26 07 35 52 28 07 35 0a 47 de 34 f9 7f 20 35
       5.034712e-07 5.035009e-07 4.140241e-07 5.979087e-07
0001d0 45 a3 bf 35 ee 7b d2 35 b8 47 12 35 19 97 3c 34
       1.4278127e-06 1.5682288e-06 5.4493603e-07 1.7563833e-07
0001e0 64 43 68 35 9e 77 8b 35 40 38 a7 34 8b d1 cd 34
       8.65248e-07 1.039112e-06 3.11471e-07 3.8336688e-07
0001f0 06 f4 4e 35 98 15 b6 35 d8 59 a1 35 99 ec 85 35
       7.709608e-07 1.3566341e-06 1.2021583e-06 9.978131e-07
000200 db 25 a7 33 3a 01 11 33 cc 41 ef 33 0d bc 2d 33
       7.7834294e-08 3.376156e-08 1.1141273e-07 4.0450733e-08
000210 91 52 83 32 61 f8 cb 2f 5c 11 ec 33 b0 1e c8 32
       1.5287954e-08 3.710197e-10 1.0992764e-07 2.329702e-08
000220 17 24 37 36 63 b6 31 36 68 03 df 36 74 0c 59 36
       2.7290132e-06 2.6481218e-06 6.6463144e-06 3.2342768e-06
000230 71 ac 51 36 80 5a 3d 36 3b 06 23 36 df 8a 99 35
       3.12438e-06 2.8215873e-06 2.429252e-06 1.1439805e-06
000240 74 b6 fe 34 9a 69 27 36 87 37 a5 35 7b 01 66 35
       4.744394e-07 2.4946407e-06 1.2309619e-06 8.568383e-07
000250 13 03 ab 35 b4 12 09 36 71 9b c9 35 94 fc 17 35
       1.2741388e-06 2.0425477e-06 1.5020906e-06 5.6619433e-07
000260 ce 66 79 36 38 65 29 37 6a ec 52 36 59 f4 e5 36
       3.7163732e-06 1.0096752e-05 3.143005e-06 6.8531776e-06
000270 7b c6 87 39 36 a9 82 39 b4 29 12 3a 62 2d 3c 39
       0.00025897086 0.00024921604 0.0005575672 0.00017945984
000280 74 c8 47 37 62 ca e2 36 13 93 df 35 61 81 bc 33
       1.1907996e-05 6.7588853e-06 1.6657599e-06 8.777966e-08
000290 9c 80 a7 35 19 ef 72 35 85 d9 8a 35 99 d1 09 35
       1.24799e-06 9.049996e-07 1.0345108e-06 5.134148e-07
0002a0 5c 73 3b 32 0b 80 9c 31 71 2f 4a 34 20 b9 ea 34
       1.0911062e-08 4.5547544e-09 1.8829975e-07 4.3720593e-07
0002b0 57 65 db 36 6c fc 4e 36 a2 b9 6e 35 72 48 5b 36
       6.538506e-06 3.084332e-06 8.893204e-07 3.2675712e-06
0002c0 1c 83 94 37 5c c2 05 37 12 c3 48 35 5e a8 4c 36
       1.7704027e-05 7.972671e-06 7.478967e-07 3.0496371e-06
0002d0 91 d3 b0 35 0c eb 27 34 3a 45 fd 35 4c aa 02 36
       1.3174596e-06 1.5638597e-07 1.8870116e-06 1.9470635e-06
0002e0 5f 75 bc 34 f5 f2 06 35 99 38 11 34 72 0b 29 34
       3.5103128e-07 5.027244e-07 1.3524767e-07 1.5743515e-07
0002f0 0b 08 80 35 32 41 f4 35 f3 db 9f 35 94 56 c2 34
       9.539084e-07 1.8198391e-06 1.1910437e-06 3.619831e-07
000300 db 22 cc 34 4e e4 b9 34 d7 56 b7 35 9d bd e6 34
       3.8023322e-07 3.462505e-07 1.3659836e-06 4.29788e-07
000310 bb b2 2f 35 f5 1e a7 34 09 87 d1 34 39 04 d5 35
       6.545267e-07 3.1128698e-07 3.9027535e-07 1.5870966e-06
000320 a6 a6 dc 30 af f3 a5 31 d2 68 6d 33 5b 5c 3c 32
       1.6054471e-09 4.8298356e-09 5.5276196e-08 1.09640395e-08
000330 b6 78 c9 33 fa f2 8a 33 a0 9d 89 34 0c 02 2c 34
       9.381749e-08 6.470323e-08 2.5632926e-07 1.6019493e-07
000340 30 7b 0d 33 0e 6e 0c 33 6b 70 d8 33 3f e8 13 34
       3.294116e-08 3.2696384e-08 1.00787325e-07 1.3774932e-07
000350 8f 3d 26 35 5b e6 49 32 e3 88 d7 35 ce 8c ff 35
       6.19294e-07 1.1752117e-08 1.6058588e-06 1.903996e-06
000360 af 5f 7a 35 98 73 18 35 be 9e 84 35 93 8a 95 35
       9.3271495e-07 5.6792624e-07 9.880966e-07 1.1141695e-06
000370 b6 c0 3c 34 16 4e c1 34 89 05 d1 34 84 e7 8f 34
       1.7578972e-07 3.6005866e-07 3.893331e-07 2.6804275e-07
000380 7f 1a 83 34 73 95 69 34 a4 c2 45 35 51 a3 5a 35
       2.441993e-07 2.1754185e-07 7.367146e-07 8.1448985e-07
000390 41 eb 13 35 6b 37 1d 36 48 98 6c 34 5c 65 1d 33
       5.5104107e-07 2.342708e-06 2.2034612e-07 3.6646597e-08
0003a0 01 19 1d 35 f2 55 71 35 9f 87 02 35 55 85 c3 34
       5.8523443e-07 8.9904563e-07 4.862613e-07 3.6418592e-07
0003b0 33 7d 40 35 9b 10 66 35 49 5d eb 35 41 b4 3f 35
       7.170776e-07 8.570584e-07 1.7536014e-06 7.141535e-07
0003c0 b2 ee 0e 34 2b 87 95 34 2d d3 3e 34 67 5e 94 33
       1.3311617e-07 2.785176e-07 1.7771954e-07 6.908959e-08
0003d0 99 08 c3 36 6b e1 8d 36 ee 43 9b 35 e7 d5 5c 35
       5.8124538e-06 4.2283696e-06 1.156817e-06 8.2267655e-07
0003e0 08 3c 34 37 bf 86 8a 36 9d 21 e4 36 66 14 92 36
       1.0742813e-05 4.128407e-06 6.7988426e-06 4.3535138e-06
0003f0 ee e4 dc 32 f2 3d f1 32 9a 35 f6 33 97 e4 58 33
       2.5715476e-08 2.8084262e-08 1.1465018e-07 5.049932e-08

exp_avg f4 [64]
000000 1f b3 df 37 04 00 00 00 f6 8b 6e 39 32 7e 39 39
       2.6667081e-05 6e-45 0.00022749588 0.00017689986
000010 bc c4 6a 37 04 00 00 00 04 00 00 00 67 77 6f b9
       1.3993293e-05 6e-45 6e-45 -0.00022837297
000020 e0 dd fb 37 4b 55 23 39 1b e2 ec b7 6f 6b 33 b7
       3.002485e-05 0.00015576665 -2.823868e-05 -1.0694245e-05
000030 04 00 00 00 79 01 cd 38 db 11 93 b6 00 00 00 00
       6e-45 9.775436e-05 -4.38302e-06 0.0
000040 99 5c 3e 38 94 e4 5b 37 c0 bf 08 38 04 00 00 00
       4.538577e-05 1.3106637e-05 3.2603508e-05 6e-45
000050 f5 7c b4 39 fe fe 80 b8 18 a3 81 37 03 ac ed b8
       0.00034425376 -6.1510116e-05 1.5453945e-05 -0.0001133308
000060 8d 69 84 39 34 54 66 39 04 00 00 00 1a 3e ee b8
       0.00025255643 0.00021965877 6e-45 -0.00011360292
000070 cf 86 02 b9 2e 17 68 38 77 31 00 39 d4 92 84 38
       -0.00012447986 5.5334698e-05 0.00012225458 6.321599e-05
000080 de 33 3d b8 04 00 00 00 17 34 38 b8 40 00 00 00
       -4.5109417e-05 6e-45 -4.391753e-05 9e-44
000090 ac 6b 11 b9 be 42 12 b9 04 d5 73 b7 71 eb 83 37
       -0.00013868388 -0.00013948508 -1.4533525e-05 1.5726053e-05
0000a0 c2 d2 06 39 6a b1 e4 b8 d4 8c 46 39 ae 50 56 b8
       0.00012857749 -0.00010904933 0.00018935214 -5.1096715e-05
0000b0 28 44 3e 39 31 9c 8d b8 3e 18 5f b6 fd c9 9e 39
       0.00018145202 -6.752497e-05 -3.32437e-06 0.000302866
0000c0 7f 6d 2f b8 04 9f 3d b8 43 94 8d 39 44 7e 9e b8
       -4.1825228e-05 -4.5209206e-05 0.0002700408 -7.557546e-05
0000d0 15 12 d2 b8 3a 73 79 37 04 00 00 00 fd 34 28 b8
       -0.00010016948 1.4868385e-05 6e-45 -4.010367e-05
0000e0 57 64 27 38 ba ad fb b5 69 45 b4 b8 89 7b 2e 37
       3.990935e-05 -1.8751518e-06 -8.5959975e-05 1.0399971e-05
0000f0 94 b6 0b b9 b1 6e 2d b8 06 04 97 b7 41 ea aa b8
       -0.00013324089 -4.1349504e-05 -1.8002476e-05 -8.149865e-05
