log/alpha=0.001/version_None/checkpoints/epoch=2499-step=4999-v1.ckpt (torch, 116924 bytes, 21 tensors)

dec.lin0.bias f4 [64]
00000000: d94e 73be 2073 6d3e d830 ccbe 21ee 32bb
00000010: 6f68 f13e b581 2fbe d35d 2abe 2feb fcbd
00000020: d70e 1abe 3d9f d83e f7b0 36bd cc36 9b3e
00000030: 79a2 93bd 2151 103f 8a19 96be b111 e03e
00000040: ad05 b8bb 68fc 2dbd 48e2 9bbe 50d3 ab3e
00000050: dafe a5be 72e2 82bb f9d0 233f b5bb 183f
00000060: cd77 793e eb9e fdbe d827 ed3e 4cbf acbe
00000070: 21f2 873e 5261 123f ef2d 2ebd dcb0 d9bd
00000080: 71b2 1ebe 278f eb3e 6498 a1be 3284 053f
00000090: 296a f23d 199f 403e c1a7 b03b 62f5 fb3e
000000a0: ab02 11be 7dda c6be b779 bc3e 7060 cbbc
000000b0: aa12 03be 6734 1ebe f64e 90be 5947 01bf
000000c0: 86d6 f73d adae 1ebf 5c0c 143f dae8 f0be
000000d0: 9d2a 32be 04b5 6a3d 6839 233f 9ee6 183e
000000e0: ffdc b8be 2f76 783e 4dc5 e8be 330a e2be
000000f0: b4b0 e3bd 1c26 fabe af29 b43e a0be ebbe
-0.23760547 0.23188448 -0.39881015 -0.002730258 0.4714999 -0.17139323 -0.16637354 -0.12349545
-0.15044723 0.4230899 -0.04460236 0.30315244 -0.072087236 0.5637379 -0.2931636 0.43763497
-0.005615911 -0.04247704 -0.30446076 0.33559656 -0.32421 -0.0039942795 0.6399074 0.5966142
0.24362107 -0.49535307 0.4631946 -0.33739698 0.26551917 0.5717975 -0.042524274 -0.106294364
-0.15497757 0.46007654 -0.31561577 0.5215484 0.11836655 0.18810691 0.0053910916 0.4921065
-0.14161174 -0.38838568 0.3681161 -0.024826258 -0.12800089 -0.15449677 -0.28185242 -0.5049949
0.12101464 -0.61985284 0.5783136 -0.47052652 -0.17399068 0.057301536 0.6375947 0.14931723
-0.36106107 0.24263833 -0.4546303 -0.44148406 -0.11117688 -0.488572 0.35188052 -0.46043873

dec.lin0.weight_v f4 [64, 4]
00000000: 3794 acbe 4fe5 adbe 1d1b 85bd 5e38 ec3e
00000010: e626 a3be 81b0 ab3e 3c4d b5be a278 e93e
00000020: dc8e 973e e527 83be b997 963e 7ebe 853e
00000030: 8669 a1bd ddfe cfbd f277 8dbe 3263 8ebe
00000040: 2d44 7c3c 12dd 91be 5465 a83e 6f50 393e
00000050: 9743 5cbe adfc 95bd 78f7 ea3e 5e5d f83d
00000060: d4bf c2bd 22f5 16bd 6edd 20be 4003 ac3e
00000070: 194b 82be 85b2 14be 193d 8bbd d081 8ebe
00000080: fed4 a33e c035 acbe 4abe c93e fb36 d23d
00000090: bfc1 f13e bc77 93be cd2b 85be d192 78be
000000a0: d804 d33e 8c6d 5fbd 4a66 403e 69f9 3abe
000000b0: 7376 0dbe 0787 b9be e528 a8be 664e 10bf
000000c0: 7e50 433e 9228 c3bd ffab 05be 6bb3 713e
000000d0: 037a b2bd 5246 87bd 06c4 cc3e d637 cc3e
000000e0: 58c8 923c 9857 90be 4288 aa3e 057e e9be
000000f0: bc74 85bc b78d 45be 4464 efbe b505 6d3d
00000100: 6323 73be 5a9e 983e 7144 b5be 9975 edbd
00000110: 0ee1 84be c6ca b03e 5668 06bf 3086 2c3e
00000120: d74c 053e 351e d9be f649 a1bd aed6 593e
00000130: 4bdc d2bd 4660 f23e 3455 0a3d 2b56 cb3e
00000140: 7a4a 81bd fa0d ad3e c43e 35be 6834 6cbe
00000150: f74d da3d a8bf 763e 53db 783e a4f5 d53d
00000160: db74 e73e 771b d8be 77f2 b03e 0e99 bdbd
00000170: 457f 82be bc3a 09bf 2c8e bcbe 5df7 bb3e
00000180: 9480 70bd a9af edbd 2b31 3dbe 0213 993e
00000190: 6167 ec3e 8c6a bd3d 70d5 f3be 667d f03e
000001a0: 7206 3a3e 86f1 eebe 3c5d 4a3e 8068 c23e
000001b0: c1d9 a9bd 323e e1be 9f33 d8bd 6eb3 bcb8
000001c0: 2ffa 2b3d 01bd ba3e f349 d3be 0ef3 c4bd
000001d0: 8607 53be 962d c53e ae8e 76be d24c d9be
000001e0: 8602 943b cee2 bbbe 3697 a6be e68f b4be
000001f0: 25c8 bebe 0f39 a43e 600f 683e 2e33 293e
00000200: b233 5b3e 8f00 fe3d 1a49 0cbb ef26 a43e
00000210: 24ff cabe 69cb debc 363f d0be e1fb f8be
00000220: 7d3a 723b 9199 2ebd 9cbc 973c f654 a4be
00000230: 98c3 0c3e 1f48 ebbe 1b4f 40be c0ed d3be
00000240: a83f d33d bfca 913d 6faa 6bbe 3a08 0dbe
00000250: 991b ad3e d6d9 a3be e80b dcbe b871 8a3e
00000260: 6a38 6a3c 9f14 ad3e e6b1 16be 565a 5fbe
00000270: 66bd 993e ce33 ba3d f4a2 983e 2a1a d83c
00000280: e640 84be 74ae c23e 0fea 9f3e 1e2e dabe
00000290: b746 af3e 51e0 b03e 45de 013e 5745 e0be
000002a0: b38e 4fbe b1d2 8d3e 6fdc fbbe 048a 353c
000002b0: 25fe dc3e 56fc 53be a958 fbbe ccf7 8f3e
000002c0: 29ca b43e fd96 d63d 97ab 94bd 554f a93e
000002d0: 45c3 debd 8077 993d 7d25 bb3e 5125 d23d
000002e0: 5c38 a43e 7741 a13e b759 903e 919e fdbe
000002f0: 78eb 0b3d 36c9 e1be 33cf f63e ccb1 3fbe
00000300: 96ff 8cbd 4564 d0be b042 9abe bbda 19bd
00000310: 552e 81bd f8e1 72bd 22f5 cb3e 3cae 4abd
00000320: 1192 753e da23 963e 387e 7d3e ea22 623e
00000330: 4961 bdbe eb96 b03d c6fc 1ebf 11f3 6d3e
00000340: e5d4 bebe d759 4b3e eb66 f83d 1266 6cbd
00000350: cd81 88be 826c 40be e66a ffbe c100 c6bd
00000360: e367 8fbe 4429 16bf 5f6e 2cbe fa84 07be
00000370: 8966 9abd beb0 5c3e 672e 01bf a55a 173d
00000380: 9c8f bebd 8c84 be3e 01f8 15be fb32 1cbd
00000390: 83cb 493e 6ad0 3abe e442 b23e c239 bb3c
000003a0: 1b04 56be 6028 2fbe 892d 5bbe dc3b 083f
000003b0: 607d 6e3e dd34 b03e 10b7 1cbf da88 81be
000003c0: b8ba 0bbe 09f5 1c3c d62d d03e 4640 b43e
000003d0: aea4 85be 48ef a9be 5661 03be 7183 f23e
000003e0: 3e00 ce3c cb10 1d3e 2693 343e c2e8 00bd
000003f0: b07c 83bd a5e1 afbd 0ece 4d3e 7488 d43e
-0.3370683 -0.3396401 -0.06499312 0.46136755 -0.31865615 0.335331 -0.35410488 0.45599848
0.2960118 -0.25616375 0.2941263 0.26121897 -0.07881455 -0.10156033 -0.27630574 -0.27810055
0.015397114 -0.28488976 0.32889807 0.18097089 -0.21510158 -0.07323585 0.4589193 0.121271834
-0.095092446 -0.03685487 -0.15709469 0.3359623 -0.2544792 -0.14521225 -0.06798763 -0.27833414
0.31998438 -0.33634758 0.39402992 0.10264393 0.4721813 -0.28802288 -0.2600998 -0.24274756
0.41214633 -0.05454783 0.1878902 -0.18259205 -0.13814716 -0.3623583 -0.328437 -0.56369627
0.19073674 -0.095292225 -0.13053893 0.23603599 -0.08714678 -0.066052094 0.39993304 0.3988635
0.017917797 -0.2819183 0.3330708 -0.45603958 -0.016291015 -0.19292341 -0.46756184 0.05786677
-0.23743968 0.29808313 -0.3540378 -0.115946956 -0.25952953 0.34529704 -0.52502954 0.16848063
0.13017593 -0.4240586 -0.07875435 0.212733 -0.10295924 0.47339076 0.033772662 0.39714178
-0.063130334 0.33799726 -0.17699724 -0.23066866 0.10659402 0.24096549 0.24302416 0.10447243
0.4520634 -0.42208454 0.34559986 -0.092577085 -0.25487724 -0.53605247 -0.3682722 0.3671216
-0.05871637 -0.1160577 -0.18475787 0.29897314 0.46172622 0.09248838 -0.47623777 0.4697067
0.18166521 -0.46668643 0.19762129 0.37970352 -0.082934864 -0.43992764 -0.10556721 -8.99796e-05
0.04198664 0.36472324 -0.41267356 -0.096166715 -0.20608339 0.38511342 -0.24077865 -0.42441422
0.0045169024 -0.36696476 -0.3253724 -0.35266036 -0.37262073 0.32074782 0.22662115 0.1652343
0.21406439 0.1240245 -0.0021405877 0.32060954 -0.39647782 -0.027196603 -0.40673226 -0.48629668
0.0036961131 -0.04262692 0.018522553 -0.3209607 0.13746488 -0.45953462 -0.18780176 -0.41392326
0.10314876 0.07118749 -0.23014234 -0.1377267 0.33810118 -0.32002133 -0.42977834 0.27039886
0.014295677 0.33804795 -0.147163 -0.21811804 0.30027312 0.09091912 0.29811823 0.026379663
-0.25830764 0.38023722 0.3123326 -0.4261331 0.3423364 0.3454614 0.12682445 -0.43802902
-0.20269279 0.27699807 -0.49191615 0.011080269 0.43162647 -0.20701727 -0.4909108 0.28118742
0.35310486 0.104780175 -0.07259291 0.33068338 -0.108770885 0.07493496 0.3655204 0.10261024
0.3207425 0.31495258 0.28193447 -0.4953504 0.034160107 -0.44098824 0.48204955 -0.18720168
-0.06884687 -0.407015 -0.30129004 -0.037562113 -0.06307665 -0.05929753 0.3983546 -0.04948257
0.23981501 0.29324228 0.2475518 0.22083631 -0.36988285 0.08622535 -0.6210445 0.23237254
-0.372718 0.1985849 0.12129005 -0.05771453 -0.2666153 -0.18791392 -0.49886245 -0.096681125
-0.28008947 -0.58656716 -0.16838978 -0.1323432 -0.07539088 0.21551797 -0.5046143 0.03695168
-0.09304735 0.372105 -0.14645387 -0.038134556 0.1970654 -0.18243566 0.34816658 0.02285469
-0.20900004 -0.17105246 -0.21404089 0.5321634 0.23290014 0.3441533 -0.6121683 -0.25299722
-0.13645446 0.009579905 0.4065997 0.35205287 -0.26102203 -0.3319037 -0.128301 0.47365907
0.0251466 0.15338437 0.17634258 -0.031471975 -0.06420267 -0.0858796 0.20098135 0.41510355

dec.lin1.bias f4 [64]
00000000: 77de babd c605 b1bc db7d e1bb 7ecd 00be
00000010: fd16 f5bd cd73 db3d f65b 703d bae8 f3bd
00000020: 2fca 9cba 97d4 713d 2cf9 683d b07b 013e
00000030: 2779 b6bd db58 c9bd 2f53 77bd c02c 203c
00000040: 46d7 b0bd 1744 143e be1f 903d dd64 cdbc
00000050: 50c5 913d 2ed6 a93d a483 9cbd 1a1c 64bd
00000060: f10f 573d d628 a1bb 0666 69be 59ec ec3c
00000070: 8aa9 4a3d 48af 9fbd 6e26 943d 05ef 133e
00000080: 1aed b4bd 8c0a d3bd a837 86bd 1f0d f63d
00000090: 2932 4e3c 2567 f2bd 975c 8fbd d905 613d
000000a0: bfcc 013d 9a29 883c 444a 913d 196b 8e3c
000000b0: 603e a6bd a9c3 063e 69f6 003c 5f9f 5ebd
000000c0: 3a8a 6e3c c816 ff3a 6a21 a93d 5041 c9bd
000000d0: 1ff3 c73d c815 c8bd 10f0 c93c 33b0 a3bc
000000e0: a000 033d 6744 8bbe 12b1 79bc 067a 833d
000000f0: 9813 a7bd 506e d4bd 05b2 68bb bc71 693d
-0.09124463 -0.021609198 -0.006881458 -0.12578389 -0.11967275 0.107154466 0.05868145 -0.119096234
-0.0011962111 0.059040632 0.056878254 0.1264484 -0.08909827 -0.09831401 -0.060382064 0.009776294
-0.0863481 0.14479099 0.07037304 -0.02507251 0.071177125 0.08292805 -0.07642296 -0.055690862
0.052505437 -0.004918198 -0.22792825 0.028921293 0.04947809 -0.07797104 0.072338924 0.14446647
-0.08834286 -0.10304746 -0.06553584 0.120142214 0.012585201 -0.118360795 -0.07000082 0.054937217
0.0316894 0.0166214 0.07094243 0.017385053 -0.08117366 0.13160576 0.007871249 -0.054351207
0.014559323 0.0019461745 0.08258326 -0.098269105 0.097631685 -0.097697794 0.024650604 -0.01998148
0.031983018 -0.27200624 -0.015239971 0.064197585 -0.08158034 -0.10372603 -0.0035506499 0.05699323

dec.lin1.weight_v f4 [64, 64]
00000000: 7eeb cb3a f116 073e 87a1 633c 47a7 d33d
00000010: 8083 a3bd db50 82bc 59d9 9fbd b728 66bd
00000020: dd73 3fbc b317 c03d 4ba5 b5bd f312 763c
00000030: e883 aabd 82c0 2b3d 0647 dfbd 3834 083e
00000040: bff3 4b3d 474d c93d d902 55bc 0956 843d
00000050: bd54 97bd 8b03 2bbd ad03 a7bd f497 b63c
00000060: 6f03 62bd 6184 b3bd 6651 a23d 55ab f0bd
00000070: 1c89 c5bd 55b0 3dbd 1a27 4e3d c275 d13c
00000080: 5467 fe3c d340 4e3d 4a12 73bd b08f c0bd
00000090: 6b42 843d a6d4 3a3c 01a0 d9bd 4eb6 9abd
000000a0: 1f99 d4bd fd23 e4bd 8a68 223c 0f72 0c3e
000000b0: fa5d 95bd f6e8 08bd b037 f7bd 7c0f 2f3d
000000c0: 3a42 ff3d a39c 893d fa92 543d caf2 8f3d
000000d0: c113 8e3d 7027 f23d 168d 8f3d d363 88bd
000000e0: f547 87bd 1ebd 90bc aa3f 65bd f7f1 a43d
000000f0: 51f5 2cbd 336a 85bd 02c9 adbd 941f dfbc
00000100: d7bc 68bb 48bc aa3d 68a4 e5bb 431f c83d
00000110: c57f 323d e39d 1f3e 670d ffbc 2808 963d
00000120: 9580 673d 26ac 6e3b 647f 9abd 2105 f9bb
00000130: a968 3fbd 9ea3 08be ce1a ac3d b32f 1bbc
00000140: 7f99 ed3d 0452 473d 47e0 1f3c 6aeb ec3d
00000150: ba4d 56bd 8d38 933d 6f00 353c 1824 c63d
00000160: 57e8 d33d f9b2 b3bd c01f ac3c 5951 dfbd
00000170: 1e86 51bc c295 e73d 04da 02be 79ad f8bb
00000180: 2a1d 97bd e3a2 cb3d 4e65 22bc db70 7d3d
00000190: 6eec 963d fa1a 9c3d 5da2 893d 0a42 95bd
000001a0: db6d 45bc 6af0 e13d 4836 21bd e17b dabd
000001b0: 17fb 14bd 90d0 de3d 568d c4bd 5284 de3d
000001c0: 5aaf 97bd c0c7 d73d 5e86 7ebd 1fc0 8d3d
000001d0: 5cc0 9bbd c3f9 91bd e01a 4b3d faf3 f73c
000001e0: e562 3f3d 6821 bebd cd23 e0bd dc0d 2fbd
000001f0: 2cf3 a83d 1118 bebd e655 c13d a517 553d
00000200: 3707 81bc 42fc bc3d 51a1 91bd 75e5 21bc
00000210: 5c71 ad38 dc8f 823d 98d8 023e 198b d0bd
00000220: cd63 b0bd 687f 2dbd d948 febd 2961 a13d
00000230: 556c 153d a100 6dbd 36e2 8bbd 8411 bc3d
00000240: 975b 99b8 0d86 31bd da24 51bd e87e bfbd
00000250: 1ba3 ab3c eaad 1abd a4c6 aabd 65ec a83d
00000260: d886 ed3d 6093 863d 0c25 aebc 57af fe3d
00000270: 34a3 263d 955f f9bd bb14 843c c83b aabd
00000280: aa9b dbbd 2207 ed3d 3fb0 993b 156a 3ebd
00000290: 5ba2 363d f34e 0f3c b725 08bd 8de5 d53d
000002a0: 1365 e6bb 006c ebbc 3148 97bd 3a72 d03c
000002b0: a3bc 603d 537a 563d 69a2 f3bd 9b37 d23d
000002c0: 8fde e13d 233e d63d f4cd 85bd b416 143e
000002d0: 0ae0 313a 4fe6 d53d d644 863c b084 c43d
000002e0: b4be aabd 330d a33d f3ed ddbd 35a5 fc3d
000002f0: 8f4b 9bbd 7c2c 9fbd c658 45be 62fb e0bd
00000300: 1cc8 d6bd 8f81 8abd f4d2 c4ba 9236 6d3d
00000310: cc2b e03c 9ae9 133e 8821 1cbe f7d1 04bd
00000320: d69f 2e3d 9977 e6bd 0b5b 813c 28d2 5e3d
00000330: 69da 3bbe f384 97bd 989c 3a3c 02de 973d
00000340: c9ad 043e dcf0 913c 4c97 a0bc 3f47 bb3d
00000350: 5030 e23d d703 b2bd 10a1 3abd dd5c 9fbd
00000360: f24d e7bd d936 a7bd cb9f 3dbd 4acc 823c
00000370: fd3c b7bd 15db aabd a135 18bd 7aa2 0c3e
00000380: 4423 88bd 3021 7abc 3451 0d3e 9fcf e3bd
00000390: d739 533d ec6c c0bd cc83 3abd 5455 9e3d
000003a0: d7cb 57bd 0dd1 e83d 30e6 e8bc 8f80 813c
000003b0: 8eff a9bd 9988 e63d 39f0 ef3d fb84 943d
000003c0: 50b1 e13d c4a7 5d3e be4a 8ebd 4cb8 c93d
000003d0: d9cf 953d c52f be3d cafb 803d 5cad 1cbb
000003e0: 0d82 223d e848 bfbd ad2d 033a 12c7 f03d
000003f0: 8b5d 703d ac17 723a 6baa f13d d723 20bd
0.0015557853 0.13192345 0.013893492 0.1033464 -0.07984066 -0.015907696 -0.07805128 -0.056191172
-0.011685339 0.0937952 -0.08869418 0.015019166 -0.0832594 0.041931637 -0.109022185 0.1330117
0.049793 0.098291926 -0.013001167 0.064617224 -0.073892094 -0.041751426 -0.08154998 0.022289254
-0.055179056 -0.08765484 0.07925682 -0.11751429 -0.09645292 -0.04631074 0.05033026 0.025568847
0.03105513 0.05035479 -0.059343614 -0.09402406 0.06457981 0.011403238 -0.106262214 -0.07554303
-0.10380768 -0.11139677 0.009912619 0.13715385 -0.07293315 -0.033425294 -0.120711684 0.042739376
0.124638036 0.06719329 0.05189798 0.0702873 0.069373615 0.11823928 0.07009332 -0.06659665
-0.066055216 -0.017668303 -0.055968918 0.08053964 -0.04222614 -0.065143965 -0.08485605 -0.027236737
-0.0035512948 0.08336693 -0.007008124 0.09771588 0.04357888 0.15587573 -0.03113432 0.073257744
0.05651911 0.0036418526 -0.07543829 -0.0075994884 -0.04673067 -0.13343665 0.0840355 -0.009471822
0.11601543 0.0486622 0.009758062 0.11568339 -0.05232022 0.071885206 0.011047467 0.09674853
0.1034705 -0.08774371 0.021011233 -0.10904188 -0.012788324 0.11307861 -0.12778479 -0.007589039
-0.073786095 0.099431776 -0.009911848 0.061875205 0.07369314 0.07622333 0.067204215 -0.072879866
-0.012050117 0.110321835 -0.039358407 -0.10668159 -0.03637227 0.10879624 -0.0959727 0.10865082
-0.074064925 0.10536146 -0.06213986 0.0692141 -0.07605049 -0.071277164 0.049586177 0.030267704
0.046725173 -0.092837155 -0.109443285 -0.042737827 0.08249506 -0.09281934 0.09440212 0.052024502
-0.01575051 0.09227802 -0.07110847 -0.009881367 8.270398e-05 0.06375095 0.12777936 -0.10182781
-0.086127855 -0.042357832 -0.12416238 0.0787986 0.036480267 -0.057861928 -0.06830256 0.09183028
-7.3126685e-05 -0.04334073 -0.051060535 -0.09350377 0.020951798 -0.037763514 -0.08338669 0.08248214
0.11597985 0.06571078 -0.0212579 0.12435787 0.040682986 -0.12176434 0.016123166 -0.083121836
-0.1072305 0.11573626 0.0046901996 -0.046487886 0.044588428 0.00874685 -0.033239093 0.10444174
-0.007031092 -0.028738022 -0.07386816 0.025445092 0.054867398 0.05236275 -0.11896212 0.10264512
0.11028778 0.104610704 -0.06533423 0.14461786 0.00067853986 0.104443185 0.016390245 0.09595621
-0.08337155 0.07961502 -0.10836401 0.12336198 -0.07582771 -0.077721566 -0.19272146 -0.109854475
-0.104873866 -0.067629926 -0.0015016482 0.05791337 0.027364634 0.1444458 -0.15247166 -0.0324268
0.0426329 -0.1125328 0.015790483 0.05439964 -0.18345036 -0.07398405 0.011389874 0.074153915
0.12956919 0.017815046 -0.019603394 0.091444485 0.11044371 -0.08692139 -0.045563757 -0.07781384
-0.11294164 -0.08164758 -0.04629497 0.015966553 -0.089471795 -0.08342568 -0.03716052 0.13733855
-0.066473514 -0.015266702 0.13800508 -0.11123585 0.051568832 -0.09395775 -0.045535848 0.07731119
-0.05268463 0.11367998 -0.028430074 0.015808372 -0.08300696 0.11256523 0.11715741 0.072519265
0.11020148 0.21646029 -0.0694785 0.09849605 0.073150344 0.09286455 0.06298025 -0.0023907041
0.039674807 -0.09340078 0.00050040596 0.1175672 0.05868296 0.0009235095 0.11800083 -0.03909668

dec.lin2.bias f4 [64]
00000000: c848 e13d d88a bb3d 672a af3b d92f c1bd
00000010: 0b8f 973c 7499 d2bd 5dd9 743c 737c 97bc
00000020: f2e7 85bd 4009 d93d 5b97 843d e84a 413d
00000030: d021 a2bc e9b3 933b 4757 a33c 8ac7 c63d
00000040: 8b64 133e 5337 d13d 34e0 4cbd ceca 69bc
00000050: 58c3 b93c 3ad4 72bd 690a 403d d4cb 9c3b
00000060: d8c3 a93d 7f9b 43bd f834 7abd 0c99 88bb
00000070: 8766 88bd eff8 e4bd 6495 8d3d 6463 c9bd
00000080: df6c d9bd d759 fbbd 9bbe 5ab9 8cae d3bd
00000090: 4450 b7bc 3fd0 aa3b 86fe a33d a62e 4e3d
000000a0: 63b5 9c3d 0eb9 16bc 83cb 643d be1a c23d
000000b0: 38b2 b0bd b70b 8c3d ab60 7e3d d095 473d
000000c0: 657b db3c 7075 b4bd d1d9 84be 25ea 913c
000000d0: 3da9 ffbd ef3d 80bd b79b b7bd 7313 f5bd
000000e0: 496d 03be 81dc 443b 9bb7 a0b9 78dd c43d
000000f0: 2e16 f5bb b3dd 98bd 607f 73bd ccd9 c1bd
0.1100021 0.09157342 0.005345631 -0.09432954 0.018500825 -0.10283175 0.014944402 -0.01849196
-0.06538381 0.105974674 0.06474181 0.047190577 -0.019791514 0.004507531 0.019939078 0.09706028
0.14393823 0.102156304 -0.050018504 -0.014269544 0.022676155 -0.059284426 0.046884928 0.0047850404
0.08289307 -0.047755715 -0.06108567 -0.0041686352 -0.066601805 -0.11180293 0.069132596 -0.098334104
-0.10616469 -0.12272995 -0.00020861106 -0.103360265 -0.02237714 0.005212813 0.08007531 0.050337456
0.07651784 -0.009199394 0.055858146 0.09477757 -0.086277425 0.06838172 0.06210391 0.048726857
0.026792238 -0.08811462 -0.2594743 0.017811844 -0.124834515 -0.06261813 -0.08965247 -0.119666
-0.12834658 0.0030038657 -0.00030654375 0.09612554 -0.0074794507 -0.07464161 -0.059447646 -0.094653696

dec.lin2.weight_v f4 [64, 64]
00000000: faa9 d7bd 674f 883d e153 e73d b842 82bc
00000010: 2d65 733d 916c 08bd 4522 6a3c 3cc5 853d
00000020: 837f f63d 9b88 d63d 7465 233e f1ef cebb
00000030: 995f 32bc 199e 653c e96c 823d 6212 3cb4
00000040: 6b38 d33c 8b40 a43a 17d8 de3d 7d71 44bd
00000050: dcf5 413d a3e7 a13c bd7f f23d b712 f93d
00000060: e7de 85bd e815 5d3c 97b1 37be 8c13 983d
00000070: 7334 b73d c122 a9bd 336c 3dbd 2877 75bd
00000080: 233c d5bd f45c 80bd 3ca7 e13d 1abb ee3d
00000090: 07ff 41bd ea9a 843d ff29 a5bd edf3 7cbd
000000a0: 910e ce3c 1f2f 4eba e9e8 7a3b 40c9 cf3c
000000b0: e0ff dcbd f651 a5bd 0b30 e73d 87b5 b73d
000000c0: 9561 903d 20a0 28be 28fe 1ebb 27db aa3d
000000d0: 381a 84bd e14f 8f3d 4b52 dd3c dbee 9abd
000000e0: 6dd7 ef3c 2789 9bbe ce93 be3d 85be e0bd
000000f0: 42c9 88bd df35 d8bd 125d 903d 9149 cfbd
00000100: f830 083d 6e20 3c3d 7100 a33d eb61 a33d
00000110: 5fc6 313d f115 a8bb 95e3 c4bd 7b6f d3bc
00000120: 3aaf 5fbd 13f6 83bd 7deb e23d a756 843b
00000130: 6e55 60bd 2a3e 1d3e f575 29bd 9f91 8cbc
00000140: 38c6 573d d0b6 67bd bdbd c53d aedb 053e
00000150: 670e aa3d 959e 95bd 7747 bd3d 0b30 0339
00000160: 0f96 9a3d 3b85 d73d 52fe 5abe b075 963d
00000170: 1c0a cdbc f22d d2bd ae87 1e3e 73a2 1e3d
00000180: 70ce 1d3d 7372 3abd 7041 e8bd 098e 35bc
00000190: fd44 abbd 3113 a13d 0753 b7bd 5145 ba3d
000001a0: a201 fabd d68d 5d3d be1c 073e 2fb6 b4bd
000001b0: c818 d4bd 956f 5ebd 1161 39bd 5d37 fcbc
000001c0: ca1d 833d b3e0 8c3d 888a 59bd f41a f93c
000001d0: de3a 853d 6801 0080 6cd3 2f3d 1c9e cbbd
000001e0: 80b7 c7bc 18d5 d4bd cabc 17ba 1e49 26bc
000001f0: d89a e83d 8f47 76bd 9096 d0bd 81a5 f6bd
00000200: 6f32 09be 4966 053d dabf c73d cd0e efbc
00000210: b448 e73c b3e8 fe3d f2a3 6e3c 28e5 203d
00000220: 3d27 1b3e 9f0d 303d c98a c83d 6cf3 92bc
00000230: e82d ec3c fb0a e43d 2dbb c1bd b44c 0f3d
00000240: 5247 88bd 7e3a d93d 4090 b0bd c566 143d
00000250: 1362 83bd 2af5 983d 201e 0000 95a1 c33d
00000260: 5db1 76bd 8099 1dbd 1ee0 efbd f0b2 4c3a
00000270: 1ee2 5cbd 3441 34bd 13fd 51bd 04ec d7bc
00000280: a9ca 1c3d ea6d 69bd e33d d5bd 2947 c53c
00000290: 5aba 0d3d 40f2 a7bd 2551 9ebc 1cb7 053e
000002a0: 1a8c d1bc 6984 fd3c 3e56 bf3d 709e 96bd
000002b0: 681f 87bd cd46 dabd 9043 9b3b 2c06 0cbd
000002c0: 3528 aa3d ade8 7eba c52c 1b3d d359 f23d
000002d0: 5424 c83d 3082 e1bd bb5f 8fbd b5e6 a8bd
000002e0: 905f 07bd 696d 83be dfcc 4abd 5e89 913d
000002f0: b9de 463d e4d9 7b3d bd10 8b3d ebc7 ce3d
00000300: 1ab4 0cbd d7f5 ac3d e333 ba3d 189d 88bd
00000310: 60c5 0ebd 7ce1 cf3d 68ee a23d e144 01bd
00000320: 5fb3 c23c 650d 653d e25a ac3c de2b 93bd
00000330: 3cd0 3cbe 14e6 0c3d a929 cebd 7b07 12bd
00000340: bfc2 6abd e182 283d bb02 f231 4e69 12bd
00000350: ccf0 05bd 2039 d6bd 376e 34bd dc0d 08b8
00000360: 923c dfbb c41e 983d ff6d b8bd 3be6 c53d
00000370: 0547 f6bd 5c89 f1bd 181c edbc 2d81 be3d
00000380: 2a8e c9bc aa7b 903d d77a 563c 0d2b 173e
00000390: 141d b2bc 49ed 8ebd c4a3 a63d 3915 b0bd
000003a0: d0ef 0e3d fd61 7e3d f320 a13c 4da4 65bc
000003b0: db4d 97bd 5730 1c3c 92ed 233c e375 a03d
000003c0: 974d 9ebc 7d48 40be e27f 6cbd 6920 4f3b
000003d0: 9844 0b3d 3045 22bd e1b9 0a3e 6912 3bbd
000003e0: e4dc 13bd 0e52 bfbe d1e5 64bd a3df 37bd
000003f0: 9593 29be e629 28bc e5df d23d de13 cf3d
-0.10530467 0.0665577 0.112952955 -0.015900955 0.05942266 -0.033306662 0.014290397 0.0653176
0.1203604 0.10475274 0.1595667 -0.0063152243 -0.01088705 0.014014744 0.06368429 -1.7515552e-07
0.025783738 0.0012531442 0.108810596 -0.047959793 0.04735361 0.019763773 0.118407704 0.12161773
-0.06536656 0.013493992 -0.17938839 0.07425603 0.08945551 -0.08258582 -0.046245765 -0.05992809
-0.10411861 -0.062677294 0.110182256 0.116567805 -0.047362354 0.0647486 -0.08064651 -0.061756063
0.02515343 -0.0007865298 0.0038285798 0.025364518 -0.10790992 -0.080722734 0.1128846 0.089701705
0.07049862 -0.16467333 -0.0024260376 0.08342581 -0.06450313 0.069976576 0.02701678 -0.07565089
0.029277528 -0.30378076 0.09305535 -0.10973839 -0.06679012 -0.1055715 0.07049002 -0.101214536
0.033249825 0.045929365 0.079590686 0.07977661 0.043402072 -0.0051295687 -0.0961372 -0.025809994
-0.05461047 -0.06443419 0.11080072 0.00403865 -0.054768972 0.15355745 -0.04137226 -0.017159281
0.05267927 -0.056570828 0.0965533 0.13072082 0.08303528 -0.07305638 0.092421465 0.00012511031
0.07548153 0.105234586 -0.21386078 0.07346666 -0.025029235 -0.102626696 0.15481445 0.038729142
0.038526952 -0.045519304 -0.11340606 -0.011081227 -0.08362768 0.078649886 -0.08951383 0.09095252
-0.12207343 0.054090343 0.13194558 -0.08823811 -0.10356289 -0.05430563 -0.045258585 -0.030788118
0.06402166 0.068787955 -0.05311063 0.03040836 0.06505369 -5.04e-43 0.042926237 -0.09942266
-0.024379492 -0.10392207 -0.00057883246 -0.010149268 0.11357659 -0.060126837 -0.101849675 -0.12043286
-0.13398145 0.03256825 0.0975339 -0.029181862 0.02823291 0.124467276 0.014565455 0.03928104
0.15151687 0.04298174 0.09792096 -0.017938338 0.028830484 0.11134907 -0.09459529 0.03498526
-0.06654228 0.106068596 -0.086212635 0.03623082 -0.064151905 0.07468636 1.0807e-41 0.09552304
-0.06022774 -0.038476467 -0.11712669 0.0007808646 -0.05392658 -0.044007495 -0.05126674 -0.026357658
0.03827921 -0.056989588 -0.104121946 0.024081783 0.034601547 -0.082005024 -0.019325802 0.13058132
-0.025579501 0.030946927 0.09342621 -0.07354438 -0.06597787 -0.106580354 0.0047382787 -0.034185573
0.0830845 -0.00097240024 0.037884492 0.11833539 0.09772554 -0.110111594 -0.07000681 -0.08247129
-0.03305012 -0.2566941 -0.049511787 0.07106279 0.04855225 0.061487094 0.06790302 0.10096725
-0.034351446 0.08445328 0.09091928 -0.06670588 -0.0348562 0.101504296 0.07955629 -0.03155983
0.023767171 0.055920977 0.02103943 -0.071861014 -0.1843881 0.034399107 -0.1006654 -0.035651665
-0.05731463 0.04114044 7.0434374e-09 -0.035744958 -0.032700345 -0.104601145 -0.04405042 -3.2437834e-05
-0.0068126405 0.07427743 -0.09005355 0.096630536 -0.12025265 -0.11793777 -0.02894406 0.09301982
-0.024603922 0.07054837 0.013090811 0.14762516 -0.021742381 -0.06978852 0.081367046 -0.08597798
0.03489667 0.062105168 0.019669032 -0.014016223 -0.073878966 0.0095330095 0.010005372 0.07834985
-0.019324107 -0.18777652 -0.057739146 0.0031605011 0.034000963 -0.039616764 0.1354747 -0.045671854
-0.03609933 -0.3736729 -0.055883233 -0.04489101 -0.16560204 -0.010263896 0.10296611 0.10111211

dec.lin3.weight_v f4 [1, 64]
00000000: 9370 563d c7aa a23d ffbf 283d a4b5 4c3d
00000010: 3c3f ee3c 7e6a c5bd fc6d 873d ade1 81bd
00000020: cf5b d4bd 03ba c73d 6062 03bd ba28 883d
00000030: a0f5 26be 1393 53bd a16d 6eb2 0a0f 0dbe
00000040: b757 b03d 3e96 e03d 683f cabd 7cdb e6bc
00000050: 1f37 60bd 1d10 8dbd cd4b b13d 530e fbbc
00000060: 8b6b 743d 5e31 bebd 87ed 853d 2b2d 40be
00000070: 977a 0fbe cdb4 a3b7 fc48 863d 3b5b 993d
00000080: 394b 203c d965 e1bb 1b0c e7b7 aa30 88bd
00000090: df23 e1bc 9369 72bd e15e 0fbd df74 eebd
000000a0: 138f 373c edb2 883d 859e af3d a311 be3d
000000b0: b79d 45bc 3c6b aa3c 6934 f1bd 0f3c 6a3d
000000c0: 32a1 7cbb 9e43 53bd 85f0 2ebe db4a ca3d
000000d0: dd3c efbd e02e 96bd 5e9d 0a3d 23cb 85be
000000e0: e002 0a3b 2404 c5bd 920f 5d3d c824 8f3d
000000f0: 2384 9cbc 6298 173d fa12 4a3d cb56 ea3c
0.052353453 0.079427294 0.041198727 0.049977913 0.029082887 -0.096394524 0.06612775 -0.06341872
-0.103690736 0.09752276 -0.03207624 0.06648393 -0.16304636 -0.051653933 -1.387835e-08 -0.13775268
0.0861048 0.109661564 -0.09875375 -0.02818083 -0.054740068 -0.06887839 0.08657036 -0.030646479
0.059672873 -0.0928676 0.06539445 -0.1876723 -0.14011608 -1.9515306e-05 0.065568894 0.07488104
0.0097835595 -0.0068785963 -2.7542983e-05 -0.06649907 -0.027482925 -0.059182715 -0.035002593 -0.11643385
0.011203545 0.066747524 0.08575157 0.09280708 -0.012061528 0.020803086 -0.117775746 0.057186183
-0.0038548228 -0.051578157 -0.17083938 0.09877559 -0.116815306 -0.073331594 0.033841483 -0.26131544
0.0021058843 -0.096199304 0.053969927 0.06989437 -0.019105976 0.037010558 0.049334504 0.02860584

exp_avg f4 [64]
00000000: 25a0 3138 9223 c738 3366 d837 6945 cd38
00000010: 1445 9c35 b219 9d38 e1d1 5e38 6bc2 8838
00000020: b155 8638 7511 2eb9 4c36 db38 b45d bbb8
00000030: 1414 0838 4155 8ab8 bb1f 1c38 5fc1 8a35
00000040: 2857 0939 7dd9 1639 1714 6238 5fc0 a538
00000050: 123c 7438 3216 7d39 af81 67b9 8fee 03b9
00000060: 8ff1 9638 ee66 dfb7 00bf 2ab9 1904 ba39
00000070: 061f 6ab7 0d1b 5cb9 39f7 8337 be2e 9d38
00000080: 2c32 c437 b33f 29b8 8dff 4238 4217 0ab9
00000090: 08b8 0439 7ebd 1138 1b1b ba36 cf2d 2938
000000a0: ee4e 31b8 16ee d5b7 a2be b4b7 d534 e238
000000b0: 0fc8 df38 2f4b e538 b35e e2b8 8945 0238
000000c0: 7a4f 9138 cdd8 3f39 cf04 32b8 6ac5 ac39
000000d0: 7ff3 8d38 e8c2 8238 a047 cfb9 613c db38
000000e0: 2864 4e38 d1fb b438 b869 fb38 6741 b238
000000f0: beee 6438 b462 9b38 38b1 f438 5be7 bb38
4.2349235e-05 9.495685e-05 2.5796797e-05 9.7880904e-05 1.164301e-06 7.4911295e-05 5.312439e-05 6.5211985e-05
6.405579e-05 -0.00016600436 0.00010452847 -8.9343084e-05 3.2443626e-05 -6.5962326e-05 3.722285e-05 1.033808e-06
0.00013097806 0.00014386135 5.390131e-05 7.903645e-05 5.8230078e-05 0.00024136229 -0.00022078188 -0.00012582004
7.197551e-05 -2.6631602e-05 -0.00016283616 0.00035479738 -1.395471e-05 -0.00020990912 1.5731539e-05 7.49505e-05
2.3388384e-05 -4.0352064e-05 4.6491205e-05 -0.0001316937 0.00012657058 3.4747172e-05 5.5463875e-06 4.0335402e-05
-4.2273598e-05 -2.5502446e-05 -2.1546442e-05 0.000107863605 0.000106707324 0.00010933575 -0.00010794159 3.1059175e-05
6.9289425e-05 0.00018295944 -4.2442985e-05 0.0003295348 6.7687586e-05 6.235187e-05 -0.00039535481 0.0001045398
4.9207505e-05 8.629973e-05 0.00011988304 8.4998836e-05 5.4581782e-05 7.409361e-05 0.00011667836 8.959948e-05

exp_avg_sq f4 [64]
00000000: f26e 4e33 9f06 4635 e10e ea34 36d0 f534
00000010: 429d 1d36 5466 ee34 102c ac33 b3ff 9833
00000020: ad13 c934 1b07 a035 f488 2735 5628 3c34
00000030: 4af0 eb34 a577 5335 30cc 3b35 3cb9 fb33
00000040: e7ea e234 3c1d 2735 74d5 9d33 9817 a735
00000050: cdc8 6e34 01f2 0935 a7e0 9636 05af d335
00000060: f7c3 9e34 6119 3d35 7a12 cf35 ad57 2636
00000070: eada 5335 c613 d835 fcbf 8334 8cb4 6435
00000080: 5496 af34 fd0e 0535 79e4 d835 85ac a835
00000090: 3412 6a35 b4e3 2434 0832 5a34 a982 2c35
000000a0: e29d 1335 437f fb35 a6fa 7534 aa77 dc34
000000b0: a5eb 6835 bb4f 7a35 8224 8735 7f23 9735
000000c0: a881 1b34 a659 5c36 e863 5235 2446 8436
000000d0: 3045 d034 4064 5434 e81c 6436 0c05 d634
000000e0: 8fc8 e234 05fc 3134 7166 6634 d1db a135
000000f0: 482c c234 1455 5d34 f337 0f35 db8e bf34
4.8064017e-08 7.3770383e-07 4.3596722e-07 4.57863e-07 2.348636e-06 4.4405408e-07 8.017389e-08 7.124563e-08
3.7453484e-07 1.1922997e-06 6.241164e-07 1.7523539e-07 4.3946994e-07 7.877773e-07 6.996006e-07 1.1721792e-07
4.2266694e-07 6.225489e-07 7.349709e-08 1.2449336e-06 2.2238528e-07 5.138864e-07 4.4965013e-06 1.5771662e-06
2.9572377e-07 7.044492e-07 1.5428079e-06 2.4786962e-06 7.892219e-07 1.6099009e-06 2.4540338e-07 8.519935e-07
3.2705668e-07 4.956817e-07 1.6159748e-06 1.2567185e-06 8.719828e-07 1.5356528e-07 2.0321033e-07 6.426513e-07
5.4991517e-07 1.8737995e-06 2.2908588e-07 4.106526e-07 8.6769643e-07 9.324828e-07 1.0068909e-06 1.1260707e-06
1.4482669e-07 3.2834737e-06 7.837648e-07 3.942072e-06 3.879336e-07 1.978051e-07 3.3991473e-06 3.9864278e-07
4.2241706e-07 1.6576094e-07 2.1457687e-07 1.205941e-06 3.6167535e-07 2.061318e-07 5.335307e-07 3.5680463e-07

exp_avg f4 [64, 4]
00000000: 64f9 7637 fbdc 7837 e4b8 e8b7 c6c3 9337
00000010: 9dc7 8438 aec3 9fb7 4f33 95b8 3ea3 0e36
00000020: b1ca fbb6 db04 5538 9fed 38b8 89f4 da38
00000030: 895d 1038 591e 4e38 b96b dcb7 159d d139
00000040: fe7d 9639 ec27 ea37 2025 3b39 268c 8938
00000050: c991 ee38 1616 b938 92b3 c1b7 0c03 98b8
00000060: 7cce 6f38 9291 3938 5733 5338 6692 63b8
00000070: cc16 ec38 34c7 b538 2df7 17b8 fe27 8836
00000080: 79ec f437 de34 7638 1ed1 d537 ebce 2035
00000090: dc9b 2138 6894 3638 512a 3638 85a2 97b7
000000a0: ac38 ca37 ef7a 4239 a8f3 98b8 2658 0a39
000000b0: 67b6 d0b5 5e18 30b7 9a51 e8b7 99c3 c637
000000c0: c43e 9db9 87de dbb9 4fe1 aab9 3f12 b7b7
000000d0: 2754 6d38 2a8b 7c38 8e96 d238 39db 8238
000000e0: 7835 e1b7 ee86 d537 1f42 b635 b8dd 7db7
000000f0: d462 ac38 1830 f338 578d 4238 c231 a3b8
00000100: 01b8 e238 def9 02b6 a5a7 9db8 724f 9b36
00000110: 3a80 86b8 9fdc dcb8 ad8f a5b8 edc5 0bb9
00000120: 5400 01b8 461c 5b38 6c99 3838 9fb6 5c38
00000130: b4e0 b139 32f3 6439 dc06 04b8 3fba 35b9
00000140: 39fd 45b8 738a 05b9 c7f0 d7b8 de8c 6fb7
00000150: d6e7 c439 8060 4d39 cf34 6fba eea6 07ba
00000160: 2091 d539 8e91 e639 ce4d e437 c199 de38
00000170: 5a1c 2538 d8cf 5436 be49 8038 5489 bd38
00000180: 5d54 3cb9 55d0 2bb9 b94e 9db8 9561 92b9
00000190: 7d14 0db8 bba7 99b8 56dc 4db8 d090 3db6
000001a0: cf2e a438 b09b 1538 7a22 6138 ef98 c5b7
000001b0: 40bc 7639 b490 e539 fceb 5cba da2a 82b8
000001c0: 6d31 b0b8 ed50 5eb8 c432 beb8 f6a5 24b9
000001d0: 2d25 5e38 b5fb 0739 cb65 8037 c4a3 b438
000001e0: 23f6 9db8 f12c 8eb8 9808 fd37 ac59 3938
000001f0: e95d 3c38 967c b8b6 0d37 b938 f99e 71b7
00000200: 5478 cd37 b666 3a38 ad7d 11b9 00b2 1eb9
00000210: 2657 d6b7 5cde 29b8 e119 a8b8 4dad be38
00000220: b2d6 9eb9 1b17 a2b7 7edf 0339 604b 3039
00000230: fd59 a138 1825 33b8 5eaa a838 fa6e 2038
00000240: fa4b 42ba d84e 36ba 6f1e 54b8 61e2 b238
00000250: 582b 63b8 9b83 60b8 5f81 3bb8 62e1 8db8
00000260: e869 98b8 7d00 1137 e7ad bab9 3ffc 2838
00000270: 4595 9a39 4df8 a739 ba28 f5b9 f27b c6b8
00000280: 22d9 91b8 1149 05b8 ae17 1239 3b73 f638
00000290: afcc c0b8 8a3e bfb8 ba2d 2139 5a08 ceb8
000002a0: e7a1 3339 25d8 a338 522c 0438 bff5 ed37
000002b0: 68ff 65b8 2e33 7d36 5279 99b8 d49a 2eb8
000002c0: 13bd 4a39 0314 4e39 0432 d338 22dd 87b9
000002d0: 02cb a639 0457 f9b8 c35f 05b9 8539 1ab9
000002e0: 8bee 37b8 f204 3db8 477c c438 1249 2eb6
000002f0: 7a38 09b6 b408 f137 e52c a5b7 19c5 f0b8
00000300: 18f7 1138 2643 8838 c21e dcb7 6433 9738
00000310: eea3 093a ae64 083a 1924 aeb9 767b c539
00000320: f706 1d39 d1ab 0739 77b8 06b9 e712 4db9
00000330: 6b5c c2b8 f5cf 82b9 c302 10b9 701c e3b9
00000340: 8bd9 8138 8fca 3bb8 8553 cd38 0411 dfb5
00000350: 4919 c5b7 fc18 10b8 b6a8 0738 c612 0bb8
00000360: c56b 84b7 34a0 09b8 594c c538 3812 9038
00000370: b2c0 9e38 785a 12b9 24c4 3638 74e2 49b9
00000380: bdbc 2fb9 bc56 2fb9 a7c3 74b9 28bb 9ab9
00000390: 0eb6 7b37 6ee2 4539 41ab 53b7 df66 b1b8
000003a0: fabd 9038 8bf4 8338 7d4e 7fb7 12a1 2738
000003b0: 9c76 49b9 e924 46b9 aa88 17b9 c512 a7b8
000003c0: 687e ae38 44a7 3235 c8f6 e136 038e 87b8
000003d0: 2e89 b437 1f15 e637 bf05 de37 064c 1d38
000003e0: 07c7 ef3a cdff fd3a 5900 deba 1510 a238
000003f0: acaa 1f39 17fb 2639 57d9 ffb7 8e17 d9b8
1.4720808e-05 1.4833403e-05 -2.7742652e-05 1.761493e-05 6.331431e-05 -1.9045397e-05 -7.1144306e-05 2.1254668e-06
-7.5039793e-06 5.078768e-05 -4.409032e-05 0.00010440598 3.4419387e-05 4.914249e-05 -2.6276206e-05 0.00039980622
0.000287041 2.7913564e-05 0.0001784754 6.558774e-05 0.00011375879 8.825601e-05 -2.3091012e-05 -7.248492e-05
5.7174344e-05 4.424301e-05 5.0354134e-05 -5.425736e-05 0.00011257603 8.667857e-05 -3.6231406e-05 4.0577715e-06
2.9197183e-05 5.8700207e-05 2.5488956e-05 5.990575e-07 3.8530547e-05 4.3530395e-05 4.343159e-05 -1.8076282e-05
2.4106666e-05 0.00018547078 -7.293309e-05 0.00013193543 -1.5550294e-06 -1.0496091e-05 -2.7694554e-05 2.3694522e-05
-0.00029992138 -0.0004193673 -0.00032592795 -2.1823796e-05 5.6583576e-05 6.021109e-05 0.00010041623 6.2397165e-05
-2.6846988e-05 2.545441e-05 1.35793e-06 -1.5131598e-05 8.220007e-05 0.00011596101 4.6384837e-05 -7.781714e-05
0.00010810793 -1.9516951e-06 -7.5175696e-05 4.6286086e-06 -6.413502e-05 -0.00010531511 -7.894575e-05 -0.00013329806
-3.0756302e-05 5.224e-05 4.4011904e-05 5.2622167e-05 0.00033927488 0.00021834372 -3.147764e-05 -0.00017330887
-4.7204292e-05 -0.00012735445 -0.00010296847 -1.4278308e-05 0.00037556764 0.00019586273 -0.00091249956 -0.0005174716
0.00040734652 0.00043977465 2.7215949e-05 0.00010614424 3.936547e-05 3.1711443e-06 6.117251e-05 9.037802e-05
-0.00017960505 -0.0001638544 -7.5010066e-05 -0.00027919994 -3.36361e-05 -7.326851e-05 -4.9081013e-05 -2.8247487e-06
7.828848e-05 3.5669364e-05 5.367629e-05 -2.3555445e-05 0.00023530517 0.00043786096 -0.00084274984 -6.206865e-05
-8.40154e-05 -5.3004293e-05 -9.069362e-05 -0.00015702084 5.2963547e-05 0.00012968371 1.530619e-05 8.6135726e-05
-7.53219e-05 -6.7794586e-05 3.0163952e-05 4.419095e-05 4.4910154e-05 -5.498131e-06 8.8317414e-05 -1.4401733e-05
2.4493937e-05 4.4441513e-05 -0.00013875095 -0.00015134364 -2.555137e-05 -4.0499828e-05 -8.0156846e-05 9.092186e-05
-0.0003029607 -1.9322664e-05 0.00012576391 0.00016812747 7.69384e-05 -4.2711472e-05 8.0425976e-05 3.8250328e-05
-0.0007411834 -0.00069544977 -5.0573082e-05 8.529868e-05 -5.4161384e-05 -5.352833e-05 -4.470476e-05 -6.765385e-05
-7.2676514e-05 8.642787e-06 -0.00035606252 4.0289244e-05 0.00029484383 0.0003203772 -0.00046760385 -9.464462e-05
-6.954583e-05 -3.177772e-05 0.00013932466 0.000117516574 -9.193399e-05 -9.1192385e-05 0.00015371191 -9.824401e-05
0.00017131084 7.812706e-05 3.151253e-05 2.8367036e-05 -5.483572e-05 3.7729728e-06 -7.318206e-05 -4.1629028e-05
0.00019334657 0.00019653146 0.0001007058 -0.00025913963 0.0003181324 -0.00011889453 -0.00012719542 -0.00014708012
-4.385276e-05 -4.5065717e-05 9.369157e-05 -2.5970553e-06 -2.0447465e-06 2.8733491e-05 -1.9690438e-05 -0.00011480804
3.4800818e-05 6.497493e-05 -2.6240366e-05 7.209813e-05 0.00052505627 0.0005202991 -0.0003321476 0.00037666754
0.00014975281 0.0001293861 -0.00012847954 -0.00019557365 -9.267855e-05 -0.00024950472 -0.00013733939 -0.00043318002
6.19172e-05 -4.477292e-05 9.7907185e-05 -1.6619747e-06 -2.3496004e-05 -3.4355544e-05 3.2343632e-05 -3.3157667e-05
-1.578581e-05 -3.2812546e-05 9.407913e-05 6.8698486e-05 7.5699194e-05 -0.00013957347 4.357485e-05 -0.00019253214
-0.00016759611 -0.00016721612 -0.0002334254 -0.0002951261 1.5003154e-05 0.00018871736 -1.2616453e-05 -8.459179e-05
6.901841e-05 6.2921164e-05 -1.5217459e-05 3.996591e-05 -0.00019213039 -0.00018896502 -0.00014451394 -7.966677e-05
8.3205116e-05 6.655357e-07 6.7342517e-06 -6.4637534e-05 2.1521551e-05 2.7427972e-05 2.6467138e-05 3.750252e-05
0.0018293568 0.0019378603 -0.001693736 7.7277575e-05 0.00015227002 0.00015924532 -3.0499576e-05 -0.00010351754

exp_avg_sq f4 [64, 4]
00000000: 6294 f631 d467 fa31 987e 1033 de2f 4232
00000010: 5c79 9134 93b2 4134 48f4 dc34 6144 f133
00000020: cced a934 a9b1 8435 327e db34 8401 c933
00000030: dd3f ea35 8eb0 0036 3fdc 8a35 833b 1b36
00000040: 5844 4637 abc2 4337 52ce bb36 98cb a636
00000050: 68a9 0136 81a4 b235 c3ab 5a34 63bf 8d35
00000060: a449 a935 9e59 9535 d992 8235 34bd c934
00000070: 5bba 9a34 9ef4 3534 ad4c aa34 d19c a032
00000080: 7c12 b234 13d9 4835 7b64 0b34 d80c b633
00000090: a1b1 e134 f172 1535 9b88 a535 9c4b 4535
000000a0: be4d 4735 223e ac36 b7a3 8935 37ee 1136
000000b0: 6ea7 b933 b55d c533 a491 2a34 08ea cd33
000000c0: 71e7 5c36 6f96 1b37 547a 4236 9823 fd35
000000d0: ba03 8535 ad6b 8035 2426 8235 d5cc e935
000000e0: 9794 9733 5371 b034 a38c a234 8077 a533
000000f0: c555 1335 d868 2e35 0a4c 1234 0296 d534
00000100: 0108 e534 94ca 7534 8b21 e933 7e4a 8434
00000110: 2c0f 3b35 da46 9e34 990f 2d34 18b4 9334
00000120: 2243 5233 39d5 1734 361c 5334 a4fa c233
00000130: 48ae c535 224d 1435 aaea 2536 1def 0935
00000140: 77c1 4235 05d6 3735 095d 8934 4d30 ac34
00000150: a25b 1c36 8f22 5e36 6ce8 db36 4493 d236
00000160: ac57 3836 dd97 5236 cdbd 8336 0070 0836
00000170: 167b 1634 ab96 a534 0365 9935 66e8 0f35
00000180: b5f8 1c36 66d7 3a36 49c9 9735 86b4 e435
00000190: 5aaa 8134 b06d df34 7750 4934 b50a 0234
000001a0: f0ac 1b35 1cc5 3f35 61b6 2f36 7fb3 5a35
000001b0: 25d0 9835 b7e0 8236 e2a4 8f37 e7f9 ee36
000001c0: 0dca 8435 6c66 8835 7870 0636 2f2d 5335
000001d0: 99ac 4435 d0d8 1b35 d0e2 1536 7a22 2835
000001e0: 002e b733 9aff 3334 7b11 9b34 ec70 9234
000001f0: f4aa b135 4636 1135 b735 e335 f3bf 0935
00000200: a7a0 9735 a31c 9235 3c27 2236 71b4 a936
00000210: a538 9c34 322d ac34 9080 1535 76a2 c334
00000220: 4ab5 0a38 aad6 4139 036f b437 2378 3437
00000230: 1dcf 9734 ff9d 9434 2f47 0d36 69d3 3035
00000240: f5fa f936 e707 c836 0c42 0437 6d13 8537
00000250: 0f71 4834 dc68 8634 ab6e 8233 6fc4 c033
00000260: 5d20 2735 29a2 0d35 b839 2e36 b229 9c35
00000270: 5d5b d635 528e e235 ea2c 1037 89ee 1e36
00000280: 8c97 aa35 b42f 0235 0401 4a34 7243 e633
00000290: 5418 6735 0ace 6235 628a 1d35 2aaa 1036
000002a0: 39d5 ae34 2b0f 1b34 2175 0f33 ac2c 5034
000002b0: 01c6 df33 f922 6034 5405 d933 f868 f233
000002c0: ec8d 1d35 448d 3835 e84d 1a36 aa1d ba36
000002d0: a48d a837 ce41 9c36 5031 eb35 f9cc 1037
000002e0: 94b4 ac34 7e7c b034 6d19 e734 e9fa 3135
000002f0: 39b5 e331 7f2d 2f35 f145 fa34 0a1d 9434
00000300: 62cc 2c33 814d 1934 a459 c332 c7a9 3d34
00000310: bbbe 8938 13fb 8738 ab89 8837 cc98 1938
00000320: b804 ba34 2caa ad34 b098 0936 91c9 b235
00000330: 0a9d fc35 2436 0d35 9933 7335 e7d2 cd35
00000340: 172a 1b35 55af a234 6420 e335 1a19 3235
00000350: ff5b 9333 9021 6d33 6853 6333 8cf3 be33
00000360: d97c 8333 eb85 9234 9352 b836 bc73 0536
00000370: 2004 3f36 b82d cf34 a56c 0a35 090a 2935
00000380: bfb0 1837 ff57 7735 19ad a836 e9fb 0f36
00000390: 5152 3335 e34c e235 6fd2 7a32 9cb3 e434
000003a0: 96fb b033 67b3 8d33 944d 4934 1818 eb32
000003b0: 34fc 2d34 90ce 6234 bac9 a334 6bb0 1d35
000003c0: 6f11 ad35 928f b634 3c1d 2b34 9c3f 3135
000003d0: 4364 4033 950a 9b33 359a 8134 9535 8433
000003e0: bdb7 3e38 1341 3f38 3714 5638 eda0 dc37
000003f0: df4e 4036 1b70 4b36 66e8 6435 8d1b 3935
7.1764115e-09 7.2877615e-09 3.364275e-08 1.130317e-08 2.7096655e-07 1.803949e-07 4.115593e-07 1.1234875e-07
3.1651723e-07 9.886472e-07 4.0883748e-07 9.3600676e-08 1.7452945e-06 1.9176255e-06 1.0345901e-06 2.313144e-06
1.1817632e-05 1.166823e-05 5.597053e-06 4.970887e-06 1.9321105e-06 1.330991e-06 2.0365319e-07 1.056102e-06
1.2612913e-06 1.1127447e-06 9.728493e-07 3.757683e-07 2.8820327e-07 1.694593e-07 3.1720757e-07 1.8697763e-08
3.3168533e-07 7.482169e-07 1.2981938e-07 8.477372e-08 4.2038758e-07 5.567409e-07 1.2333215e-06 7.3498245e-07
7.4246407e-07 5.1332327e-06 1.0254943e-06 2.1745343e-06 8.645189e-08 9.1905726e-08 1.5885468e-07 9.5886264e-08
3.2917271e-06 9.2737455e-06 2.8979457e-06 1.8860328e-06 9.910357e-07 9.568081e-07 9.696855e-07 1.7419467e-06
7.058514e-08 3.286501e-07 3.0277178e-07 7.705148e-08 5.488658e-07 6.497262e-07 1.3624972e-07 3.9783487e-07
4.2660398e-07 2.28911e-07 1.08560094e-07 2.4641116e-07 6.9685007e-07 2.9481345e-07 1.6117555e-07 2.751192e-07
4.8955492e-08 1.4140541e-07 1.966117e-07 9.07942e-08 1.4728366e-06 5.524654e-07 2.4723508e-06 5.138443e-07
7.255216e-07 6.848425e-07 2.558593e-07 3.207264e-07 2.3299149e-06 3.3100694e-06 6.553766e-06 6.2756317e-06
2.7469168e-06 3.1380835e-06 3.9262e-06 2.0330772e-06 1.4014617e-07 3.084327e-07 1.1428787e-06 5.3609836e-07
2.3390578e-06 2.7841538e-06 1.1308958e-06 1.7039863e-06 2.415207e-07 4.1616795e-07 1.8748857e-07 1.2111089e-07
5.7993657e-07 7.1439877e-07 2.618319e-06 8.147253e-07 1.138546e-06 3.900462e-06 1.7123708e-05 7.122045e-06
9.893571e-07 1.0162598e-06 2.0033021e-06 7.8669376e-07 7.326685e-07 5.8057503e-07 2.2334752e-06 6.2635047e-07
8.529969e-08 1.6763661e-07 2.8883719e-07 2.727678e-07 1.3237282e-06 5.409569e-07 1.6928451e-06 5.13158e-07
1.1297133e-06 1.0886182e-06 2.4162719e-06 5.0575986e-06 2.909848e-07 3.207038e-07 5.569391e-07 3.6439786e-07
3.3070603e-05 0.00018485883 2.1509366e-05 1.0756808e-05 2.8276636e-07 2.7682105e-07 2.1052072e-06 6.587275e-07
7.4499935e-06 5.9613844e-06 7.883191e-06 1.5863881e-05 1.8667582e-07 2.503574e-07 6.073727e-08 8.976428e-08
6.225944e-07 5.276257e-07 2.5961617e-06 1.1635041e-06 1.5970833e-06 1.6879733e-06 8.593526e-06 2.368268e-06
1.2710093e-06 4.849819e-07 1.8813085e-07 1.0722478e-07 8.608961e-07 8.4491387e-07 5.868843e-07 2.155672e-06
3.2565165e-07 1.4441018e-07 3.340131e-08 1.9387761e-07 1.04202634e-07 2.0874349e-07 1.0105819e-07 1.1288097e-07
5.869358e-07 6.875091e-07 2.2993136e-06 5.5466853e-06 2.0093117e-05 4.656823e-06 1.7523216e-06 8.630793e-06
3.2168884e-07 3.2873135e-07 4.3045603e-07 6.630276e-07 6.627172e-09 6.5258786e-07 4.6617018e-07 2.7588277e-07
4.0232756e-08 1.4277431e-07 2.2741752e-08 1.7663761e-07 6.5681954e-05 6.484068e-05 1.627657e-05 3.6620346e-05
3.4648633e-07 3.2347577e-07 2.0503467e-06 1.3320697e-06 1.8821167e-06 5.260538e-07 9.059964e-07 1.5335071e-06
5.780325e-07 3.0302422e-07 1.6922245e-06 6.6346695e-07 6.861955e-08 5.5211387e-08 5.2928414e-08 8.8918654e-08
6.1228725e-08 2.7292057e-07 5.49324e-06 1.988591e-06 2.846362e-06 3.859002e-07 5.1567105e-07 6.297201e-07
9.101058e-06 9.214272e-07 5.0269414e-06 2.1455292e-06 6.680248e-07 1.6860689e-06 1.4599762e-08 4.2598992e-07
8.241402e-08 6.598457e-08 1.8747807e-07 2.7368557e-08 1.6203632e-07 2.1123037e-07 3.050789e-07 5.874378e-07
1.2894578e-06 3.4004603e-07 1.5936251e-07 6.60302e-07 4.479467e-08 7.219675e-08 2.4140323e-07 6.1564755e-08
4.547065e-05 4.5598554e-05 5.1040402e-05 2.630098e-05 2.8656139e-06 3.0314611e-06 8.5274803e-07 6.895796e-07

exp_avg f4 [64]
00000000: 000d 1339 21a8 df38 0be3 2f39 0c91 7438
00000010: 3150 54b8 06dd aeb7 f218 04b8 0163 1738
00000020: 3b75 2bb9 1314 1038 86f6 6237 b752 be36
00000030: 6b4d 21b9 a27d c837 a316 b438 0000 0000
00000040: d34a 74b7 a91a b338 0400 0000 72d3 3638
00000050: 0400 0000 2c0f c9b7 0400 0000 0400 0000
00000060: 3f27 7f36 95d7 cb37 36ed 1c39 9d70 2eb6
00000070: baf9 68b9 c073 3bb9 f6d7 acb6 1f55 b138
00000080: e301 9537 1142 9738 25db 1bb9 991c bdb8
00000090: 91f0 be37 0400 0000 78f9 4b35 1af1 d3b6
000000a0: 4fe7 b5b8 0400 0000 23f0 1839 a198 fcb4
000000b0: f42c a338 a7e9 78b8 1ef8 b438 32cb 9e38
000000c0: aca0 2ab5 187e b938 9d98 d937 9919 8b38
000000d0: 72b0 b5b6 0400 0000 bddf 31b8 6ebc a437
000000e0: 4266 2fb7 34c7 9439 0400 0000 a054 9739
000000f0: 5fdc 5938 673a 8e37 67b1 3cb7 3f1c 4836
0.00014023855 0.00010664785 0.0001677388 5.830922e-05 -5.0619423e-05 -2.0845338e-05 -3.1494485e-05 3.609341e-05
-0.00016351503 3.435097e-05 1.3528048e-05 5.6720705e-06 -0.00015382997 2.390036e-05 8.587285e-05 0.0
-1.4560955e-05 8.540351e-05 6e-45 4.3589105e-05 6e-45 -2.3968132e-05 6e-45 6e-45
3.8020805e-06 2.4299874e-05 0.00014965687 -2.599357e-06 -0.00022218275 -0.0001787683 -5.1511406e-06 8.455873e-05
1.7763063e-05 7.212547e-05 -0.0001486359 -9.017549e-05 2.2761787e-05 6e-45 7.598642e-07 -6.316358e-06
-8.673837e-05 6e-45 0.00014585308 -4.704971e-07 7.780819e-05 -5.9345413e-05 8.629284e-05 7.571875e-05
-6.3563743e-07 8.844974e-05 2.5939482e-05 6.6328044e-05 -5.4147613e-06 6e-45 -4.240846e-05 1.9638068e-05
-1.0454622e-05 0.00028377178 6e-45 0.00028864015 5.194207e-05 1.6954915e-05 -1.1246978e-05 2.9818764e-06

exp_avg_sq f4 [64]
00000000: 09b9 a435 4dc6 2735 d30d 1535 5f91 b234
00000010: e80e 4033 5f73 6333 5998 f634 89e9 6634
00000020: be1f b534 b6d4 0634 2caa 8833 5b05 0534
00000030: 4029 0e36 3a95 d935 e6de 6135 0000 0000
00000040: 434c 4433 8081 c135 f081 2f2f bac8 0f35
00000050: acc2 d031 4cc5 af35 4e45 262b e88e 6e30
00000060: 5f7c d733 1827 5b36 c10f 2e37 aa57 4634
00000070: f823 fd35 4f5e e535 ba60 3335 2a2a b734
00000080: ecf7 0934 a7ff 8a35 3980 a536 4557 6c35
00000090: dffc 4635 c59a 212e 064b de33 cc58 7f33
000000a0: 00bc 5435 dacb 9031 9b6f 7b35 ad2e cf33
000000b0: b2b5 1335 eaea 2035 26f1 b235 d790 a435
000000c0: 5762 6232 cff4 3935 51a7 e733 7594 ab34
000000d0: fbc9 b334 f848 532e 7856 b234 5cbc 1833
000000e0: c325 9834 fd72 0737 9b03 9a2e 22f1 8e36
000000f0: 9f07 b634 997a 5e32 e114 4834 6a1a 4b34
1.2272804e-06 6.2500914e-07 5.552694e-07 3.3260855e-07 4.471704e-08 5.2957486e-08 4.5931918e-07 2.1505379e-07
3.3736973e-07 1.2557106e-07 6.3639476e-08 1.2388539e-07 2.118366e-06 1.621119e-06 8.414339e-07 0.0
4.5704166e-08 1.441731e-06 1.596232e-10 5.3563747e-07 6.0757284e-09 1.3095937e-06 5.9071227e-13 8.678698e-10
1.0034341e-07 3.2656299e-06 1.0374876e-05 1.8472079e-07 1.8860437e-06 1.7089277e-06 6.682345e-07 3.4117085e-07
1.2849313e-07 1.0356206e-06 4.9323103e-06 8.8043845e-07 7.4128724e-07 3.6744625e-11 1.0351327e-07 5.9452574e-08
7.924973e-07 4.214127e-09 9.3667194e-07 9.647679e-08 5.502617e-07 5.994649e-07 1.3332217e-06 1.2261106e-06
1.3177291e-08 6.9274114e-07 1.07872104e-07 3.195925e-07 3.3488308e-07 4.8040655e-11 3.3217998e-07 3.556157e-08
2.8339682e-07 8.0734e-06 7.00375e-11 4.2600013e-06 3.3905687e-07 1.2949976e-08 1.8634047e-07 1.8915458e-07
