log/alpha=0.001/version_None/checkpoints/epoch=2499-step=4999.ckpt (torch, 116924 bytes, 21 tensors)

dec.lin0.bias f4 [64]
0	0x3d9abcbc	0.075555295
1	0xbf048d87	-0.51778454
2	0xbe1e9ab1	-0.15488698
3	0xbedc5f8b	-0.43041644
4	0xbf1582b5	-0.5840257
5	0x3f152586	0.5826038
6	0xbf146753	-0.5797016
7	0xbe6897a1	-0.22714092
8	0xbf01efb8	-0.50756407
9	0x3caa53f9	0.020791994
10	0x3f0d57c9	0.55212075
11	0x3eece6ea	0.46269923
12	0xbec2df5b	-0.38061032
13	0xbec57799	-0.38567808
14	0x3daa0759	0.08302183
15	0xbf07df21	-0.5307484
16	0xbf20b105	-0.6277011
17	0x3e061ce6	0.13096961
18	0x3c834dd8	0.01602833
19	0x3de8e2b7	0.113713674
20	0xbeea8d98	-0.45811152
21	0xbdb1df62	-0.08685185
22	0x3d595970	0.05306381
23	0x3ef468ef	0.47736308
24	0x3eaa883f	0.33307073
25	0x3d9384c7	0.0720306
26	0x3e2282ec	0.15870255
27	0x3e4a6a73	0.1976717
28	0xbd0e48fa	-0.034737565
29	0x3eb486ca	0.35259086
30	0x3eda5e83	0.42650232
31	0xbeb7de18	-0.35911632
32	0xbe696426	-0.2279211
33	0xbed57b2c	-0.41695535
34	0xbf00dd10	-0.50337315
35	0xbcb529f9	-0.02211474
36	0xbd0116e2	-0.031515963
37	0x3ed2d6fd	0.41179648
38	0x3db10a85	0.086445846
39	0x3f054cfe	0.52070606
40	0x3e84504f	0.2584252
41	0x3c218de9	0.009860494
42	0xbe9f76d9	-0.3114536
43	0xbdc5ae4a	-0.096523836
44	0xbef7e77e	-0.48418802
45	0xbda9e7ed	-0.082961895
46	0x3e14cb3f	0.14530657
47	0xbeac80cd	-0.33692017
48	0x3ec42bce	0.3831467
49	0xbe586d2c	-0.21135396
50	0xbf179ec4	-0.5922663
51	0xbe8e8baa	-0.2784093
52	0xbcd98d41	-0.026556613
53	0xbf0b4fe9	-0.5441881
54	0xbf058baa	-0.52166235
55	0xbe37d967	-0.17954026
56	0xbe81334c	-0.2523445
57	0x3f14fc9a	0.5819794
58	0x3efaa276	0.48952073
59	0xbdc309cc	-0.09523353
60	0x3d33f68c	0.043936297
61	0xbedfcaa4	-0.4370929
62	0xbd7ead9d	-0.06217729
63	0xbec97cc7	-0.3935301

dec.lin0.weight_v f4 [64, 4]
0	0xbe0e5699	-0.13900222
1	0x3e61f560	0.2206626
2	0x3f04da6a	0.51895773
3	0x3e596035	0.21228106
4	0x3da23396	0.079199955
5	0xbe64730a	-0.22309509
6	0xbe1b95b7	-0.1519383
7	0x3e66aff7	0.22528063
8	0xbe8c9f14	-0.27465117
9	0xbeca6c0e	-0.39535564
10	0x3e822a8a	0.2542308
11	0x3dba3a1f	0.09093117
12	0xbef4fcf0	-0.47849226
13	0x3e949ff4	0.29028285
14	0xbf07dc4a	-0.5307051
15	0xbed0060e	-0.4062962
16	0x3dc97855	0.09837405
17	0xbea92e6a	-0.33043224
18	0xbe9e376b	-0.30901656
19	0x3e3d7d22	0.18504766
20	0xbcd6cf29	-0.026221829
21	0xbebfe5e9	-0.37480095
22	0xbe849d4d	-0.2590126
23	0x3ea00948	0.3125708
24	0xbe91ebc9	-0.28500202
25	0x3e8c2e80	0.27379227
26	0x3f1dc250	0.6162462
27	0xbe154de7	-0.14580499
28	0xbec479be	-0.38374132
29	0xbe3a627c	-0.18201631
30	0x3df2fc08	0.118644774
31	0x3e83eb97	0.25765678
32	0xbe89b006	-0.26892108
33	0xbe323d45	-0.17406185
34	0x3de6fff3	0.11279287
35	0xbee291ba	-0.44251806
36	0xbea4a532	-0.32157284
37	0x3db50ad1	0.08839954
38	0xbe3d5942	-0.1849108
39	0x3ef01c7a	0.46896726
40	0x3ecbd7ad	0.39812985
41	0x3e2110e9	0.15729107
42	0xbe4a6558	-0.19765222
43	0xbe7b84bf	-0.24562357
44	0x3de2c9fd	0.110736825
45	0x3e4148b3	0.18875389
46	0x3e8020e4	0.25025094
47	0xbedb5d2b	-0.4284452
48	0xbe89ee71	-0.2693973
49	0xbd5c0718	-0.053717703
50	0xbd1e6b61	-0.038676623
51	0x3e8fa41c	0.28054893
52	0xbed05074	-0.4068638
53	0x3e82a605	0.25517288
54	0xbe7d5dc0	-0.24742794
55	0xbef96e40	-0.48716927
56	0x3e588e95	0.2114814
57	0xbc9127c0	-0.01771915
58	0x3e860464	0.26175225
59	0xbec1372b	-0.37737402
60	0xbea15516	-0.31510228
61	0x3f0cf80c	0.5506599
62	0xbe07dadd	-0.13267083
63	0x3ec00419	0.37503126
64	0xbd8fbf4e	-0.0701891
65	0xbeafdb31	-0.34346917
66	0xbef5d541	-0.48014262
67	0x3d237c3c	0.0399134
68	0xbed30894	-0.41217482
69	0x3d19468d	0.037420798
70	0x3e14b950	0.14523816
71	0xbe646506	-0.22304162
72	0x3ede9a39	0.43477038
73	0x3e725304	0.2366448
74	0x3e188ace	0.148967
75	0xbdba4456	-0.09095065
76	0x3b32be95	0.002727424
77	0x3e7a9ae5	0.2447315
78	0xbe2dd8bf	-0.16977213
79	0xbd04d883	-0.032433044
80	0x3c9d41c9	0.019196408
81	0xbc0c8793	-0.008577245
82	0xbee6916f	-0.45032832
83	0x3e0f0c5b	0.13969557
84	0xbc545881	-0.012960554
85	0xbe574c01	-0.21025087
86	0xbea484b8	-0.32132506
87	0x3d9b7bd3	0.07591977
88	0xbd6eb22c	-0.058275387
89	0x3e4e0979	0.20120801
90	0xbe7a0608	-0.24416363
91	0x3e29ea10	0.16593194
92	0x3e929547	0.28629515
93	0x3da6bbb0	0.08141267
94	0x3eefeb65	0.4685928
95	0x3e8b91fe	0.2725982
96	0x3e29819e	0.16553351
97	0xbeea0a33	-0.45710906
98	0xbd2561f2	-0.04037661
99	0xbefac0a4	-0.48975098
100	0xbec0262e	-0.3752913
101	0x3e7d8c18	0.24760473
102	0xbed8bbbf	-0.4233074
103	0xbefc62be	-0.49294084
104	0xbdb34ac7	-0.08754497
105	0xbe82d02d	-0.2554945
106	0x3e578c5f	0.21049641
107	0xbdbe1a28	-0.09282333
108	0x3dfd719c	0.12375185
109	0x3eb33552	0.35001618
110	0xbeb85cfa	-0.36008435
111	0xbec9d221	-0.39418128
112	0x3edc1a43	0.42988786
113	0xbe8fba45	-0.280718
114	0xbe3c035b	-0.18360655
115	0x3f04caf9	0.5187221
116	0x3aacff0b	0.0013198567
117	0x3c2ba380	0.010475993
118	0xbed7bf2c	-0.4213804
119	0x3e8ee821	0.27911475
120	0x3e94ac97	0.29037926
121	0x3b8cf71b	0.004301918
122	0xbeb5dbb5	-0.35519186
123	0xbc3ec31a	-0.0116431955
124	0xbdda81d5	-0.10669295
125	0xbe51cab6	-0.20487484
126	0x3eb96b5a	0.36214715
127	0xbe4ca51a	-0.19984856
128	0xbe589bdb	-0.21153204
129	0x3e404865	0.18777616
130	0xbedd832f	-0.43264148
131	0x3e809a6f	0.25117823
132	0x3e89367b	0.26799378
133	0xbece6508	-0.40311456
134	0xbe85c8bd	-0.26129714
135	0xbe40d7e2	-0.18832353
136	0xbeade12f	-0.33960864
137	0x3e86f9d5	0.26362482
138	0x3eed759c	0.4637879
139	0xbf27cd1f	-0.65547365
140	0x3e180fcc	0.14849776
141	0xbe347d22	-0.1762586
142	0xbeca8325	-0.3955318
143	0xbeda2972	-0.42609745
144	0xbeab27fb	-0.3342894
145	0x3eda5066	0.42639464
146	0xbd86d6eb	-0.06583961
147	0xbcfa6e0c	-0.030570053
148	0x3c66fc43	0.01409823
149	0x3ef34c5c	0.47519195
150	0xbe38db18	-0.18052328
151	0xbe962757	-0.2932689
152	0xbe6931bb	-0.22772877
153	0xbe786995	-0.24259026
154	0xbefbf2bd	-0.49208632
155	0x3e82cf76	0.25548905
156	0xbe9f2b72	-0.31087834
157	0x3ec03f7a	0.3754843
158	0x3da3c7e9	0.07997114
159	0x3e470d87	0.19438754
160	0x3e856844	0.2605611
161	0xbec4c75d	-0.38433352
162	0x3e58d6d0	0.21175694
163	0x3e966c71	0.2937961
164	0xbeb5148b	-0.35367236
165	0xbe82f46d	-0.25577107
166	0x3e86fe3e	0.26365846
167	0xbe0abe9a	-0.13549271
168	0x3e83688f	0.2566571
169	0x3df8057f	0.12110423
170	0xbf00b78a	-0.5028006
171	0xbe9c768d	-0.30559197
172	0x3e3af62c	0.1825797
173	0xbd1cc83c	-0.038276896
174	0xbe034463	-0.12819056
175	0xbf0319e2	-0.5121137
176	0xbdea6912	-0.11445822
177	0x3eb5e0b5	0.35523
178	0xbdf0930a	-0.117467955
179	0xbee69076	-0.4503209
180	0x3e903e8b	0.28172716
181	0xbe1523cb	-0.14564435
182	0xbe17a830	-0.14810252
183	0x3f0e3311	0.5554667
184	0x3d4f7e57	0.050657596
185	0x3efa897e	0.48933023
186	0xbeaf199e	-0.34199232
187	0x3ecd0d81	0.40049365
188	0x3e975c2c	0.2956251
189	0xbdf0c1ab	-0.11755689
190	0x3d67817e	0.056519978
191	0x3e990adb	0.29891095
192	0xbe36f8ef	-0.17868398
193	0xbe2c00d1	-0.16797186
194	0xbde3bfc3	-0.1112056
195	0x3e4c3916	0.19943652
196	0xbe8129ec	-0.25227296
197	0x3ea1a2e3	0.31569585
198	0x3ee1f66e	0.44133323
199	0x3e9c0081	0.30469134
200	0x3d5995d6	0.05312141
201	0xbe92aba5	-0.2864658
202	0x3e05d8ab	0.13070934
203	0xbbe4435f	-0.006966039
204	0x3e5d605d	0.21618791
205	0x3e9aae70	0.3021121
206	0xbdc85a82	-0.09782888
207	0xbebd075f	-0.36919686
208	0xbd832f45	-0.064055
209	0xbee9a301	-0.45632175
210	0x3e5b11ac	0.2139346
211	0x3e62112c	0.22076863
212	0xbe737b32	-0.23777464
213	0xbe94a1b5	-0.29029623
214	0x3eeaeda9	0.45884445
215	0xbdcf9244	-0.1013532
216	0xbed62ea6	-0.41832465
217	0xbe1f28d7	-0.15542923
218	0xbed97bf7	-0.4247739
219	0x3dacdc4b	0.08440455
220	0x3d85674b	0.06513842
221	0x3d31360d	0.043264437
222	0xbed9e8b6	-0.42560357
223	0xbbfa94c8	-0.0076471306
224	0x3c66d995	0.014089962
225	0x3df6b798	0.120467365
226	0xbeb904c2	-0.36136442
227	0xbf0b8412	-0.544984
228	0xbcbd1c93	-0.023084914
229	0xbf01e41e	-0.50738704
230	0xbe46f37f	-0.19428824
231	0xbeef8758	-0.46782947
232	0xbe7c2935	-0.24625094
233	0xbeabfeba	-0.33592778
234	0x3eb3ded3	0.3513094
235	0x3f091e43	0.535618
236	0x3e733665	0.23751219
237	0x3e871f03	0.26390848
238	0xbe13abbe	-0.14420983
239	0x3e57830c	0.21046084
240	0x3e846795	0.25860277
241	0xbecb30e9	-0.39685753
242	0xbd8c8144	-0.06860593
243	0xbee3459a	-0.4438904
244	0x3eb54c5e	0.35409826
245	0x3ea9321f	0.33046052
246	0x3ed760f6	0.42066163
247	0xbe19ac95	-0.15007241
248	0x3bc24893	0.0059290617
249	0xbe3a1b7e	-0.1817455
250	0x3e3b460c	0.1828844
251	0xbedfda99	-0.43721464
252	0xbec93bf9	-0.39303568
253	0x3e3aa4ed	0.18226977
254	0x3e9de1f0	0.3083644
255	0x3c04223c	0.008064803

dec.lin1.bias f4 [64]
0	0x3d487aa6	0.04894509
1	0xbe00b042	-0.12567237
2	0x3da83cab	0.082146965
3	0xbe0d617f	-0.13806723
4	0x3dee9207	0.11648946
5	0x3d514b4a	0.051097192
6	0xbd91bf0b	-0.07116517
7	0x3d35bcf0	0.044369638
8	0x3e0d7e90	0.13817811
9	0x3dd260dc	0.10272381
10	0x3e166e03	0.14690404
11	0x3d2e6d06	0.04258444
12	0xbcdc4fbd	-0.02689349
13	0xbcbd32ab	-0.02309545
14	0x3e14c508	0.14528286
15	0xbd0b4371	-0.033999864
16	0x3e02e106	0.12781152
17	0xbdea6651	-0.114452966
18	0xbd994f61	-0.074858434
19	0x3d325af3	0.043543767
20	0xbe8fed8a	-0.28110915
21	0xbdec9d56	-0.11553447
22	0xbdb04f84	-0.086089164
23	0xbd21fcfc	-0.039547905
24	0x3caf3095	0.02138547
25	0xbd1947d1	-0.037422005
26	0x3e3baf0a	0.18328491
27	0x3d3426e0	0.043982387
28	0x3e05cd90	0.13066697
29	0xbd633585	-0.055470962
30	0x3c2b2180	0.010444999
31	0xbc27087d	-0.010194895
32	0x3d05c8d8	0.032662243
33	0x3da052e3	0.078283094
34	0x3d3a65b2	0.04550714
35	0x3c69a157	0.014259658
36	0xbca7e7e8	-0.020496324
37	0x3dffab42	0.12483837
38	0x3d144e41	0.03620744
39	0xbd8d7ebd	-0.06908939
40	0x3ddcfa29	0.10789902
41	0x3deedcfe	0.11663245
42	0x3dafae72	0.08578195
43	0xbcf13412	-0.029443774
44	0xbd36d848	-0.044639856
45	0x3db06d4a	0.08614595
46	0x3d5b4fea	0.05354301
47	0x3d78ce2f	0.060743507
48	0x3dd50921	0.10402132
49	0x3b4d840e	0.0031359228
50	0x3be69a7a	0.007037458
51	0xbcc7f51d	-0.024408871
52	0xbd805d7d	-0.062678315
53	0xbddeb61e	-0.1087458
54	0xbdbfb0c1	-0.09359885
55	0x3e019f4a	0.1265842
56	0xbceda328	-0.029008463
57	0x3d42d59e	0.047567002
58	0x3d83ac48	0.064293444
59	0x3caa0e76	0.020758849
60	0xbdc4fd67	-0.09618645
61	0x3d5ec912	0.054390974
62	0x3e09eb7a	0.13468733
63	0x3de0a359	0.10968656

dec.lin1.weight_v f4 [64, 64]
0	0xbdacd206	-0.08438496
1	0x3cf9a47f	0.030473946
2	0xbdf377e8	-0.11888105
3	0x3bba50cf	0.0056859027
4	0xbdd837b6	-0.10557501
5	0xbd04491e	-0.032296292
6	0x3e28648f	0.1644461
7	0xbda7224b	-0.08160838
8	0xbdedbfe2	-0.11608864
9	0x3d9e430b	0.07727631
10	0x3d1aa079	0.037750695
11	0x3ce31b01	0.027722837
12	0x3def893e	0.11696099
13	0x3dcb993b	0.09941336
14	0xbd62490f	-0.055245455
15	0xbdde721c	-0.108616084
16	0xbc721e7f	-0.014777779
17	0x3d74309a	0.059616663
18	0xbd31815a	-0.04333625
19	0x3d029c60	0.031887412
20	0x3ca5c948	0.02023758
21	0x3e28b0a8	0.16473639
22	0x3de33e8b	0.110959135
23	0xbce55f54	-0.027999558
24	0xbc34e42c	-0.011040729
25	0xbd1186b9	-0.035528872
26	0xbd88a85b	-0.06672736
27	0x3d63bb79	0.05559871
28	0xbde2148a	-0.11039074
29	0xbd6d6565	-0.057958025
30	0x3c6e6b48	0.014551945
31	0xbd9ae758	-0.075636566
32	0xbd09698a	-0.033547916
33	0x3d99ad20	0.07503724
34	0x3c3cf92e	0.011534018
35	0x3cfdf675	0.031001309
36	0xbe02f229	-0.1278769
37	0x3db263e4	0.08710459
38	0x3de77cfc	0.11303136
39	0xbd8e709f	-0.069550745
40	0xbdb84b1b	-0.089987
41	0xbd9e7557	-0.077372245
42	0x3d8646c1	0.06556464
43	0xbd4469c9	-0.047952447
44	0x3d443f24	0.047911778
45	0xbc883d54	-0.016630806
46	0xbdab49ea	-0.08363707
47	0xbe0eb014	-0.13934356
48	0xbe0a184a	-0.13485828
49	0xbb9ea5ff	-0.0048415656
50	0x3e0885e2	0.13332322
51	0x3db67b53	0.08910241
52	0xbdacfed7	-0.08447044
53	0xbcfbc55c	-0.030733757
54	0x3e6e3402	0.23262027
55	0xbc3ccf88	-0.011524089
56	0x3a5ae97f	0.00083508337
57	0x3d927913	0.07151999
58	0xbdcdb23e	-0.100437626
59	0xbdfc20c0	-0.12310934
60	0x3d788b55	0.060679752
61	0x3dcc70d3	0.09982457
62	0x3d83f4c2	0.06443168
63	0x3d8159d7	0.06315964
64	0x3de03312	0.10947241
65	0x3c408969	0.011751511
66	0x3da9f2fa	0.08298297
67	0x3dc2e266	0.09515838
68	0x3c9155bb	0.017741075
69	0xbdabb10a	-0.08383377
70	0x3e44b532	0.19209746
71	0x3d5228b6	0.051308356
72	0x3d8b8296	0.06812017
73	0xbd7d87ed	-0.061897207
74	0xbdf770a8	-0.12082034
75	0xbcb5476d	-0.022128785
76	0xbd75fde6	-0.06005659
77	0x3cb1624f	0.021653323
78	0x3d43b064	0.04777564
79	0x3d8ae82f	0.06782567
80	0x3e5a7513	0.21333723
81	0xbcc09317	-0.023507638
82	0x3dc582cd	0.09644089
83	0x39b7d0c5	0.00035060025
84	0x3e006491	0.12538363
85	0x3dca91e8	0.09891111
86	0x3dbd6cb4	0.09249249
87	0xbb8ec41e	-0.004356875
88	0xbdae115f	-0.08499407
89	0x3de53781	0.11192227
90	0xbac95eb4	-0.0015363307
91	0xbd3d7d42	-0.046262033
92	0x3d1761d8	0.036958545
93	0xbd677921	-0.056512002
94	0xbdce0cd5	-0.10061041
95	0x3dcc3322	0.0997069
96	0x3cbae3ca	0.022813696
97	0x3d4cada1	0.049970273
98	0x3de1a5d3	0.110179566
99	0x3e1c54b6	0.1526669
100	0x3d5aad19	0.053387735
101	0x3cc26111	0.023727925
102	0xbc1c7647	-0.009549684
103	0xbdb08c58	-0.086205184
104	0x3bdb9eb8	0.0067022704
105	0x3c9b3482	0.018945936
106	0x3d27b728	0.040946156
107	0x3c3c2a7a	0.011484737
108	0x3dbb5d47	0.091486506
109	0x3d181314	0.03712757
110	0x3d41aa25	0.047281403
111	0x3dbac850	0.09120238
112	0x3ca4c76f	0.020114629
113	0x3e36d85c	0.17855972
114	0x3e26d5f7	0.16292559
115	0x3d009225	0.031389374
116	0x3dafacf8	0.08577913
117	0x3e142e06	0.14470682
118	0x3e28999f	0.16464852
119	0x3dbf68c7	0.093461566
120	0x3e1c4754	0.15261585
121	0xbe332020	-0.17492723
122	0xbe2dacbe	-0.16960427
123	0x3d80cac5	0.06288675
124	0xbe016580	-0.12636375
125	0x3e1da503	0.15394978
126	0x3ced4606	0.028964054
127	0x3dfbd750	0.12296927
128	0xbdfc6144	-0.123232394
129	0xbd4e10a1	-0.050308827
130	0xbe0c4dee	-0.13701603
131	0xbc2c0438	-0.010499053
132	0x3d346028	0.044037014
133	0x3e369239	0.17829217
134	0xbda846ed	-0.08216653
135	0xbd34c14d	-0.04412966
136	0x3d48d6b8	0.049032897
137	0x3dabc12e	0.083864555
138	0x3d239d2c	0.039944813
139	0xbc31bdb9	-0.010848456
140	0xbd3ae02c	-0.045623943
141	0xbdacb680	-0.084332466
142	0xbc43f1c4	-0.011959497
143	0x38e87ac3	0.00011085488
144	0xaa16f4ff	-1.3407676e-13
145	0x3dca83f5	0.0988845
146	0xbd2ef038	-0.04270956
147	0xbda366a9	-0.07978565
148	0x3c55e5d5	0.0130552845
149	0xbdf34cec	-0.11879906
150	0xbe04daba	-0.12974063
151	0x3c8a7355	0.016900698
152	0xbcc40126	-0.023926329
153	0x3ca064f9	0.019579398
154	0xbd33afcf	-0.043868836
155	0x3d9075e1	0.070537336
156	0x3d56ed35	0.052472312
157	0xbd11427c	-0.035463795
158	0xbda73723	-0.08164813
159	0x3d17a9a3	0.037027013
160	0xbdd21b3b	-0.102591
161	0xbd068b4e	-0.032847695
162	0x3db914cf	0.09037172
163	0xbdd6408a	-0.104615286
164	0xbd4685b3	-0.04846735
165	0x3ccaa5a4	0.024737187
166	0xbe11d7db	-0.14242499
167	0xbd31a37b	-0.043368798
168	0xbd46f079	-0.048569176
169	0x3c17db25	0.009268557
170	0xbd3cba10	-0.04607588
171	0x3ce16a80	0.027516603
172	0x3d012ac5	0.03153493
173	0xbdf9895a	-0.12184401
174	0xbdeac934	-0.11464158
175	0xbd3aa6b0	-0.04556912
176	0x3d98f506	0.074686095
177	0xbcf2db55	-0.029645601
178	0xbcdd4a48	-0.02701296
179	0xbd923906	-0.071397826
180	0x3dd05224	0.10171917
181	0xbe0f051b	-0.13966791
182	0x3dae8c8c	0.08522901
183	0xbcfd9bd1	-0.030958088
184	0x3b0c9770	0.0021452568
185	0x3d275653	0.04085381
186	0x3dd38d82	0.10329725
187	0xbdf4ae2a	-0.11947282
188	0xbdee6d1a	-0.11641903
189	0x3da40f63	0.08010747
190	0x3d586604	0.052831665
191	0xbe30ab64	-0.1725288
192	0xa2b24bbe	-4.832719e-18
193	0x3e0b42de	0.13599727
194	0x932e3aae	-2.1990819e-27
195	0x3deb1411	0.11478437
196	0x3d934cce	0.07192384
197	0xbd940971	-0.07228363
198	0x95081932	-2.7484857e-26
199	0x3c699b50	0.014258221
200	0xbb85bfe2	-0.004081712
201	0x3cde87f9	0.027164446
202	0xbddb1784	-0.106978446
203	0xbdf3383b	-0.118759595
204	0xbd33608b	-0.043793242
205	0x3da035f5	0.078227915
206	0xbcaaece6	-0.020864915
207	0x3dd39aee	0.10332285
208	0x3e7249d1	0.23660971
209	0xbd568955	-0.052377064
210	0xbcd5f688	-0.026118532
211	0x3de9cb2a	0.114157036
212	0x3dbe334f	0.0928713
213	0x3d19a89a	0.037514307
214	0x3b0887d7	0.002083292
215	0xbe71ceba	-0.23614016
216	0xbda60b4e	-0.08107625
217	0x3bd9bfc8	0.0066451766
218	0x80324469	-4.616316e-39
219	0xbc3d2a2a	-0.011545697
220	0x3b9cea31	0.00478866
221	0x3dbc9ab3	0.09209194
222	0xbcdb0f81	-0.026740791
223	0x0320a10d	4.720465e-37
224	0x3dd9fe3a	0.10644193
225	0x3d7acd60	0.061231017
226	0x83b18625	-1.0433923e-36
227	0x3db0adb2	0.0862688
228	0x3c956e49	0.018241065
229	0xbdc91285	-0.098179854
230	0x3d9ee327	0.077581696
231	0xbe0bef82	-0.13665584
232	0xbe0ec4d1	-0.13942267
233	0x9c1477f6	-4.912414e-22
234	0x3c9c0ecf	0.01905003
235	0xbcd67f2b	-0.026183685
236	0x3dc838c9	0.09776456
237	0xba0bc511	-0.00053317944
238	0x3da65610	0.08121884
239	0xbb22a74f	-0.0024818962
240	0xbdc79d65	-0.097468175
241	0x850b5b40	-6.5525086e-36
242	0x11d77d47	3.3998227e-28
243	0xbc1e58bb	-0.00966471
244	0x3b532d52	0.0032223058
245	0x1564420e	4.609634e-26
246	0x3e5a4e81	0.2131901
247	0x3d9b2b66	0.07576637
248	0x3db868a5	0.09004334
249	0xbdf882ee	-0.12134348
250	0xbe348137	-0.17627417
251	0xbd9f6629	-0.077831574
252	0xbbd74811	-0.0065698703
253	0xbd4577e6	-0.048210047
254	0xbd12f962	-0.03588236
255	0x0eacd3bf	4.2605178e-30

dec.lin2.bias f4 [64]
0	0x3d116fa4	0.03550686
1	0x3d85b943	0.065294765
2	0xbddb8710	-0.107191205
3	0xbce41560	-0.027842224
4	0xbdb5b01e	-0.08871482
5	0x3d33f417	0.043933954
6	0xbc6364d5	-0.013879021
7	0x3ca408b7	0.020023687
8	0xbe0ef898	-0.13962018
9	0xbc341965	-0.010992383
10	0x3dccea28	0.10005599
11	0xbcda15a1	-0.026621642
12	0xbd9a553b	-0.07535788
13	0xbd2badec	-0.04191391
14	0xbdcee1f6	-0.101016924
15	0x3c6ea2f0	0.0145652145
16	0x3debb0f6	0.11508362
17	0x3d6f343a	0.058399417
18	0xbdc567ee	-0.09638964
19	0xbdf39dc2	-0.11895324
20	0xbdbbb4b8	-0.09165329
21	0xbdc04bdc	-0.09389469
22	0xbdc8627b	-0.09784409
23	0xbc17e1b3	-0.0092701195
24	0x3dcd9afa	0.10039325
25	0x3d841d93	0.06450953
26	0xba1bfb16	-0.00059501955
27	0x3d978a05	0.07399372
28	0xbd8d7b59	-0.06908292
29	0xbd2a58b9	-0.04158852
30	0xbd84da22	-0.06486918
31	0x3d3671aa	0.044541992
32	0xbcbfdfa3	-0.023422068
33	0xbe32112b	-0.17389362
34	0x3dbabd07	0.09118085
35	0xbdc01424	-0.093788415
36	0xbdb09dbc	-0.086238354
37	0x3db2aa7e	0.08723925
38	0xbe0cdc6f	-0.13755964
39	0xbdabccea	-0.08388694
40	0x3dfd8c77	0.12380307
41	0xbdaf9f4f	-0.085753076
42	0x3c8a7368	0.016900733
43	0xbdbf293f	-0.09334039
44	0xbeb897c4	-0.36053288
45	0xbc7cc114	-0.015426893
46	0x3d6bcd8d	0.057569075
47	0x3dc33db8	0.09533256
48	0x3d388fa5	0.045058865
49	0x3d2e2850	0.042518914
50	0x3cf141e1	0.029450359
51	0xbc9b182e	-0.018932428
52	0xbc819527	-0.015818192
53	0x3c56d98d	0.013113392
54	0xbdbf8fcb	-0.09353598
55	0xbcab5918	-0.020916507
56	0xbd3db3e4	-0.046314135
57	0x3d81d656	0.063397095
58	0xbd9f1469	-0.07767565
59	0x3d708cfd	0.058728207
60	0xbc82aeea	-0.015952546
61	0x3ade9984	0.0016983007
62	0x3ca24fb8	0.019813403
63	0x3cfd7885	0.030941257

dec.lin2.weight_v f4 [64, 64]
0	0xbd208ffb	-0.03919981
1	0xbd8f9bfa	-0.07012172
2	0x3dad82ec	0.08472237
3	0xbdf4c8d3	-0.11952367
4	0xbd9e51f1	-0.07730473
5	0xbd799228	-0.0609304
6	0xbdba4cd6	-0.090966865
7	0x3dd408c1	0.10353232
8	0xbd304f47	-0.043044355
9	0xbdb18287	-0.08667474
10	0x3d7b0d60	0.061292052
11	0xbe16cae8	-0.1472584
12	0xbc80baad	-0.015714014
13	0xbd105f96	-0.035247408
14	0xbd6ec9a4	-0.05829777
15	0x3c804d2c	0.015661798
16	0xbdd7806c	-0.105225414
17	0x3bb0c400	0.005394459
18	0xbe04b10f	-0.12958167
19	0x3d346dc0	0.04404998
20	0x3e5338dc	0.20627159
21	0xbc87b1ef	-0.016564338
22	0xbb5c6a2c	-0.003363262
23	0xbd867813	-0.06565871
24	0x3d9643d6	0.073371574
25	0x3d0760d9	0.033051345
26	0x3d77bf0f	0.060484942
27	0xbd33d235	-0.04390164
28	0x3cdd7389	0.02703263
29	0x3d9f7c22	0.07787348
30	0xbd1ab010	-0.037765563
31	0x3d53d884	0.051720157
32	0x3dad586b	0.0846413
33	0x3ced1181	0.02893901
34	0x3d88603e	0.06658982
35	0xbde69122	-0.11258151
36	0xbd22894d	-0.03968172
37	0x3dbc1f83	0.09185698
38	0xbdddccf3	-0.108301066
39	0x3828fff8	4.029271e-05
40	0x3d951dcb	0.07281073
41	0x3dd9e920	0.10640168
42	0x328b6935	1.6229572e-08
43	0x3d41ecf7	0.047345128
44	0xbdeb923e	-0.11502503
45	0x3c6a86f5	0.014314403
46	0x3dfa4ac4	0.12221292
47	0x3dbb8c94	0.091576725
48	0x3d5e8dc0	0.054334402
49	0xbd530290	-0.051516116
50	0x3d2d6037	0.042328086
51	0xbe02d940	-0.12778187
52	0x3d8b6dd0	0.068080544
53	0xbe0766e5	-0.13222845
54	0xbe2046a9	-0.15651955
55	0xbdce9f84	-0.10089019
56	0x3d94f14c	0.07272586
57	0xbd27e67b	-0.040991288
58	0x3d5b277f	0.053504463
59	0x3c0d34f6	0.008618584
60	0xbe1e8a9e	-0.15482566
61	0xbda2a982	-0.07942487
62	0x3dabf7f0	0.083969
63	0x3ce4dd33	0.027937507
64	0x3ce6e0c4	0.028183348
65	0xbe2cd099	-0.16876449
66	0xbdca57f2	-0.098800555
67	0x3cefb4cd	0.029261017
68	0xbdae7125	-0.08517674
69	0xbd978964	-0.07399252
70	0xbc24c1c0	-0.010055959
71	0xbdf4a5e9	-0.11945707
72	0x3d5d78e8	0.054070383
73	0x3d0bfeab	0.034178417
74	0xbdabe9bf	-0.08394193
75	0xbcb26c6b	-0.021780213
76	0x3d80d08b	0.062897764
77	0xbe0e6cf9	-0.13908757
78	0x3d5bb516	0.053639494
79	0xbdf47dca	-0.11938055
80	0xbd518fc9	-0.051162515
81	0xbd29da6a	-0.04146806
82	0x3db97d40	0.09057093
83	0xbdebdd67	-0.115168385
84	0xbe511fb2	-0.20422247
85	0x3b84f533	0.0040575503
86	0xbda072b7	-0.0783438
87	0x3db82101	0.0899067
88	0x3daa757f	0.08323192
89	0x3deceb1f	0.11568283
90	0x3d87be74	0.06628123
91	0x3cab83f8	0.020936951
92	0xbc7b162b	-0.0153251095
93	0x3d818537	0.06324237
94	0x3cf1e5f6	0.0295286
95	0x3cb25baa	0.021772224
96	0x3bc342bc	0.005958883
97	0xbdfadcec	-0.12249169
98	0xbd230922	-0.03980363
99	0x3d5b5149	0.053544316
100	0x351fe04f	5.955853e-07
101	0x3e0e7ac0	0.13914013
102	0xbdd5ae91	-0.104336865
103	0xbe1a3f2d	-0.15063162
104	0xbbed5268	-0.0072424896
105	0x3d3e6313	0.046481203
106	0xbd392f0c	-0.045210883
107	0xbd84a158	-0.064760864
108	0x3dbb0abe	0.09132908
109	0xbda39014	-0.07986465
110	0xbd8ebf14	-0.06970039
111	0xbc311351	-0.010807828
112	0x3d7deb37	0.061991896
113	0xbcdcbf3c	-0.026946656
114	0xbd8a523e	-0.06753968
115	0xbcb09310	-0.0215545
116	0x3e01b812	0.12667874
117	0x3db5f7f7	0.08885186
118	0xbd077072	-0.03306622
119	0xbde7d85c	-0.11320564
120	0x3df6115b	0.12015029
121	0xbdc7bc9d	-0.09752772
122	0xbdbfd2a3	-0.09366348
123	0xbd79096c	-0.0608
124	0xbcdd58ef	-0.027019946
125	0xba8c2871	-0.0010693205
126	0x3da354ad	0.07975135
127	0xbda99f76	-0.08282368
128	0xbd54aad4	-0.051920727
129	0x3c5d9520	0.013524324
130	0xbdf06ee6	-0.11739902
131	0xbd4c3644	-0.04985644
132	0xbd388788	-0.045051128
133	0xbd737ea4	-0.059446946
134	0xbc990720	-0.018680155
135	0xbde3fa8e	-0.11131774
136	0x3d453d3c	0.0481541
137	0xbc253570	-0.010083541
138	0xbdfb8396	-0.122809574
139	0xbd94fa86	-0.07274346
140	0xbdfc68de	-0.12324689
141	0xbd8abc02	-0.06774141
142	0x3ccccf00	0.025001049
143	0xbdbcd0cc	-0.09219512
144	0x3cef5a10	0.02921775
145	0xbd4e3b9c	-0.050349817
146	0x3ca593c8	0.02021207
147	0x3d4a3144	0.04936339
148	0xbd47f0c8	-0.04881361
149	0x3cdb0b70	0.026738852
150	0xbca37c80	-0.019956827
151	0x3df7aa88	0.12093073
152	0xbd97a1b6	-0.07403891
153	0x3d316264	0.043306723
154	0x3ccd82b0	0.02508673
155	0x3d1414a4	0.036152497
156	0xbdf073ac	-0.11740813
157	0xbdd8c7d2	-0.10584988
158	0x3d92be98	0.07165259
159	0x3b0bb040	0.002131477
160	0xbd109b80	-0.035304546
161	0xbbbe1820	-0.005801216
162	0xbcd6f3b0	-0.026239246
163	0x3dc00cfc	0.093774766
164	0x3b4c5400	0.0031177998
165	0x3dc6a38c	0.09699163
166	0xbd6a7038	-0.057235926
167	0x3b6b5b80	0.0035912693
168	0x3d501fc8	0.05081156
169	0x3dfe8f2a	0.1242965
170	0xbdc6ff94	-0.097167164
171	0x3c515dc0	0.012778699
172	0xbd35eb68	-0.044413954
173	0xbda9e62e	-0.082958564
174	0xbca62558	-0.020281479
175	0xbc382db0	-0.0112413615
176	0xbd99681e	-0.07490562
177	0xbd9cf248	-0.07663399
178	0x3d7efbfc	0.06225203
179	0x3db94698	0.09046668
180	0xbdbe1b72	-0.092825785
181	0x3d6d3448	0.057911187
182	0xbdadc292	-0.08484377
183	0xbda27578	-0.07932562
184	0x3d7ea79c	0.062171564
185	0x3d607a20	0.054803967
186	0x3df07efa	0.11742969
187	0xbd7f6d98	-0.062360376
188	0xbce3ebd8	-0.02782242
189	0xbc36ecd0	-0.011164859
190	0x3ddf76a0	0.10911298
191	0xbd9653f2	-0.0734023
192	0x3dc12a1d	0.094318606
193	0xbd88a69c	-0.06672403
194	0x3da6f887	0.081528716
195	0x3ce63647	0.028102053
196	0x3c8d090e	0.017216232
197	0x3c0b7093	0.0085107265
198	0xbe0870ea	-0.13324323
199	0x3da1bed0	0.07897723
200	0x3d4168e0	0.047219157
201	0x3d4a7bf5	0.04943462
202	0xbe049306	-0.1294671
203	0x3d82a8cb	0.06379851
204	0x3d08dd72	0.03341431
205	0xbd8c8bf8	-0.068626344
206	0xbd1ed327	-0.03877559
207	0xbc97eede	-0.018546518
208	0xbdc569bb	-0.09639307
209	0x3d8319b2	0.06401385
210	0xbd32f489	-0.04369024
211	0x3d98e54e	0.074656114
212	0xbd5b8e8f	-0.05360275
213	0xbdb0f934	-0.08641282
214	0x3ca5c35c	0.020234756
215	0xbdbd99a3	-0.092578195
216	0x3d72fe73	0.059324693
217	0xbdf9d049	-0.1219793
218	0xbdc078f0	-0.09398067
219	0x3d8e04b8	0.06934494
220	0xbda0b466	-0.07846908
221	0xbd68e765	-0.0568613
222	0x3ddedd2c	0.10882029
223	0x3dd2da06	0.10295491
224	0xbd7d7ebb	-0.061888438
225	0x3df8908b	0.121369444
226	0x3db6358d	0.08896933
227	0xbbaaf63c	-0.0052173417
228	0x3cfa1a9b	0.030530265
229	0x3d94c523	0.07264163
230	0x3dad46ae	0.08460747
231	0x3da80ef9	0.08205981
232	0xbd380936	-0.04493066
233	0xbd183901	-0.03716374
234	0xbd81bf3c	-0.06335303
235	0xbced265a	-0.028948952
236	0xbc59afb8	-0.0132865235
237	0xbcbe1065	-0.023201177
238	0xbdfee520	-0.12446046
239	0x3d4d1dc5	0.05007722
240	0xbc9ec921	-0.019383015
241	0x3dc9fc8b	0.09862622
242	0x3d96f966	0.07371788
243	0x3ddd9c93	0.1082088
244	0xbdd870fc	-0.10568425
245	0xbdc7e202	-0.097599044
246	0x3ddaaf2b	0.10677942
247	0xbdbea38b	-0.09308537
248	0xbda966ff	-0.08271598
249	0x3b898f92	0.004198023
250	0x3d0f8575	0.035039384
251	0x3da895df	0.08231711
252	0xbd6a754e	-0.057240777
253	0xbe035d6f	-0.12828611
254	0x3de9c6a5	0.114148416
255	0x3d88190e	0.06645404

dec.lin3.weight_v f4 [1, 64]
0	0xbd507dfd	-0.0509014
1	0x3d831621	0.06400705
2	0x3c3a7214	0.011379737
3	0xbc077d17	-0.00826957
4	0xbc91ce4d	-0.017798567
5	0x3d8d09b6	0.06886618
6	0x3d3b9fc8	0.045806676
7	0xbdfa12b7	-0.12210601
8	0xbe4b36c6	-0.19845113
9	0x3dd6734b	0.10471209
10	0x391474aa	0.0001415784
11	0x3dccdb41	0.10002757
12	0xbdd87d61	-0.10570789
13	0x3abaa6f7	0.0014240433
14	0x3d141c6d	0.03615992
15	0xbd695640	-0.05696702
16	0x3d8d3d1d	0.06896422
17	0x3d89f613	0.06736388
18	0xbbf55c00	-0.007487774
19	0x3a8ceb43	0.0010751266
20	0x3dbea919	0.093095966
21	0x3bb71606	0.005587342
22	0x3d2e0b33	0.04249115
23	0xbe2f10a0	-0.17096186
24	0x3da9d190	0.08291924
25	0xbde2084b	-0.11036738
26	0x3db78ca2	0.089623705
27	0x3d3c8895	0.046028692
28	0x37fe955e	3.0348714e-05
29	0xbc13489a	-0.0089894775
30	0xbd363076	-0.04447981
31	0xbdb505bd	-0.08838985
32	0x3ab2cae9	0.0013640794
33	0xbea0c4fd	-0.3140029
34	0x3d853e40	0.06506014
35	0x3da4b2ac	0.080418915
36	0xbd444e07	-0.047925975
37	0xbdea3741	-0.1143632
38	0xbc05eb3e	-0.008173762
39	0xbdb497ae	-0.08817993
40	0x3e08da81	0.13364603
41	0x3e02e5c4	0.12782961
42	0x3d172fe9	0.036910925
43	0x3df7d44a	0.12101038
44	0xbe5a9030	-0.21344066
45	0x3de94306	0.11389737
46	0xbdc50624	-0.09620312
47	0xbc96771c	-0.018367343
48	0x3dd995c3	0.10624268
49	0x3e0283b7	0.12745558
50	0x3e10fc1c	0.14158672
51	0xbcf7f9f5	-0.030270556
52	0xbdcd1543	-0.10013821
53	0x3dcdedcc	0.10055122
54	0xbe0ef779	-0.13961591
55	0xbdb8b281	-0.09018422
56	0x3dc18b1d	0.09450362
57	0xbc78278a	-0.015146146
58	0x3d810df7	0.06301492
59	0xbc86c1ef	-0.016449897
60	0xbe1917a8	-0.1495043
61	0x3db17784	0.08665374
62	0x3d8e6f46	0.069548175
63	0xbcbaa3a0	-0.0227831

exp_avg f4 [64]
0	0x3867711c	5.5180033e-05
1	0xb5d7ee08	-1.6088024e-06
2	0xb7003754	-7.642277e-06
3	0x3801be82	3.093342e-05
4	0xb79fcc0d	-1.9049296e-05
5	0xb7929f3f	-1.7478711e-05
6	0x38f8c25c	0.00011861764
7	0xb8077771	-3.2297747e-05
8	0x36988a73	4.5460706e-06
9	0xb86eb2b1	-5.691004e-05
10	0x3859cf54	5.192992e-05
11	0xb85b61c2	-5.2304713e-05
12	0xb7c013bd	-2.2897375e-05
13	0x38038c3d	3.136344e-05
14	0xb828ec70	-4.027452e-05
15	0xb88490ce	-6.3212225e-05
16	0x37935830	1.7564831e-05
17	0xb7174cae	-9.018155e-06
18	0xb892f79f	-7.0079455e-05
19	0xb8960748	-7.1539136e-05
20	0x38ce573c	9.839094e-05
21	0xb76646ae	-1.3725525e-05
22	0x38b339a5	8.546122e-05
23	0xb7c1e59f	-2.3114319e-05
24	0xb87f94df	-6.0935385e-05
25	0x378f1b1f	1.7059558e-05
26	0xb841a039	-4.6164005e-05
27	0x38cceb59	9.771315e-05
28	0x38c235a0	9.260629e-05
29	0x37bdd240	2.2628461e-05
30	0x38bfd959	9.148074e-05
31	0x35f1d23b	1.8017084e-06
32	0x38dc49fd	0.00010504199
33	0x38134f86	3.5121593e-05
34	0xb8244def	-3.917323e-05
35	0xb8422076	-4.6283436e-05
36	0x3844ce3f	4.6922123e-05
37	0xb8ec1d64	-0.000112588314
38	0xb76ad5a0	-1.3997225e-05
39	0xb8620480	-5.388679e-05
40	0xb7b5f29b	-2.1689853e-05
41	0x35f08941	1.792134e-06
42	0x382e44f0	4.1549036e-05
43	0xb8277e29	-3.99334e-05
44	0xb7b74cd1	-2.185107e-05
45	0x384c6bf5	4.8737933e-05
46	0x37fc5bf7	3.0083565e-05
47	0x3767810c	1.3798719e-05
48	0xb79ac03c	-1.8447747e-05
49	0x373d1aaf	1.1271491e-05
50	0xb687449a	-4.0313e-06
51	0x390a29d3	0.00013176286
52	0xb6af6919	-5.2276414e-06
53	0xb6bd2208	-5.6366007e-06
54	0x37aa8674	2.0328189e-05
55	0x38fdb3b9	0.00012097456
56	0xb816d7cb	-3.596376e-05
57	0x381a1790	3.6738405e-05
58	0x3835e85d	4.3370168e-05
59	0x36646242	3.403184e-06
60	0xb8c6eb57	-9.485211e-05
61	0xb8fe46a8	-0.000121248246
62	0xb833d41d	-4.287447e-05
63	0x3792958d	1.7474196e-05

exp_avg_sq f4 [64]
0	0x35062bef	4.998282e-07
1	0x339103a8	6.752754e-08
2	0x34f512a6	4.5648375e-07
3	0x33fd443d	1.1793643e-07
4	0x334d5a03	4.7812147e-08
5	0x34e010a9	4.1735373e-07
6	0x3589e053	1.0272582e-06
7	0x33d8edc6	1.01015345e-07
8	0x3377e723	5.7719387e-08
9	0x33f8da7e	1.15881434e-07
10	0x353a24d9	6.934402e-07
11	0x34dabcaf	4.074295e-07
12	0x340823c6	1.2679001e-07
13	0x33a97eb2	7.8927215e-08
14	0x34e37499	4.236688e-07
15	0x355bd8a0	8.189909e-07
16	0x34e72e5d	4.3060837e-07
17	0x32fece35	2.9663264e-08
18	0x347beaa3	2.3461557e-07
19	0x33af83d6	8.173053e-08
20	0x34afb1d1	3.2725669e-07
21	0x3432afc9	1.6641492e-07
22	0x3421656e	1.5031193e-07
23	0x3504655c	4.932133e-07
24	0x34f63b0f	4.5864041e-07
25	0x342dc84c	1.6184748e-07
26	0x34852945	2.4803208e-07
27	0x351ee67f	5.9195e-07
28	0x35031e7c	4.8845664e-07
29	0x344dff56	1.9185003e-07
30	0x3522f2a3	6.0702786e-07
31	0x3404fdea	1.2385831e-07
32	0x3534a843	6.730008e-07
33	0x33b95de3	8.631812e-08
34	0x3412ddd3	1.3678009e-07
35	0x34b6369e	3.393988e-07
36	0x338d7d77	6.588646e-08
37	0x34c0770e	3.584941e-07
38	0x349d91a8	2.9349508e-07
39	0x35281561	6.261599e-07
40	0x3475e0b9	2.2899157e-07
41	0x34638fe6	2.1193372e-07
42	0x34da644d	4.0678643e-07
43	0x34af7845	3.2683798e-07
44	0x3513a7bb	5.500585e-07
45	0x333a6efa	4.3407432e-08
46	0x3553d7c1	7.891759e-07
47	0x343f820a	1.7835569e-07
48	0x337085c6	5.600102e-08
49	0x35940fa5	1.1031412e-06
50	0x340eac81	1.3287537e-07
51	0x3496d89e	2.8097287e-07
52	0x349a4f21	2.874231e-07
53	0x34d41098	3.950015e-07
54	0x351b3282	5.78155e-07
55	0x35093eef	5.112806e-07
56	0x352ed204	6.5125664e-07
57	0x359e0be6	1.177538e-06
58	0x34a6dd70	3.1081026e-07
59	0x358c188f	1.043796e-06
60	0x36141966	2.2068502e-06
61	0x3534ba1b	6.7326044e-07
62	0x3449891e	1.8769467e-07
63	0x34051911	1.239571e-07

exp_avg f4 [64, 4]
0	0x38ed3607	0.00011311104
1	0x3896d92d	7.1930095e-05
2	0x36fd9e5a	7.558422e-06
3	0xb7ae4140	-2.07728e-05
4	0x39205e72	0.00015293973
5	0x382fa870	4.188012e-05
6	0xb813c2b0	-3.5228848e-05
7	0x38620232	5.3884643e-05
8	0xb6898760	-4.098678e-06
9	0xb6c39ba3	-5.8295714e-06
10	0xb75ee9aa	-1.3286635e-05
11	0xb684d1db	-3.958337e-06
12	0xb7bcabbc	-2.2491316e-05
13	0xb826297c	-3.961612e-05
14	0x371b26d6	9.247762e-06
15	0xb75fd1c6	-1.33406775e-05
16	0x383ee4a2	4.551246e-05
17	0xb89b290f	-7.398624e-05
18	0x35fb8ba0	1.8741594e-06
19	0x37324360	1.0625314e-05
20	0xb709091c	-8.167957e-06
21	0xb7a8465c	-2.0059924e-05
22	0x3783e92f	1.5725002e-05
23	0x37a8d58e	2.0126605e-05
24	0x394b8861	0.00019410394
25	0x3909a5d0	0.00013127108
26	0x3783e362	1.57223e-05
27	0xb878254e	-5.916255e-05
28	0xb8231756	-3.888396e-05
29	0xb7e39127	-2.71281e-05
30	0x38a8f211	8.055953e-05
31	0xb86c82fa	-5.6388766e-05
32	0xb5f5a3a7	-1.8301552e-06
33	0xb5a24ebe	-1.2092858e-06
34	0x37899f70	1.6405917e-05
35	0x36c91e08	5.993763e-06
36	0xb8408b18	-4.590591e-05
37	0xb7a59ccb	-1.9742545e-05
38	0xb7468a2e	-1.1833892e-05
39	0xb80ab406	-3.3069424e-05
40	0xb83db834	-4.5232664e-05
41	0xb7f6b459	-2.9409466e-05
42	0xb8982c96	-7.2562296e-05
43	0xb8021015	-3.1009393e-05
44	0xb76816f2	-1.383362e-05
45	0xb6eb27a6	-7.0081614e-06
46	0x37e2bd7e	2.7029539e-05
47	0x372784e6	9.9849185e-06
48	0xb89f83f6	-7.6062905e-05
49	0xb8397527	-4.4216544e-05
50	0xb7c9bbfa	-2.40486e-05
51	0xb6c81fea	-5.9641798e-06
52	0x361f1d28	2.3709817e-06
53	0xb749f2c3	-1.2037056e-05
54	0xb826830d	-3.9699535e-05
55	0x37523a34	1.2530527e-05
56	0x37bcf994	2.2527565e-05
57	0xb8ee3443	-0.00011358459
58	0x38a53a43	7.878665e-05
59	0xb81d976c	-3.757274e-05
60	0xb87e6e15	-6.066084e-05
61	0xb634f90c	-2.6967055e-06
62	0x373c3fd2	1.12205325e-05
63	0xb839cb18	-4.4296583e-05
64	0xb775c6ea	-1.4649451e-05
65	0xb7c34399	-2.3277289e-05
66	0xb752f0b0	-1.2573015e-05
67	0xb8cad351	-9.671471e-05
68	0x364458c0	2.9257935e-06
69	0xb7db857e	-2.6168997e-05
70	0xb821d845	-3.8586808e-05
71	0xb6615906	-3.3579431e-06
72	0x38c99889	9.612839e-05
73	0x3827f9c3	4.004851e-05
74	0x3936e3ea	0.00017441777
75	0xb700bf9d	-7.674008e-06
76	0xb9902a2f	-0.0002749725
77	0x373b407d	1.1161083e-05
78	0xba0da758	-0.00054036593
79	0xb9acde19	-0.00032971872
80	0x38eda5f5	0.000113319526
81	0x39e8cf0d	0.00044404753
82	0x3945196c	0.00018796854
83	0xb8c7faeb	-9.5357966e-05
84	0xb8161eb6	-3.579139e-05
85	0xb87e8976	-6.068634e-05
86	0xb81e085b	-3.7677917e-05
87	0xb8aebc87	-8.3320825e-05
88	0x39ca0d75	0.0003853847
89	0x388a53ac	6.595938e-05
90	0x37ad2f65	2.0645277e-05
91	0xb9a0e8c5	-0.00030691005
92	0xb91676e1	-0.000143494
93	0xb9269c1f	-0.00015889153
94	0x38d24f54	0.00010028356
95	0x37c39197	2.3313607e-05
96	0xb7c3518f	-2.328379e-05
97	0xb85e2925	-5.2967243e-05
98	0xb8740ffb	-5.8189016e-05
99	0x3847132d	4.7463156e-05
100	0xb7d67588	-2.5565518e-05
101	0xb7bf36ca	-2.2794487e-05
102	0x3823f7f5	3.9093156e-05
103	0xb7d1d09a	-2.501188e-05
104	0xb775f73a	-1.46607e-05
105	0xb7c2e89b	-2.3234918e-05
106	0x38b9705d	8.842417e-05
107	0x3960e8fd	0.000214491
108	0x38c73563	9.4990035e-05
109	0x387313db	5.7954207e-05
110	0x388a9f49	6.610022e-05
111	0x37b769a9	2.1864502e-05
112	0x391a29d4	0.00014702167
113	0x3936b8dd	0.0001742574
114	0xb8a44630	-7.833203e-05
115	0xb86a5130	-5.586556e-05
116	0x3904805d	0.0001263632
117	0x390390ab	0.00012547027
118	0xb848604a	-4.7773392e-05
119	0xb93076df	-0.00016828951
120	0xb9b3c41c	-0.00034287653
121	0xb8be035b	-9.060531e-05
122	0x3976d6ea	0.0002354045
123	0x3978b75f	0.00023719434
124	0x3889a7f2	6.563951e-05
125	0x38825bcb	6.215981e-05
126	0x37e6399e	2.7444967e-05
127	0xb8b6d9ac	-8.718981e-05
128	0x396c0020	0.0002250676
129	0x39337114	0.00017112895
130	0xb8b19581	-8.467865e-05
131	0xb8b51076	-8.633819e-05
132	0xb80357ac	-3.1314485e-05
133	0xb6354af7	-2.7014737e-06
134	0xb820bbad	-3.832176e-05
135	0x3784d8e3	1.5836622e-05
136	0xb68d6481	-4.2138277e-06
137	0x374d8b03	1.2251318e-05
138	0xb770fe18	-1.4364276e-05
139	0xb6127ae2	-2.1827223e-06
140	0xb8abd7fd	-8.194146e-05
141	0xb90660f4	-0.00012815354
142	0x38c6f29f	9.4865674e-05
143	0xb881d688	-6.191159e-05
144	0x3876c4b4	5.8834165e-05
145	0x37df7d3d	2.664199e-05
146	0xb74492ee	-1.171672e-05
147	0xb7afe68e	-2.0968986e-05
148	0xb8a0e2ba	-7.671626e-05
149	0x37eef7a7	2.8487133e-05
150	0xb9228f92	-0.00015503008
151	0xb9060eb9	-0.0001278472
152	0x360b0a8c	2.0718753e-06
153	0x35e9edc5	1.7429053e-06
154	0xb70124b9	-7.697549e-06
155	0xb74696c6	-1.1836824e-05
156	0xb88cc788	-6.712886e-05
157	0xb902556e	-0.00012429591
158	0x392f17ac	0.00016698119
159	0xb6da3e66	-6.5041704e-06
160	0xb8b4c451	-8.6196356e-05
161	0xb88e0598	-6.7721296e-05
162	0xb6a66bd3	-4.959738e-06
163	0xb727c402	-9.999612e-06
164	0xb6281571	-2.5046431e-06
165	0xb5f40a42	-1.8182402e-06
166	0xb77bc5f3	-1.50068545e-05
167	0xb79ca838	-1.8674982e-05
168	0x373ed40d	1.1374254e-05
169	0x378963b4	1.63781e-05
170	0xb801c4e3	-3.093936e-05
171	0x3890310f	6.875593e-05
172	0xb88b35a0	-6.638025e-05
173	0xb8bfc7a6	-9.144777e-05
174	0x391d3174	0.0001499111
175	0xb892e48b	-7.004392e-05
176	0xb8a361ae	-7.79064e-05
177	0xb8094b7b	-3.2733642e-05
178	0xb816ae94	-3.5925375e-05
179	0x36a9fd56	5.0660847e-06
180	0x37f7aed4	2.9526105e-05
181	0x38135395	3.5125373e-05
182	0xb7b61f33	-2.1710619e-05
183	0xb7463c90	-1.18158205e-05
184	0x380901c1	3.266498e-05
185	0x385707fc	5.126743e-05
186	0x387b1d78	5.987051e-05
187	0xb788655c	-1.6259663e-05
188	0x38b0c27b	8.428559e-05
189	0x39040197	0.00012589093
190	0xb87560c3	-5.850267e-05
191	0xb864d78c	-5.456018e-05
192	0x382c0e3a	4.1021245e-05
193	0x38256cb8	3.9440318e-05
194	0x38a61475	7.919307e-05
195	0x37f531e7	2.9229514e-05
196	0x385a0488	5.197947e-05
197	0x37c9b7a4	2.4046582e-05
198	0xb7863279	-1.5997548e-05
199	0x3827b348	3.998287e-05
200	0x3810b6a5	3.4502376e-05
201	0xb8833bce	-6.257706e-05
202	0xb8b29ade	-8.516548e-05
203	0xb948e4c4	-0.00019158708
204	0x38a6b030	7.948314e-05
205	0x384e7df2	4.9231523e-05
206	0xb805711b	-3.181501e-05
207	0x38c9c936	9.621905e-05
208	0xb7a1bfaf	-1.9281955e-05
209	0xb8229092	-3.875845e-05
210	0xb81a58cb	-3.6799156e-05
211	0x37953c8b	1.7790377e-05
212	0xb74472cf	-1.1709241e-05
213	0xb76c46d0	-1.40831835e-05
214	0xb7e5cefc	-2.7395312e-05
215	0xb8464b7a	-4.727717e-05
216	0xb78dba60	-1.6895297e-05
217	0xb6d71178	-6.409533e-06
218	0xb5e24ca2	-1.6860615e-06
219	0xb8e46cea	-0.00010892174
220	0xb8b04a28	-8.406147e-05
221	0xb88859e1	-6.5017266e-05
222	0x39bd4601	0.00036101046
223	0x39791204	0.00023753202
224	0xb9143d18	-0.00014137139
225	0xb904003d	-0.0001258859
226	0x39090406	0.00013066837
227	0xb8f57cc9	-0.000117057534
228	0x388b3268	6.6374254e-05
229	0x37e59725	2.736931e-05
230	0xb98f5e70	-0.00027345447
231	0x38abfd6b	8.201118e-05
232	0x35c325fe	1.4539689e-06
233	0x361aa7cc	2.304546e-06
234	0xb86e3987	-5.67972e-05
235	0x38230799	3.8869304e-05
236	0x39239acd	0.00015602559
237	0x392fe908	0.00016776111
238	0x37b74691	2.184816e-05
239	0x37f229fd	2.88682e-05
240	0xb8c506f0	-9.394984e-05
241	0xb914cf1a	-0.00014191531
242	0xb9879e27	-0.0002586704
243	0x38eee8f7	0.000113921174
244	0xb8fe92d2	-0.00012139011
245	0xb9020ebe	-0.00012403258
246	0x394cfd59	0.00019549335
247	0xb6b1fc5f	-5.304391e-06
248	0xb89a66f5	-7.3624695e-05
249	0xb9293106	-0.00016135359
250	0xb7d46f6d	-2.5324256e-05
251	0xb6c83d6a	-5.967614e-06
252	0xb4adf669	-3.2403048e-07
253	0x34ba193e	3.4663566e-07
254	0xb5ef7432	-1.7840705e-06
255	0xb70c6962	-8.369187e-06

exp_avg_sq f4 [64, 4]
0	0x35003ecc	4.77751e-07
1	0x349c09cb	2.906439e-07
2	0x3335f546	4.236542e-08
3	0x348bcd38	2.6040084e-07
4	0x34992651	2.852635e-07
5	0x3587cf7d	1.0118671e-06
6	0x344d607b	1.9127212e-07
7	0x33d0c639	9.721811e-08
8	0x3310fc8b	3.37573e-08
9	0x3393bd4e	6.879655e-08
10	0x349457df	2.7631083e-07
11	0x349b40fd	2.8918285e-07
12	0x3386c7b5	6.276188e-08
13	0x32b6189e	2.1198783e-08
14	0x33146ca0	3.455773e-08
15	0x329594a2	1.7413473e-08
16	0x33a39238	7.616876e-08
17	0x3454c675	1.9816237e-07
18	0x31ae3ecd	5.071206e-09
19	0x321de9f4	9.1917975e-09
20	0x3447d2f4	1.8610064e-07
21	0x34ae58f9	3.2474762e-07
22	0x34f92f51	4.6414291e-07
23	0x348a6d80	2.5784175e-07
24	0x35398a88	6.911946e-07
25	0x34a1cabc	3.0136096e-07
26	0x34797062	2.3230817e-07
27	0x35146c9f	5.529236e-07
28	0x33ea965f	1.09238265e-07
29	0x33643a06	5.313816e-08
30	0x3447b01d	1.8597389e-07
31	0x33a5abd8	7.7146694e-08
32	0x32b8af7c	2.150022e-08
33	0x321cf6eb	9.136538e-09
34	0x3306bbd5	3.137014e-08
35	0x327658e2	1.4339294e-08
36	0x342f7bde	1.6343208e-07
37	0x33e46389	1.0635183e-07
38	0x341cb6e0	1.4595162e-07
39	0x335d23ce	5.1488136e-08
40	0x34a18b18	3.008979e-07
41	0x351c9c1f	5.8341715e-07
42	0x35ce9a15	1.539304e-06
43	0x3537240b	6.822526e-07
44	0x35197a8e	5.717528e-07
45	0x34fb7e6b	4.6844374e-07
46	0x3521e8de	6.031604e-07
47	0x347122d5	2.2457546e-07
48	0x354e4944	7.6847596e-07
49	0x348daed0	2.639049e-07
50	0x3554efac	7.932492e-07
51	0x32b230fa	2.07442e-08
52	0x33c81f98	9.3189726e-08
53	0x330b4388	3.242488e-08
54	0x330b40a8	3.2422264e-08
55	0x32e1e5ae	2.6297894e-08
56	0x34e0ca0b	4.1870257e-07
57	0x360a9bb0	2.0654224e-06
58	0x34eaca13	4.3732925e-07
59	0x354a88ab	7.544974e-07
60	0x35ec51a8	1.7607135e-06
61	0x34a6eec0	3.1093623e-07
62	0x34aa6473	3.1738054e-07
63	0x34bdffd2	3.5390127e-07
64	0x34eb9e73	4.3887448e-07
65	0x3598722d	1.1358112e-06
66	0x32fbd840	2.9318585e-08
67	0x353d1d8d	7.045099e-07
68	0x33341d22	4.1936012e-08
69	0x32534deb	1.2299533e-08
70	0x3371d15a	5.630259e-08
71	0x3312f8e1	3.4219628e-08
72	0x3492e5c0	2.7361784e-07
73	0x33741ac2	5.6835013e-08
74	0x35bacc2b	1.3917501e-06
75	0x35204ef6	5.971955e-07
76	0x359ecd63	1.1831693e-06
77	0x35d9fe66	1.62418e-06
78	0x36ac894d	5.1419834e-06
79	0x35f595a2	1.8297471e-06
80	0x35818c32	9.652051e-07
81	0x367a6dd6	3.7316836e-06
82	0x3598f086	1.1394884e-06
83	0x35fc3542	1.8790963e-06
84	0x34f9b7b1	4.6513517e-07
85	0x35802770	9.548221e-07
86	0x3429b549	1.5805303e-07
87	0x34eb3b09	4.3815115e-07
88	0x36279e31	2.4977019e-06
89	0x35568a5b	7.9922546e-07
90	0x35149a55	5.535888e-07
91	0x355bd0bf	8.1887623e-07
92	0x35145c65	5.526875e-07
93	0x351e6e48	5.9020067e-07
94	0x348c25cd	2.6104536e-07
95	0x3485a310	2.4891824e-07
96	0x35336f4f	6.684467e-07
97	0x353fcdff	7.145281e-07
98	0x3493988d	2.749188e-07
99	0x34871a09	2.5164653e-07
100	0x343d8cd1	1.7653225e-07
101	0x3418da20	1.4235457e-07
102	0x33d69e88	9.993988e-08
103	0x338c3f5d	6.530784e-08
104	0x34989c3f	2.842589e-07
105	0x35435ecb	7.27811e-07
106	0x34df1a40	4.1556086e-07
107	0x35d3beeb	1.577629e-06
108	0x35500225	7.748916e-07
109	0x35166020	5.6019235e-07
110	0x3563ece9	8.490884e-07
111	0x3475fcaf	2.2909329e-07
112	0x34d47541	3.957339e-07
113	0x355cbc2b	8.2230207e-07
114	0x3429ec82	1.5825393e-07
115	0x331b439b	3.6150237e-08
116	0x34f819da	4.621241e-07
117	0x34f84615	4.624459e-07
118	0x34ce9482	3.8478544e-07
119	0x358cdcb7	1.0495049e-06
120	0x3615ae40	2.2304157e-06
121	0x358011bc	9.541905e-07
122	0x36a6af39	4.967584e-06
123	0x36833d87	3.911267e-06
124	0x3463aef5	2.1204671e-07
125	0x34ada08d	3.2340577e-07
126	0x3388b67d	6.366188e-08
127	0x348ae8b6	2.5873823e-07
128	0x35ea93f1	1.7477415e-06
129	0x356799ff	8.62783e-07
130	0x33ebd980	1.0982603e-07
131	0x3436f114	1.7037775e-07
132	0x3375fdc2	5.72743e-08
133	0x3428006d	1.5646374e-07
134	0x34010050	1.2014175e-07
135	0x33aa129a	7.9196255e-08
136	0x342a0284	1.5833399e-07
137	0x33835894	6.116275e-08
138	0x33015653	3.0113664e-08
139	0x3245c39d	1.15113865e-08
140	0x35026159	4.8570433e-07
141	0x354af096	7.560096e-07
142	0x3467564b	2.1544945e-07
143	0x341ed972	1.4794003e-07
144	0x3449bda3	1.8788573e-07
145	0x339e8a8d	7.3826506e-08
146	0x33e3f8a0	1.0615736e-07
147	0x33b77802	8.543431e-08
148	0x3493a4b6	2.7500727e-07
149	0x33fcb659	1.1767833e-07
150	0x354a431e	7.534853e-07
151	0x34ad1432	3.2238455e-07
152	0x3375b099	5.7204122e-08
153	0x337f913c	5.9503904e-08
154	0x331416ff	3.447985e-08
155	0x33c49fe2	9.156044e-08
156	0x35a05fde	1.194883e-06
157	0x35d9d19b	1.6228763e-06
158	0x34f9146a	4.6394717e-07
159	0x34d1298a	3.8959507e-07
160	0x34ff10a1	4.750955e-07
161	0x350d6e23	5.2686863e-07
162	0x34967ea4	2.803182e-07
163	0x34229f46	1.5145369e-07
164	0x32fd14e1	2.9462571e-08
165	0x3283f5c8	1.5362176e-08
166	0x336f8a78	5.577246e-08
167	0x3421e888	1.5078888e-07
168	0x34b610c3	3.3912337e-07
169	0x350f26cb	5.33281e-07
170	0x3457f68f	2.0113133e-07
171	0x34466f04	1.8480574e-07
172	0x34c0fce5	3.5946792e-07
173	0x360c45dc	2.090229e-06
174	0x351867d8	5.6775525e-07
175	0x34b6c9c4	3.4046946e-07
176	0x35eb247f	1.7519486e-06
177	0x34ab9f20	3.196701e-07
178	0x34b4fa80	3.3709875e-07
179	0x338dbfe2	6.6007274e-08
180	0x32bf6655	2.2281862e-08
181	0x336464ea	5.3177168e-08
182	0x332ec0d5	4.068791e-08
183	0x31be95e2	5.5467675e-09
184	0x359f1965	1.1853814e-06
185	0x34e42569	4.249553e-07
186	0x3463f748	2.1230983e-07
187	0x35159f82	5.573894e-07
188	0x34b7ad2a	3.42124e-07
189	0x36248697	2.4516246e-06
190	0x351f8fea	5.944154e-07
191	0x34835e2a	2.4469165e-07
192	0x34588f7a	2.0168764e-07
193	0x344ce0d3	1.9080771e-07
194	0x34ede736	4.4312918e-07
195	0x3437269c	1.7057249e-07
196	0x36327fc6	2.659844e-06
197	0x358a341f	1.029697e-06
198	0x34144dbc	1.3811854e-07
199	0x343986a2	1.7278447e-07
200	0x3506bb4f	5.019146e-07
201	0x35eb1bc8	1.751695e-06
202	0x35da5d6b	1.6269454e-06
203	0x3603df27	1.9650413e-06
204	0x34a9c7a1	3.1623952e-07
205	0x34800f83	2.3853144e-07
206	0x353bc7ab	6.9953484e-07
207	0x351d5a6e	5.861865e-07
208	0x338a9ba0	6.454434e-08
209	0x348a923b	2.58109e-07
210	0x341b0d0e	1.4440249e-07
211	0x341f88c1	1.485778e-07
212	0x33c27e6c	9.056825e-08
213	0x340ec793	1.3297385e-07
214	0x3475941a	2.2871282e-07
215	0x34bd0f97	3.5215336e-07
216	0x349eda6a	2.958871e-07
217	0x3335a907	4.2296076e-08
218	0x34db7c34	4.0882298e-07
219	0x34b31e06	3.3363193e-07
220	0x36085885	2.0317104e-06
221	0x36019c33	1.9313418e-06
222	0x366ef140	3.560519e-06
223	0x368043db	3.8225967e-06
224	0x35897d9c	1.0243853e-06
225	0x355d8b36	8.2531494e-07
226	0x34c2b48f	3.626669e-07
227	0x34841513	2.460225e-07
228	0x35af7315	1.3072009e-06
229	0x357b7c80	9.368596e-07
230	0x359cf773	1.1694923e-06
231	0x35614562	8.3919997e-07
232	0x34966ff3	2.802113e-07
233	0x34929306	2.7301593e-07
234	0x34961ff4	2.7962926e-07
235	0x34460ea3	1.8445512e-07
236	0x3490d7c2	2.6979075e-07
237	0x34ce4e25	3.8427348e-07
238	0x3690ceb2	4.315597e-06
239	0x374765d7	1.1885036e-05
240	0x3672e476	3.6193792e-06
241	0x36b6859d	5.4395773e-06
242	0x352aa2ea	6.3567006e-07
243	0x358ed504	1.064182e-06
244	0x34cc7679	3.808416e-07
245	0x34d7895b	4.014681e-07
246	0x35a09035	1.1962899e-06
247	0x34b77168	3.416892e-07
248	0x34b8de1d	3.443428e-07
249	0x358b507f	1.0379734e-06
250	0x33fa4e7d	1.1655809e-07
251	0x33a96909	7.8887815e-08
252	0x344f481b	1.9304609e-07
253	0x33cc730c	9.520417e-08
254	0x331f1172	3.703594e-08
255	0x33d537fa	9.9287675e-08

exp_avg f4 [64]
0	0xb7ca1d33	-2.4093873e-05
1	0x386f336f	5.702994e-05
2	0x3806eebf	3.217044e-05
3	0x38078dcc	3.2318567e-05
4	0x36c91084	5.9921895e-06
5	0xb8854648	-6.355025e-05
6	0x38039f03	3.1380925e-05
7	0x36d66d05	6.3903885e-06
8	0xb8aeef80	-8.341577e-05
9	0xb8799e6a	-5.951376e-05
10	0xb902b7f8	-0.000124663
11	0x388b0bec	6.630257e-05
12	0x00000004	6e-45
13	0xb596b9dc	-1.1229963e-06
14	0x36916a96	4.333745e-06
15	0x378d6244	1.6854268e-05
16	0x38bcdcea	9.005687e-05
17	0x37ac5440	2.054323e-05
18	0x38a2556b	7.740672e-05
19	0xb83ce7ed	-4.503869e-05
20	0xb902303d	-0.00012415736
21	0x381b79f4	3.7068457e-05
22	0x38446e25	4.683262e-05
23	0xb86578cf	-5.4710366e-05
24	0xb6b6677a	-5.436069e-06
25	0x383c0d7b	4.4835248e-05
26	0xb8d3d015	-0.00010100022
27	0xb81c6690	-3.7288817e-05
28	0xb8be8098	-9.0838585e-05
29	0x38835428	6.262242e-05
30	0x00000000	0.0
31	0xb809aa60	-3.282202e-05
32	0x3808cfed	3.2618573e-05
33	0xb86e36c4	-5.6794626e-05
34	0xb85179fa	-4.9943083e-05
35	0x3799b7fa	1.8324692e-05
36	0x00000000	0.0
37	0x37deaa57	2.6543783e-05
38	0x37bd1aac	2.2542976e-05
39	0xb8d55d4e	-0.00010174011
40	0x00000004	6e-45
41	0xb84ef185	-4.933916e-05
42	0x00000004	6e-45
43	0x00000004	6e-45
44	0x365efbf7	3.322724e-06
45	0xb89fa7ef	-7.612991e-05
46	0x35e14039	1.6782498e-06
47	0x390611ed	0.00012785914
48	0x381402f7	3.528871e-05
49	0xb7823c1a	-1.5525195e-05
50	0x35ddd5dd	1.6528026e-06
51	0xb8a94242	-8.0708895e-05
52	0x385b3693	5.2264495e-05
53	0xb8fdf336	-0.00012109282
54	0x35992ee0	1.1413031e-06
55	0xb897a9bc	-7.2318566e-05
56	0x3879ed88	5.9587444e-05
57	0x37bacad9	2.2267386e-05
58	0xb8751fb8	-5.8442092e-05
59	0x00000004	6e-45
60	0x37bedc37	2.275231e-05
61	0xb8760acf	-5.8661037e-05
62	0x38885d55	6.50237e-05
63	0x37756c14	1.4628302e-05

exp_avg_sq f4 [64]
0	0x3398e432	7.11956e-08
1	0x36f3391f	7.248614e-06
2	0x34aa8616	3.1762528e-07
3	0x348d094c	2.627006e-07
4	0x32545ba6	1.23608626e-08
5	0x359ffc65	1.191988e-06
6	0x3590b125	1.0780392e-06
7	0x34290c24	1.5743768e-07
8	0x34bc9222	3.5124054e-07
9	0x36327ea4	2.6597781e-06
10	0x35a61bc0	1.237604e-06
11	0x3455f4c9	1.9926223e-07
12	0x3131b8b3	2.586188e-09
13	0x31c826cd	5.8251772e-09
14	0x343d0d5b	1.7606855e-07
15	0x338037e4	5.970631e-08
16	0x3477435b	2.3028171e-07
17	0x356a57af	8.729939e-07
18	0x3460c47c	2.0933106e-07
19	0x359dc1c5	1.1753806e-06
20	0x35a03253	1.1935575e-06
21	0x35a5568f	1.231865e-06
22	0x33ac8581	8.0336584e-08
23	0x352f1d85	6.5235537e-07
24	0x34132a97	1.3705936e-07
25	0x34d781b7	4.014125e-07
26	0x35a84f83	1.2540116e-06
27	0x3580a7cc	9.585578e-07
28	0x358bde89	1.0421073e-06
29	0x348e3bf6	2.6493188e-07
30	0x00000000	0.0
31	0x3504c282	4.945688e-07
32	0x33bd9353	8.8277964e-08
33	0x356fd1ec	8.9339915e-07
34	0x34359909	1.6912612e-07
35	0x35dbb188	1.636844e-06
36	0x00000000	0.0
37	0x34139812	1.3745765e-07
38	0x33bf46e3	8.907025e-08
39	0x354e2d2d	7.680672e-07
40	0x30cfc533	1.511728e-09
41	0x3532bcdd	6.6585e-07
42	0x30ef642c	1.7418009e-09
43	0x32229f86	9.4659125e-09
44	0x34650c78	2.1331823e-07
45	0x35151e3b	5.5550817e-07
46	0x3403505a	1.2229557e-07
47	0x3582c5e0	9.743344e-07
48	0x3419024e	1.4250074e-07
49	0x34f9880f	4.647886e-07
50	0x335a5721	5.0836324e-08
51	0x35403dbc	7.161541e-07
52	0x347e898e	2.3705635e-07
53	0x362af06b	2.5471916e-06
54	0x345725b0	2.0037146e-07
55	0x33895710	6.395396e-08
56	0x34d53fff	3.9720905e-07
57	0x352c4884	6.418052e-07
58	0x357b24a1	9.355809e-07
59	0x31e5b815	6.685705e-09
60	0x33174c00	3.522655e-08
61	0x3458c953	2.0189809e-07
62	0x355561aa	7.9490803e-07
63	0x349a574d	2.8748255e-07
