log/wn:none/version_None/checkpoints/epoch=2499-step=4999-v1.ckpt (torch, 113296 bytes, 21 tensors)

dec.lin0.weight f4 [64, 4]
000000 10 ca 04 be 4c e7 b9 3d 61 b8 90 be 28 94 88 3e
       -0.12967706 0.090773195 -0.2826567 0.26675534
000010 ce 44 80 be 0c c2 0a 3f 42 bb cd be 28 81 16 bf
       -0.25052494 0.5420234 -0.4018193 -0.58790827
000020 a9 f4 a2 be 08 7f 65 3e f1 1b 84 be cd c2 2f 3e
       -0.31827286 0.2241174 -0.25802568 0.17164154
000030 86 4f b0 be fa b6 64 be 08 56 29 be 37 f3 5b be
       -0.34435672 -0.22335425 -0.16536725 -0.21479498
000040 04 4b c3 be 5e a0 a7 3e b8 7d f1 bd 80 58 24 3e
       -0.3814317 0.32739538 -0.11791557 0.16049385
000050 14 7e cb 3e fd 50 0c 3e 0c 6d a0 3c 54 92 00 3f
       0.39744627 0.1370277 0.019583248 0.5022328
000060 ac 4b 4e be 40 cc 3a 3e 42 35 d5 be 86 c1 05 3e
       -0.20146054 0.18241978 -0.41642195 0.13062105
000070 a0 01 81 3e a2 bc 1b bf 92 4b 17 3f 4c f2 4c 3e
       0.25196552 -0.60834706 0.59099686 0.20014304
000080 b5 a0 45 3e e5 4a 39 3e 0e 4d ad 3e 45 ca 6b 3b
       0.19299586 0.18094976 0.3384785 0.0035978716
000090 e3 a7 c8 be 7d 76 e6 bd 75 c1 ab be 25 99 64 bd
       -0.39190587 -0.112530686 -0.33546034 -0.055810113
0000a0 28 10 fb bb 7d e1 3a be 91 2a b8 bd 92 30 fb 3e
       -0.007661838 -0.1825008 -0.08992494 0.49060494
0000b0 01 2d af bd 1d 95 f7 bc 23 e9 65 be e5 77 fc bb
       -0.08553506 -0.03022247 -0.22452216 -0.007704722
0000c0 84 b9 d2 3e e8 2a 8b 3e 4c 53 e2 3d 12 b0 4e 3e
       0.41157162 0.27181172 0.11051044 0.20184353
0000d0 ae 3d be 3c 4f b6 c9 3d 78 2b 82 bd d4 7f 16 bf
       0.02322277 0.09849226 -0.06355947 -0.587888
0000e0 7c cc 8c be 5a 08 ec 3e 39 b6 ed 3b e5 19 fa be
       -0.2749976 0.46100122 0.0072543886 -0.4884788
0000f0 af d3 cd 3d b6 9a de 3e 53 30 e7 be 9f c0 ca be
       0.10050141 0.4347741 -0.45154056 -0.39600083
000100 d4 bb 32 be fe e9 36 3d 8f a5 d6 bd 97 39 a4 bd
       -0.17454463 0.044656746 -0.104807965 -0.08018797
000110 8f d0 bd be f6 a2 b3 3e e8 39 0b 3f c7 65 a4 3e
       -0.3707318 0.35085267 0.5438523 0.321089
000120 2a 48 b5 be ca 5c ce be c5 ef 96 3e 5c 86 3b bd
       -0.3540662 -0.40305167 0.29479805 -0.045782432
000130 78 e2 51 3e 98 26 fa be 40 37 f4 bc da 8a b4 3e
       0.20496547 -0.4885757 -0.029811502 0.35262185
000140 bf 3e 92 3e 45 54 93 3d 6b 4f 44 3e 15 81 cc 3a
       0.28563496 0.071938075 0.1917092 0.0015602434
000150 b9 a0 26 be e1 31 9d bd 93 12 de be 24 17 f7 3e
       -0.16272248 -0.07675529 -0.43373546 0.48259842
000160 70 61 8f 3e 89 12 38 3e 76 4a bf be 93 46 fe 3e
       0.28004026 0.1797582 -0.37361497 0.4966322
000170 a4 e4 2f 3e 5d c7 b8 3e 8b 19 73 be 8a 30 89 3e
       0.17177063 0.36089602 -0.23740213 0.26794845
000180 c9 7c eb 3e fb bb 9d 3e 09 86 01 3f 19 08 b6 3c
       0.4599364 0.3080748 0.50595146 0.022220658
000190 62 0a c3 3e e8 81 c8 be 20 21 31 3d 5e 24 90 be
       0.3809386 -0.3916161 0.04324448 -0.28152746
0001a0 6b 2d 09 be a6 e4 14 be 5f b1 46 3e 0f fa 0f 3f
       -0.13396232 -0.14540347 0.19403599 0.56240934
0001b0 f7 83 93 3e d1 83 1d 3d 95 67 fa 3e ae 09 a4 be
       0.2881162 0.038455788 0.48907152 -0.32038635
0001c0 db 20 7d 3e 79 e2 68 bd 43 67 06 be 2b 74 ad 3d
       0.24719565 -0.056856606 -0.13125329 0.08469423
0001d0 cb 08 b7 be e2 ac aa 3d e1 c7 91 3e fc 17 0d 3f
       -0.35748896 0.08333756 0.28472808 0.5511472
0001e0 48 64 2e be 9c 59 29 3e c7 9b 16 3f 2a 7b 88 be
       -0.17030442 0.1653809 0.5883145 -0.26656467
0001f0 9c 36 f4 3e 42 7b 7c be 36 e9 a5 3e d3 82 96 3e
       0.47697914 -0.24656394 0.32404488 0.29396686
000200 7c 86 ca 3d b3 91 b5 3e c7 a8 1c be 29 17 30 3e
       0.09888932 0.35462722 -0.15298758 0.17196335
000210 00 e6 37 3b 5a 8c c0 be 9c ce 4d 3a 4d 87 c1 be
       0.0028060675 -0.3760708 0.00078509166 -0.3779854
000220 06 87 56 3e ce ae 08 3d c1 91 88 3d 2e 6d cb bd
       0.20949945 0.03336983 0.06668425 -0.09932934
000230 f5 69 48 3e 34 ca 1a 3d 56 76 a7 3e 66 fc 1d 3f
       0.1957167 0.037790492 0.3270747 0.61713254
000240 f3 8c a8 3d 4d 0d 5c be b4 50 9e be eb d7 52 3d
       0.08230009 -0.21489449 -0.30920947 0.051475447
000250 a2 e9 bd be 26 6c c0 be f5 b2 c5 be 83 cc 07 be
       -0.3709231 -0.3758251 -0.38613096 -0.13261609
000260 7e 8f 88 3c 10 df a5 3e e5 75 b6 3e 87 05 cf 3e
       0.016669985 0.32396746 0.3563682 0.40433905
000270 f4 b0 b9 be 97 2d d6 bb 7a 11 04 bf 0b 7b 9c 3e
       -0.36267817 -0.0065361965 -0.5158917 0.30562624
000280 ed b3 ff 3d e6 16 01 3f d3 6e d0 be e9 7c b8 3e
       0.1248549 0.50425565 -0.40709552 0.360328
000290 9c 9a d7 3e 64 76 ce 3e b0 e8 b6 bd a2 bf f7 3e
       0.42110145 0.403247 -0.089311 0.48388392
0002a0 71 39 8d 3e 43 41 a1 3e 62 3a 9c 3b ba 83 cd be
       0.27582887 0.31495103 0.004767702 -0.40139562
0002b0 a1 59 1b bd b1 36 7e 3d ae a1 ca be 6d 83 b6 be
       -0.037927274 0.062063877 -0.39576477 -0.35647145
0002c0 68 70 f5 be f4 7a 33 be 6f 3e cf 3e 24 d9 17 3d
       -0.47937322 -0.17527372 0.4047732 0.037072316
0002d0 09 95 74 bd 4b fc 14 bc ce 03 df 3e 7f 6e a3 be
       -0.059712444 -0.009093354 0.4355759 -0.3192024
0002e0 c9 f4 c6 be 53 15 2d be 8e 36 a4 be 83 99 83 3e
       -0.3885863 -0.16902666 -0.32072872 0.25703058
0002f0 6b 9a c5 3e f5 a8 e7 be e0 ac f6 be fd b6 db be
       0.38594374 -0.4524609 -0.48178768 -0.42913046
000300 1a 1e 1a 3e 27 86 ba 3e b0 7f eb be a2 95 89 be
       0.15050545 0.36430475 -0.45995855 -0.26871973
000310 a3 52 07 3e 9b f7 b4 be 99 67 0c 3f ab 80 17 3e
       0.13215117 -0.35345158 0.5484558 0.14795177
000320 34 91 45 be 95 3d ae bc 5d f0 93 3e 89 4a 9c be
       -0.19293672 -0.021269599 0.2889432 -0.30525616
000330 f4 5c c6 be 00 41 5c 3b 80 37 15 3c 80 31 25 3c
       -0.38742793 0.003360808 0.0091074705 0.0100826025
000340 3a ca 78 bd 42 a1 aa 3e 72 f9 90 be 6c 1c 39 bb
       -0.060739733 0.33326155 -0.28315312 -0.00282457
000350 7e d3 31 3e d3 7c b1 be ad 20 d8 3d cf e0 86 be
       0.17365834 -0.34665546 0.105531074 -0.2634339
000360 ee b1 5e 3e e3 51 96 be 0b a1 03 3e 61 7c 7d 3d
       0.21747562 -0.2935935 0.12854402 0.061886195
000370 0a fa cd be fe 25 ba be a8 d1 56 3e 49 63 ee bd
       -0.40229827 -0.3635711 0.20978415 -0.11640031
000380 09 07 cb 3e 23 e7 c9 be 10 ef a1 be 46 e9 fd be
       0.39653805 -0.39434156 -0.31627703 -0.49592036
000390 bf c6 41 3e ea c4 cc bc a9 29 f8 bd 1a 3f 83 bd
       0.18923472 -0.02499624 -0.12117321 -0.0640852
0003a0 60 96 b0 be 30 3b 40 3e a2 49 a4 3d 14 34 14 bf
       -0.34489727 0.18772578 0.08021857 -0.57891965
0003b0 e8 04 c7 3d 62 e1 ce bd ba 80 f1 be 48 a6 d8 3e
       0.09717733 -0.10101582 -0.47168523 0.42314363
0003c0 3e 08 a1 3e ea 0d 41 bd dd 0b db be c0 c8 18 be
       0.314516 -0.04713241 -0.42782488 -0.1492033
0003d0 b6 8d af 3e 48 b5 d8 3e 26 e3 d9 be 34 ec c0 be
       0.34287804 0.42325807 -0.42556113 -0.3768021
0003e0 43 94 b5 3e bb c1 56 3e 44 2c af 3e ce ed 8c be
       0.35464677 0.2097234 0.3421346 -0.2752518
0003f0 86 8d dc 3e ea 72 d2 be c0 4c c5 bc 00 17 2a 3c
       0.43076724 -0.41103297 -0.024084449 0.01038146

dec.lin0.bias f4 [64]
000000 9d f0 4d 3e 77 99 a3 be bd 9c 04 3f f4 ec 0e 3f
       0.20111318 -0.31953022 0.51801664 0.5583031
000010 a6 cb b0 be 46 a8 87 bd 99 81 cf be ea 59 ca 3e
       -0.3453037 -0.066238925 -0.40528563 0.39521724
000020 63 8e a2 3e 93 6a c7 3e a3 07 44 3e cb 07 ee bc
       0.31749257 0.38948497 0.19143538 -0.02905645
000030 c1 0a 9f 3e af 29 63 bd b7 ba 99 be e7 fd 7f 3e
       0.31062892 -0.055459674 -0.30025265 0.249992
000040 a5 49 49 3e 7c ee 41 be 06 4d a4 bb 14 64 e2 be
       0.19657 -0.18938631 -0.0050140647 -0.4421698
000050 3b de 38 be 56 68 2f be 06 f6 86 be e9 3a d7 be
       -0.18053524 -0.17129645 -0.26359576 -0.42037132
000060 9b 1d ee 3e f8 c8 e4 be 3e 1f f9 3e 3c df 40 be
       0.46506962 -0.44684577 0.48656648 -0.18835157
000070 56 59 73 bb 22 b2 b4 3e 08 c0 07 3e be 06 58 be
       -0.0037132106 0.35292155 0.13256848 -0.21096322
000080 97 f8 e2 be f4 47 b8 be dc 79 e1 3e f4 6b 72 be
       -0.44330284 -0.35992396 0.44038284 -0.23673993
000090 84 cf fc 3e 8c 03 3f be 17 27 cb bd fc 6f 22 3e
       0.49377072 -0.18653697 -0.09919565 0.15863031
0000a0 29 a4 30 bd d9 8e 60 3d 5e a2 bb 3e 19 c3 0f 3e
       -0.043125305 0.05482373 0.36647314 0.14039268
0000b0 13 85 3d 3d 97 b9 24 3e a2 5f fa 3e a8 15 ec 3d
       0.046269488 0.16086422 0.48901087 0.11527568
0000c0 74 54 54 be 0c 8f e7 3d 2d 6f a5 bc 9e 25 c8 be
       -0.20735341 0.11306581 -0.020194614 -0.390912
0000d0 8e 04 88 be 6a 36 8d 3e 80 12 1e 3d a7 c0 ac 3d
       -0.26565975 0.27580577 0.03859186 0.08435183
0000e0 14 a9 87 be ea 0c f7 3e 73 53 17 be 51 17 8d 3d
       -0.26496184 0.4825204 -0.14777927 0.06889213
0000f0 ce 90 00 be 25 dd 87 be 45 f4 76 3e 9c eb 0e be
       -0.12555239 -0.26535907 0.24116619 -0.13957065

dec.lin1.weight f4 [64, 64]
000000 bd 13 46 bd 29 46 94 3c 5c 14 b0 3d af 5d dd 3d
       -0.048358668 0.018099861 0.08597633 0.10808884
000010 0e d4 9b 3d 7a e3 4d be 72 1e 0f 3f 9c b7 7b 3d
       0.076088056 -0.20106307 0.5590583 0.0614544
000020 c7 49 cb bd 38 e5 e8 3c 02 2e ec 3c 3b 25 3f 3e
       -0.09926181 0.028429613 0.028830532 0.18666546
000030 fa db d4 bd 2e df c7 3d 8e 33 0a 3d cb d8 80 bc
       -0.1039352 0.09759365 0.033740573 -0.015728375
000040 88 bf 22 bd c2 9d a8 bd 7f 11 47 3e a0 8b 3e 3d
       -0.03973344 -0.08233215 0.19440268 0.046519876
000050 cf 7d c2 bd 3e fb 72 3e 5d 4a 0e bd fd c5 f5 bd
       -0.09496652 0.23728654 -0.034738887 -0.12000654
000060 aa 37 17 be 70 09 50 3d 20 c8 6d bd f1 3e 0e 3e
       -0.14767328 0.05079025 -0.058052182 0.13891198
000070 3d 22 a7 3d ee 77 d1 3c 65 2f 3d 3e 7c 96 4a bd
       0.08160827 0.025569882 0.18475111 -0.04945992
000080 e2 00 d6 3d 42 85 2a bd af db 34 bd 88 3a 87 bd
       0.10449387 -0.04163099 -0.04415482 -0.06602961
000090 fa d2 5a bd 10 26 73 3e 31 87 1c bd e5 91 bc 3d
       -0.05342386 0.23744988 -0.038214866 0.09207515
0000a0 42 de bc 3d 33 42 98 3c 16 6f a4 bd 0d 98 f1 3c
       0.0922208 0.018586254 -0.080290005 0.029491449
0000b0 51 ca 8d 3d 19 b7 2d 3e bb b2 ea 3d d9 c3 13 3e
       0.069233544 0.16964377 0.114598714 0.14430179
0000c0 bb 4b cf 3d 0e 66 59 bd 6c 9a 21 3e 04 f6 07 bd
       0.10121866 -0.053075843 0.15781564 -0.033193603
0000d0 7f e1 61 3e 83 ab cd 3d ea 17 72 bd 95 36 26 3d
       0.22058676 0.10042479 -0.059104837 0.040579397
0000e0 b3 4d 93 3d 4a da 87 3c 40 19 60 bd 82 ee 3b 3d
       0.07192554 0.01658358 -0.05471158 0.045881756
0000f0 4f e7 33 3e ab 29 74 3d 7d b3 04 3d 08 ec a1 3c
       0.17568706 0.05961005 0.032397736 0.019765869
000100 7b 8c 4e be f4 c3 4a 3e d3 df 07 be 0e b6 af bd
       -0.20170777 0.19801313 -0.13268976 -0.08579646
000110 00 ad bf 3a 1a 30 39 3d 9f f3 53 3d 13 fd ee 3c
       0.0014623702 0.04521189 0.051746007 0.02917341
000120 bf ad f9 bc cf e8 d0 bd 81 63 12 3c 4c eb 85 be
       -0.030478356 -0.10200655 0.008934856 -0.2615608
000130 cd 5c cc bd c8 79 8d 3d 49 21 a3 3a 70 9b be bd
       -0.09978638 0.069079936 0.0012445833 -0.09306991
000140 77 86 a4 3d 1e 7c 99 3d c3 b1 7d 3c de 93 c2 3d
       0.0803346 0.074943766 0.015484276 0.0950086
000150 3b 29 22 bd 1d c6 16 3e 47 72 c2 3d ab c6 f7 bd
       -0.0395901 0.14724012 0.09494453 -0.1209844
000160 40 4e 10 3e 8e 64 cb 3d ca ee fb 3d 72 af ee 3d
       0.1409235 0.09931289 0.12301405 0.11654557
000170 4f a5 ad bd ce 22 1a 3e cb 9c 3c bc 59 52 d9 3c
       -0.08478796 0.1505234 -0.011511992 0.026528524
000180 2e 60 b1 bd 0d 07 85 bd 0c aa cf 3c 5d e4 24 3e
       -0.08660923 -0.064954855 0.02534964 0.16102739
000190 de d6 d0 3c b2 1f 19 3d 6d 39 d6 3d 21 3a 00 be
       0.025493082 0.037383743 0.10460172 -0.12522174
0001a0 f4 4b 13 be a8 59 cc bd 71 a7 8a 3d 6e ab b2 3d
       -0.14384443 -0.09978038 0.06770218 0.08724104
0001b0 e5 c7 4b 3d a8 76 f9 3d f5 bf 0d be 55 ae 4e 3b
       0.04975118 0.12180835 -0.13842757 0.0031537015
0001c0 c4 92 7b bc 58 b4 94 3d 2f cc 30 3d 78 34 70 3d
       -0.015354816 0.0726096 0.043163475 0.058643788
0001d0 fd ea 85 bd a2 d0 a5 bb 33 27 39 3e 32 53 35 bd
       -0.06538961 -0.0050602714 0.1808136 -0.044268794
0001e0 96 14 a7 3d ab 7b cf 3d 78 a6 78 bc e3 ca 18 be
       0.08158223 0.1013101 -0.015176408 -0.14921145
0001f0 73 55 06 3d d1 54 e0 bd 2b 0e 9d 3d 2c 2b cc bd
       0.032796334 -0.109536774 0.07668718 -0.09969172
000200 b6 ce c7 bd 38 80 0a 3d 3c 36 03 bd 00 9b e2 bd
       -0.09756224 0.033813685 -0.032034144 -0.1106472
000210 80 c7 47 3d 08 da 34 3d 30 ff 89 3c 4a 48 a7 3d
       0.048774242 0.044153243 0.016845316 0.08168085
000220 44 91 4d bd 7c a8 e9 3d 86 1c c3 bd 1c d4 e6 3d
       -0.050187364 0.11409089 -0.09526925 0.112709254
000230 7a 38 be 3d 08 b9 e3 bd 70 e9 35 bc 5e b7 89 bd
       0.09288116 -0.11119276 -0.011103019 -0.06724428
000240 4a e4 fb 3d 40 e4 aa bb 26 cb 96 3d 74 53 dd 3d
       0.12299402 -0.005215198 0.07362966 0.10806933
000250 f4 67 c5 bd c8 9e 9b 3d 4c b0 de bd e4 46 0a bd
       -0.09638968 0.075986445 -0.1087347 -0.033759013
000260 cc 72 4e bd 1e 6e ef bd 64 21 f1 bd 74 d0 f6 bd
       -0.050402448 -0.11690925 -0.11773947 -0.12051478
000270 40 06 c6 bd 9a 0b 8f bd 7c c2 28 bd 06 3a 8f 3d
       -0.09669161 -0.06984635 -0.0412011 0.06993489
000280 00 9c a4 bc 30 77 fd bd 04 f3 b9 bd fc b8 b7 3d
       -0.020093918 -0.12376249 -0.09079555 0.0897083
000290 66 cd f9 bd 88 d6 7b bd b6 ae e7 bd e2 bc 89 3d
       -0.1219738 -0.06148389 -0.1131262 0.0672548
0002a0 68 fc ae 3d 30 35 33 3c fc b1 80 bd f0 40 f8 bc
       0.085442364 0.010937974 -0.06283948 -0.030304402
0002b0 a0 bd ee 3b 80 93 56 3d 80 83 0d 3b f8 b7 6e bd
       0.0072857887 0.05238676 0.0021593273 -0.058280915
0002c0 60 6b c6 3b 80 f6 7a 3b 00 b7 98 3a b8 b3 5e 3d
       0.0060552806 0.0038293898 0.0011651218 0.054370612
0002d0 80 f5 40 bd 20 fd 00 3c 00 b7 0b 3a e4 25 58 3d
       -0.047109127 0.00787285 0.00053296983 0.05277051
0002e0 c0 b5 9c bd c4 24 c8 bd fa 59 d0 bd 7c 1b 57 3d
       -0.076518536 -0.097726375 -0.10173412 0.052516446
0002f0 d2 a9 cb 3d b6 e9 fd 3d dc d3 36 3d 88 c5 d0 bc
       0.099445 0.123980924 0.04463564 -0.025484815
000300 b7 7c 9c 3a d4 17 06 bf 5d 2c 74 3c c8 4c 88 bd
       0.0011939023 -0.5238011 0.014903155 -0.0665527
000310 10 79 1b bc 62 3e e2 3d a7 34 d8 be de a9 e0 bd
       -0.009489313 0.11047055 -0.4222767 -0.109698996
000320 2e 66 37 3c 6c 00 f3 bd d5 f1 08 be 58 94 14 bd
       0.011193795 -0.11865315 -0.13373502 -0.036274284
000330 70 88 4e bd e8 50 3a 3d 38 62 9d bd 84 04 c1 bd
       -0.050423086 0.045487314 -0.07684749 -0.094246894
000340 85 8d 53 3d f5 8a 7a 3d d3 4c 23 3e 82 5a c5 3d
       0.051648635 0.061167676 0.15947275 0.096364036
000350 c2 0f b8 3d 58 1e 49 bd 69 ff 8b 3c 4b 36 87 bd
       0.089873806 -0.049101204 0.017089562 -0.066021524
000360 8f 94 e8 3d 4c f6 22 3d bb 52 3f 3b 25 5e 86 3c
       0.1135646 0.03978567 0.0029193598 0.016402313
000370 3b cc 14 3e 58 7d 59 3d f1 66 5c 3d 12 34 e7 3d
       0.14531033 0.053098053 0.05380911 0.112892285
000380 67 a3 b7 3c f3 26 19 be d7 eb 12 3d 9e e6 9d be
       0.022416783 -0.14956264 0.035869446 -0.3084001
000390 fd c9 e4 3c ea db 67 3c 46 f9 40 3d 6a 9e a6 bc
       0.027928347 0.014151553 0.047112726 -0.02033921
0003a0 1f 13 13 3e 5c f3 8a 3d 27 64 16 be 78 3e a5 3d
       0.14362763 0.06784698 -0.14686643 0.080685556
0003b0 01 2e 09 3e f1 28 00 3d 98 90 30 3c c5 dc 65 bd
       0.13396455 0.031289045 0.010776661 -0.056118745
0003c0 40 15 ce bd ca 3e 22 3e dd 11 79 bd 10 d2 9a bd
       -0.10062647 0.15844265 -0.06080805 -0.075595975
0003d0 fd 27 79 bc c3 ff 44 be cf cb 11 3e e2 0b 05 3e
       -0.015207288 -0.1923819 0.14237903 0.12992814
0003e0 59 56 eb 3b 34 cb 96 3d 2c 0d 6e bc 7f bf ce 3d
       0.0071819243 0.07362977 -0.014529508 0.10095119
0003f0 a3 c3 68 3d dd 52 d2 bd 8e 45 b4 bd 00 d1 f6 3c
       0.0568272 -0.10269711 -0.08802329 0.030128956

dec.lin1.bias f4 [64]
000000 ff c4 aa b9 0f 8c 95 bc ac 88 f4 3d 6e de 41 3d
       -0.000325717 -0.018255262 0.119401306 0.047331266
000010 3c 0a 7f 3d 5a ac f4 3c 30 16 d9 3d 77 16 44 3e
       0.06226562 0.02986734 0.10599935 0.19149195
000020 08 d0 08 be 94 83 9f 3d de 80 85 bc 96 d9 1b 3c
       -0.13360608 0.077887684 -0.0162968 0.009512326
000030 44 c6 ce 3d e1 e2 b6 bd ba b8 1c be 7c b9 01 3d
       0.1009641 -0.089299925 -0.15304843 0.031671032
000040 6b c4 fd bd 89 23 91 3d cf 19 d6 bc 45 eb 1a 3d
       -0.123909794 0.07086856 -0.026135353 0.037822027
000050 bc 3e 0e 3d 5d 28 42 3d 75 5a b5 bd 22 76 cc bd
       0.034727797 0.047401775 -0.08855144 -0.099834695
000060 41 2e 0c 3d 8c 35 1a 3d ab ab 7e 3b d8 28 b4 bd
       0.0342238 0.037648723 0.0038859646 -0.08796853
000070 e8 ff 3c 3d 97 4b 56 3d c7 42 6e 3d fb 3a 1a 3e
       0.04614249 0.05231818 0.058169153 0.15061562
000080 81 35 e1 3d 3f 5c 16 3d ac a4 60 bd 84 0d 1c 3e
       0.10996533 0.036709066 -0.054844543 0.15239531
000090 f4 38 08 bd 41 15 a1 3c c9 7b b0 bd 01 7d 80 bd
       -0.03325744 0.019663455 -0.0861736 -0.062738426
0000a0 41 63 b1 3d dd 2a 38 3c a5 c7 7b 3d 35 68 7e 3c
       0.08661509 0.011240688 0.061469693 0.015527775
0000b0 e5 5c ee bd 33 69 e6 3c f6 95 99 3d bd 4f 76 3d
       -0.11638812 0.028126335 0.07499306 0.060134638
0000c0 84 12 25 bd d6 ae c5 bd 2b 9c ae 3d 64 43 f6 bd
       -0.04030086 -0.09652488 0.085258804 -0.120245725
0000d0 74 9d 10 3d 24 45 00 3e 2c 27 f3 3b ec a8 d4 bd
       0.03530641 0.12526375 0.007420441 -0.10383782
0000e0 90 81 0e bc 30 25 ce bd 60 8c c6 bb 8c 28 6c 3e
       -0.008697882 -0.10065687 -0.0060592145 0.23062342
0000f0 a5 18 c7 3c ef 7f b5 3d 4d b8 fd bd 0a d2 a4 3d
       0.024303744 0.08862292 -0.12388668 0.08047874

dec.lin2.weight f4 [64, 64]
000000 f7 74 1b 3d d0 41 a8 3d 44 fb 3a bd 95 96 7d bd
       0.037953343 0.08215678 -0.04564978 -0.061911184
000010 84 92 2c bd f2 88 22 3c fe 28 c4 bd e4 f6 69 bd
       -0.042131916 0.009920346 -0.09578131 -0.05712022
000020 85 48 f5 bd d0 1a 1b 3e 6f 26 ac bd 7d 4a 9d bc
       -0.11976723 0.15146947 -0.08405768 -0.019200558
000030 3f 86 ca 3c 96 91 d9 bd 5d 27 58 bf 3d ae 8e bc
       0.024722217 -0.106234714 -0.84435064 -0.017417068
000040 c7 da 8c bd db 42 1b bc dc fa a7 3d c3 97 cf 3d
       -0.06877666 -0.009476389 0.082021445 0.10136368
000050 e0 3e 7a 3c f0 b7 b1 3d 7f d1 17 3e 95 bb 8d 3b
       0.01527378 0.086776614 0.1482601 0.00432534
000060 4e c6 42 3d a6 11 18 3e af df c0 bc c6 7d dd bd
       0.0475524 0.14850482 -0.02354416 -0.10815005
000070 af 61 eb 3d 99 69 34 3e e8 85 13 3c b9 97 ce bc
       0.11493241 0.17618407 0.009004094 -0.025218831
000080 15 2a f3 bd 23 9d 72 3c 1b d4 83 3c be 2b ae bb
       -0.11873261 0.014807972 0.01609235 -0.005315273
000090 e3 f6 0a be 87 95 71 bd d2 23 36 3d 89 01 58 3e
       -0.13570742 -0.05898049 0.044467755 0.21094336
0000a0 73 76 d2 bd bd b4 02 3e 03 f1 10 bb fd 79 34 bc
       -0.10276499 0.12764259 -0.002211631 -0.011015412
0000b0 71 f1 f1 3b 8b 5d 73 3d 20 4c 8f 3d 8b f2 e0 3d
       0.0073835184 0.05941538 0.069969416 0.109837614
0000c0 2e 6d ec bd 51 a9 ae 3d 1e 03 0c 3e f1 05 92 bd
       -0.11544262 0.08528388 0.13673064 -0.071300395
0000d0 e9 d2 71 be dc ff be bc 04 31 de 3d cc d1 46 bd
       -0.23615612 -0.023315363 0.10849193 -0.04853992
0000e0 14 27 09 3d fa 37 fb bd a0 68 45 3c b8 5e cc bc
       0.033484533 -0.12266536 0.01204887 -0.02494751
0000f0 f2 67 93 bd d1 6f cd 3d dc df fc 3c 64 d4 33 bd
       -0.0719756 0.10031093 0.030868463 -0.043903723
000100 c0 a1 f6 bd ae af b7 3d 80 f1 6b bb 53 6d c8 bc
       -0.1204257 0.08969055 -0.00360021 -0.024466192
000110 10 37 38 3c a0 5b 43 bd c0 fe a8 bb 59 a4 0a be
       0.011243597 -0.047694802 -0.0051573217 -0.13539256
000120 82 7b e3 bd 41 ac a2 3c 90 a2 23 3d 0b e1 1a bd
       -0.111075416 0.019857528 0.039949954 -0.037812274
000130 99 95 3c bb a8 a0 64 3d ee c3 c6 bd ea e6 d1 3d
       -0.002877569 0.055817276 -0.09705339 0.102491215
000140 8c f1 ef bd c0 1c ee bb a8 68 86 bc 02 dd a8 bd
       -0.11715993 -0.007266611 -0.016407326 -0.08245279
000150 e0 16 17 bc 56 f4 3e bd 9a a0 f9 bd 94 2f 85 3d
       -0.009221762 -0.046619736 -0.121888354 0.065032154
000160 0f 87 b8 bd f8 04 ac 3d c8 bd 2c bd d0 e9 2b bc
       -0.090101354 0.08399385 -0.042173177 -0.010492757
000170 3e 26 86 bd 90 40 b9 3c 3a 27 35 bd c2 da ae bd
       -0.06550263 0.022613794 -0.044226862 -0.085378185
000180 14 59 dd bc f8 30 77 bd 00 e3 35 bb fd 09 9f 3c
       -0.027020015 -0.060349435 -0.002775371 0.019413942
000190 20 45 b5 3d 58 6b d5 3d f2 4d 89 3d 7c 4c c8 bd
       0.08851075 0.10420865 0.0670432 -0.09780213
0001a0 a6 d0 d9 bd ce 04 83 3c af 6e 72 bd 8b 6b 23 3d
       -0.106355 0.015993502 -0.059187587 0.039897483
0001b0 98 be 3b bd ec 51 f8 3d 48 d9 cf bd 54 84 b7 3d
       -0.04583606 0.12125 -0.10148865 0.089607865
0001c0 e0 e8 e9 3b 24 f4 c1 bd 14 4c e3 bd a0 0c ff 3c
       0.0071383566 -0.09470394 -0.11098495 0.03113395
0001d0 89 01 83 bd 41 96 20 3c 40 4b 8f bc 00 71 3e bd
       -0.06396777 0.009801448 -0.017491937 -0.046494484
0001e0 06 5b 8a bd e5 45 bd bb 36 30 8c bd 05 a1 93 3d
       -0.067556426 -0.0057761543 -0.06845133 0.072084464
0001f0 ff 71 80 3c 88 85 d7 bc f0 7c 3a bc 5a 92 eb bc
       0.015679358 -0.02630879 -0.0113823265 -0.02875631
000200 d2 39 2a 3c 47 73 55 bd 1e 51 95 bd 28 d7 fb bc
       0.010389762 -0.05211189 -0.072908625 -0.030742243
000210 48 e1 eb 3d bc 45 e9 bd 50 b9 13 3d 99 0d f8 3c
       0.11517578 -0.11390254 0.0360654 0.030279921
000220 bb 41 98 3b 91 ea 36 3a 6b 6f 2f bb 91 47 a7 3d
       0.0046465076 0.0006977702 -0.002676929 0.08167947
000230 ca 7f b1 bd fb bd 16 3e db ba ec 3e 44 9c c0 bc
       -0.08666952 0.1472091 0.4623631 -0.023512013
000240 f2 fa 23 bd 7f d7 94 bd 6a 14 32 bd bc ce 78 bd
       -0.040034242 -0.07267665 -0.0434765 -0.060744032
000250 70 3a 8f bc 0b 62 a3 3d e2 ab 46 bd 4a 66 4a 3d
       -0.01748392 0.079776846 -0.048503764 0.049413957
000260 62 17 fb bd d4 71 f4 3c b9 84 72 3d e4 49 55 3d
       -0.12260319 0.029839434 0.059208605 0.05207242
000270 5d 66 09 be ee 11 3f bd ca 1f ce 3c 58 47 a1 3d
       -0.13417955 -0.04664796 0.025161643 0.07874936
000280 37 cb 9c 3d 7b 7a ae 3d dc 4b 12 3e 9c e9 1a be
       0.07655948 0.08519455 0.1428675 -0.15128177
000290 a4 a9 8d bd 7b cf b9 bd f6 c3 d7 3c 15 1a 06 be
       -0.06917122 -0.09072777 0.026338559 -0.13095887
0002a0 0e ea e7 3d 19 1b e5 bd 23 ef ca bc 1e 54 72 bc
       0.11323939 -0.11186809 -0.024772232 -0.014790563
0002b0 e5 bf 00 bc b0 bb 2f bc c7 78 be 3d d7 eb d6 3c
       -0.007858251 -0.0107259005 0.0930038 0.026235504
0002c0 ba 25 9b 3d 49 15 c1 3c 63 d2 12 3c 75 b9 93 bb
       0.07575555 0.02356972 0.008961293 -0.004508192
0002d0 fc 8a 29 3d 25 84 37 be ab 9a c7 3d 4a 8d 4e bd
       0.04139231 -0.17921503 0.097462974 -0.050427713
0002e0 9c 96 d4 bd 04 ce 31 be 1a 67 a0 bd 13 3b 2e 3e
       -0.10380289 -0.17363745 -0.07832165 0.17014723
0002f0 3a 6a 5f 3d 5d 36 41 bd 4b 29 d6 bc f2 a6 65 3d
       0.054544665 -0.047170985 -0.026142737 0.056067415
000300 06 91 c7 3c f4 5b 70 bd 40 83 36 bc af 49 4d bd
       0.024361145 -0.058681443 -0.011139691 -0.0501191
000310 62 57 eb b9 56 cb 84 bd f8 f5 e0 3d 05 05 c3 3d
       -0.00044887798 -0.06484096 0.10984415 0.09522442
000320 86 10 20 3c b1 c6 01 3e 6b 0d c4 3b a5 d2 fe 3d
       0.0097695645 0.12673451 0.005983045 0.12442521
000330 ac cb 04 be d3 99 24 3d 66 aa 07 bf dd fb 98 bd
       -0.1296832 0.04018576 -0.5299438 -0.07469914
000340 fa 7f 15 3d 34 d6 c1 3d ab cc 6c 3d 83 b4 06 3e
       0.036499 0.09464684 0.057812374 0.13154797
000350 6e e1 af 3d 1e 2f bb 3a 5a c2 91 3c 15 a1 a8 3d
       0.08587919 0.001428101 0.01779287 0.08233849
000360 cf d7 96 bd b6 95 eb 3d ad a3 ed bc be 4a e4 bd
       -0.07365381 0.115031645 -0.02900871 -0.111470684
000370 95 ff e3 3c 96 9d 6c 3e fe c2 c7 3d 2e ce f8 3d
       0.027831832 0.2310699 0.09753989 0.12148701
000380 fd 04 25 3d 3b dc 03 be c2 df 1b be bd 52 13 bd
       0.04028796 -0.1287698 -0.15222076 -0.035967577
000390 e2 a0 11 3d ce aa da 3d a4 b3 95 bd d7 39 b6 b9
       0.03555382 0.1067711 -0.07309654 -0.0003475684
0003a0 88 4c 74 3d 4e 49 a9 3d a5 fa 9f 3d 5d aa 0f 3e
       0.0596433 0.08265935 0.078114785 0.14029832
0003b0 c3 de 24 bd f2 3d a2 3d 08 93 8c 3d e0 ab ea bc
       -0.040251505 0.079219714 0.068639815 -0.02864641
0003c0 f4 fe 77 3d 7a 0a 79 bd e3 f7 72 3d 6e ad 03 3e
       0.060545877 -0.060801007 0.059318434 0.12859127
0003d0 5a e6 39 3b 40 41 c4 3c db a8 ff 3b fe fe ee bc
       0.002836606 0.023956895 0.0078021116 -0.029174324
0003e0 74 08 cb 3d df 72 f6 3d c6 77 9f bd 7c 6c 08 be
       0.09913722 0.12033629 -0.07786517 -0.13322634
0003f0 db 45 94 3d de 06 97 3d 07 74 a0 bd 21 e2 96 bd
       0.072398864 0.07374357 -0.078346305 -0.073673494

dec.lin2.bias f4 [64]
000000 cc b6 cc 3d 96 b1 7b bd 41 89 7e 3d 42 76 f1 3d
       0.09995803 -0.061448656 0.062142614 0.11790134
000010 1f 75 a0 bd ab 70 1c 3d 22 67 90 bd 56 86 27 be
       -0.07834839 0.038193386 -0.07050921 -0.16359839
000020 48 3b bc 3d b7 fe 16 3d ae ba d6 3d 0f a1 8e bc
       0.091909945 0.03686401 0.10484825 -0.017410783
000030 d5 13 90 bd 8e b9 c0 3d 8b eb b5 bd 46 d3 b0 3d
       -0.07035033 0.09410392 -0.08882817 0.08634047
000040 29 29 6b 3d e5 c6 e5 bd d2 91 f8 3d ea a5 e9 3c
       0.0574123 -0.11219577 0.12137188 0.028521497
000050 22 b2 dc bc dc 21 ae bd 5b 40 39 bc ec ec 89 bb
       -0.02694041 -0.08502552 -0.011306847 -0.0042091515
000060 5d fa 9e 3d de 72 82 bc 14 21 1d bc 60 7a 1a 3d
       0.07762597 -0.015923914 -0.009590406 0.037714362
000070 a7 6e d9 bd 14 01 bc bd 49 d6 31 bd 52 24 d2 bd
       -0.106168084 -0.09179893 -0.04341725 -0.10260834
000080 75 0a da 3d f7 f8 3b bd 0a 2c 9a 3c 8b 87 b7 3b
       0.10646526 -0.04589173 0.018819828 0.005600875
000090 1b 8a ef 3d de ae d6 3d 0f e7 96 3d 97 ff eb bc
       0.116962634 0.10482572 0.0736829 -0.028808398
0000a0 8a 69 a1 be e0 b6 d7 3d d8 84 d8 bd d4 5f 79 bc
       -0.31525832 0.105329275 -0.10572213 -0.015220601
0000b0 c0 e3 7f bd d0 5f 66 3d 36 b6 cf bd 20 0a 08 bb
       -0.06247306 0.056243718 -0.10142176 -0.0020757988
0000c0 e5 0c 0d 3e 74 c1 9e 3d 8a 47 00 3e 8a 9a 91 bc
       0.1377445 0.07751742 0.1252729 -0.017773885
0000d0 e8 b4 96 3d 58 42 3d bd 25 0c a3 bd 8c d7 bc bd
       0.07358724 -0.04620585 -0.07961301 -0.092208
0000e0 59 05 0f 3e 0f 2b 91 3d d7 09 ec 3a 9a ab a7 bd
       0.13966884 0.07088291 0.0018008304 -0.08187027
0000f0 90 f4 39 3d e8 21 44 3d 68 cb ce bd 28 e0 74 bd
       0.04539925 0.047883898 -0.100973904 -0.059784085

dec.lin3.weight f4 [1, 64]
000000 ba 71 17 3e e7 9a 54 bc a6 9e e4 bc 9f 82 28 3d
       0.14789477 -0.012976385 -0.02790768 0.041140195
000010 89 eb 77 3e 38 cb 2f 3d 8c af 10 3d ca 39 bf bf
       0.24210943 0.042918414 0.035323665 -1.4939511
000020 9e cc a9 3d 7f 53 fc 3c b8 4b 7a 3d a4 d0 5a bd
       0.08290981 0.030801533 0.061107367 -0.05342163
000030 1f e9 e1 be a8 48 9f bd b7 2f 61 be 67 46 14 bd
       -0.4412317 -0.0777753 -0.21990858 -0.036199953
000040 7e 60 c2 bd 50 4e 6e 3d f4 da 9f 3d 3c a8 03 3e
       -0.09491061 0.058180153 0.07805434 0.12857145
000050 50 d9 0e 3e 62 50 1b 3d e4 1f 30 be c5 1b d8 bd
       0.13950086 0.037918456 -0.17199665 -0.105521716
000060 bb 67 f5 3b 53 3d 10 3e ff 49 80 be f7 cb 99 3d
       0.0074891723 0.14085893 -0.25056455 0.07509606
000070 5c de 0c bc ae 9d a4 be 29 8a c9 3d 50 48 ad 3d
       -0.0085979365 -0.3215155 0.09840805 0.08461058
000080 77 b7 d0 3c 13 b6 97 3d 4c 2e e4 3d d8 02 ca 3d
       0.025478108 0.07407775 0.11141643 0.09863824
000090 d3 b1 81 3d 20 49 9d 3d 90 b7 59 3d f6 2e 4d 3d
       0.063327454 0.07679963 0.053153574 0.050093614
0000a0 7d e2 02 c0 2d ca 36 bd 9c b4 eb bd 78 ba 9e bd
       -2.0450737 -0.044626404 -0.11509058 -0.0775041
0000b0 c4 34 89 bd 07 d5 98 3d b9 c3 9f 3c 5e 7a 8f be
       -0.06699517 0.07462507 0.019502508 -0.28023046
0000c0 11 e1 08 3e a3 9d 81 3d de ff dd bd 3a 1d cd 3d
       0.13367106 0.06328895 -0.108398184 0.1001534
0000d0 d8 57 78 bc 90 dc 5a bd 04 eb 16 3e 21 80 ba bd
       -0.015157662 -0.053433 0.14738089 -0.0910647
0000e0 67 dd ce 3d 74 6c 97 3d b3 06 d9 3d 6c 40 38 bd
       0.10100823 0.07393733 0.10596981 -0.044983312
0000f0 de a2 af 3d 4d 5c 60 bd 76 20 75 3e 16 71 59 bd
       0.08575986 -0.054775525 0.23938164 -0.053086363

exp_avg f4 [64, 4]
000000 2e fd e3 38 2e fd e3 38 b7 71 ee 37 1b df 4a b8
       0.00010871362 0.00010871362 2.8424764e-05 -4.8368336e-05
000010 3a 0f 61 b9 3a 0f 61 b9 19 6b 61 b9 f2 40 93 39
       -0.00021463344 -0.00021463344 -0.00021497569 0.00028086413
000020 a8 2d c3 39 a8 2d c3 39 11 5f 90 39 36 b3 d9 b9
       0.00037227315 0.00037227315 0.0002753665 -0.00041522988
000030 dc 95 50 39 dc 95 50 39 23 0b 95 39 6e ca b7 b9
       0.00019892253 0.00019892253 0.00028427792 -0.00035055302
000040 00 00 00 00 00 00 00 00 00 00 00 00 00 00 00 00
       0.0 0.0 0.0 0.0
000050 ff ce 54 b8 ff ce 54 b8 51 86 20 38 f3 a1 4d b8
       -5.073752e-05 -5.073752e-05 3.8272065e-05 -4.9026636e-05
000060 aa ee 1a ba aa ee 1a ba 25 14 09 ba e5 b8 3c 38
       -0.00059101975 -0.00059101975 -0.0005229137 4.499489e-05
000070 99 4d 62 b6 99 4d 62 b6 40 60 17 b8 39 e8 80 38
       -3.3721792e-06 -3.3721792e-06 -3.6090845e-05 6.1467705e-05
000080 90 bf fa 38 90 bf fa 38 2b 85 3d 38 a8 7b a5 37
       0.0001195661 0.0001195661 4.5185134e-05 1.9727115e-05
000090 72 13 e2 b6 72 13 e2 b6 1f 22 27 38 5a a9 4b b9
       -6.7375886e-06 -6.7375886e-06 3.984768e-05 -0.00019422677
0000a0 4c b6 a9 38 4c b6 a9 38 a5 56 b2 b7 3e b3 17 38
       8.0925034e-05 8.0925034e-05 -2.12596e-05 3.6168138e-05
0000b0 a0 97 5e b9 a0 97 5e b9 2f 61 45 b8 bb eb 12 b8
       -0.00021228055 -0.00021228055 -4.705897e-05 -3.5028654e-05
0000c0 86 99 d7 39 86 99 d7 39 d7 77 73 39 b6 44 90 b9
       0.0004112238 0.0004112238 0.0002321893 -0.00027517014
0000d0 a3 fb 32 b8 a3 fb 32 b8 19 5a 4a 37 cd d9 4d 38
       -4.2672862e-05 -4.2672862e-05 1.2061116e-05 4.907865e-05
0000e0 8c 7a 0c ba 8c 7a 0c ba 4c 54 87 b9 8a 76 ed 39
       -0.0005358837 -0.0005358837 -0.00025812013 0.0004529248
0000f0 69 df 08 39 69 df 08 39 96 c5 4c 39 11 a4 79 b8
       0.00013053197 0.00013053197 0.00019528563 -5.9519025e-05
000100 21 1b a2 38 21 1b a2 38 cd 04 43 39 50 69 7d b9
       7.729815e-05 7.729815e-05 0.00018598438 -0.00024167192
000110 3d 2c 74 b9 3d 2c 74 b9 36 d1 aa b9 c2 1b d2 39
       -0.00023286133 -0.00023286133 -0.000325808 0.00040075002
000120 00 00 00 00 00 00 00 00 8a d8 b8 b7 01 40 ec 38
       0.0 0.0 -2.2035343e-05 0.000112652786
000130 00 00 00 00 00 00 00 00 00 00 00 00 00 00 00 00
       0.0 0.0 0.0 0.0
000140 c6 df f0 b8 c6 df f0 b8 59 00 2c b9 cc dd ad 39
       -0.00011485773 -0.00011485773 -0.00016403328 0.00033162383
000150 7d ef df b8 7d ef df b8 57 22 98 b7 4d e9 c8 b7
       -0.00010678077 -0.00010678077 -1.8135803e-05 -2.3950497e-05
000160 85 ca 9b 37 85 ca 9b 37 b0 0a 14 b8 ff 99 68 b7
       1.8571745e-05 1.8571745e-05 -3.5295903e-05 -1.3864133e-05
000170 10 74 9a b7 10 74 9a b7 a4 d4 96 33 25 c0 06 38
       -1.8412276e-05 -1.8412276e-05 7.0235984e-08 3.2127038e-05
000180 c8 c3 a7 39 c8 c3 a7 39 75 ec bb 37 9d 75 13 b9
       0.0003199859 0.0003199859 2.2402246e-05 -0.00014062827
000190 00 00 00 00 00 00 00 00 00 00 00 00 00 00 00 00
       0.0 0.0 0.0 0.0
0001a0 11 a2 50 b6 11 a2 50 b6 64 66 f4 38 93 85 14 b9
       -3.108875e-06 -3.108875e-06 0.000116538984 -0.0001416414
0001b0 4b 61 34 ba 4b 61 34 ba 7e 8c 97 b9 7e 20 2a 3a
       -0.0006880953 -0.0006880953 -0.0002890564 0.0006489827
0001c0 d0 d2 c5 38 d0 d2 c5 38 d5 1e 3b b8 c1 67 ff b8
       9.432959e-05 9.432959e-05 -4.461299e-05 -0.00012178673
0001d0 25 81 3a b8 25 81 3a b8 0d b1 66 38 6d d4 de b8
       -4.446613e-05 -4.446613e-05 5.5001165e-05 -0.00010625352
0001e0 d8 c1 81 b9 d8 c1 81 b9 78 83 50 b9 b7 61 4b 39
       -0.00024749222 -0.00024749222 -0.00019885402 0.0001939599
0001f0 17 2d 36 38 17 2d 36 38 6c 28 88 b8 b5 a1 39 39
       4.3434175e-05 4.3434175e-05 -6.4925145e-05 0.00017703215
000200 ed 87 4f b8 ed 87 4f b8 6c 69 a0 38 d8 b5 4c b8
       -4.9479237e-05 -4.9479237e-05 7.649031e-05 -4.8806745e-05
000210 00 00 00 00 00 00 00 00 94 dd 90 ba 0c 77 33 ba
       0.0 0.0 -0.0011052364 -0.00068460475
000220 fa 0e 8a 39 fa 0e 8a 39 25 dd 48 39 15 46 73 b9
       0.0002633257 0.0002633257 0.00019155869 -0.00023200393
000230 a4 10 4e 39 a4 10 4e 39 0c b6 9d b6 69 1f 6f 39
       0.0001965189 0.0001965189 -4.7001577e-06 0.00022804517
000240 49 1a 09 3a 49 1a 09 3a 93 77 ce 39 76 7c 02 ba
       0.0005230052 0.0005230052 0.00039380472 -0.00049776526
000250 00 00 00 00 00 00 00 00 74 ac 6a b9 e5 f3 0b 39
       0.0 0.0 -0.00022380223 0.00013346931
000260 72 83 9b b8 72 83 9b b8 4e 28 19 b8 16 4b a7 b7
       -7.4154595e-05 -7.4154595e-05 -3.651558e-05 -1.9942916e-05
000270 81 09 14 b9 81 09 14 b9 10 b5 ad 38 b6 b3 b2 b7
       -0.0001411792 -0.0001411792 8.283008e-05 -2.1302938e-05
000280 db 5b 07 38 db 5b 07 38 49 8a 92 b8 a4 ad e6 b8
       3.2272055e-05 3.2272055e-05 -6.98758e-05 -0.00010999598
000290 1e 1b 45 39 1e 1b 45 39 8a 48 7f 37 6c a0 a4 b9
       0.00018797486 0.00018797486 1.5216074e-05 -0.0003140004
0002a0 c9 d1 47 b8 c9 d1 47 b8 30 a6 18 38 da ed ae 38
       -4.7640675e-05 -4.7640675e-05 3.63944e-05 8.34127e-05
0002b0 fa 9c 6b b9 fa 9c 6b b9 0f 58 b2 b8 d9 eb f2 37
       -0.00022469825 -0.00022469825 -8.5041036e-05 2.8958473e-05
0002c0 00 00 00 00 00 00 00 00 60 94 96 b7 c2 3d 58 38
       0.0 0.0 -1.7950486e-05 5.155593e-05
0002d0 55 99 ac b8 55 99 ac b8 02 98 8c b8 ee a8 c3 38
       -8.2301594e-05 -8.2301594e-05 -6.704034e-05 9.32979e-05
0002e0 c3 77 79 b8 c3 77 79 b8 6a d3 fc 38 54 bd 45 b8
       -5.9477763e-05 -5.9477763e-05 0.00012055675 -4.7144786e-05
0002f0 39 70 74 b9 39 70 74 b9 11 ed 8d b8 58 82 99 38
       -0.0002331146 -0.0002331146 -6.767561e-05 7.319887e-05
000300 37 e3 82 b9 37 e3 82 b9 ba 15 a1 b8 42 f2 5f 38
       -0.0002496482 -0.0002496482 -7.681125e-05 5.3392963e-05
000310 ca eb 4f b9 ca eb 4f b9 bd b6 5d b9 f7 f7 0b 39
       -0.00019828897 -0.00019828897 -0.00021144278 0.00013348447
000320 b0 ca 8b b9 b0 ca 8b b9 09 7a bb b9 fb 14 a5 39
       -0.0002666316 -0.0002666316 -0.00035758343 0.00031486884
000330 00 00 00 00 00 00 00 00 00 00 00 00 00 00 00 00
       0.0 0.0 0.0 0.0
000340 3d f2 d3 b7 3d f2 d3 b7 c4 42 d3 b9 fe 07 06 39
       -2.5265961e-05 -2.5265961e-05 -0.000402948 0.00012782213
000350 7a a1 55 39 7a a1 55 39 b7 ce 1c 39 75 d6 c7 b8
       0.00020373418 0.00020373418 0.00014954327 -9.529005e-05
000360 26 12 22 b9 26 12 22 b9 75 ab 3e b9 36 ed ef 38
       -0.00015456285 -0.00015456285 -0.00018183685 0.00011440592
000370 00 00 00 00 00 00 00 00 6e ff 09 b7 b6 50 17 b6
       0.0 0.0 -8.225308e-06 -2.2547733e-06
000380 e9 47 43 b9 e9 47 43 b9 a7 31 06 38 52 c1 bd 38
       -0.00018623438 -0.00018623438 3.1994332e-05 9.048231e-05
000390 99 9e 15 38 99 9e 15 38 f7 e1 0c 39 62 d7 2b b9
       3.5672074e-05 3.5672074e-05 0.00013435619 -0.00016388067
0003a0 bf ea 21 ba bf ea 21 ba 11 39 d3 b9 e3 46 02 3a
       -0.00061766425 -0.00061766425 -0.00040287574 0.00049696694
0003b0 32 c4 31 36 32 c4 31 36 cc 4a a6 b8 bf 66 0c b8
       2.6489256e-06 2.6489256e-06 -7.929429e-05 -3.347429e-05
0003c0 5f ca 85 b9 5f ca 85 b9 41 15 b2 b7 d7 14 eb b3
       -0.00025518515 -0.00025518515 -2.122915e-05 -1.0946831e-07
0003d0 86 dc 11 b9 86 dc 11 b9 0b 00 1f b8 da 08 ab 37
       -0.00013910429 -0.00013910429 -3.7908594e-05 2.038891e-05
0003e0 36 cb 19 39 36 cb 19 39 ec 9c fb 37 29 5f c8 b7
       0.00014666919 0.00014666919 2.9994604e-05 -2.388617e-05
0003f0 00 00 00 00 00 00 00 00 00 00 00 00 00 00 00 00
       0.0 0.0 0.0 0.0

exp_avg_sq f4 [64, 4]
000000 cc 8f dc 34 cc 8f dc 34 2c b9 c2 34 4c 9e d7 34
       4.108282e-07 4.108282e-07 3.6270046e-07 4.0162047e-07
000010 4f 15 51 36 4f 15 51 36 93 7b a3 35 3e 28 1c 36
       3.115583e-06 3.115583e-06 1.2180411e-06 2.3269235e-06
000020 3f ba 3e 36 3f ba 3e 36 45 77 7d 36 75 99 f6 35
       2.8420616e-06 2.8420616e-06 3.7769362e-06 1.837309e-06
000030 32 7a 87 35 32 7a 87 35 f3 20 26 36 e6 e9 e4 35
       1.0093847e-06 1.0093847e-06 2.4755107e-06 1.7055397e-06
000040 00 00 00 00 00 00 00 00 00 00 00 00 00 00 00 00
       0.0 0.0 0.0 0.0
000050 6a b4 10 35 6a b4 10 35 79 df e1 34 83 22 0e 35
       5.390672e-07 5.390672e-07 4.2072114e-07 5.2949343e-07
000060 c5 7b 8d 36 c5 7b 8d 36 39 c9 56 37 0e 03 d8 36
       4.216536e-06 4.216536e-06 1.2802245e-05 6.4376572e-06
000070 ce 11 9c 34 ce 11 9c 34 a1 50 df 34 c7 b3 85 34
       2.907022e-07 2.907022e-07 4.1595652e-07 2.4903986e-07
000080 35 78 10 35 35 78 10 35 ef 9f e9 34 b4 3e 30 34
       5.3819105e-07 5.3819105e-07 4.3516e-07 1.6414089e-07
000090 45 6b 0d 34 45 6b 0d 34 3f 58 af 35 d6 0f cd 34
       1.3170673e-07 1.3170673e-07 1.3064199e-06 3.8195748e-07
0000a0 c8 a6 33 35 c8 a6 33 35 48 ad 18 35 ea 23 b1 34
       6.6925395e-07 6.6925395e-07 5.687657e-07 3.299495e-07
0000b0 c8 19 93 35 c8 19 93 35 26 75 f8 35 5c b4 ef 34
       1.0959857e-06 1.0959857e-06 1.8511535e-06 4.4648448e-07
0000c0 24 25 17 36 24 25 17 36 45 f6 6c 35 ef 54 0f 36
       2.2522372e-06 2.2522372e-06 8.827522e-07 2.1358098e-06
0000d0 b3 44 ce 34 b3 44 ce 34 4a d8 67 34 45 f3 a5 34
       3.8420475e-07 3.8420475e-07 2.1592237e-07 3.0910647e-07
0000e0 23 91 9d 36 23 91 9d 36 5c 5a 9a 35 81 e4 9b 36
       4.6958608e-06 4.6958608e-06 1.1500192e-06 4.6459613e-06
0000f0 8b ba 2f 35 8b ba 2f 35 eb e9 1b 35 b7 41 2d 34
       6.5464036e-07 6.5464036e-07 5.8082395e-07 1.6135787e-07
000100 c7 af ee 34 c7 af ee 34 16 d5 02 36 12 d9 33 35
       4.445885e-07 4.445885e-07 1.9495542e-06 6.6998575e-07
000110 9a 75 80 36 9a 75 80 36 f3 e0 1b 37 e0 2e 07 36
       3.828388e-06 3.828388e-06 9.291095e-06 2.0143852e-06
000120 00 00 00 00 00 00 00 00 39 63 20 35 45 31 66 34
       0.0 0.0 5.974903e-07 2.1438343e-07
000130 00 00 00 00 00 00 00 00 00 00 00 00 00 00 00 00
       0.0 0.0 0.0 0.0
000140 b8 3d 09 36 b8 3d 09 36 00 7b 94 36 21 24 9a 35
       2.0450516e-06 2.0450516e-06 4.425063e-06 1.1484409e-06
000150 75 98 fc 33 75 98 fc 33 1c 69 a4 34 2b 30 13 34
       1.1762396e-07 1.1762396e-07 3.0623858e-07 1.3707965e-07
000160 40 51 5d 34 40 51 5d 34 5d d8 25 34 3c 82 e6 33
       2.0611787e-07 2.0611787e-07 1.5445535e-07 1.0733899e-07
000170 7c 8e 15 34 7c 8e 15 34 80 44 d6 33 d1 47 14 33
       1.3928542e-07 1.3928542e-07 9.9776116e-08 3.4524252e-08
000180 94 a0 b5 35 94 a0 b5 35 25 a5 84 35 9a a2 63 35
       1.3532285e-06 1.3532285e-06 9.88283e-07 8.4800706e-07
000190 00 00 00 00 00 00 00 00 00 00 00 00 00 00 00 00
       0.0 0.0 0.0 0.0
0001a0 3c 8d 51 35 3c 8d 51 35 00 80 c1 35 c2 f9 be 35
       7.806409e-07 7.806409e-07 1.4416873e-06 1.4228792e-06
0001b0 e9 f7 a7 36 e9 f7 a7 36 70 4e 9b 36 9d 5e 7e 36
       5.0058484e-06 5.0058484e-06 4.6284913e-06 3.7904022e-06
0001c0 55 80 26 35 55 80 26 35 c1 e2 6f 34 c3 ac 14 35
       6.2026567e-07 6.2026567e-07 2.2341102e-07 5.53857e-07
0001d0 ba 90 b8 34 ba 90 b8 34 08 12 44 35 11 d5 57 35
       3.4377973e-07 3.4377973e-07 7.304193e-07 8.0403794e-07
0001e0 92 03 bf 35 92 03 bf 35 af fb a9 35 df 46 03 35
       1.4231648e-06 1.4231648e-06 1.2664731e-06 4.8904434e-07
0001f0 b4 8e b3 35 b4 8e b3 35 89 fe c0 35 e6 02 05 35
       1.3378071e-06 1.3378071e-06 1.4379194e-06 4.955058e-07
000200 2a 45 be 33 2a 45 be 33 c1 65 71 33 ed 51 e7 32
       8.860145e-08 8.860145e-08 5.620473e-08 2.6929195e-08
000210 00 00 00 00 00 00 00 00 c7 14 38 37 4e 60 0b 38
       0.0 0.0 1.0972092e-05 3.3229873e-05
000220 b9 ee c0 35 b9 ee c0 35 5e b2 b6 35 f6 b4 a8 35
       1.4374592e-06 1.4374592e-06 1.3611968e-06 1.2569642e-06
000230 05 0b a8 36 05 0b a8 36 16 7d 26 36 ba f0 40 36
       5.008073e-06 5.008073e-06 2.4808737e-06 2.875035e-06
000240 d6 44 b2 36 d6 44 b2 36 1a 4b cd 36 6e be 7a 36
       5.312827e-06 5.312827e-06 6.118219e-06 3.7363748e-06
000250 00 00 00 00 00 00 00 00 aa 23 11 35 ef 21 17 34
       0.0 0.0 5.406861e-07 1.4075316e-07
000260 e1 68 0c 35 e1 68 0c 35 41 76 06 34 dc e5 42 34
       5.2306683e-07 5.2306683e-07 1.2522743e-07 1.815128e-07
000270 13 64 3e 35 13 64 3e 35 da 26 67 35 22 86 d0 34
       7.092614e-07 7.092614e-07 8.611074e-07 3.8840614e-07
000280 cd 79 98 35 cd 79 98 35 cf b6 52 35 49 78 f4 34
       1.1360331e-06 1.1360331e-06 7.849712e-07 4.553606e-07
000290 fc d1 1b 36 fc d1 1b 36 1e 63 77 35 7b 43 b3 35
       2.3219027e-06 2.3219027e-06 9.2158905e-07 1.3356179e-06
0002a0 d4 2f cd 34 d4 2f cd 34 70 47 b3 34 26 ac a9 34
       3.8219025e-07 3.8219025e-07 3.3393326e-07 3.1603957e-07
0002b0 3f 80 58 35 3f 80 58 35 37 a7 09 35 7d 8f 47 35
       8.0652893e-07 8.0652893e-07 5.1279807e-07 7.434208e-07
0002c0 00 00 00 00 00 00 00 00 2b 8c 7d 34 32 9c a8 33
       0.0 0.0 2.3613454e-07 7.8515214e-08
0002d0 06 44 27 35 06 44 27 35 98 0b 30 35 4c 43 3a 34
       6.2311335e-07 6.2311335e-07 6.558198e-07 1.7347082e-07
0002e0 48 46 d3 34 48 46 d3 34 24 7e c6 35 06 85 d6 34
       3.935295e-07 3.935295e-07 1.4788861e-06 3.9957393e-07
0002f0 77 9f 23 35 77 9f 23 35 2a 7a a5 34 2b f7 e4 34
       6.0954284e-07 6.0954284e-07 3.082253e-07 4.2648148e-07
000300 be a8 5b 35 be a8 5b 35 d1 e7 0d 35 4f e7 0f 35
       8.182941e-07 8.182941e-07 5.286393e-07 5.360825e-07
000310 22 1e da 35 22 1e da 35 63 ea fb 35 ad 99 09 35
       1.6251036e-06 1.6251036e-06 1.8769173e-06 5.1260105e-07
000320 c5 2f 9e 35 c5 2f 9e 35 01 3a 2b 36 e2 8b 9b 35
       1.178582e-06 1.178582e-06 2.5514748e-06 1.1589111e-06
000330 00 00 00 00 00 00 00 00 00 00 00 00 00 00 00 00
       0.0 0.0 0.0 0.0
000340 0b 0d 67 35 0b 0d 67 35 6d 95 c8 36 01 f9 d2 35
       8.6073186e-07 8.6073186e-07 5.97786e-06 1.5718689e-06
000350 a9 06 74 35 a9 06 74 35 07 d1 1c 35 ac 2d aa 34
       9.0906775e-07 9.0906775e-07 5.8418703e-07 3.1698198e-07
000360 bc 14 3e 35 bc 14 3e 35 c6 68 95 35 76 0b b8 34
       7.081069e-07 7.081069e-07 1.1131858e-06 3.428101e-07
000370 00 00 00 00 00 00 00 00 41 fc 65 33 e2 72 71 32
       0.0 0.0 5.354764e-08 1.4054168e-08
000380 58 f0 89 35 58 f0 89 35 83 63 09 35 41 5c 5c 35
       1.0277245e-06 1.0277245e-06 5.1181286e-07 8.2090634e-07
000390 08 6c b8 35 08 6c b8 35 4a 75 d4 35 20 4b 02 35
       1.374051e-06 1.374051e-06 1.5829366e-06 4.8538095e-07
0003a0 fd 44 03 37 fd 44 03 37 a3 3e 1e 36 70 e1 29 37
       7.824271e-06 7.824271e-06 2.3580294e-06 1.0125674e-05
0003b0 53 38 cd 34 53 38 cd 34 09 64 04 35 65 9a 51 34
       3.8225207e-07 3.8225207e-07 4.93194e-07 1.952081e-07
0003c0 a0 1c 53 36 a0 1c 53 36 a4 89 78 35 bd fe f8 34
       3.1458112e-06 3.1458112e-06 9.2587493e-07 4.6378946e-07
0003d0 5f 75 88 35 5f 75 88 35 f1 be b9 34 1a 4f 28 35
       1.0166949e-06 1.0166949e-06 3.4597863e-07 6.2699985e-07
0003e0 a2 4a 1a 35 a2 4a 1a 35 63 f4 8a 34 e8 53 37 35
       5.7478076e-07 5.7478076e-07 2.5882318e-07 6.829491e-07
0003f0 00 00 00 00 00 00 00 00 00 00 00 00 00 00 00 00
       0.0 0.0 0.0 0.0

exp_avg f4 [64]
000000 0b e0 b3 38 57 de 23 b9 b5 99 a2 39 62 9f 92 38
       8.5771164e-05 -0.0001562772 0.00031013569 6.99151e-05
000010 00 00 00 00 b9 37 f5 b8 3c ef 34 3a b7 9c 83 b8
       0.0 -0.000116928895 0.0006902104 -6.275757e-05
000020 dd 6c 22 b8 a1 cc 6d 38 c0 0e 81 b7 06 e4 f9 38
       -3.8725197e-05 5.669578e-05 -1.5384867e-05 0.00011915718
000030 a3 90 85 39 ae 5d 60 b8 43 5d 03 ba 9c 10 2b 39
       0.000254755 -5.3493008e-05 -0.00050111505 0.00016314018
000040 e6 49 8b 38 86 bd 83 b9 ee 57 46 b7 00 00 00 00
       6.641801e-05 -0.00025127473 -1.1822192e-05 0.0
000050 af c7 16 b9 b0 60 a7 38 82 b3 7a 38 f3 9e 3d 38
       -0.00014379503 7.98119e-05 5.9771824e-05 4.5209144e-05
000060 cf a8 23 39 00 00 00 00 c2 d8 55 34 ef e9 5e ba
       0.00015607777 0.0 1.9916027e-07 -0.0008503487
000070 65 2a 16 39 ef 6b df 37 5d 3a 95 b9 c3 a3 44 39
       0.00014320908 2.6633932e-05 -0.0002846298 0.00018753023
000080 f0 87 4f b8 73 e6 3a 3a 54 8f f7 38 be 55 cb 39
       -4.9479248e-05 0.00071296765 0.00011804575 0.0003878306
000090 36 a4 b2 39 3c b7 8f 39 f1 2d 53 b8 fc 8f a6 b8
       0.00034073152 0.00027411606 -5.0349106e-05 -7.942316e-05
0000a0 9e 24 cf 38 3a 6a 26 39 1d 71 11 b9 2b cf 04 b7
       9.87735e-05 0.00015870566 -0.00013870416 -7.916048e-06
0000b0 59 d3 e8 b7 2f 3c cf b8 e9 df 24 b9 38 74 99 b8
       -2.7754972e-05 -9.881739e-05 -0.00015723672 -7.317256e-05
0000c0 3b d3 80 b8 a1 36 38 b9 96 36 c3 b9 00 00 00 00
       -6.1428604e-05 -0.00017567958 -0.00037233968 0.0
0000d0 ac f0 0b 3a 61 50 bb 38 69 51 00 b9 5c d6 0c b8
       0.0005338292 8.9318266e-05 -0.00012237359 -3.357824e-05
0000e0 d6 20 ca b8 da d5 9c 36 8f c2 05 ba 2b 6e 82 38
       -9.638227e-05 4.674058e-06 -0.0005102539 6.2194034e-05
0000f0 02 72 69 b8 75 3a a2 b7 ff cb 4e 38 00 00 00 00
       -5.5657707e-05 -1.9339126e-05 4.9304213e-05 0.0

exp_avg_sq f4 [64]
000000 39 09 30 35 53 6f 69 36 4c 43 b8 36 05 13 6f 36
       6.557853e-07 3.4784505e-06 5.4914617e-06 3.5624846e-06
000010 00 00 00 00 13 57 74 35 3f f1 65 37 70 e9 38 35
       0.0 9.1023793e-07 1.3705633e-05 6.888504e-07
000020 81 56 11 36 25 54 ef 35 9e f2 cc 35 51 1a 8a 36
       2.1657036e-06 1.7831377e-06 1.5269795e-06 4.115784e-06
000030 3a 0e 5f 36 58 c2 28 35 9c d8 c7 36 42 4b 58 35
       3.323787e-06 6.2867684e-07 5.955879e-06 8.0575785e-07
000040 3a d6 21 36 4c 1a 2d 37 e2 a9 8f 35 00 00 00 00
       2.4115566e-06 1.0317726e-05 1.0703773e-06 0.0
000050 be 9d b0 36 9d 47 d1 34 8c 61 84 34 f5 9c 1a 34
       5.2635723e-06 3.898139e-07 2.465789e-07 1.4399468e-07
000060 10 6f 58 36 00 00 00 00 b4 86 28 36 c0 91 0c 37
       3.2251155e-06 0.0 2.5112358e-06 8.378585e-06
000070 16 4a 4c 35 b9 bf ba 35 97 96 1e 36 3e 6e 04 36
       7.610373e-07 1.3913879e-06 2.363149e-06 1.9733702e-06
000080 2c 45 be 33 ec 22 11 38 6f ca 18 36 2f ea d3 36
       8.860147e-08 3.4603218e-05 2.2767597e-06 6.3155526e-06
000090 80 96 20 37 42 88 20 35 32 0c 2d 35 95 7a 10 36
       9.571784e-06 5.9802926e-07 6.446527e-07 2.1529024e-06
0000a0 ff 44 ca 35 92 d3 2a 36 d1 d3 1a 35 29 8d a4 35
       1.5070253e-06 2.5455124e-06 5.7677704e-07 1.2260035e-06
0000b0 12 0b ae 34 ca 4f 63 35 a5 34 f7 35 50 5c 91 35
       3.241808e-07 8.46802e-07 1.8418256e-06 1.0830208e-06
0000c0 06 05 a1 35 1a 11 59 36 84 6b 68 36 00 00 00 00
       1.1996897e-06 3.2345474e-06 3.4633276e-06 0.0
0000d0 09 ac dc 36 26 0e 02 36 bc 99 02 36 7e c5 aa 33
       6.5765385e-06 1.9379745e-06 1.9460995e-06 7.9521655e-08
0000e0 1c 39 e2 35 19 84 2e 36 32 5e 34 37 58 1b 5b 35
       1.6854933e-06 2.6004911e-06 1.0750768e-05 8.162365e-07
0000f0 cb 60 88 36 30 66 9e 35 01 c3 60 35 00 00 00 00
       4.064384e-06 1.1801658e-06 8.373027e-07 0.0
