log/wn:none/version_None/checkpoints/epoch=2499-step=4999.ckpt (torch, 113296 bytes, 21 tensors)

dec.lin0.weight f4 [64, 4]
00000000: 332f 0fbe e31c a53d 616a a6be dcd6 883e
00000010: 523e 82be 81c5 093f f541 d1be 2136 16bf
00000020: 2ac9 b1be 0bd6 473e b34c 79be 202d 3f3e
00000030: 63bc a9be be90 57be d591 07be 9019 53be
00000040: 044b c3be 5ea0 a73e b87d f1bd 8058 243e
00000050: 238f b63e 8fe6 c43d f280 1a3e 6c6e 133f
00000060: b359 80be 2f64 083e b174 d2be b8f6 803e
00000070: 3b44 a23e 551b 0bbf 3d25 173f 8510 833e
00000080: 353f 4b3e 65e9 3e3e 4b00 bf3e 0ed4 b63b
00000090: 594b d0be 7e82 02be 3022 debe 9e3a 60bc
000000a0: 6485 27bc 3581 3dbe 0bfa 8cbd 487b 003f
000000b0: c7e6 06be d185 9cbd da53 05be ecfe 973d
000000c0: 0f48 d73e 73b9 8f3e 228a f33d ea03 413e
000000d0: 5785 9c3d 4e56 1b3e d35a 73bd 64f8 00bf
000000e0: 1ee8 91be b8ec e63e 30a3 8d3d 4b6e fcbe
000000f0: fcb3 9a3d b9d2 d13e a9e9 03bf 2da4 cdbe
00000100: 901f 17be fbad 923d 75f6 ffbd 7c96 aebd
00000110: 256c 06bf 7f36 493e 26c1 ec3e 8cbc 423e
00000120: 2a48 b5be ca5c cebe c992 8f3e 94f0 20be
00000130: 78e2 513e 9826 fabe 4037 f4bc da8a b43e
00000140: 702c 873e 3116 4e3d 8f68 3a3e 5ef0 af3b
00000150: 915a 0bbe b84a 4dbd dd3d 06bf c408 bc3e
00000160: 0aa3 873e fc95 283e 8654 b3be 9e57 f83e
00000170: 8e66 4b3e 5688 c63e 443e 9abe 4e9b 623e
00000180: 1a9a e93e 4cd9 9b3e 8f7a 043f e415 e53b
00000190: 620a c33e e881 c8be 2021 313d 5e24 90be
000001a0: 2459 18be 5b10 24be 69fc 133e 95e4 053f
000001b0: 4d1b 903e e63e 023d 3bf8 f33e a608 94be
000001c0: 7e73 863e f5c9 29bd 78fa dcbd 39b2 d13d
000001d0: 2b58 cdbe 58df 223d 7448 803e 4e00 f13e
000001e0: aab8 34be 3a05 233e 2839 1a3f ee65 42be
000001f0: f558 ee3e 151b 84be eced 9e3e 362d 7f3e
00000200: 7e34 ba3d 4a7d b13e 06dc 31be 5857 473e
00000210: 4f88 aa3c 9953 b7be 9f83 1abe 4890 03bf
00000220: 90b8 3f3e f0d3 353c 29e2 e53d 497b 8dbd
00000230: 7ac1 493e a128 203d b833 9f3e 8f41 233f
00000240: a0a3 943d db01 66be 1911 afbe 7706 f93b
00000250: a2e9 bdbe 266c c0be 6e7f ccbe bbf6 1bbe
00000260: 24f9 1cbc 416e 983e 0e21 8d3e 3808 023f
00000270: 70d5 bbbe 75a2 2fbc aa93 03bf 6369 9b3e
00000280: 08eb 9d3d d2bb e93e f3b3 c2be 1b6c e93e
00000290: 5305 d93e 1be1 cf3e 5bc4 1b3d 1b72 fd3e
000002a0: 5769 873e 2971 9b3e 9fba 653c 498e c8be
000002b0: 4871 f9bc f36b 8e3d adb8 d4be d397 91be
000002c0: 6870 f5be f47a 33be 9d35 ec3e 16f0 b23d
000002d0: 1b15 4bbd 6d1c 883a e5e8 b93e 8142 bfbe
000002e0: 39cd bdbe 0fc6 1abe 2197 81be 2e4e 893e
000002f0: 1ef7 d13e 434c dbbe a7a4 fbbe 0bcf bdbe
00000300: 9b15 283e 1782 c13e 010c edbe c4ad 67be
00000310: 1c00 023e 0ca1 b7be 9c7d 043f 2827 213e
00000320: 91f9 2ebe 2c08 503a 244a 763e 7036 8cbe
00000330: f45c c6be 0041 5c3b 8037 153c 8031 253c
00000340: c5a6 04bd ce25 b93e 2c93 efbc 649a 25be
00000350: 0b11 213e e1dd b9be ce9c 103e 8b0e 7cbe
00000360: e6ad 5f3e 03d4 95be ac0f d83d 5617 ca3c
00000370: 0afa cdbe fe25 babe 8586 923e 53a8 36be
00000380: 316f d73e fb7e bdbe f5f9 9bbe e914 01bf
00000390: 539e 373e 4204 0fbd 665e c6bd ac9d bbbd
000003a0: 7abd c3be 89ec 193e 01cd 1e3d d410 10bf
000003b0: df81 073e ece2 86bd 337f fabe eaa4 b13e
000003c0: 5b48 a33e 920d 2fbd 1f89 cebe 5f5a 86bd
000003d0: b655 b93e 487d e23e 4759 b9be ade4 b2be
000003e0: e724 b43e 05e3 533e 0ff8 b43e 1fae 8ebe
000003f0: 868d dc3e ea72 d2be c04c c5bc 0017 2a3c
-0.13982849 0.0806215 -0.32503036 0.26726425 -0.25438172 0.5381699 -0.40870634 -0.58676344
-0.34723788 0.19515245 -0.24345665 0.18669558 -0.3315154 -0.21051309 -0.13239224 -0.2061522
-0.3814317 0.32739538 -0.11791557 0.16049385 0.3565608 0.09614288 0.15088251 0.57590365
-0.25068435 0.13319467 -0.41104653 0.2518823 0.3169268 -0.5433858 0.59041196 0.2559854
0.1984833 0.1864372 0.3730491 0.005579478 -0.40682486 -0.12745091 -0.43385458 -0.01368585
-0.010224674 -0.1850632 -0.068836294 0.5018811 -0.13173972 -0.07642711 -0.13020268 0.07421669
0.42047164 0.28071174 0.11891581 0.1884915 0.0764262 0.15169641 -0.05941279 -0.50379014
-0.28497404 0.45102477 0.06915891 -0.49302897 0.075538605 0.4098108 -0.5152841 -0.4016432
-0.14758134 0.071620904 -0.1249818 -0.08524796 -0.52508765 0.19649695 0.4624111 0.19017237
-0.3540662 -0.40305167 0.28041676 -0.15716773 0.20496547 -0.4885757 -0.029811502 0.35262185
0.2640109 0.050314132 0.18203948 0.00536923 -0.13608767 -0.050120085 -0.52438146 0.36725438
0.26491576 0.16463464 -0.35025424 0.48504347 0.1986334 0.3877589 -0.3012563 0.22129557
0.45625383 0.30439222 0.5174951 0.006991135 0.3809386 -0.3916161 0.04324448 -0.28152746
-0.14877754 -0.16021864 0.14451756 0.52301913 0.2814583 0.031798266 0.47650322 -0.28912848
0.2625999 -0.041452367 -0.107899606 0.102390714 -0.4010633 0.03976378 0.25055277 0.47070545
-0.17648569 0.15919963 0.60243464 -0.18984196 0.46552244 -0.25801912 0.31040895 0.2491959
0.09092043 0.346659 -0.17369089 0.19466913 0.02081695 -0.35805967 -0.15089272 -0.5139203
0.18722749 0.011097893 0.11224777 -0.069082804 0.19702712 0.039101247 0.31094146 0.6377191
0.072577715 -0.22461645 -0.34192732 0.0075996476 -0.3709231 -0.3758251 -0.3994097 -0.15230839
-0.009580884 0.29771617 0.2756428 0.5079379 -0.36686277 -0.010719885 -0.5139719 0.3035384
0.07710844 0.45651108 -0.38027915 0.4559029 0.42386875 0.4060143 0.038029056 0.49501118
0.26447555 0.30359772 0.014021545 -0.39171055 -0.030449525 0.069541834 -0.41547146 -0.28436145
-0.47937322 -0.17527372 0.46134654 0.08737199 -0.049580675 0.0010384448 0.36310497 -0.37355426
-0.37070635 -0.15114616 -0.25310615 0.2681746 0.41008848 -0.4283162 -0.49149057 -0.37072024
0.16414492 0.37794563 -0.4629822 -0.2262488 0.12695354 -0.35865057 0.51754165 0.15737593
-0.1708739 0.0007935788 0.2405172 -0.27385283 -0.38742793 0.003360808 0.0091074705 0.0100826025
-0.032385606 0.36161655 -0.029244982 -0.16172177 0.15729158 -0.36302093 0.14122316 -0.24614923
0.2184368 -0.29263315 0.10549864 0.02466933 -0.40229827 -0.3635711 0.28618255 -0.17837648
0.4207702 -0.3701094 -0.3046414 -0.5042253 0.1793149 -0.03491617 -0.09685974 -0.09160933
-0.38230497 0.15031637 0.038769726 -0.5627568 0.13233136 -0.06586251 -0.4892517 0.34696132
0.3189114 -0.04273755 -0.4033899 -0.06560206 0.36198205 0.44236207 -0.36200926 -0.3494009
0.35184404 0.2069207 0.35345504 -0.2786722 0.43076724 -0.41103297 -0.024084449 0.01038146

dec.lin0.bias f4 [64]
00000000: 2761 0c3e 2d85 aabe 2109 ef3e 5b66 083f
00000010: a6cb b0be ab6b e73b 162c 99be ed2b c93e
00000020: 6627 a73e 45d8 c03e 7b6a 463e acfb d8bc
00000030: c699 9c3e b8c7 46bd 6d27 94be d221 803e
00000040: 98f5 133e 0cd1 efbd cbf9 4dbd 1464 e2be
00000050: 9820 21be bc77 09be ad6a 77be 6008 cbbe
00000060: aedc e83e f8c8 e4be b707 043f a034 35be
00000070: 6e60 57bc d6cc d33e e4de de3d b80e 3fbe
00000080: fe0c e7be 3e58 2abe eb40 d03e ff0f 84be
00000090: 89d4 e83e 031b 06be 3530 73bd b191 223e
000000a0: 1275 b7bd eb10 043e 0b81 b43e 4d79 2b3e
000000b0: 2448 5b3b 2fcc 0d3e 1233 053f 10e5 2d3e
000000c0: 857a 1fbe fa15 043e 03ce 46bd 9e25 c8be
000000d0: 2abc 35be d80b 923e 135a bf3c 4ba0 b13d
000000e0: 176d 86be cc94 eb3e 6aad 21be 3820 ed3d
000000f0: f415 4dbe 4c73 88be d86b 5b3e 9ceb 0ebe
0.13708936 -0.3330473 0.46686652 0.5328118 -0.3453037 0.0070623956 -0.29916447 0.39291325
0.32647246 0.37665 0.19376557 -0.026487194 0.3058607 -0.04853031 -0.2893633 0.25025803
0.14449155 -0.117097944 -0.05028705 -0.4421698 -0.1573509 -0.13424581 -0.24161787 -0.39654827
0.45480865 -0.44684577 0.5157427 -0.17695856 -0.013145549 0.41367215 0.10882357 -0.18657959
-0.451271 -0.16635224 0.40674528 -0.25793454 0.4547465 -0.13096242 -0.059372146 0.1587589
-0.08957876 0.12897079 0.35254702 0.16745491 0.0033459747 0.13847421 0.5203105 0.16981912
-0.15574081 0.12899008 -0.04853631 -0.390912 -0.1774756 0.2852466 0.02335838 0.086731516
-0.26255104 0.4601196 -0.15788808 0.11578411 -0.20027906 -0.26650465 0.21427858 -0.13957065

dec.lin1.weight f4 [64, 64]
00000000: 8244 1ebd b0a1 b1bc 1a35 b63d 686a b03d
00000010: 0ed4 9b3d 1b1c c8bd 62c7 bb3d 38a4 eb3c
00000020: 024f dbbd 1ec0 d4bc f176 d33c 5dec 7c3c
00000030: d2f5 8bbd dab7 aa3d 1911 0b3d b764 42bc
00000040: 51e4 8abd 4a9c 6fbc e9d3 5a3e a08b 3e3d
00000050: 2169 1fbe e079 da3d 4f67 18bd 7d46 cbbd
00000060: 985a 19be 7009 503d b1bd 39bd 598e b13d
00000070: a5cd dd3d 9f61 2f3d 1d61 113e d1f0 c3bd
00000080: 6354 fc3d 48ac ddbd 70bc d0bc 41c8 4cbe
00000090: d745 80bd 44f4 3d3e f27a 993c 359e 8a3c
000000a0: 56fc f93d 1a12 a03d f320 9cbd 731b 743c
000000b0: 62c7 b63d 64f4 fc3d 3dbd 9f3d 0701 d93d
000000c0: fbe0 b83d f8be 4dbd 673f 143e 04f6 07bd
000000d0: 043c 9a3d 0a09 963d a5ff 7dbd a654 f13c
000000e0: cb4d 613d b63f e53c 0ddf a73a d36d ed3c
000000f0: 0cc8 453e 10ee 703d cfc4 403d 08ec a13c
00000100: f579 6abe 16b3 463e 7dc9 c8bd 26f9 91bd
00000110: 00ad bf3a 77fb 7f3d a9ef 4c3d 8bd9 9c3c
00000120: e0a2 06bd 0aff 13be b27f 963c 11d5 c03c
00000130: 1a48 b8bd e0b0 9c3d 3a83 e0bc 170d babd
00000140: 7feb ad3d 4be8 60bd 64a9 1c3a de93 c23d
00000150: 6b53 cabd 2f6b d23d 1851 8d3d 264a 05be
00000160: 8436 0f3e 8e64 cb3d eb67 073e 149e 7a3d
00000170: ad57 57bd 9562 0f3e d400 49bd 825b 70bd
00000180: 4e47 e9bd 440e 09be 2c43 033d 3fac ce3d
00000190: a014 e13c 4834 97bc 159a bf3d c812 13be
000001a0: 9228 eebd fd6d b1bd 35e0 993d 32e9 ba3d
000001b0: a277 ef3c e48f a23d 2cad 05be f988 55bc
000001c0: 1474 273c 8a3f 143d 7a8f b4bc 7834 703d
000001d0: 1d1b 1bbc f604 e5bc fde1 193e 2aa0 6abd
000001e0: fa7c ad3d 8df8 f33d 2928 17bd 4bef 2fbe
000001f0: 58fe 933d 39e7 b8bd 880a 923d 2c2b ccbd
00000200: b6ce c7bd 3880 0a3d 3c36 03bd 009b e2bd
00000210: 80c7 473d 08da 343d 30ff 893c 4a48 a73d
00000220: 4491 4dbd 7ca8 e93d 861c c3bd 1cd4 e63d
00000230: 7a38 be3d 08b9 e3bd 70e9 35bc 5eb7 89bd
00000240: 4ae4 fb3d 40e4 aabb 26cb 963d 7453 dd3d
00000250: f467 c5bd c89e 9b3d 4cb0 debd e446 0abd
00000260: cc72 4ebd 1e6e efbd 6421 f1bd 74d0 f6bd
00000270: 4006 c6bd 9a0b 8fbd 7cc2 28bd 063a 8f3d
00000280: 009c a4bc 3077 fdbd 04f3 b9bd fcb8 b73d
00000290: 66cd f9bd 88d6 7bbd b6ae e7bd e2bc 893d
000002a0: 68fc ae3d 3035 333c fcb1 80bd f040 f8bc
000002b0: a0bd ee3b 8093 563d 8083 0d3b f8b7 6ebd
000002c0: 606b c63b 80f6 7a3b 00b7 983a b8b3 5e3d
000002d0: 80f5 40bd 20fd 003c 00b7 0b3a e425 583d
000002e0: c0b5 9cbd c424 c8bd fa59 d0bd 7c1b 573d
000002f0: d2a9 cb3d b6e9 fd3d dcd3 363d 88c5 d0bc
00000300: 317e a6bb 79f9 10bf f2a7 a03b b002 8dbd
00000310: 1079 1bbc bfc8 fe3d 416d 923b d963 22be
00000320: d977 1a3c 0cf0 51be d74c dabd cdaf f93d
00000330: b533 6fbd 79e2 223e 4a88 593d f2aa b8bd
00000340: eb82 0c3c c4c8 8d3d 7d15 843e 825a c53d
00000350: e2a5 f73d 632b b13d cafa 693c a903 09be
00000360: 8e91 e63d 4cf6 223d 266d 5fbc 6124 963d
00000370: d9e5 213e 9afd 813c 7809 4b3d 0044 013e
00000380: ea57 3abd 2c9b 973d bac8 b23c 48d0 9abe
00000390: 7d34 4bbc 6dfa 393e 33e6 0b3d f620 5a3d
000003a0: 7d51 1f3e 1779 9c3d 157e 10be 5976 ac3d
000003b0: 4a08 233e be42 1a3c 722c 3ebc 1bb0 15bd
000003c0: 5222 b4bd c623 e93d ed3a 82bd 10d2 9abd
000003d0: 1a0f 1dbd 8788 73be aefc a23d 2330 fe3d
000003e0: d3c1 9ebb c22c 813d 2321 163e 54e6 d23d
000003f0: 8b4b 723d 4cb6 e4bd 5a7e 99bd 00d1 f63c
-0.038639553 -0.021683544 0.08896847 0.086140454 0.076088056 -0.09770986 0.09168889 0.028764829
-0.10708429 -0.025970515 0.025813552 0.015437213 -0.06833996 0.08335848 0.033951852 -0.011864833
-0.06781829 -0.014624665 0.213699 0.046519876 -0.15567447 0.10667777 -0.037207898 -0.09925554
-0.14975965 0.05079025 -0.04534692 0.08669729 0.10830239 0.042817708 0.14197202 -0.095674165
0.12320783 -0.10823876 -0.025480479 -0.19998266 -0.06263321 0.18550211 0.018735383 0.016921142
0.122063324 0.078159526 -0.07623472 0.0148991225 0.08924748 0.12351301 0.07799766 0.10595899
0.090272866 -0.05023095 0.14477311 -0.033193603 0.07530978 0.07325943 -0.06201138 0.029459309
0.05500583 0.027984481 0.0012807563 0.028983032 0.19314593 0.058820784 0.04706269 0.019765869
-0.22898085 0.19404253 -0.09804056 -0.071275994 0.0014623702 0.062495675 0.050033245 0.019146701
-0.032870173 -0.14452758 0.018371437 0.023539098 -0.08998127 0.07650924 -0.027406324 -0.09084528
0.08492183 -0.05490903 0.0005976169 0.0950086 -0.09879192 0.1027435 0.06900233 -0.13016567
0.1398564 0.09931289 0.13223235 0.06118591 -0.05257385 0.1400245 -0.049073055 -0.05868102
-0.113905534 -0.13384348 0.032046482 0.10091447 0.027475655 -0.018457547 0.09355561 -0.14362633
-0.11628832 -0.08663557 0.07513467 0.0912651 0.02923185 0.07937601 -0.13054341 -0.013033145
0.010220546 0.036193408 -0.022041071 0.058643788 -0.0094669135 -0.027956467 0.15027614 -0.05728165
0.08471103 0.11912642 -0.036903534 -0.17181127 0.072262466 -0.09028477 0.07130915 -0.09969172
-0.09756224 0.033813685 -0.032034144 -0.1106472 0.048774242 0.044153243 0.016845316 0.08168085
-0.050187364 0.11409089 -0.09526925 0.112709254 0.09288116 -0.11119276 -0.011103019 -0.06724428
0.12299402 -0.005215198 0.07362966 0.10806933 -0.09638968 0.075986445 -0.1087347 -0.033759013
-0.050402448 -0.11690925 -0.11773947 -0.12051478 -0.09669161 -0.06984635 -0.0412011 0.06993489
-0.020093918 -0.12376249 -0.09079555 0.0897083 -0.1219738 -0.06148389 -0.1131262 0.0672548
0.085442364 0.010937974 -0.06283948 -0.030304402 0.0072857887 0.05238676 0.0021593273 -0.058280915
0.0060552806 0.0038293898 0.0011651218 0.054370612 -0.047109127 0.00787285 0.00053296983 0.05277051
-0.076518536 -0.097726375 -0.10173412 0.052516446 0.099445 0.123980924 0.04463564 -0.025484815
-0.005080961 -0.56630665 0.004902833 -0.06885278 -0.009489313 0.12440633 0.0044685905 -0.15858401
0.009427988 -0.20501727 -0.10659187 0.121917345 -0.05839892 0.15906705 0.05310849 -0.0901698
0.008576135 0.06923059 0.25797644 0.096364036 0.120921865 0.086508535 0.014280984 -0.13380302
0.11258231 0.03978567 -0.013636863 0.073311575 0.15810336 0.015867997 0.049569577 0.12623596
-0.045493998 0.074026436 0.02182423 -0.3023703 -0.012402651 0.18161936 0.034155082 0.05325409
0.15558429 0.076402836 -0.14110596 0.084210105 0.15921131 0.009415327 -0.011607276 -0.0365449
-0.087956086 0.11383776 -0.063588955 -0.075595975 -0.03834448 -0.2378255 0.07958351 0.12411525
-0.004844883 0.06307365 0.14661078 0.10297838 0.059154075 -0.11167583 -0.07494803 0.030128956

dec.lin1.bias f4 [64]
00000000: 0acf 6e3c 506c 32bb ac88 f43d c6b7 053d
00000010: f8f3 7e3d 9dd6 f63c 9044 c83d b8c9 f23d
00000020: ee9b 0fbe 4330 ae3d 9362 cbbc c756 a8ba
00000030: aa99 ca3d 49d3 a7bd faec 38be 509c 803a
00000040: 5ad9 ecbd 2d6e 913d b11f 61bd b49d 963d
00000050: bc3e 0e3d d5e5 bb3d 13e9 b0bd 6de5 d4bd
00000060: fb8f 5e3d 132e 693d 6622 943c d828 b4bd
00000070: 058b 823d ae95 243d fdbb 6b3d 51e8 3f3d
00000080: 2cfd eb3d 48e2 063d 0d62 8fbd 89cc ea3d
00000090: b958 c0bc 07d9 aa3c 1378 a1bd 7951 88bd
000000a0: a3e9 393d 32e1 753c da06 ab3d bf01 d43c
000000b0: 5552 eebd a586 e63c 7c49 d03d 10f3 423c
000000c0: 8412 25bd e74c b1bd a188 c63d f946 d5bd
000000d0: c11c c73c a74c e93d 8115 f33b 3120 ccbd
000000e0: 9081 0ebc abbb c2bd 608c c6bb 49fd 2e3e
000000f0: b990 d23b 2e0c a53d a5b5 fdbd b517 953d
0.014575729 -0.0027225204 0.119401306 0.032645963 0.062244385 0.030131632 0.09778702 0.11854881
-0.14024326 0.08505299 -0.024827277 -0.0012843244 0.0989259 -0.08194596 -0.1805915 0.000981221
-0.11564894 0.071010925 -0.054961864 0.07354298 0.034727797 0.09174696 -0.086382054 -0.10395322
0.05433653 0.056928705 0.018082809 -0.08796853 0.06374172 0.04018181 0.057552326 0.046852414
0.11522898 0.032930642 -0.070011236 0.11464793 -0.023479806 0.02085544 -0.078842305 -0.06656165
0.04538883 0.015007304 0.08350916 0.025879739 -0.11636797 0.028140375 0.10170266 0.011898771
-0.04030086 -0.08657246 0.09694029 -0.104139276 0.024305703 0.113915734 0.007418335 -0.099670775
-0.008697882 -0.09508451 -0.0060592145 0.17088808 0.0064259437 0.08058964 -0.123881616 0.072799124

dec.lin2.weight f4 [64, 64]
00000000: 36a1 363d dee5 a73d 44fb 3abd b3c7 8ebb
00000010: 8492 2cbd d63a 543c 980f cbbd c865 8ebd
00000020: cd3d 0dbe cb9c 183e b31c a83e f19c cbbc
00000030: 2504 df3c 626e fdbd 9a3f c8bf 36f5 b5ba
00000040: 3610 92bd 3ed1 1bbc 00f8 0b3e 1487 a43d
00000050: e03e 7a3c 1797 9f3d f37f 1f3e 5f4e d1bc
00000060: eee0 8b3c ca76 1f3e 8970 38bd c67d ddbd
00000070: 292f f63d 6661 5fbd e129 553c 15fd 13bd
00000080: 3637 0cbe 69a2 12bc 72d7 a9bc 0f7c 20bc
00000090: 3214 03be adf6 adbd 2400 5b3d 7f9c 803e
000000a0: 3724 e4bd ba29 ee3d 8bc3 f2bb 148e 113d
000000b0: c70e f23b 6050 733d a292 cc3d c339 8a3d
000000c0: 2e6d ecbd 5abd bfbe 4319 223e 4630 01be
000000d0: 0ef2 a6be c73e 2c3c 0431 de3d 50de ccbc
000000e0: 1427 093d a82b ebbd a068 453c 6780 87bd
000000f0: 86c3 a8bd 6998 8a3d 1fdc fc3c 6b11 5dbd
00000100: 0b17 eebd aeaf b73d 80f1 6bbb 9f4b cabc
00000110: 1037 383c a05b 43bd c0fe a8bb 29af 0abe
00000120: 827b e3bd 0994 863c d8c4 5e3d 4227 21bd
00000130: 9aa3 0bbc a8a0 643d eec3 c6bd 08b6 cf3d
00000140: 0a70 f2bd c01c eebb a868 86bc 02dd a8bd
00000150: e016 17bc 7e9f 43bd 9aa0 f9bd 942f 853d
00000160: 4af0 b9bd f804 ac3d 5a55 2ebd d0e9 2bbc
00000170: 3e26 86bd 9040 b93c 8c77 37bd 16af afbd
00000180: e5d0 e1bc f830 77bd 2f0c 9abc 4dd0 733c
00000190: b527 b33d 12ba d13d f24d 893d 7c4c c8bd
000001a0: 43b3 d9bd 672d 803c e3a5 72bd bc13 1d3d
000001b0: 98be 3bbd ec51 f83d 48d9 cfbd fa58 b83d
000001c0: e0e8 e93b c241 c7bd 144c e3bd a00c ff3c
000001d0: 549b 85bd ad01 113c 404b 8fbc 0071 3ebd
000001e0: 065b 8abd 034c e0bb 3630 8cbd 9ffe 943d
000001f0: 9b60 7b3c 8885 d7bc f07c 3abc 0d8c e8bc
00000200: 5968 0c3d 43dd 84bd 1e51 95bd dced 9ebd
00000210: 1270 e93d dcf7 e8bd 8f73 2b3d 0537 3d3d
00000220: fd07 083c d70e 1a3c a46c 7cbc 6549 d33d
00000230: c636 b9bd 1f92 fe3d 62ab 3a3f 9169 0cbd
00000240: b6a8 00bd 2bc5 94bd 9ca1 6b3b ca3a 41bd
00000250: 703a 8fbc 52ad ae3d 5a3b 303c 4a04 9b3d
00000260: 7163 febd 7997 823c 2027 4e3d e449 553d
00000270: a6f1 14be c664 d2bc ba06 e73c 9c81 a73d
00000280: e95e a13d ef29 aa3d ea28 023e 6109 02be
00000290: 0899 a4bd 8557 c7bd 985c cb3c 0207 52be
000002a0: 8343 fa3d 0726 9ebd 192c c9bc 2fa9 58bc
000002b0: 89a8 00bc c4b3 2fbc 459f dc3d 7eb3 613d
000002c0: ba25 9b3d 123c 003d 6c7d 02bd aaed 4fbd
000002d0: e766 983d 7628 41be 4b99 c73d 5e6f 99bc
000002e0: 9c96 d4bd 1df4 3dbe 1a67 a0bd a306 3d3e
000002f0: 3e1f 9b3d 00f5 b53c c027 d6bc c29f 593d
00000300: aff7 8f3c 74e3 47bd 4083 36bc 1153 babc
00000310: bce3 013b fa2f 85bd edfd df3d 3db2 af3d
00000320: 5f6d 853c 339d 0a3e 6474 b63c 75cf f33d
00000330: 61d0 e8bd 39b1 813d d795 34bf 3f86 a5bd
00000340: 24cb 043d 15c1 c13d 6cc3 8b3d dd8d f83d
00000350: 6ee1 af3d 7a48 1dbb 7951 a53c c2bb 6c3d
00000360: 7ee1 90bd 1b4f f93d 4443 adbc be4a e4bd
00000370: 4423 103d 1c1a 563e 8e5f cb3d 8bf8 ed3d
00000380: 2b44 323d 802d 10be 903f 00be 5ee1 49bd
00000390: b142 523d 77a1 e03d 8bb3 88bd 2843 173d
000003a0: bc1a 683d c321 e03d 655c 9b3d 7938 103e
000003b0: 48e6 24bd 933b a23d f78b 7f3d 720f 5dbd
000003c0: f4fe 773d b21a 7abd 8a5c a03d 2d76 e03d
000003d0: 9962 cebc 7640 093d 4bbe ff3b 7333 1fbd
000003e0: 7408 cb3d 3ddb 093e c677 9fbd 05c6 15be
000003f0: 60f2 913d d2b3 7d3d ae74 a0bd c186 96bd
0.044587336 0.081981406 -0.04564978 -0.004357302 -0.042131916 0.012953481 -0.09915084 -0.06953007
-0.13793106 0.14903562 0.32834396 -0.024855109 0.027223656 -0.123745695 -1.564441 -0.0013882283
-0.07131998 -0.009510336 0.13668823 0.080335766 0.01527378 0.0779249 0.15576153 -0.025550066
0.017075028 0.15572658 -0.045029197 -0.10815005 0.12020714 -0.054536246 0.013010473 -0.03613003
-0.13692936 -0.008949854 -0.020732615 -0.009795203 -0.12800673 -0.08494315 0.05346693 0.25119397
-0.1113972 0.116290525 -0.0074085644 0.035535887 0.0073870155 0.059402823 0.099889055 0.067492984
-0.11544262 -0.3744915 0.15829949 -0.12616071 -0.32606548 0.010513014 0.10849193 -0.02500835
0.033484533 -0.11482936 0.01204887 -0.06616288 -0.08240418 0.06767351 0.03086668 -0.05397169
-0.11625489 0.08969055 -0.00360021 -0.024694262 0.011243597 -0.047694802 -0.0051573217 -0.13543381
-0.111075416 0.01642801 0.054386944 -0.03934408 -0.008522892 0.055817276 -0.09705339 0.101421416
-0.11837776 -0.007266611 -0.016407326 -0.08245279 -0.009221762 -0.047759525 -0.121888354 0.065032154
-0.090790346 0.08399385 -0.042561866 -0.010492757 -0.06550263 0.022613794 -0.044791743 -0.08578317
-0.027565429 -0.060349435 -0.018804638 0.014881206 0.08747808 0.10240568 0.0670432 -0.09780213
-0.106298946 0.01564665 -0.059240233 0.0383489 -0.04583606 0.12125 -0.10148865 0.09001346
0.0071383566 -0.09729339 -0.11098495 0.03113395 -0.06523767 0.008850497 -0.017491937 -0.046494484
-0.067556426 -0.006844999 -0.06845133 0.072751276 0.015342857 -0.02630879 -0.0113823265 -0.028387094
0.0342792 -0.06487515 -0.072908625 -0.07760212 0.11398329 -0.113754004 0.041858252 0.04619505
0.008302686 0.009402952 -0.015406761 0.10316733 -0.0904365 0.12430214 0.7291776 -0.034280363
-0.031410895 -0.07264169 0.003595448 -0.047175206 -0.01748392 0.08529152 0.010756338 0.075691774
-0.12421311 0.015941368 0.05033028 0.05207242 -0.14545307 -0.025682818 0.02820145 0.08179018
0.07879431 0.083087794 0.1271092 -0.1269889 -0.08037001 -0.0973349 0.024824426 -0.20510486
0.12219908 -0.07722097 -0.02455716 -0.01322393 -0.007852682 -0.010724012 0.10772566 0.055102818
0.07575555 0.031307288 -0.031857893 -0.050763763 0.07441502 -0.18863091 0.09746035 -0.018729862
-0.10380289 -0.18550153 -0.07832165 0.18459563 0.07574318 0.022211552 -0.026142001 0.053130873
0.01757416 -0.0488009 -0.011139691 -0.022744687 0.0019819578 -0.065032914 0.109371044 0.08578918
0.016287504 0.13536529 0.022272296 0.11904804 -0.1136787 0.06332631 -0.7054114 -0.08082246
0.032420292 0.094606556 0.06824383 0.12136433 0.08587919 -0.0023999498 0.02018045 0.057796247
-0.07074259 0.12173291 -0.021150239 -0.111470684 0.035189882 0.20908397 0.09930335 0.116196714
0.04352204 -0.14079857 -0.12524247 -0.049287193 0.051333133 0.10968297 -0.0667487 0.03692928
0.05666612 0.109439395 0.07585982 0.14084043 -0.040258676 0.07921519 0.06238934 -0.053969808
0.060545877 -0.061060615 0.078301504 0.1096004 -0.0251935 0.03350874 0.007804667 -0.038867425
0.09913722 0.13462539 -0.07786517 -0.1462632 0.071263075 0.06193907 -0.07834755 -0.07349921

dec.lin2.bias f4 [64]
00000000: 1c4d b53d bd8c 78bd 9817 903d aa16 e83d
00000010: eb03 bfbd d659 093d 2267 90bd 863e 58bd
00000020: bece b13d c180 e33c a5eb cc3d f2a2 8ebc
00000030: 4653 8ebd f3c5 c03d d1db 46bd 30e5 b03d
00000040: 6123 853d 2d42 e8bd 020b ef3d 6786 e03c
00000050: 1f9e 37bd 90db bebd 961c 093d cfec 89bb
00000060: 2b96 883d 158e eebc cf88 073d eff6 043d
00000070: 1133 d9bd c60a 05be 103b 0bbd ea69 cdbd
00000080: fea0 8b3d 27bb 26bd 624d e23b f476 41ba
00000090: 2b07 e63d 3438 cc3d 8902 8d3d 0fa1 23bd
000000a0: e198 eebd 6dc2 d63d d884 d8bd bd66 79bc
000000b0: f755 49bd 1310 4e3d 30b4 debd 7dfc 9abc
000000c0: c3d9 073e a1d4 933d 7ecf 083e 426e e8bc
000000d0: 422d a93d 6c1b 07bd ced9 b0bd 64cc cfbd
000000e0: e72d 0a3e 1d48 863d f65f 56bb 05c7 c4bd
000000f0: e5ca 263d 6cf0 fc3c 1b19 c5bd 945a 75bd
0.08852598 -0.060681093 0.0703575 0.11332448 -0.09326919 0.03353294 -0.07050921 -0.052794002
0.08682011 0.027771356 0.10005883 -0.017411683 -0.06949477 0.09412756 -0.048549477 0.08637464
0.065008886 -0.11340747 0.116720214 0.027407838 -0.04482853 -0.09319222 0.033474527 -0.004209138
0.06669267 -0.029120484 0.033089455 0.032462057 -0.10605443 -0.12992391 -0.033991873 -0.10029967
0.06817816 -0.040705826 0.0069061974 -0.0007380091 0.11231836 0.099716574 0.06885249 -0.03994852
-0.11650253 0.104863025 -0.10572213 -0.015222249 -0.049154248 0.0503083 -0.10874212 -0.018919224
0.13266663 0.0721829 0.13360402 -0.028372888 0.08260585 -0.032985136 -0.08635293 -0.10146406
0.13494073 0.06556723 -0.0032711006 -0.096082725 0.04072084 0.03087636 -0.09623929 -0.059900835

dec.lin3.weight f4 [1, 64]
00000000: 1be7 4d3e 72e0 9abc 73b4 49bd 99fd 203d
00000010: 3a75 6b3e 42e9 343d 8caf 103d 86ff 99be
00000020: 0ee4 b73d 99b0 573d 8528 7c3d c0cf 5abd
00000030: 41ff d6be 3e4e 9fbd 983d 0dbd 5558 14bd
00000040: 7fcc 70bd 37cc 7d3d 6a8b a03d 6657 223e
00000050: 1b40 603e 6aa0 3c3d bfb9 30bd 78fd d7bd
00000060: 2a41 263d 85b5 333e b94d 16be f3d4 b53d
00000070: 45c3 0dbc 213b b7bd 0b04 0e3e 9e17 a73d
00000080: a7fc a23d 9007 b03d f107 023e aed3 183e
00000090: f6a2 813d 04bd a43d 7324 723d 38cf 9a3d
000000a0: b659 95bd 1edc 3bbd 9cb4 ebbd e3bc 9ebd
000000b0: 4097 c2bd 3728 cc3d ad61 993c 5772 84be
000000c0: 7ecc 0c3e a8c4 953d 0da5 17be 7a04 113e
000000d0: 025c 00bd c267 22bd 8684 1d3e 1392 a0bd
000000e0: d2c3 dd3d c086 a83d 99c2 e23d 5a5c a2bc
000000f0: f9f4 b43d 706a 02bd 5280 793e 6371 59bd
0.20107691 -0.018905852 -0.049244355 0.03930435 0.22993937 0.044167764 0.035323665 -0.3007776
0.08979045 0.05265865 0.06156208 -0.053420782 -0.41991618 -0.077785954 -0.03448257 -0.036217052
-0.058788773 0.061962333 0.07839091 0.15853652 0.21899454 0.04605142 -0.04314589 -0.10546392
0.04058949 0.17549713 -0.14678086 0.088785075 -0.008652513 -0.08946825 0.1386873 0.081588015
0.07958346 0.085951924 0.12698342 0.149245 0.063299105 0.08043864 0.059116792 0.07559055
-0.07292502 -0.045864217 -0.11509058 -0.07750871 -0.09501505 0.09968608 0.018723333 -0.25868484
0.13749883 0.073129 -0.14809056 0.14161864 -0.031337745 -0.039649732 0.15382585 -0.078403614
0.108283654 0.082288265 0.11072273 -0.019819427 0.08835787 -0.031839788 0.24365357 -0.05308665

exp_avg f4 [64, 4]
00000000: 533e 13b8 533e 13b8 da43 a938 5946 5238
00000010: 4044 5439 4044 5439 f620 59b9 fc8e fab8
00000020: f287 acb7 f287 acb7 164c f938 ddf0 ca38
00000030: 7018 8a38 7018 8a38 0ca2 e938 2f9b 86b7
00000040: 0000 0000 0000 0000 0000 0000 0000 0000
00000050: f2f5 23b8 f2f5 23b8 5d2e 8bb7 2f6e f437
00000060: 63c5 2f37 63c5 2f37 3502 6737 6f70 b0b7
00000070: d6d9 1634 d6d9 1634 daa1 4cb6 072d 19b7
00000080: 47a5 ffb6 47a5 ffb6 445f 79b7 6fb9 2038
00000090: 834c eab7 834c eab7 0458 7c36 a050 1138
000000a0: c5bc 0a37 c5bc 0a37 c64e 0236 16f0 8337
000000b0: 0400 0000 0400 0000 a223 a0b6 587d e0b7
000000c0: cbcb 13b8 cbcb 13b8 6c93 d438 a233 ab38
000000d0: dfd5 b637 dfd5 b637 41b7 4ab8 b8f5 36b8
000000e0: 6d36 2f39 6d36 2f39 eba4 71b9 04f2 30b9
000000f0: 2fea ecb7 2fea ecb7 7a7a 0c35 eb6e f236
00000100: d432 9937 d432 9937 ea46 5838 1eb7 f3b6
00000110: cdaa 0238 cdaa 0238 2321 4c38 acb8 0437
00000120: 0000 0000 0000 0000 d21f 8b38 1880 eab7
00000130: 0000 0000 0000 0000 0000 0000 0000 0000
00000140: 2f91 d7b8 2f91 d7b8 916b 53b7 c6b7 0639
00000150: 28a4 5038 28a4 5038 066b 98b8 4511 2cb8
00000160: 6503 a9b6 6503 a9b6 b906 4238 64af 4938
00000170: 65e7 86b8 65e7 86b8 6284 b838 eca8 fc38
00000180: 5d22 afb7 5d22 afb7 0619 ff37 5749 a636
00000190: 0000 0000 0000 0000 0000 0000 0000 0000
000001a0: 00a8 c3b7 00a8 c3b7 e53d 4a38 b6a8 81b9
000001b0: bfe3 4ab8 bfe3 4ab8 f68d 60b8 a1f1 7d38
000001c0: ec50 eb37 ec50 eb37 0428 1438 44bd 1bb8
000001d0: c14a 15b8 c14a 15b8 26b1 8e38 7f69 40b9
000001e0: cbca 8cb7 cbca 8cb7 c47c 79b8 b98a e2b8
000001f0: 939d b5b8 939d b5b8 94b9 adb8 03e4 9238
00000200: 6bfa 46b6 6bfa 46b6 bf78 9d37 eb69 48b6
00000210: 034e 03b7 034e 03b7 20be 48b9 698c b2b7
00000220: 37a3 aab7 37a3 aab7 b717 b838 e2a4 6e38
00000230: 74e6 f3b8 74e6 f3b8 6ecf 95b7 ee34 e537
00000240: ac94 eeb8 ac94 eeb8 e76c aa38 4ff6 8a38
00000250: 0000 0000 0000 0000 12a2 ac37 70ac 98b8
00000260: 0b6d c6b7 0b6d c6b7 4d2d 36b8 b136 1137
00000270: 6423 24b8 6423 24b8 1f69 db38 cf17 b538
00000280: 603a 06b7 603a 06b7 bfbf 2636 f597 0b37
00000290: 1dd4 b837 1dd4 b837 c4be 0e37 c089 4336
000002a0: 1ac5 0a38 1ac5 0a38 ab60 67b8 5ecc 23b8
000002b0: cd77 a8b6 cd77 a8b6 b088 84b8 1634 b8b7
000002c0: 0000 0000 0000 0000 8a80 2838 6fd7 03b6
000002d0: 1fba 5c37 1fba 5c37 eb8d 1b38 04a5 e1b7
000002e0: 7b2a 92b6 7b2a 92b6 b365 f838 7335 9f38
000002f0: 1eb9 2538 1eb9 2538 fdc4 dab7 ed20 33b8
00000300: 5d7c 9f38 5d7c 9f38 4542 e2b7 8ea5 e0b8
00000310: 719d eab7 719d eab7 3a38 4cb7 3153 8eb8
00000320: 845d 1bb7 845d 1bb7 6832 2037 aa45 8238
00000330: 0000 0000 0000 0000 0000 0000 0000 0000
00000340: 3f7f c2b6 3f7f c2b6 a09a de37 1134 f2b7
00000350: 9d50 d3b7 9d50 d3b7 74e2 2739 45ab 0b38
00000360: f807 94b8 f807 94b8 86b8 14b8 465e 6db8
00000370: 0000 0000 0000 0000 157d 4c37 8124 adb7
00000380: a04a 8838 a04a 8838 b9ff 81b8 50b9 92b7
00000390: 4add 5738 4add 5738 81a8 1a38 af04 39b8
000003a0: c7cf fbb6 c7cf fbb6 e006 8fb9 086c cab8
000003b0: 3d73 9db8 3d73 9db8 54ab 9d38 e71f 7438
000003c0: db28 2239 db28 2239 2b75 cc37 dc93 12b9
000003d0: 949b 38b8 949b 38b8 7702 29b8 5f8c a5b8
000003e0: bf7c 8e38 bf7c 8e38 b998 8c38 730b 8ab8
000003f0: 0000 0000 0000 0000 0000 0000 0000 0000
-3.5105575e-05 -3.5105575e-05 8.071186e-05 5.0133418e-05 0.0002024332 0.0002024332 -0.00020707012 -0.00011947562
-2.0567302e-05 -2.0567302e-05 0.00011887417 9.676975e-05 6.5849046e-05 6.5849046e-05 0.000111404894 -1.6046308e-05
0.0 0.0 0.0 0.0 -3.9091283e-05 -3.9091283e-05 -1.659168e-05 2.9138375e-05
1.04767705e-05 1.04767705e-05 1.3769187e-05 -2.1033191e-05 1.4049087e-07 1.4049087e-07 -3.0492579e-06 -9.129994e-06
-7.618833e-06 -7.618833e-06 -1.4863737e-05 3.831967e-05 -2.7930602e-05 -2.7930602e-05 3.7602158e-06 3.4645782e-05
8.269392e-06 8.269392e-06 1.9417362e-06 1.5728216e-05 6e-45 6e-45 -4.77252e-06 -2.6761249e-05
-3.5237328e-05 -3.5237328e-05 0.00010136407 8.163533e-05 2.1795682e-05 2.1795682e-05 -4.833122e-05 -4.3621025e-05
0.00016709576 0.00016709576 -0.00023044988 -0.00016874826 -2.8242443e-05 -2.8242443e-05 5.233229e-07 7.2250746e-06
1.826269e-05 1.826269e-05 5.1564457e-05 -7.263282e-06 3.1153486e-05 3.1153486e-05 4.866825e-05 7.91081e-06
0.0 0.0 6.6339635e-05 -2.7954622e-05 0.0 0.0 0.0 0.0
-0.000102790415 -0.000102790415 -1.2601625e-05 0.00012847697 4.9743947e-05 4.9743947e-05 -7.2678595e-05 -4.102408e-05
-5.0369877e-06 -5.0369877e-06 4.6259465e-05 4.808548e-05 -6.4327185e-05 -6.4327185e-05 8.798462e-05 0.000120477605
-2.0877627e-05 -2.0877627e-05 3.0410021e-05 4.9557234e-06 0.0 0.0 0.0 0.0
-2.3324043e-05 -2.3324043e-05 4.8218197e-05 -0.00024730497 -4.8372658e-05 -4.8372658e-05 -5.3537973e-05 6.0544935e-05
2.8051865e-05 2.8051865e-05 3.5323217e-05 -3.7131147e-05 -3.559399e-05 -3.559399e-05 6.804084e-05 -0.00018349847
-1.6783733e-05 -1.6783733e-05 -5.9482423e-05 -0.00010802359 -8.660103e-05 -8.660103e-05 -8.2838495e-05 7.004293e-05
-2.9650062e-06 -2.9650062e-06 1.8772085e-05 -2.9863975e-06 -7.826372e-06 -7.826372e-06 -0.00019144313 -2.1284637e-05
-2.0341582e-05 -2.0341582e-05 8.778221e-05 5.689718e-05 -0.00011630068 -0.00011630068 -1.7858776e-05 2.7323575e-05
-0.00011376417 -0.00011376417 8.126516e-05 6.626231e-05 0.0 0.0 2.0579468e-05 -7.280044e-05
-2.3654216e-05 -2.3654216e-05 -4.343437e-05 8.655407e-06 -3.9133607e-05 -3.9133607e-05 0.00010462314 8.635187e-05
-8.000614e-06 -8.000614e-06 2.4847538e-06 8.320426e-06 2.2033282e-05 2.2033282e-05 8.508276e-06 2.9137445e-06
3.308533e-05 3.308533e-05 -5.516472e-05 -3.905256e-05 -5.020737e-06 -5.020737e-06 -6.3197105e-05 -2.1958764e-05
0.0 0.0 4.0174033e-05 -1.964592e-06 1.31563565e-05 1.31563565e-05 3.708705e-05 -2.6898932e-05
-4.3560844e-06 -4.3560844e-06 0.000118445045 7.5916665e-05 3.951147e-05 3.951147e-05 -2.6079355e-05 -4.270759e-05
7.604875e-05 7.604875e-05 -2.6972159e-05 -0.00010711989 -2.7968288e-05 -2.7968288e-05 -1.2172439e-05 -6.786583e-05
-9.260493e-06 -9.260493e-06 9.548479e-06 6.211859e-05 0.0 0.0 0.0 0.0
-5.796464e-06 -5.796464e-06 2.6536465e-05 -2.8872893e-05 -2.5190699e-05 -2.5190699e-05 0.00016010721 3.329969e-05
-7.058674e-05 -7.058674e-05 -3.54578e-05 -5.6593002e-05 0.0 0.0 1.21884705e-05 -2.0640206e-05
6.498885e-05 6.498885e-05 -6.1988314e-05 -1.749085e-05 5.1466086e-05 5.1466086e-05 3.6873393e-05 -4.41118e-05
-7.5045714e-06 -7.5045714e-06 -0.00027280208 -9.652233e-05 -7.507808e-05 -7.507808e-05 7.518256e-05 5.8203845e-05
0.00015464744 0.00015464744 2.4373256e-05 -0.00013978727 -4.4013912e-05 -4.4013912e-05 -4.0295035e-05 -7.893959e-05
6.7943234e-05 6.7943234e-05 6.704167e-05 -6.5824854e-05 0.0 0.0 0.0 0.0

exp_avg_sq f4 [64, 4]
00000000: 8623 1934 8623 1934 3d54 5234 eb1a 3d34
00000010: 40d3 c635 40d3 c635 2cc5 4b35 5eb4 a535
00000020: ca5d 2335 ca5d 2335 dc79 8834 11ba 1d35
00000030: 1bdd 2635 1bdd 2635 cbb4 7734 8bbd 7435
00000040: 0000 0000 0000 0000 0000 0000 0000 0000
00000050: 536a 9b35 536a 9b35 ea2f 6734 7631 dc34
00000060: e238 3230 e238 3230 6b54 9a31 827d 9531
00000070: 6983 c133 6983 c133 e112 cb33 9731 c633
00000080: d4b3 f134 d4b3 f134 240e 5b34 d6c8 0134
00000090: 0c1a 4334 0c1a 4334 d83f 8a34 d599 2234
000000a0: ffd5 5535 ffd5 5535 6c23 6034 219b 7a34
000000b0: 2c41 9c30 2c41 9c30 9714 5c34 021a 2234
000000c0: 6ae1 a735 6ae1 a735 1c2e a734 49b6 5135
000000d0: f46a 1234 f46a 1234 ef80 d433 d6ba 0834
000000e0: 25d1 5536 25d1 5536 ed95 5b35 e547 4d36
000000f0: dd34 6935 dd34 6935 68ab bb34 cbfb c833
00000100: 9e00 8e34 9e00 8e34 6ef7 f533 480f 0734
00000110: 5154 2c32 5154 2c32 3fe3 1e33 4b85 fa32
00000120: 0000 0000 0000 0000 32fe 5834 cfad 1c34
00000130: 0000 0000 0000 0000 0000 0000 0000 0000
00000140: a25d 2335 a25d 2335 7dc9 d133 104f 0535
00000150: 388c 0e33 388c 0e33 61cc 8333 4242 d533
00000160: 874c 0834 874c 0834 858d 9033 fd28 9433
00000170: 104c 8135 104c 8135 8f0d 1134 1dcc 3334
00000180: 4d05 8635 4d05 8635 2333 3335 bb35 0035
00000190: 0000 0000 0000 0000 0000 0000 0000 0000
000001a0: c1d8 7035 c1d8 7035 4335 2f35 50a0 9635
000001b0: e27c 1836 e27c 1836 4de9 0b35 d255 eb35
000001c0: 6093 2d35 6093 2d35 8272 f133 2620 e334
000001d0: 2f36 6c34 2f36 6c34 c494 f034 cb26 1035
000001e0: 8dd2 6235 8dd2 6235 cd94 c634 7708 5134
000001f0: 2a78 8334 2a78 8334 2bcc 3534 a7ed 7634
00000200: e196 8e33 e196 8e33 b473 1a32 0a86 ac32
00000210: 09c2 bb35 09c2 bb35 b955 8935 3414 4e36
00000220: 903b c334 903b c334 510a 0434 0c6d f134
00000230: 26c9 ef36 26c9 ef36 4749 9d35 3487 4436
00000240: 4a4c 1136 4a4c 1136 ebc0 1135 5311 9c35
00000250: 0000 0000 0000 0000 82a9 6c34 8984 a733
00000260: d025 dd34 d025 dd34 ff3b d433 e225 2c34
00000270: 84de 5c35 84de 5c35 a215 3f35 24e9 c634
00000280: 053b 8d35 053b 8d35 9ecf 8034 836a a634
00000290: 73c8 a435 73c8 a435 b128 8434 af9f 1435
000002a0: c67b 2f34 c67b 2f34 c120 c933 d9aa 4834
000002b0: 0517 2235 0517 2235 990c 9b34 b035 bc34
000002c0: 0000 0000 0000 0000 887c 6833 55f9 dd32
000002d0: 346e f932 346e f932 117b 9033 59c4 1f33
000002e0: e774 1e35 e774 1e35 b743 2335 8bd3 2a35
000002f0: 056c a934 056c a934 21bc 1434 1c8e fe33
00000300: fbbb 8b35 fbbb 8b35 d754 5334 d42e 9d34
00000310: dc30 0436 dc30 0436 e37c 8035 e6df 8334
00000320: 9445 1235 9445 1235 f7bf be34 e6c3 7535
00000330: 0000 0000 0000 0000 0000 0000 0000 0000
00000340: 5bbe 9135 5bbe 9135 00d5 2834 a569 1d34
00000350: 93e9 d535 93e9 d535 6441 cb34 3c2c 7d34
00000360: 3864 0235 3864 0235 2b96 9534 0014 b033
00000370: 0000 0000 0000 0000 c5e4 5533 aaf8 2d33
00000380: 9bef 9335 9bef 9335 672e 2935 b784 1535
00000390: 2a84 8235 2a84 8235 37c3 8634 a73f 4034
000003a0: 1702 8b36 1702 8b36 5439 c135 dc13 b936
000003b0: e3d4 3235 e3d4 3235 de66 d233 ca1c 0734
000003c0: 8ea7 9236 8ea7 9236 c7b1 9f35 75c4 e034
000003d0: def0 c835 def0 c835 d7dc 9934 16c7 0335
000003e0: 39f0 da34 39f0 da34 47be 1934 c212 0935
000003f0: 0000 0000 0000 0000 0000 0000 0000 0000
1.4262159e-07 1.4262159e-07 1.958842e-07 1.761179e-07 1.4813631e-06 1.4813631e-06 7.5910316e-07 1.2345952e-06
6.0858713e-07 6.0858713e-07 2.5420638e-07 5.875782e-07 6.216157e-07 6.216157e-07 2.306944e-07 9.1172905e-07
0.0 0.0 0.0 0.0 1.1579344e-06 1.1579344e-06 2.1530983e-07 4.101418e-07
6.483686e-10 6.483686e-10 4.491587e-09 4.3507393e-09 9.011166e-08 9.011166e-08 9.456358e-08 9.229114e-08
4.502059e-07 4.502059e-07 2.0401109e-07 1.2087125e-07 1.8170266e-07 1.8170266e-07 2.5750956e-07 1.514339e-07
7.966009e-07 7.966009e-07 2.0874512e-07 2.33395e-07 1.1369017e-09 1.1369017e-09 2.0496587e-07 1.5096887e-07
1.2508074e-06 1.2508074e-06 3.1139723e-07 7.8123827e-07 1.3636219e-07 1.3636219e-07 9.895472e-08 1.2733958e-07
3.1861211e-06 3.1861211e-06 8.180203e-07 3.0589229e-06 8.687619e-07 8.687619e-07 3.495618e-07 9.3590266e-08
2.645001e-07 2.645001e-07 1.1453709e-07 1.2578414e-07 1.0030889e-08 1.0030889e-08 3.699392e-08 2.9164445e-08
0.0 0.0 2.0209043e-07 1.4591863e-07 0.0 0.0 0.0 0.0
6.0858486e-07 6.0858486e-07 9.7689714e-08 4.966141e-07 3.318948e-08 3.318948e-08 6.137339e-08 9.930638e-08
1.2693828e-07 1.2693828e-07 6.731265e-08 6.899243e-08 9.633386e-07 9.633386e-07 1.350911e-07 1.674493e-07
9.985321e-07 9.985321e-07 6.675711e-07 4.7761904e-07 0.0 0.0 0.0 0.0
8.9722386e-07 8.9722386e-07 6.5270086e-07 1.1222528e-06 2.2722456e-06 2.2722456e-06 5.212103e-07 1.7533841e-06
6.466198e-07 6.466198e-07 1.1243266e-07 4.2305436e-07 2.1998925e-07 2.1998925e-07 4.4811725e-07 5.370063e-07
8.449795e-07 8.449795e-07 3.698864e-07 1.9467721e-07 2.4488082e-07 2.4488082e-07 1.6931214e-07 2.2996993e-07
6.639835e-08 6.639835e-08 8.990288e-09 2.008439e-08 1.3989057e-06 1.3989057e-06 1.0232244e-06 3.0708152e-06
3.6364918e-07 3.6364918e-07 1.2297211e-07 4.496909e-07 7.146172e-06 7.146172e-06 1.1718738e-06 2.9284975e-06
2.165109e-06 2.165109e-06 5.429744e-07 1.1627948e-06 0.0 0.0 2.204088e-07 7.8006515e-08
4.119197e-07 4.119197e-07 9.8829325e-08 1.603253e-07 8.228019e-07 8.228019e-07 7.1184525e-07 3.7050006e-07
1.0522496e-06 1.0522496e-06 2.399292e-07 3.0997407e-07 1.2277291e-06 1.2277291e-06 2.4616523e-07 5.5366667e-07
1.6343174e-07 1.6343174e-07 9.36575e-08 1.8688606e-07 6.03832e-07 6.03832e-07 2.8880166e-07 3.5056792e-07
0.0 0.0 5.412997e-08 2.584117e-08 2.903753e-08 2.903753e-08 6.727908e-08 3.719865e-08
5.90297e-07 5.90297e-07 6.082077e-07 6.363777e-07 3.1557298e-07 3.1557298e-07 1.3852015e-07 1.1853646e-07
1.0411017e-06 1.0411017e-06 1.9681771e-07 2.92776e-07 1.9697973e-06 1.9697973e-06 9.57309e-07 2.456356e-07
5.449049e-07 5.449049e-07 3.552993e-07 9.155468e-07 0.0 0.0 0.0 0.0
1.0858743e-06 1.0858743e-06 1.5723708e-07 1.4660198e-07 1.5937716e-06 1.5937716e-06 3.7859274e-07 2.3578554e-07
4.857461e-07 4.857461e-07 2.7862674e-07 8.1992766e-08 0.0 0.0 4.980099e-08 4.050586e-08
1.1022088e-06 1.1022088e-06 6.302493e-07 5.569995e-07 9.72422e-07 9.72422e-07 2.5101482e-07 1.790455e-07
4.142766e-06 4.142766e-06 1.4396305e-06 5.5157416e-06 6.661996e-07 6.661996e-07 9.7975985e-08 1.2583328e-07
4.370645e-06 4.370645e-06 1.1898163e-06 4.1866193e-07 1.4971263e-06 1.4971263e-06 2.8659153e-07 4.909101e-07
4.078045e-07 4.078045e-07 1.4318458e-07 5.1063773e-07 0.0 0.0 0.0 0.0

exp_avg f4 [64]
00000000: eb73 f4b8 7f5c a339 c705 c1b8 7e71 6138
00000010: 0000 0000 3fe1 97b6 eb85 0eb5 c070 8b38
00000020: 211e 60b8 31e9 35b9 645c 7236 ec9d 5237
00000030: 4999 0bb9 dacb 0838 419d 8a39 4553 b8b8
00000040: 134e 06b7 12a5 5638 c689 e138 0000 0000
00000050: 4ab3 f1b8 8c17 de38 d24a 21b7 3ca0 32b8
00000060: 34a5 64b4 0000 0000 1f1e 7839 6d81 13b8
00000070: c2cb a437 9329 3b39 f8e0 8238 76fa 8cb8
00000080: 73fa 46b6 41bd 8f36 6013 24b8 e259 83b7
00000090: aff6 84b9 8b74 5bb7 3cc8 5837 3d17 c9b8
000000a0: 8253 28b7 56e9 9536 2df4 4238 de87 9cb7
000000b0: e6df 8738 97e8 7f38 91b3 fdb8 c930 d237
000000c0: f29a 0239 b972 a738 7da8 1c38 0000 0000
000000d0: 698e 0d36 5919 25b9 1da5 0cb7 4408 8238
000000e0: 51a1 0f38 4c84 1638 bca7 0339 3166 e9b8
000000f0: 269d 0939 746b f837 00a1 b738 0000 0000
-0.00011656418 0.00031158698 -9.204033e-05 5.3749878e-05 0.0 -4.526373e-06 -5.3094e-07 6.649038e-05
-5.343382e-05 -0.00017348376 3.6114589e-06 1.2553744e-05 -0.00013313176 3.261478e-05 0.00026438574 -8.789314e-05
-8.0052005e-06 5.117531e-05 0.00010754498 0.0 -0.00011525171 0.00010590171 -9.613768e-06 -4.2587737e-05
-2.1294255e-07 0.0 0.00023662344 -3.516807e-05 1.9645206e-05 0.00017849197 6.240787e-05 -6.722372e-05
-2.965008e-06 4.283764e-06 -3.911869e-05 -1.5658272e-05 -0.00025360796 -1.3080552e-05 1.2921224e-05 -9.588755e-05
-1.00330235e-05 4.46771e-06 4.648061e-05 -1.8659917e-05 6.479006e-05 6.1013354e-05 -0.00012097427 2.5056668e-05
0.00012455488 7.984549e-05 3.7350215e-05 0.0 2.109353e-06 -0.00015745069 -8.383094e-06 6.200423e-05
3.4244094e-05 3.5885998e-05 0.0001255562 -0.000111293404 0.0001312388 2.961394e-05 8.7561086e-05 0.0

exp_avg_sq f4 [64]
00000000: da96 bf34 6f5c 0236 99d3 7835 c1eb 8b35
00000010: 0000 0000 858a b135 b521 0732 a8f4 6934
00000020: 336e a935 fbe0 9735 3bdf 8e35 6428 2d35
00000030: b96f f035 43a1 8334 507e 8936 4ab6 7335
00000040: 66e4 e434 f5a0 9833 609b 3935 0000 0000
00000050: ffc2 2a35 7d7a 2234 deb4 2c34 3792 8235
00000060: 50ca ed35 0000 0000 272d 1236 f4d0 3036
00000070: 0bae 4235 8355 6a35 89d0 8f35 e8d8 aa34
00000080: e196 8e33 857c 6936 e01f 0e35 16bf 0737
00000090: f271 3b36 552b 0535 98bc fd34 a734 ff35
000000a0: 5e6d af35 f5b5 ad35 89c5 a034 eaf1 5c35
000000b0: f3c5 2534 9cdc 0e34 6b7d ca35 dbcb 0035
000000c0: 65f8 9c35 951b 2b36 6d89 9635 0000 0000
000000d0: 61f4 9135 6800 1636 91de 3535 bba1 1334
000000e0: 0be4 df35 8fd0 a035 265b c836 9e11 4d35
000000f0: a602 a036 8226 d335 816b 2135 0000 0000
3.568628e-07 1.9425313e-06 9.2695115e-07 1.042492e-06 0.0 1.3227842e-06 7.865698e-09 2.1788821e-07
1.2623553e-06 1.1315855e-06 1.0644793e-06 6.45063e-07 1.7913909e-06 2.4517985e-07 4.097623e-06 9.078982e-07
4.263449e-07 7.1073295e-08 6.914397e-07 0.0 6.361369e-07 1.5131987e-07 1.6084547e-07 9.728309e-07
1.7716757e-06 0.0 2.1781977e-06 2.634767e-06 7.25239e-07 8.729623e-07 1.0715022e-06 3.1822788e-07
6.639835e-08 3.4792185e-06 5.2945506e-07 8.091118e-06 2.7931496e-06 4.960942e-07 4.7262142e-07 1.9014304e-06
1.3070346e-06 1.2942461e-06 2.9946048e-07 8.230842e-07 1.5438836e-07 1.3305038e-07 1.5086674e-06 4.7980365e-07
1.1695198e-06 2.549704e-06 1.1215867e-06 0.0 1.0874465e-06 2.2351978e-06 6.775163e-07 1.3749279e-07
1.6681164e-06 1.1981627e-06 5.9710756e-06 7.639409e-07 4.76868e-06 1.5731932e-06 6.013361e-07 0.0

exp_avg f4 [64, 64]
00000000: a93e 8bb6 d007 6a36 7b86 3d37 0f9b cb37
00000010: 0000 0000 90ab 4736 963e 62b6 bd1d 0638
00000020: cdff 0938 a633 8436 5c36 1136 8c75 f3b5
00000030: d7ea b537 5121 2137 a3f6 9936 e079 7837
00000040: 2932 ae36 4ecb bb36 b635 e536 0000 0000
00000050: 91bd dc35 4855 ddb6 dfe0 92b6 8e5a 7035
00000060: 5038 4838 0000 0000 37e0 a737 df90 0237
00000070: f4d0 8934 059a a237 0e17 b937 7ec5 0936
00000080: 18f9 ec34 c2f5 3536 fa92 ed37 3faa a336
00000090: a34c 4537 86a5 cfb5 73d0 a936 8159 00b7
000000a0: 0516 81b6 448f 0737 cd97 0c38 574b df36
000000b0: b0b5 3637 f22d b737 172b 1d37 26d3 ff36
000000c0: bda4 c336 fd94 9737 3bf8 d836 0000 0000
000000d0: 9d42 0836 91a2 c537 4031 7a36 5ea1 6c37
000000e0: 3de7 0336 f848 ce37 91c8 bd36 e3b0 d6b6
000000f0: d831 db34 79a3 e336 3c81 f337 0000 0000
00000100: 83b8 4f37 73d7 0f38 cb91 3a38 65f7 2d38
00000110: 0000 0000 3ed4 15b7 0400 0000 ead5 db37
00000120: 76b0 9b38 7f13 7837 537f e936 4925 16b4
00000130: 1fa2 ae38 6f54 7138 d6d5 bc37 37a7 0939
00000140: 2cd6 9a37 d081 1a37 23fd 1c37 0000 0000
00000150: 14ad 8e36 5426 30b5 1c8e bd36 e068 8b37
00000160: 25a6 ff38 0000 0000 a249 9c37 a217 ca37
00000170: b732 6d37 19ce 7737 3189 0a38 64b0 42b7
00000180: 35c4 3d36 5738 bf35 2f7a a838 9231 a4b7
00000190: 8cba 7d38 e854 abb5 e5c5 80b7 5e86 e535
000001a0: 3ac1 d037 4e89 3b38 f1fe 0c39 42ce 4138
000001b0: 916b b237 d932 5038 7dc1 e637 cf93 3f38
000001c0: 40c7 8938 95f1 0d37 9983 6537 0000 0000
000001d0: 234e f537 94cb 4838 7283 4436 e843 9f37
000001e0: 3a2b 7337 e10a b938 9460 0937 9942 bd37
000001f0: 0ee2 a237 14b6 c438 027f cc38 0000 0000
00000200: 0000 0000 0000 0000 0000 0000 0000 0000
00000210: 0000 0000 0000 0000 0000 0000 0000 0000
00000220: 0000 0000 0000 0000 0000 0000 0000 0000
00000230: 0000 0000 0000 0000 0000 0000 0000 0000
00000240: 0000 0000 0000 0000 0000 0000 0000 0000
00000250: 0000 0000 0000 0000 0000 0000 0000 0000
00000260: 0000 0000 0000 0000 0000 0000 0000 0000
00000270: 0000 0000 0000 0000 0000 0000 0000 0000
00000280: 0000 0000 0000 0000 0000 0000 0000 0000
00000290: 0000 0000 0000 0000 0000 0000 0000 0000
000002a0: 0000 0000 0000 0000 0000 0000 0000 0000
000002b0: 0000 0000 0000 0000 0000 0000 0000 0000
000002c0: 0000 0000 0000 0000 0000 0000 0000 0000
000002d0: 0000 0000 0000 0000 0000 0000 0000 0000
000002e0: 0000 0000 0000 0000 0000 0000 0000 0000
000002f0: 0000 0000 0000 0000 0000 0000 0000 0000
00000300: 2ecb 8335 1833 93b6 7fa1 0137 7368 8537
00000310: 0000 0000 1301 80b7 45d2 0e37 4eb2 a137
00000320: 7c34 f336 6a2c d6b6 c71c 0037 b6a3 65b6
00000330: bf0a 81b7 2dd8 4f37 619f e136 75d1 b937
00000340: 1380 88b6 4b50 8d37 605b 3b37 0000 0000
00000350: 0dc9 fcb6 a24a 53b7 39c2 b8b6 8b49 d536
00000360: ba7c 8e36 0000 0000 4afc 4737 1f26 3db7
00000370: 2483 90b6 d9eb 5d37 6b41 47b5 d890 81b7
00000380: 7a18 c736 7765 6736 25ab f036 498b e1b6
00000390: 7796 4f37 dc43 5c36 1d4d acb6 4b13 7bb7
000003a0: c93d bab6 7121 d2b7 bf8c 1837 5af9 67b7
000003b0: dd03 0938 5080 8437 dc6a 6e37 2b95 75b7
000003c0: 326f f136 f7de 3bb5 7f42 4b37 0000 0000
000003d0: db5f b535 8c97 ea37 8bd0 0d36 6941 ad37
000003e0: 9c9d dd34 35c7 ee36 ce00 0c37 ef51 3635
000003f0: ad5c 27b7 1d0f 3b37 dbe2 dbb6 0000 0000
-4.1498174e-06 3.4873265e-06 1.1296589e-05 2.427169e-05 0.0 2.9753173e-06 -3.3713054e-06 3.1975786e-05
3.290158e-05 3.939919e-06 2.1638325e-06 -1.8139121e-06 2.1686237e-05 9.604105e-06 4.5884676e-06 1.4810328e-05
5.1914435e-06 5.596702e-06 6.8309846e-06 0.0 1.6446448e-06 -6.5962413e-06 -4.3773175e-06 8.953874e-07
4.773616e-05 0.0 2.001236e-05 7.782334e-06 2.5670272e-07 1.9383626e-05 2.2064454e-05 2.0529546e-06
4.4139665e-07 2.7114152e-06 2.8321043e-05 4.877598e-06 1.1759958e-05 -1.5470875e-06 5.060859e-06 -7.650234e-06
-3.847063e-06 8.079984e-06 3.3519977e-05 6.6546886e-06 1.0890348e-05 2.1836695e-05 9.367962e-06 7.624173e-06
5.830631e-06 1.806998e-05 6.4661995e-06 0.0 2.0304353e-06 2.3559931e-05 3.728157e-06 1.4104267e-05
1.965512e-06 2.4591092e-05 5.655988e-06 -6.3982893e-06 4.0828195e-07 6.784158e-06 2.9028037e-05 0.0
1.2381121e-05 3.429451e-05 4.4481636e-05 4.147682e-05 0.0 -8.930509e-06 6e-45 2.6206446e-05
7.423844e-05 1.4786491e-05 6.9587636e-06 -1.3983403e-07 8.327164e-05 5.7537512e-05 2.2510922e-05 0.0001312763
1.8457962e-05 9.20934e-06 9.357263e-06 0.0 4.2520787e-06 -6.5620884e-07 5.6491826e-06 1.6618927e-05
0.000121902944 0.0 1.8630937e-05 2.4091281e-05 1.4138109e-05 1.4770333e-05 3.3029533e-05 -1.160437e-05
2.8277402e-06 1.4247006e-06 8.033623e-05 -1.9573406e-05 6.0493636e-05 -1.2765204e-06 -1.535094e-05 1.7100936e-06
2.488551e-05 4.471215e-05 0.00013446414 4.620688e-05 2.1269343e-05 4.963842e-05 2.7508237e-05 4.5675606e-05
6.569782e-05 8.460503e-06 1.3680104e-05 0.0 2.9242661e-05 4.7873313e-05 2.9282787e-06 1.8985898e-05
1.4493993e-05 8.823514e-05 8.188323e-06 2.2561568e-05 1.941717e-05 9.379923e-05 9.751135e-05 0.0
0.0 0.0 0.0 0.0 0.0 0.0 0.0 0.0
0.0 0.0 0.0 0.0 0.0 0.0 0.0 0.0
0.0 0.0 0.0 0.0 0.0 0.0 0.0 0.0
0.0 0.0 0.0 0.0 0.0 0.0 0.0 0.0
0.0 0.0 0.0 0.0 0.0 0.0 0.0 0.0
0.0 0.0 0.0 0.0 0.0 0.0 0.0 0.0
0.0 0.0 0.0 0.0 0.0 0.0 0.0 0.0
0.0 0.0 0.0 0.0 0.0 0.0 0.0 0.0
9.819394e-07 -4.3868895e-06 7.7266e-06 1.5903473e-05 0.0 -1.525929e-05 8.512817e-06 1.9275725e-05
7.2480743e-06 -6.3828675e-06 7.636095e-06 -3.4218951e-06 -1.5383002e-05 1.2388494e-05 6.7240767e-06 2.2151255e-05
-4.0680256e-06 1.68459e-05 1.11673435e-05 0.0 -7.5335906e-06 -1.2593957e-05 -5.506238e-06 6.356456e-06
4.24645e-06 0.0 1.1920065e-05 -1.1274154e-05 -4.306801e-06 1.3227539e-05 -7.422847e-07 -1.5445446e-05
5.9335116e-06 3.4480743e-06 7.172481e-06 -6.7217375e-06 1.2373194e-05 3.2822054e-06 -5.1349766e-06 -1.4965258e-05
-5.5504247e-06 -2.5049523e-05 9.092676e-06 -1.382673e-05 3.2666943e-05 1.5795376e-05 1.4210786e-05 -1.4637869e-05
7.1953045e-06 -6.9987385e-07 1.2115225e-05 0.0 1.3513448e-06 2.7965543e-05 2.1132025e-06 2.0653666e-05
4.1279134e-07 7.1161435e-06 8.344838e-06 6.791951e-07 -9.975553e-06 1.1149587e-05 -6.553118e-06 0.0
