log/alpha=0/version_None/checkpoints/epoch=2499-step=4999.ckpt (torch, 116860 bytes, 21 tensors)

dec.lin0.bias f4 [64]
-0.2001886 -0.22416098 -0.538332 -0.15075302 -0.26729372 -0.10033293 -0.110159606 0.41681242
0.11363945 -0.51236826 -0.029356102 -0.14929157 -0.3170542 -0.53819823 -0.47660768 -0.36684805
-0.25407112 -0.44965968 0.42439353 0.39006788 0.055350464 0.265535 0.42453808 -0.35627538
0.1175224 -0.5134816 -0.37967187 0.197688 0.22847697 0.3350168 -0.4697122 -0.48699537
-0.50559825 0.4585683 -0.50478697 -0.18276475 0.32362756 0.0379743 -0.33417088 -0.17451186
-0.08840551 0.54391086 0.379396 -0.5974363 -0.099496976 0.22731145 -0.33875132 -0.2372116
-0.6284283 0.29269317 0.49988484 0.016381862 0.40937302 0.4654119 -0.052038506 0.46640632
-0.3154413 0.1882909 -0.02239255 0.112014286 -0.038480468 0.05869431 -0.24640036 0.38523078
00000000: 3efe 4cbe 758a 65be 20d0 09bf 005f 1abe
00000010: b9da 88be 5a7b cdbd 5c9b e1bd 7068 d53e
00000020: cdbb e83d 912a 03bf 357c f0bc e4df 18be
00000030: ee54 a2be 5cc7 09bf ec05 f4be 82d3 bbbe
00000040: 9c15 82be cb39 e6be 1c4a d93e fab6 c73e
00000050: 2bb7 623d 34f4 873e 0e5d d93e ba69 b6be
00000060: 96af f03d 8873 03bf 5a64 c2be b96e 4a3e
00000070: def5 693e 5287 ab3e 1e7e f0be 7557 f9be
00000080: e36e 01bf 77c9 ea3e b839 01bf af26 3bbe
00000090: 83b2 a53e f18a 1b3d 7218 abbe 3db3 32be
000000a0: f30d b5bd be3d 0b3f 3140 c23e 96f1 18bf
000000b0: 12c5 cbbd 55c4 683e d070 adbe 99e7 72be
000000c0: ade0 20bf e1db 953e e8f0 ff3e 4133 863c
000000d0: 5799 d13e 784a ee3e 5426 55bd cfcc ee3e
000000e0: 8681 a1be 54cf 403e 9570 b7bc bf67 e53d
000000f0: b29d 1dbd 7269 703d 6050 7cbe f83c c53e

dec.lin0.weight_v f4 [64, 4]
0.23266986 0.008754971 0.49000013 -0.38550192 0.399409 -0.31175444 0.20613478 -0.4326023
-0.1842762 -0.22574574 0.3974975 0.49798575 -0.02638912 -0.19156523 -0.57770187 0.24081281
-0.31955233 0.051612377 0.33640584 0.5913203 0.35310787 0.25155085 0.25283194 0.34568954
-0.10997864 -0.32958916 0.3157079 -0.40200803 -0.14983042 0.32329488 -0.3107492 -0.34735525
-0.11807194 0.19993939 0.30294985 0.25021836 -0.23322706 -0.33363408 -0.35561842 0.054964323
0.33999136 0.39429224 0.37138936 -0.37746987 0.18240055 -0.029699534 -0.36925063 -0.22627962
0.37426278 0.1818869 0.3481606 -0.08536426 0.054500062 -0.13613385 0.6610715 -0.25137565
-0.24172337 -0.46889994 -0.17660591 0.25140122 -0.3460438 -0.47420835 0.19072288 0.025479153
-0.009184077 -0.35962033 -0.31318402 -0.039802067 0.2306157 -0.032744575 -0.35087255 0.14687231
0.2809773 0.5163232 -0.19124314 0.13735665 -0.19053398 -0.001762631 -0.18274127 0.2834379
0.2737459 -0.2862099 0.2033303 0.23803109 0.3656378 0.04923663 -0.19755852 0.010709556
-0.45478147 -0.08779402 -0.28678605 -0.43382463 0.30133554 -0.23712423 0.40776655 0.25438282
-0.07265212 -0.2185172 0.07976732 -0.409693 -0.27489048 0.20624647 0.5683231 0.13710356
-0.38383466 0.41073495 0.2711808 0.020840485 0.1579123 -0.45733872 0.48405954 0.04301513
-0.041663047 -0.25064614 -0.03658487 -0.066223934 -0.062195975 0.40425366 0.07279452 0.2819333
-0.36169556 0.109533265 -0.4780335 -0.15649182 -0.40187246 0.39358035 -0.44299537 0.06521534
0.26825097 -0.26833472 0.46646377 0.13757868 -0.3935504 -0.1308723 0.2941734 -0.27463847
0.003519181 -0.29119766 -0.12885965 -0.31375584 -0.054777227 0.14859758 0.37379733 0.07304386
0.44454268 0.36498272 0.5076585 0.015456189 -0.36654717 -0.025781767 0.17132483 0.16533095
0.34653598 -0.19581094 -0.060606964 -0.42723513 0.2598249 0.51859325 -0.43974975 -0.21591693
-0.060510594 0.42176795 -0.040024333 -0.21164848 -0.42696354 -0.4025468 0.20278803 -0.13872902
0.22000937 -0.24159954 0.35752738 0.1754189 -0.085373476 0.36854798 0.15241012 0.0011181782
-0.26501766 0.0011915219 -0.12348139 -0.1285328 -0.4044188 -0.46051964 -0.045783192 -0.30214334
-0.12214721 0.30947787 -0.29769668 -0.56152946 0.44369867 -0.15372132 0.53364193 -0.18682635
-0.44575214 -0.15287857 0.46413234 0.025429003 0.07667225 0.031287175 0.009990706 0.34949872
0.48389274 0.48121366 -0.1828971 0.38088495 0.27569547 0.2822701 -0.45488968 -0.32086208
0.20573378 -0.36191246 -0.1674211 0.33403328 0.4336182 -0.29464066 0.4482899 -0.36265913
0.008034916 -0.05652279 0.06840624 -0.23709896 0.4373489 0.15814762 0.44953626 -0.4612806
0.33878538 -0.39347488 0.4827889 -0.19931671 0.355626 0.26135388 0.2203277 -0.23681775
0.47617045 0.464369 0.47730896 -0.3147016 -0.13470106 -0.053670492 0.14667876 0.21821901
0.17951778 0.28833175 -0.30788162 -0.4697682 0.41424003 -0.059106752 -0.3158473 -0.27849466
-0.005482461 -0.47395718 0.23316725 -0.1299841 -0.4402054 0.081963785 -0.39712372 0.13912834
00000000: 0241 6e3e 0371 0f3c 4ce1 fa3e 8260 c5be
00000010: 567f cc3e 479e 9fbe ff14 533e 0c7e ddbe
00000020: e6b2 3cbe e429 67be cb84 cb3e fdf7 fe3e
00000030: ff2d d8bc ad29 44be 45e4 13bf a297 763e
00000040: 5d9c a3be 8067 533d 633d ac3e c460 173f
00000050: 8eca b43e 46cb 803e 3073 813e 38fe b03e
00000060: 7b3c e1bd e9bf a8be 77a4 a13e ffd3 cdbe
00000070: 256d 19be e886 a53e 851a 9fbe 8cd8 b1be
00000080: b4cf f1bd e9bc 4c3e 3e1c 9b3e 9f1c 803e
00000090: 13d3 6ebe 16d2 aabe 9e13 b6be 4522 613d
000000a0: 5913 ae3e ace0 c93e bf26 be3e bb43 c1be
000000b0: 36c7 3a3e 704c f3bc 6b0e bdbe d8b5 67be
000000c0: 5f9f bf3e 8f40 3a3e 1b42 b23e 75d3 aebd
000000d0: 753b 5f3d ac66 0bbe fb3b 293f 4fb4 80be
000000e0: 5586 77be a713 f0be 2ed8 34be a9b7 803e
000000f0: a72c b1be 70cb f2be dc4c 433e a8b9 d03c
00000100: d078 16bc 2820 b8be a859 a0be 7e07 23bd
00000110: 8626 6c3e 2d1f 06bd 91a5 b3be b265 163e
00000120: 42dc 8f3e c22d 043f 3ed5 43be 39a7 0c3e
00000130: 571b 43be 1508 e7ba 8720 3bbe c61e 913e
00000140: 6c28 8c3e 1b8a 92be d135 503e 6cbe 733e
00000150: e134 bb3e 59ac 493d c84c 4abe 2277 2f3c
00000160: 1ed9 e8be 5acd b3bd 9fd5 92be 431e debe
00000170: a748 9a3e b2d0 72be c7c6 d03e 773e 823e
00000180: a2ca 94bd f9c2 5fbe 0c5d a33d 48c3 d1be
00000190: 72be 8cbe 4632 533e 9f7d 113f e064 0c3e
000001a0: fa85 c4be da4b d23e 36d8 8a3e aab9 aa3c
000001b0: c3b3 213e 4d28 eabe a7d6 f73e a230 303d
000001c0: dfa6 2abd b154 80be 04da 15bd 6aa0 87bd
000001d0: 35c1 7ebd 56fa ce3e 4b15 953d 9059 903e
000001e0: 2930 b9be fa52 e03d cfc0 f4be 643f 20be
000001f0: 3ac2 cdbe 5d83 c93e 4ad0 e2be 9f8f 853d
00000200: 3158 893e 2b63 89be 57d4 ee3e 6de1 0c3e
00000210: 707f c9be 6303 06be e59d 963e 6a9d 8cbe
00000220: 0fa2 663b dc17 95be c9f3 03be 9ba4 a0be
00000230: 165e 60bd f729 183e 5d62 bf3e 0598 953d
00000240: 199b e33e 04df ba3e e8f5 013f f53b 7d3c
00000250: 12ac bbbe 4934 d3bc c76f 2f3e 844c 293e
00000260: 2a6d b13e aa82 48be 023f 78bd 90be dabe
00000270: c507 853e 87c2 043f e126 e1be 5419 5dbe
00000280: f5d9 77bd f8f1 d73e 8ef0 23bd 61ba 58be
00000290: f79a dabe 9d1a cebe aaa7 4f3e fb0e 0ebe
000002a0: 234a 613e df65 77be d40d b73e 03a1 333e
000002b0: 4ad8 aebd 52b2 bc3e 6611 1c3e d68f 923a
000002c0: 65b0 87be d72c 9c3a d0e3 fcbd 1a9e 03be
000002d0: fb0f cfbe 3bc9 ebbe 2887 3bbd 88b2 9abe
000002e0: 5128 fabd e273 9e3e b36b 98be 65c0 0fbf
000002f0: 792c e33e 1f69 1dbe c29c 083f 684f 3fbe
00000300: a039 e4be 338c 1cbe c1a2 ed3e 7c50 d03c
00000310: 5706 9d3d fb26 003d 0fb0 233c 7ff1 b23e
00000320: cac0 f73e a361 f63e 6149 3bbe 5a03 c33e
00000330: f527 8d3e b585 903e 4de7 e8be 0948 a4be
00000340: e0ab 523e 974c b9be 7070 2bbe 6906 ab3e
00000350: 3403 de3e 24db 96be 4186 e53e 75ae b9be
00000360: e1a4 033c 7184 67bd 9218 8c3d 12ca 72be
00000370: 32ec df3e 73f1 213e 9e29 e63e f92c ecbe
00000380: 4775 ad3e 8a75 c9be 1b30 f73e ae19 4cbe
00000390: 9c14 b63e 2dd0 853e 969d 613e 5a80 72be
000003a0: 9dcc f33e c6c1 ed3e d761 f43e 9120 a1be
000003b0: 13ef 09be 97d5 5bbd f532 163e ce74 5f3e
000003c0: 82d3 373e 38a0 933e a9a2 9dbe 7585 f0be
000003d0: 4517 d43e ec19 72bd bdb6 a1be da96 8ebe
000003e0: 37a6 b3bb 84aa f2be 65c3 6e3e 8d1a 05be
000003f0: 9a62 e1be a1dc a73d cd53 cbbe a977 0e3e

dec.lin1.bias f4 [64]
0.15736958 0.015725465 -0.08255481 -0.07386128 0.16983302 0.15777963 0.00041163235 0.06260329
0.13611928 -0.15630658 -0.07220837 -0.018907243 0.105245814 0.035788987 -0.028113196 -0.098260045
-0.053112045 -0.03758441 0.09876949 0.020629965 -0.09990081 -0.13016082 0.01818065 -0.10198402
0.043631356 0.08371099 0.12281602 0.07792059 -0.09626178 -0.098580636 0.09979283 -0.16994682
-0.051175397 0.16135393 -0.024370944 0.027594816 -0.09463942 -0.1276566 -0.22414546 -0.060612213
0.043885663 0.040263098 0.056545414 -0.09203231 0.008149835 -0.06945053 0.043081313 0.08076352
-0.15451245 -0.096097 -0.112710975 0.05650933 -0.11286463 0.056195673 -0.050388806 -0.05971794
-0.0040357755 0.05377362 0.001002453 0.07289161 0.12050993 -0.017943507 0.092262425 -0.08499107
00000000: 7e25 213e b1d2 803c 7f12 a9bd 9544 97bd
00000010: b5e8 2d3e fc90 213e 5cd0 d739 2736 803d
00000020: da62 0b3e d50e 20be fbe1 93bd 5de3 9abc
00000030: 1e8b d73d 7997 123d a54d e6bc 903c c9bd
00000040: 048c 59bd 1cf2 19bd a947 ca3d 2c00 a93c
00000050: cc98 ccbd e148 05be 96ef 943c ffdc d0bd
00000060: cbb6 323d ab70 ab3d f786 fb3d d594 9f3d
00000070: e524 c5bd a5e4 c9bd 2f60 cc3d 8a06 2ebe
00000080: 4b9d 51bd f739 253e 93a5 c7bc 860e e23c
00000090: 50d2 c1bd 69b8 02be 6386 65be 8344 78bd
000000a0: 74c1 333d ebea 243d 2a9c 673d 707b bcbd
000000b0: e386 053c 143c 8ebd 0876 303d 5867 a53d
000000c0: 8338 1ebe 81ce c4bd 03d5 e6bd 5476 673d
000000d0: 9225 e7bd 6f2d 663d 7e64 4ebd cc9a 74bd
000000e0: 8a3e 84bb ba41 5c3d be64 833a 3248 953d
000000f0: e9cd f63d 43fe 92bc 15f4 bc3d cc0f aebd

dec.lin1.weight_v f4 [64, 64]
-0.052189462 -0.1382118 -0.20051609 -0.0074422034 -0.17569512 -0.0880035 -0.027451431 -0.04502726
0.06794158 -0.20140955 -0.1362687 -0.02852799 0.09891228 -0.06695795 -0.148363 0.09663611
0.09274741 -0.12756054 0.054002527 0.07590066 -0.013455094 0.021060264 -0.02979282 -0.0047551817
0.0011973171 -0.08367655 -0.08446941 -0.06042604 0.109248064 0.10791018 -0.13912353 -0.22100835
-0.1391592 0.038280405 -0.17809594 0.08660524 0.0066666533 -0.08622569 -0.1376146 -0.124304526
-0.04797283 0.09469561 -0.056371413 0.015880365 -0.018612616 0.084278226 0.014377883 0.10756032
-0.08129685 -0.062041678 -0.014563161 -0.10738056 -0.057365116 -0.019804692 0.087128095 0.134078
-0.062552966 0.027362969 0.027825167 0.054372367 0.08930271 -0.13445978 -0.12460991 0.024293778
-0.111010276 0.05139218 -0.034205243 0.0024579212 -0.13364325 -0.07738993 -0.13018292 0.04160477
0.083865754 -0.09669317 -0.14634158 0.027655784 0.0634306 -0.039479814 -0.24093986 0.021626199
0.022697788 -0.10299786 0.108201556 0.14841686 -0.017897595 -0.042699624 -0.07241381 -0.11367748
-0.09667858 -0.022820147 0.076415665 0.04003812 0.066569254 -0.0610068 0.018513646 -0.14041777
-0.032638434 0.055393755 -0.005608757 0.076905206 0.082897305 -0.051735893 -0.10488793 0.064210646
-0.14114879 -0.028955001 -0.050110966 -0.090926126 0.004584044 -0.11306586 -0.11224845 -0.10259389
0.08113502 0.014426757 -0.068826586 0.10294567 -0.077617265 0.003498633 0.05313982 0.10698832
-0.11318647 -0.11375305 -0.028095592 0.08384196 0.0589037 -0.09000258 -0.124376014 0.13871035
0.008434552 0.001809604 0.10359827 -0.08045633 0.0455618 0.079285815 -0.12442709 0.10626261
-0.044592194 0.12727875 0.098115206 -0.11273991 -0.02955709 -0.0663173 -0.045840867 -0.12537396
0.04471526 -0.0036662335 -0.057944268 -0.09067909 0.115617715 -0.084455796 -0.13004746 -0.023192875
0.08330521 -0.04690061 0.12555893 0.13377962 -0.06338386 0.09112127 -0.068893075 0.048785448
0.024252035 -0.090481944 0.045297887 0.013953395 0.014512408 0.048302766 0.17617741 0.081195235
0.03609588 0.036505885 0.11769895 0.052930288 0.12745091 -0.038433798 0.048861157 -0.01011618
-0.033732165 0.03137323 0.073858604 0.0009286456 -0.051999625 0.0335118 0.06747905 0.041747198
-0.031294804 0.053065073 0.07232839 0.011444015 -0.0055216257 0.08102243 0.00338353 -0.11222
0.039159328 -0.08804831 -0.071238786 -0.16757318 -0.048800174 0.04949408 0.022136122 -0.076103635
0.07580244 0.025151357 -0.11333079 0.01512532 -0.035962135 0.039767906 0.024450226 -2.6472085e-09
-0.017959444 -0.034315508 0.089323476 -0.1250288 0.033517584 -0.059032347 -0.063913584 -0.11001903
0.010337024 0.04785883 -0.016321672 -0.10598522 0.10990539 0.11221075 -0.09822845 -0.14522856
0.057755664 0.07799252 -0.047086544 0.01239651 -0.0788112 0.08759315 -0.13891432 -0.077916
0.09214554 0.12045256 0.0016859606 0.02063338 0.094367646 0.10683267 -0.123692505 -0.010370954
0.053978767 -0.03630184 0.106918834 -0.033299517 -0.1354841 0.036778565 -0.12526987 0.11372585
-0.027814442 0.05797632 0.11103715 -0.14599052 0.051790185 -0.044169355 0.030399324 -0.0026621998
00000000: 9ec4 55bd 6587 0dbe 1754 4dbe badd f3bb
00000010: 6ce9 33be 2e3b b4bd d3e1 e0bc 816e 38bd
00000020: f524 8b3d 4e3e 4ebe 068a 0bbe 88b3 e9bc
00000030: 8592 ca3d 4021 89bd 78ec 17be 27e9 c53d
00000040: 5bf2 bd3d 3b9f 02be c131 5d3d ce71 9b3d
00000050: c172 5cbc 9386 ac3c 1210 f4bc 5bd1 9bbb
00000060: 4cef 9c3a 9c5e abbd 4cfe acbd 4c81 77bd
00000070: 73bd df3d 0300 dd3d 6676 0ebe 0350 62be
00000080: c07f 0ebe eacb 1c3d c85e 36be 175e b13d
00000090: f173 da3b 1897 b0bd d7ea 0cbe 5f93 febd
000000a0: 287f 44bd c6ef c13d b6e5 66bd 8a17 823c
000000b0: 7c79 98bc 109a ac3d 3691 6b3c 9648 dc3d
000000c0: f77e a6bd 6a1f 7ebd 539a 6ebc 57ea dbbd
000000d0: aff7 6abd 733d a2bc 3770 b23d be4b 093e
000000e0: c51b 80bd 4e28 e03c 9bf1 e33c 8fb5 5e3d
000000f0: 57e4 b63d d3af 09be 7b33 ffbd bf03 c73c
00000100: 5b59 e3bd 9b80 523d cc1a 0cbd 1315 213b
00000110: c7d9 08be 9d7e 9ebd ac4e 05be c369 2a3d
00000120: cfc1 ab3d 1207 c6bd 91da 15be 628e e23c
00000130: e7e7 813d 96b5 21bd f0b8 76be 6d29 b13c
00000140: b6f0 b93c 8bf0 d2bd c798 dd3d 97fa 173e
00000150: fa9d 92bc cde5 2ebd b14d 94bd bdcf e8bd
00000160: 6bff c5bd 51f1 babc d17f 9c3d 03ff 233d
00000170: 7655 883d 44e2 79bd eea9 973c adc9 0fbe
00000180: e1af 05bd 90e4 623d aac9 b7bb 7a80 9d3d
00000190: 10c6 a93d 04e9 53bd 7ccf d6bd df80 833d
000001a0: 4f89 10be 0a33 edbc 2841 4dbd 7a37 babd
000001b0: c035 963b 138f e7bd 84e2 e5bd bf1c d2bd
000001c0: 1e2a a63d 345e 6c3c f4f4 8cbd 2ed5 d23d
000001d0: cdf5 9ebd 5249 653b 24a9 593d b11c db3d
000001e0: 4fce e7bd 5cf7 e8bd ba28 e6bc 55b5 ab3d
000001f0: 0245 713d 4653 b8bd dab8 febd 160a 0e3e
00000200: 1331 0a3c 3c30 ed3a 542b d43d 4ac6 a4bd
00000210: 039f 3a3d 9a60 a23d a1d3 febd 36a0 d93d
00000220: 4ea6 36bd 5c55 023e a0f0 c83d 2fe4 e6bd
00000230: b621 f2bc 5dd1 87bd a2c3 3bbd 0862 00be
00000240: 5927 373d 3145 70bb f856 6dbd f5b5 b9bd
00000250: fbc8 ec3d 29f7 acbd 292b 05be fcfe bdbc
00000260: ec9b aa3d db1a 40bd 8592 003e 86fd 083e
00000270: 66cf 81bd ca9d ba3d d017 8dbd 40d3 473d
00000280: 34ac c63c 994e b9bd 478a 393d c89c 643c
00000290: 73c5 6d3c 1fd9 453d da67 343e b049 a63d
000002a0: 46d9 133d 3287 153d 260c f13d 6ecd 583d
000002b0: 7e82 023e c26c 1dbd a322 483d 56be 25bc
000002c0: bd2a 0abd 3781 003d 2e43 973d 5a70 733a
000002d0: 8ffd 54bd ab43 093d 7532 8a3d 1cff 2a3d
000002e0: fb2e 00bd c35a 593d e820 943d ae7f 3b3c
000002f0: c1ee b4bb 16ef a53d 37be 5d3b 99d3 e5bd
00000300: 8865 203d ac52 b4bd a4e5 91bd 4e98 2bbe
00000310: b1e2 47bd 4eba 4a3d d056 b53c 39dc 9bbd
00000320: 4f3e 9b3d 380a ce3c f919 e8bd 31d0 773c
00000330: 084d 13bd ace3 223d d74b c83c 2fea 35b1
00000340: af1f 93bc 6b8e 0cbd 3aef b63d 8d07 00be
00000350: bc49 093d e7cb 71bd 20e5 82bd a851 e1bd
00000360: 9f5c 293c 9f07 443d 07b5 85bc c70e d9bd
00000370: 1416 e13d c0ce e53d ff2b c9bd ccb6 14be
00000380: 3491 6c3d 8bba 9f3d d2dd 40bd bb1a 4b3c
00000390: c467 a1bd 0a64 b33d 8e3f 0ebe 6c92 9fbd
000003a0: cdb6 bc3d d5af f63d 73fb dc3a 5607 a93c
000003b0: d343 c13d 16cb da3d 7f52 fdbd efea 29bc
000003c0: d718 5d3d 3db1 14bd 43f8 da3d 1365 08bd
000003d0: 58bc 0abe 1fa5 163d bf46 00be 19e9 e83d
000003e0: 1ddb e3bc 9478 6d3d 7267 e33d 8a7e 15be
000003f0: f221 543d edea 34bd 0108 f93c 4d78 2ebb

dec.lin2.bias f4 [64]
-0.13592318 0.010808524 0.057306986 0.116123766 -0.01925527 0.11920542 0.15047638 0.03193284
-0.026467677 0.047223516 -0.0067153615 -0.09827771 -0.0069631734 -0.14125565 0.14087653 0.07611732
-0.09071651 0.12251765 -0.031523757 -0.10124819 0.083234906 0.0077698547 -0.14835002 -0.27899644
0.020630928 0.09024258 0.03170113 0.016332874 -0.03137406 -0.08696052 -0.05253814 0.019416373
-0.009655818 0.1253903 -0.067393 0.019015508 0.1063492 0.049731594 0.091882676 0.050293025
-0.014821722 0.13803639 -0.072698586 -0.18974929 -0.02220957 0.10539392 0.104808055 0.12956056
-0.09265017 0.14480312 0.13079709 0.093846604 -0.06488527 0.07915918 -0.034652635 -0.081167355
0.019072924 -0.021317339 0.097397245 0.012095306 0.021379748 0.096536845 0.0922372 -0.061666414
00000000: 722f 0bbe 3c16 313c bbba 6a3d 4cd2 ed3d
00000010: 3abd 9dbc f921 f43d 7b16 1a3e 02cc 023d
00000020: bed2 d8bc 726d 413d 890c dcbb d345 c9bd
00000030: 552b e4bb 52a5 10be f041 103e 66e3 9b3d
00000040: 94c9 b9bd 89ea fa3d 0e1f 01bd 365b cfbd
00000050: 1077 aa3d 449a fe3b 11e9 17be 9fd8 8ebe
00000060: 3102 a93c 1ad1 b83d 0bd9 013d 85cc 853c
00000070: 1682 00bd 5b18 b2bd 3c32 57bd 160f 9f3c
00000080: 7033 1ebc 5166 003e 5705 8abd 69c6 9b3c
00000090: 9ccd d93d 5bb3 4b3d fc2c bc3d 0f00 4e3d
000000a0: cfd6 72bc 6959 0d3e ffe2 94bd a34d 42be
000000b0: d8f0 b5bc c4d8 d73d 9ba5 d63d 86ab 043e
000000c0: 5fbf bdbd 4547 143e acef 053e a632 c03d
000000d0: 92e2 84bd 351e a23d ecef 0dbd 123b a6bd
000000e0: d23e 9c3c b3a1 aebc 3578 c73d 642b 463c
000000f0: 9524 af3c 1cb5 c53d dbe6 bc3d ec95 7cbd

dec.lin2.weight_v f4 [64, 64]
0.060450852 0.022308256 0.006979592 0.030129662 -0.013574761 0.0886152 0.024599826 0.07555801
-0.061108477 0.07280408 0.110202536 -0.00080140424 -0.04138746 -0.025239516 -0.056232423 0.021965295
0.009607178 0.03128975 0.045486085 0.12583981 0.06962962 0.12824719 0.06837296 -0.059767824
0.08297183 -0.114349775 -0.06597625 0.02578696 -0.0955772 0.101436004 -0.0005992553 0.051812552
-0.107140444 0.030045431 0.057185248 0.037206586 -0.11135205 -0.048734665 0.02440502 -0.055505227
-0.10287334 -0.0784733 0.14393178 0.029135581 -0.024967752 0.112973645 0.011868033 -0.056320623
0.12914512 0.026059138 -0.100227915 -0.08237176 0.04381364 -0.065305315 -0.08981718 0.09955569
-0.10673384 -0.022886463 0.024722887 -0.053859588 0.058611177 0.041969504 0.039185345 0.025647229
0.06225962 0.06584552 0.10326088 -0.031627856 -0.03145353 -0.013205784 -0.14193474 -0.044475842
-0.0849404 -0.06336515 0.018783087 -0.03296573 -0.06458916 0.03098528 -0.0023184067 -0.12392501
-0.06172109 -0.11334474 0.021909172 -0.00030808354 -0.10870109 0.070513465 -0.0015157631 0.06975656
-0.002650716 -2.8275459e-05 -0.05590948 -0.07935601 -0.14439347 -0.032589935 -0.08290265 0.0012604885
0.08289457 -0.073516235 0.04973887 -0.044029012 0.021270465 0.038705517 0.097477324 0.12640232
0.016951801 0.076451436 0.10510848 -0.107271366 0.00868724 -0.08775914 -0.11907365 0.083644725
0.097213835 -0.050042007 0.1238391 0.017214008 -0.11847473 0.08531426 0.10671155 -0.13206732
-0.053908445 0.1333515 0.08325359 -0.087196045 -0.13554248 0.022424497 0.031179827 0.1255973
-0.0553564 -0.05868153 0.05567094 0.09198454 0.11015776 -0.027035713 0.0027402348 -0.01749056
0.03016517 0.08001136 0.07351142 0.049877178 0.0016278505 -0.010652137 -0.05609444 -0.1102811
-0.0038000299 -0.15331888 0.017000891 -0.06348755 -0.005454609 0.004994596 -0.0887353 0.0076436154
0.0836389 -0.052631978 0.09615701 0.047942933 -0.12543908 0.0050921165 0.01804282 -0.014097535
-0.13507617 -0.05002649 0.095690675 -0.098204054 0.05405509 0.0020700092 0.7035223 -1.1520799e-06
0.030323569 -0.010434697 -0.019471308 0.0084324 -0.0010110888 0.06269723 -0.11795558 -0.017987682
0.05216301 -0.02624828 -0.0049430938 -0.06056407 -0.022704683 -0.09852539 -0.10671049 5.1696564e-37
0.07969882 0.027948432 0.10144552 -0.08042658 0.013412343 -0.09103327 -0.04163064 -0.016815806
-0.079455696 0.025691714 0.08797877 -0.029089529 -0.07290376 0.025878329 -0.05883076 -0.087344624
-0.055996694 0.045690347 0.0038594643 0.042613782 -0.0016116716 -0.012695659 -0.0049746786 0.04518929
0.08181813 0.06417934 0.025423624 0.12230954 -0.013530258 0.030704219 0.07695968 0.089418486
-0.09205384 0.038759865 0.030850742 -0.080477156 -0.17917 0.076331936 -9.661105e-06 0.017203616
-0.08736678 -0.024148682 -0.08397573 -0.13336876 0.09544943 0.07917995 -0.3568044 -0.011199892
0.016973075 -0.14389218 0.07247583 -0.008376442 -0.01715533 -0.14096521 0.15829092 -1.01362675e-10
-0.109559745 -0.017248739 -3.85244e-07 -0.056109454 0.12716374 0.0050455644 -0.009274561 8.337611e-08
0.023029126 0.110127576 -0.03233639 0.11499121 -0.016050715 0.12254839 -0.06355911 -0.020774318
00000000: 509b 773d cebf b63c 10b5 e43b 7bd2 f63c
00000010: ad68 5ebc e37b b53d 9385 c93c 28be 9a3d
00000020: e24c 7abd 4e1a 953d deb1 e13d 5415 52ba
00000030: e685 29bd 1ac3 cebc f853 66bd 90f0 b33c
00000040: 6d67 1d3c ae29 003d 9e4f 3a3d 27dc 003e
00000050: f999 8e3d 3b53 033e 1f07 8c3d 1bcf 74bd
00000060: 23ed a93d 3730 eabd 8e1e 87bd 2d3f d33c
00000070: fbbd c3bd aebd cf3d 5817 1dba 6639 543d
00000080: 736c dbbd d621 f63c 143b 6a3d ef65 183d
00000090: 8b0c e4bd 009e 47bd 09ed c73c 7359 63bd
000000a0: 42af d2bd 9cb6 a0bd da62 133e bead ee3c
000000b0: 2c89 ccbc ba5e e73d 2372 423c 74b0 66bd
000000c0: 9e3e 043e f979 d53c 4b44 cdbd 86b2 a8bd
000000d0: ee75 333d cbbe 85bd 12f2 b7bd dbe3 cb3d
000000e0: 4697 dabd 647c bbbc a787 ca3c df9b 5cbd
000000f0: 4612 703d 37e8 2b3d d080 203d 231a d23c
00000100: f103 7f3d 04da 863d 717a d33d 368c 01bd
00000110: 6bd5 00bd 135d 58bc 5757 11be 4d2c 36bd
00000120: 3cf5 adbd 96c5 81bd fdde 993c 1307 07bd
00000130: 5247 84bd d8d4 fd3c 69f0 17bb 65cc fdbd
00000140: 41cf 7cbd 4921 e8bd dd7a b33c 4686 a1b9
00000150: ad9e debd 5d69 903d 92ac c6ba 87dc 8e3d
00000160: a3b7 2dbb 1631 edb7 5701 65bd 6785 a2bd
00000170: e2db 13be 067d 05bd ddc8 a9bd fa36 a53a
00000180: a1c4 a93d ae8f 96bd fcba 4b3d c457 34bd
00000190: 663f ae3c ad89 1e3d 31a2 c73d 9c6f 013e
000001a0: 81de 8a3c 9292 9c3d 1d43 d73d 17b1 dbbd
000001b0: ed54 0e3c 10bb b3bd e3dc f3bd ed4d ab3d
000001c0: 0c18 c73d d9f8 4cbd 5b9f fd3d 6404 8d3c
000001d0: e1a2 f2bd 3eb9 ae3d 968b da3d a83c 07be
000001e0: 1acf 5cbd 4c8d 083e dc80 aa3d d793 b2bd
000001f0: a6cb 0abe 94b3 b73c d66c ff3c 949c 003e
00000200: 64bd 62bd 0b5c 70bd 3607 643d 6462 bc3d
00000210: 649a e13d 007a ddbc 8395 333b 5d48 8fbc
00000220: f21c f73c ffdc a33d 288d 963d 034c 4c3d
00000230: 995d d53a 4d86 2ebc 49c3 65bd 0fdb e1bd
00000240: ec09 79bb a0ff 1cbe 7445 8b3c c305 82bd
00000250: 94bc b2bb b5a9 a33b daba b5bd 4b77 fa3b
00000260: df4a ab3d a194 57bd f7ed c43d cf5f 443d
00000270: 1a73 00be c5db a63b 89ce 933c 59f9 66bc
00000280: 6851 0abe 94e8 4cbd 79f9 c33d 351f c9bd
00000290: df68 5d3d fea8 073b 0a1a 343f 2aa1 9ab5
000002a0: 2269 f83c 4bf6 2abc 4b82 9fbc 0d28 0a3c
000002b0: 8386 84ba 6867 803d b292 f1bd e75a 93bc
000002c0: e1a8 553d a206 d7bc adf9 a1bb 0812 78bd
000002d0: 2cff b9bc aec7 c9bd 088b dabd 0fea 2f03
000002e0: 2339 a33d 1cf4 e43c abc2 cf3d b1b6 a4bd
000002f0: 72bf 5b3c a76f babd e484 2abd 4dc1 89bc
00000300: abb9 a2bd 6e77 d23c 372e b43d 2a4d eebc
00000310: 914e 95bd cafe d33c 86f8 70bd bde1 b2bd
00000320: ca5c 65bd cd25 3b3d 11ef 7c3b ca8b 2e3d
00000330: ba3e d3ba 7401 50bc a102 a3bb 6818 393d
00000340: 4490 a73d 7570 833d 3445 d03c 6d7d fa3d
00000350: 04ae 5dbc 6a87 fb3c 099d 9d3d 0a21 b73d
00000360: b986 bcbd aac2 1e3d b2ba fc3c 35d1 a4bd
00000370: 5778 37be eb53 9c3d 2116 22b7 99ee 8c3c
00000380: 5bed b2bd 75d3 c5bc 78fb abbd d291 08be
00000390: fe7a c33d 1929 a23d 11af b6be c07f 37bc
000003a0: 1e0b 8b3c 7958 13be 356e 943d 583d 09bc
000003b0: 5689 8cbc 2f59 10be 0417 223e 1de6 deae
000003c0: dc60 e0bd 3a4d 8dbc 88d3 ceb4 07d3 65bd
000003d0: 3637 023e 4355 a53b 54f4 17bc 800c b333
000003e0: 94a7 bc3c 918a e13d 2a73 04bd 8380 eb3d
000003f0: ca7c 83bc a6fa fa3d 472b 82bd e72e aabc

dec.lin3.weight_v f4 [1, 64]
-0.06265514 -0.004201064 -0.061990187 0.10578142 -0.107918166 0.09690366 -0.0931754 0.1172949
0.027567476 -0.076167665 -0.013240446 -0.04336719 0.05738754 -0.07921323 0.05384569 0.10110493
-0.0118787475 -0.08233015 -0.0130860815 -0.1780494 -0.07766771 5.18e-42 -0.1713185 -0.18710771
-0.10345472 -0.023077201 -0.017885605 -0.049711958 -0.05204918 -0.07616116 -0.005084416 0.022600261
0.037396193 0.07646839 -0.027685558 -0.055217896 -0.09141016 -0.10772572 0.14761706 -0.11587532
0.074930966 0.030145507 0.067803495 -0.25167286 -0.04359615 -0.053102203 -0.043896265 0.0328074
0.10893288 -0.09760933 0.11757705 0.08075025 0.11096308 0.110635884 0.058804017 0.09748779
0.078295805 -8.3801206e-05 0.1364398 0.00016707016 0.009400348 -0.040335633 -0.018077817 -0.079587124
00000000: 5751 80bd 14a9 89bb 6ce9 7dbd eea3 d83d
00000010: 3304 ddbd 6d75 c63d bed2 bebd 4f38 f03d
00000020: 30d5 e13c cbfd 9bbd 75ee 58bc cba1 31bd
00000030: 320f 6b3d 8c3a a2bd 4c8d 5c3d 1a10 cf3d
00000040: 149f 42bc b69c a8bd 0167 56bc 9552 36be
00000050: 4010 9fbd 710e 0000 1e6e 2fbe 2a99 3fbe
00000060: 11e0 d3bd 660c bdbc d584 92bc c49e 4bbd
00000070: 8531 55bd 62fa 9bbd 2c9b a6bb 2f24 b93c
00000080: c02c 193d 769b 9c3d d3cc e2bc 292c 62bd
00000090: 4035 bbbd 4d9f dcbd ed28 173e 0a50 edbd
000000a0: 6875 993d b6f3 f63c 8fdc 8a3d 44db 80be
000000b0: e091 32bd b281 59bd 92cc 33bd 0d61 063d
000000c0: 3418 df3d 67e7 c7bd 3dcc f03d 6360 a53d
000000d0: 9c40 e33d 1195 e23d 7bdc 703d aea7 c73d
000000e0: 8d59 a03d 6ebe afb8 e0b6 0b3e 8e2f 2f39
000000f0: eb03 1a3c fa36 25bd ee17 94bc 93fe a2bd

exp_avg f4 [64]
9.245918e-05 0.000109670305 -9.508977e-05 -1.0492577e-05 -0.000120108576 6.7903084e-06 6.7592926e-05 -9.888738e-05
4.183731e-06 0.00010238139 1.51870345e-05 9.866422e-05 1.7491162e-05 -4.2060863e-05 -0.00024176952 6e-45
2.5134306e-05 1.579293e-05 7.106553e-07 3.7589245e-05 3.525507e-05 -0.00012248445 -0.0001016643 -0.00016502167
0.000106627034 3.985783e-06 -2.0195532e-05 8.181501e-05 -1.6793392e-05 6.3132247e-06 0.00014503962 9.445255e-05
-5.662872e-05 -1.64341e-05 0.00022542416 1.5782716e-05 0.00019582907 -1.18069975e-05 2.3631725e-05 3.5191438e-06
2.8276872e-05 -2.65264e-05 4.8500682e-05 -9.5064934e-05 2.2595419e-05 8.801726e-06 0.0002349473 2.1609225e-05
-0.00013610371 -6.669386e-05 -9.5601405e-05 1.0492133e-05 -4.022026e-05 4.7517082e-05 0.00012114591 -2.8735292e-05
-2.452482e-07 4.665358e-05 6.671264e-05 -6.66112e-07 -1.4668965e-05 5.329711e-05 -3.375788e-05 -0.00010774934
00000000: a5e6 c138 ccfe e538 ee6a c7b8 4609 30b7
00000010: cde2 fbb8 4ed8 e336 adc0 8d38 c261 cfb8
00000020: fa61 8c36 97b5 d638 d1cb 7e37 f3e9 ce38
00000030: fcb9 9237 826a 30b8 8383 7db9 0400 0000
00000040: 83d7 d237 0f7b 8437 dcc3 3e35 25a9 1d38
00000050: d8de 1338 2b6f 00b9 9b34 d5b8 ab09 2db9
00000060: f49c df38 9ebd 8536 9369 a9b7 1994 ab38
00000070: 89df 8cb7 30d6 d336 c715 1839 d414 c638
00000080: a084 6db8 f6db 89b7 d65f 6c39 2065 8437
00000090: 7757 4d39 ab16 46b7 be3c c637 6e2a 6c36
000000a0: 1f34 ed37 0385 deb7 366d 4b38 995d c7b8
000000b0: 4b8b bd37 20ab 1337 305c 7639 7545 b537
000000c0: 10b7 0eb9 fedd 8bb8 9d7d c8b8 5e07 3037
000000d0: 2db2 28b8 144d 4738 b70f fe38 920c f1b7
000000e0: a8aa 83b4 e6ad 4338 13e8 8b38 dece 32b5
000000f0: ba1a 76b7 568b 5f38 3f97 0db8 7df7 e1b8

exp_avg_sq f4 [64]
1.2748501e-06 1.8350003e-07 2.7833931e-07 1.0371161e-06 1.6096027e-07 3.6729622e-07 1.06013445e-07 1.2471709e-06
2.1878529e-07 9.474134e-07 3.9337647e-07 9.613801e-07 8.833591e-07 8.6343675e-07 1.0268271e-06 1.6494901e-14
2.4633226e-07 1.3286347e-06 1.7088686e-06 2.7929488e-07 4.0753937e-07 1.0413372e-06 4.6110634e-07 8.3945673e-07
2.1658815e-07 3.1686484e-06 1.2560167e-07 4.7716117e-07 5.8575228e-08 1.6602245e-07 1.4154176e-06 4.8984966e-06
2.9415903e-06 3.9102412e-07 9.172272e-07 7.6216384e-07 6.319447e-07 1.9461257e-07 5.8358626e-07 1.2263561e-06
9.119538e-08 3.0908354e-06 1.0782796e-06 7.703654e-06 1.2287701e-07 2.6151352e-07 1.017887e-06 6.5717165e-07
2.5339307e-06 1.1084236e-06 1.002249e-06 8.762967e-07 4.706124e-07 3.8829847e-07 7.269527e-07 1.678594e-06
5.6351655e-07 2.2936695e-07 4.6451981e-07 1.0832594e-07 2.9008604e-07 1.8075258e-07 4.4410652e-07 7.5555494e-07
00000000: 841b ab35 1b08 4534 aa6e 9534 0a33 8b35
00000010: 6cd4 2c34 cf30 c534 82a9 e333 7764 a735
00000020: 3eeb 6a34 c151 7e35 4031 d334 c508 8135
00000030: fa1f 6d35 ecc6 6735 83d1 8935 a792 9428
00000040: a63f 8434 8a53 b235 475c e535 fff1 9534
00000050: c9cb da34 13c4 8b35 f98d f734 0757 6135
00000060: 4c8f 6834 f7a4 5436 20dd 0634 4416 0035
00000070: 2594 7b33 e743 3234 61f9 bd35 c45d a436
00000080: 2368 4536 f2ed d134 6037 7635 8097 4c35
00000090: e9a2 2935 b2f6 5034 bea7 1c35 4699 a435
000000a0: 31d7 c333 266c 4f36 68b9 9035 f13e 0137
000000b0: 2df0 0334 2566 8c34 559e 8835 7e68 3035
000000c0: 990c 2a36 25c5 9435 0385 8635 a73a 6b35
000000d0: 7aa8 fc34 5677 d034 cf23 4335 0d4c e135
000000e0: 9044 1735 e847 7634 1e63 f934 d1a0 e833
000000f0: 1fbd 9b34 e414 4234 896d ee34 57d1 4a35

exp_avg f4 [64, 4]
1.6334106e-05 6.361904e-05 -0.000104515886 -0.00012024829 3.915964e-05 0.00012220703 2.7714264e-06 -4.985422e-05
-8.893945e-06 -1.6331947e-05 -1.15609055e-05 -1.6868765e-06 -7.1759285e-05 -8.311674e-05 -2.7886534e-05 -0.00014500612
-4.5243847e-05 1.6002921e-06 4.6829646e-05 -5.228612e-05 2.23967e-05 2.1746322e-05 1.9827008e-05 -5.422877e-05
1.4690154e-05 3.8799073e-05 -1.1463347e-05 -4.4286426e-05 7.5942485e-06 7.844968e-05 -6.419805e-05 0.00012981641
1.6209548e-06 2.223844e-06 1.777079e-05 -2.4574145e-05 6.9428956e-05 8.263945e-05 -6.164387e-05 -0.00034031336
3.2906566e-05 3.0926836e-05 -5.6624514e-05 6.6959283e-06 -6.88834e-05 0.00016899785 0.00023865688 -0.00015653111
3.9762046e-05 4.8480433e-05 -0.00011665998 -3.0933996e-05 2.7167942e-05 2.1416425e-05 -5.895842e-05 -0.00015847976
-9.121739e-05 -0.00017603998 0.00029825958 -0.00021464596 6e-45 6e-45 6e-45 6e-45
1.8153227e-05 3.7945538e-05 6.7652422e-06 -6.391078e-05 -2.0940222e-05 -0.0003399983 -0.00031082786 -0.00024845524
-1.3528742e-05 -2.3055994e-05 0.00013335953 0.00029437864 9.513082e-05 6.450018e-05 0.000114790615 4.9849088e-05
0.00013695128 9.487143e-05 8.3880135e-05 -7.642259e-05 7.0356655e-05 -4.6425062e-05 -0.00017260319 0.00051444006
-6.9847556e-05 -2.012778e-05 -1.9669997e-05 9.1373615e-05 0.00011383033 -6.434831e-05 -4.5544028e-05 -0.00012622091
0.00015244716 0.00019362946 -8.342726e-05 1.1768504e-05 6.0168408e-05 0.00014070119 4.7413858e-05 -0.0002989785
1.6576041e-05 4.4805554e-05 -4.137476e-05 -8.410701e-05 -2.4363459e-05 1.2735248e-05 2.2829136e-05 -3.4883553e-05
-5.930552e-05 -0.00011482502 0.00036618294 -6.764535e-07 -7.259139e-05 -3.405757e-05 -1.0383278e-06 6.33938e-05
0.00010077304 -4.1172196e-05 -2.1266307e-05 -0.00018775009 -0.00010295928 -0.000100197845 -2.3438326e-05 -0.00022368874
0.00019562045 5.1615654e-05 -1.696238e-05 -0.00023518804 -3.8747497e-05 -4.0561416e-05 5.718372e-05 0.0001374091
-0.00025282102 0.0005190353 5.632446e-05 8.364485e-05 3.87096e-05 3.591488e-05 4.9991475e-05 -0.00032239643
2.6219619e-05 3.7761405e-05 -4.949571e-05 -3.1515257e-05 -1.319404e-05 -6.203443e-06 0.00023669258 -0.00025960966
-3.2528536e-05 -2.5238016e-05 -6.762626e-05 -4.5367947e-06 -2.5380526e-05 -2.9522622e-05 -1.879326e-05 -6.179456e-05
-8.197957e-05 -4.1391108e-05 -3.8942344e-05 -8.9292094e-05 -1.8169876e-05 -1.7158998e-05 0.00022724332 0.00045110055
-0.00018314557 1.2652556e-05 -4.9347567e-05 4.6367262e-05 0.00025605856 0.00026585464 -0.00051139406 -0.00031944207
0.00021445761 -9.144277e-05 -4.716337e-05 -1.6815755e-05 -1.5910877e-05 -1.8108192e-05 6.8463465e-05 4.0129467e-05
0.00015184861 1.808762e-05 2.2427124e-05 -3.41414e-05 4.1099072e-05 8.232148e-05 -5.0864146e-05 -0.00011339347
-0.00011339638 -3.9355826e-05 -0.000112158705 -0.00021835856 -0.00046302058 -0.00046164021 -0.0001065531 0.00013084097
-1.04405e-05 -1.0592642e-05 0.00016450469 0.0001038057 2.8641405e-05 2.8289995e-05 8.070739e-05 -6.425619e-05
-4.9220605e-05 -1.294998e-05 0.00022885448 0.00012929189 5.4820564e-05 4.8012946e-05 3.2898836e-06 3.1177457e-05
-0.0001320603 0.0010659206 -0.0005640209 0.00037159966 -3.3126682e-05 -2.5396555e-05 0.00012891796 8.6590044e-05
2.4707639e-05 4.4320957e-05 -3.9593724e-05 -0.00013754245 -1.7595608e-05 -1.6558814e-05 -7.829789e-06 -4.902595e-05
3.88969e-05 3.964716e-05 -5.6164205e-05 3.285291e-05 -1.4480494e-05 -1.4758089e-05 -2.2163837e-05 -5.5427626e-07
2.9839635e-05 2.4692616e-05 2.9126728e-05 7.791803e-06 -1.0181405e-05 3.1273925e-05 -9.101898e-06 -1.0615207e-05
-1.1484843e-06 -2.2393617e-06 -8.0004094e-05 -0.00013699752 -1.6825188e-05 9.906253e-07 9.054839e-05 0.0001985635
00000000: 3a05 8937 366b 8538 8a2f dbb8 cf2d fcb8
00000010: 583f 2438 b324 0039 befc 3936 901a 51b8
00000020: 3437 15b7 9700 89b7 b6f5 41b7 a368 e2b5
00000030: 797d 96b8 f64e aeb8 e0ed e9b7 c90c 18b9
00000040: 36c4 3db8 9ec9 d635 f36a 4438 cb4d 5bb8
00000050: 8ce0 bb37 df6b b637 2d52 a637 b373 63b8
00000060: bb75 7637 30bc 2238 b352 40b7 30c0 39b8
00000070: 19d2 fe36 5a85 a438 11a2 86b8 541f 0839
00000080: 958f d935 593d 1536 7b12 9537 9324 ceb7
00000090: 639a 9138 b84e ad38 cd46 81b8 166c b2b9
000000a0: 2805 0a38 70b7 0138 1c80 6db8 96ad e036
000000b0: 7e75 90b8 0435 3139 f83f 7a39 8022 24b9
000000c0: 2cc6 2638 7857 4b38 5aa7 f4b8 20bf 01b8
000000d0: b6e6 e337 6ca7 b337 1f4a 77b8 962d 26b9
000000e0: f74b bfb8 5f97 38b9 b95f 9c39 9612 61b9
000000f0: 0400 0000 0400 0000 0400 0000 0400 0000
00000100: c247 9837 b627 1f38 fd00 e336 d707 86b8
00000110: c9a8 afb7 cd41 b2b9 9cf6 a2b9 1943 82b9
00000120: 81f9 62b7 5f68 c1b7 6dd6 0b39 d556 9a39
00000130: f880 c738 4544 8738 bebb f038 0d15 5138
00000140: 949a 0f39 b6f5 c638 cee8 af38 1145 a0b8
00000150: 718c 9338 88b8 42b8 d1fc 34b9 7ddb 063a
00000160: 1f7b 92b8 14d8 a8b7 ff00 a5b7 d69f bf38
00000170: 31b8 ee38 bcf2 86b8 8706 3fb8 2b5a 04b9
00000180: 39da 1f39 0309 4b39 abf5 aeb8 5771 4537
00000190: 565d 7c38 3089 1339 3ede 4638 37c0 9cb9
000001a0: c70c 8b37 99ed 3b38 cf89 2db8 9b62 b0b8
000001b0: 2160 ccb7 79a9 5537 3281 bf37 ee4f 12b8
000001c0: d1be 78b8 37ce f0b8 3efc bf39 8895 35b5
000001d0: 353c 98b8 0ad9 0eb8 ac5c 8bb5 4af2 8438
000001e0: 1d56 d338 4fb0 2cb8 0c65 b2b7 c8de 44b9
000001f0: d8eb d7b8 4f21 d2b8 6c9d c4b7 fd8d 6ab9
00000200: 771f 4d39 e37d 5838 6f4a 8eb7 cf9c 76b9
00000210: cf84 22b8 7d20 2ab8 8dd8 6f38 7915 1039
00000220: 108d 84b9 df0f 083a ee3d 6c38 7d6a af38
00000230: 1e5c 2238 4fa3 1638 f0ad 5138 5107 a9b9
00000240: 34f2 db37 0062 1e38 9d99 4fb8 402f 04b8
00000250: f85b 5db7 2b27 d0b6 ae30 7839 381c 88b9
00000260: 406f 08b8 3ab6 d3b7 92d2 8db8 c53a 98b6
00000270: 44e8 d4b7 59a7 f7b7 38a6 9db7 b497 81b8
00000280: 72ec abb8 5d9b 2db8 0656 23b8 5442 bbb8
00000290: 836b 98b7 abf0 8fb7 2a48 6e39 b181 ec39
000002a0: c40a 40b9 5046 5437 8cfa 4eb8 787a 4238
000002b0: 993f 8639 6862 8b39 130f 06ba ca7a a7b9
000002c0: 07e0 6039 f7c4 bfb8 48d1 45b8 8f0f 8db7
000002d0: 5978 85b7 0ce7 97b7 0b94 8f38 b050 2838
000002e0: 8d39 1f39 deba 9737 e221 bc37 0d33 0fb8
000002f0: cb61 2c38 02a4 ac38 f656 55b8 a8cd edb8
00000300: 38cf edb8 ff11 25b8 bf36 ebb8 2ef7 64b9
00000310: 92c1 f2b9 4d08 f2b9 4375 dfb8 5b32 0939
00000320: 9b29 2fb7 0db7 31b7 e47e 2c39 43b2 d938
00000330: f342 f037 4d50 ed37 7341 a938 48c1 86b8
00000340: 3972 4eb8 be43 59b7 a8f8 6f39 8792 0739
00000350: 22ef 6538 8261 4938 c5c7 5c36 8ac4 0238
00000360: ab79 0ab9 5cb6 8b3a cdda 13ba 43d3 c239
00000370: 81f1 0ab8 b00a d5b7 272e 0739 ad97 b538
00000380: 4043 cf37 44e5 3938 7011 26b8 4539 10b9
00000390: 489a 93b7 c8e7 8ab7 b05c 03b7 37a1 4db8
000003a0: 3a25 2338 d04a 2638 db91 6bb8 8bcb 0938
000003b0: 40f1 72b7 8299 77b7 7aec b9b7 93c9 14b5
000003c0: 2150 fa37 fd22 cf37 2c55 f437 8ab9 0237
000003d0: cdd0 2ab7 1f2c 0338 5bb4 18b7 f817 32b7
000003e0: 9f25 9ab5 f147 16b6 dfc7 a7b8 fea6 0fb9
000003f0: d123 8db7 a0f5 8435 cce4 bd38 7c35 5039

exp_avg_sq f4 [64, 4]
1.272305e-06 1.996143e-06 2.1279435e-07 5.640436e-07 1.4070152e-07 3.636805e-07 8.6996636e-08 5.425998e-08
1.7551629e-07 1.9860364e-07 1.0587833e-07 3.8663153e-08 6.322021e-07 8.8947763e-07 2.0473175e-07 4.3839444e-07
9.155462e-08 4.533475e-08 1.8826935e-07 6.4969875e-08 3.1265733e-07 4.1751716e-07 2.8509217e-07 5.573796e-07
1.4851032e-08 3.909395e-08 7.844478e-08 5.056612e-08 1.4021479e-06 7.1909386e-07 1.4722186e-06 1.0057673e-06
1.3140948e-06 5.275868e-07 7.115284e-07 5.8584897e-07 1.4803126e-06 2.089013e-06 1.4514353e-07 1.0656953e-06
1.490022e-07 1.2350971e-07 2.3568411e-07 2.2276375e-07 1.315318e-06 9.821877e-06 1.9668e-06 2.978196e-06
2.1069445e-07 3.9603145e-07 5.1197453e-06 1.2861443e-06 2.550763e-07 4.2086833e-07 7.865984e-08 3.3314944e-07
1.5588527e-07 5.7829965e-07 1.4633409e-06 1.0446253e-06 1.7796025e-15 3.3807275e-15 3.3268385e-14 2.7056216e-14
2.1537069e-07 9.3560067e-07 1.7658927e-08 4.318674e-07 7.770911e-06 1.11558575e-05 1.9742297e-06 7.968847e-06
5.5147865e-07 9.089102e-08 1.9725119e-06 8.30631e-07 1.928305e-06 1.0528986e-06 1.3961031e-06 1.278178e-06
5.098171e-07 1.102375e-06 8.555336e-07 5.8832234e-07 2.8786358e-06 1.8792161e-06 2.4667142e-05 8.145246e-06
7.7863525e-08 4.897977e-08 5.20755e-07 2.8458922e-07 5.9093384e-07 1.8348522e-06 4.2894456e-07 2.2483522e-07
9.841184e-07 1.2526282e-06 7.403972e-07 2.8416767e-07 4.756272e-06 1.7694446e-06 8.2715246e-07 1.7796551e-06
2.9364523e-07 9.292844e-08 1.912945e-07 7.0220835e-08 5.643597e-07 6.680924e-07 3.0549634e-07 1.2999321e-07
1.18890696e-07 4.655541e-07 2.8982836e-06 1.1972091e-06 1.0418136e-06 3.4659874e-07 4.7783925e-07 5.9810026e-07
8.163951e-07 1.6040389e-07 7.551478e-07 1.1058555e-06 4.33561e-06 1.7461617e-06 3.4278808e-06 2.194194e-06
1.6392268e-06 5.383123e-06 1.521717e-06 1.7426822e-06 9.9936834e-08 7.159151e-08 2.314061e-07 1.9314014e-07
1.0409512e-06 4.3393297e-06 6.085275e-06 6.2797915e-07 1.782623e-05 2.7142564e-06 3.5677667e-06 4.6245914e-06
1.2258408e-07 1.3763272e-07 3.3827453e-07 4.937875e-07 2.1136827e-07 4.527309e-08 6.63165e-07 6.836191e-07
3.2969334e-07 1.4468524e-06 7.203599e-07 1.9785895e-07 9.99562e-07 5.168095e-07 1.6447229e-06 3.5582096e-07
1.5122484e-06 2.1629543e-07 4.1451437e-07 1.0487369e-06 2.5554394e-07 2.2689186e-07 2.703276e-06 1.5873427e-06
1.7483171e-06 2.458248e-06 4.3921415e-07 2.4783747e-06 0.00022702436 3.314528e-05 4.800371e-05 5.6145193e-05
8.467007e-07 1.5966175e-07 1.8255066e-06 1.3573023e-06 1.15778525e-08 1.507888e-08 3.5279228e-07 1.4585592e-07
9.025056e-07 3.7133324e-07 8.732296e-07 3.5803123e-07 2.9566667e-07 8.444977e-07 1.2595896e-07 2.6049628e-07
1.2100036e-06 1.393958e-07 1.4122409e-06 1.3801877e-06 1.0365196e-05 1.2482534e-05 1.2943475e-05 1.9800016e-05
6.98018e-08 7.063536e-08 7.577236e-07 4.404025e-07 9.693991e-07 9.652132e-07 9.580956e-07 3.0552005e-07
6.359623e-07 6.46757e-07 9.854248e-07 4.0451442e-07 3.7900963e-07 3.4611259e-07 2.239905e-07 1.6847216e-07
4.0213807e-05 0.00014551533 1.2540199e-05 4.275516e-06 5.6163464e-07 8.116675e-07 6.522473e-07 8.882092e-07
2.41862e-07 5.6592256e-07 3.210886e-07 2.1609948e-07 6.7748196e-08 1.2391381e-07 2.903617e-07 3.432624e-07
1.8190126e-07 1.8864752e-07 5.310747e-07 8.4397215e-08 1.4823527e-06 9.92967e-07 2.3850582e-06 6.825076e-07
2.6359928e-07 1.7195998e-07 1.7932015e-07 1.7785963e-07 1.3601863e-07 2.2560961e-07 2.2405848e-07 1.8062075e-07
2.1557172e-07 1.1264001e-06 4.6400714e-07 3.6253374e-07 5.519272e-07 2.374668e-07 6.1685176e-07 4.343653e-07
00000000: 11c4 aa35 7af5 0536 777c 6434 c868 1735
00000010: bd13 1734 de3f c334 e8d2 ba33 7b0b 6933
00000020: 8d75 3c34 c13f 5534 3a5f e333 960e 2633
00000030: 99b4 2935 70c4 6e35 3cd4 5b34 795c eb34
00000040: af9c c433 16b6 4233 1627 4a34 9185 8b33
00000050: 4cdb a734 1f27 e034 c50e 9934 d69e 1535
00000060: 8823 7f32 41e8 2733 7975 a833 092e 5933
00000070: 6f31 bc35 c107 4135 0c99 c535 e7fd 8635
00000080: f45f b035 7d9f 0d35 dcff 3e35 3c43 1d35
00000090: 27af c635 f830 0c36 c0d8 1b34 0309 8f35
000000a0: 6afd 1f34 179e 0434 5b10 7d34 d530 6f34
000000b0: fb89 b035 a4c8 2437 5efd 0336 05dd 4736
000000c0: 403b 6234 269e d434 47ca ab36 959f ac35
000000d0: 6bf1 8834 b4f3 e134 b4eb a833 b6db b234
000000e0: 6b61 2734 733c 1b35 0368 c435 0d35 8c35
000000f0: df3b 0027 6a9b 7327 d6d3 1529 63b3 f328
00000100: a540 6734 fd25 7b35 64b0 9732 67db e734
00000110: cf5f 0237 0b2a 3b37 027d 0436 f0b1 0537
00000120: 5309 1435 de2f c333 7f5f 0436 87f8 5e35
00000130: 0768 0136 5251 8d35 bd61 bb35 dd8d ab35
00000140: 5dda 0835 51f5 9335 d2a7 6535 34ed 1d35
00000150: 962e 4136 6039 fc35 49ec ce37 91a7 0837
00000160: ed35 a733 d45d 5233 03ca 0b35 a5c9 9834
00000170: aaa0 1e35 0b45 f635 b149 e634 3c6a 7134
00000180: 0d16 8435 fa1f a835 b5bf 4635 b58f 9834
00000190: 1198 9f36 a77d ed35 7c09 5e35 7cdc ee35
000001a0: 4ba6 9d34 f38f c733 a266 4d34 50cc 9633
000001b0: 817e 1735 f656 3335 1903 a434 4394 0b34
000001c0: da50 ff33 45f1 f934 2280 4236 cbaf a035
000001d0: 71d4 8b35 2b14 ba34 dd44 0035 238d 2035
000001e0: 3e26 5b35 7c3b 2c34 5db5 4a35 e86c 9435
000001f0: 9b7a 9136 a95d ea35 8b0a 6636 f73f 1336
00000200: 6703 dc35 ada0 b436 cc3d cc35 1be6 e935
00000210: db9c d633 d9bd 9933 6d78 7834 f561 4f34
00000220: d0b6 8b35 8f9a 9136 1d30 cc36 6692 2835
00000230: 8a89 9537 9226 3636 c46d 6f36 f02c 9b36
00000240: a89f 0334 32c8 1334 199c b534 d28c 0435
00000250: 78f4 6234 4a72 4233 5a04 3235 f281 3735
00000260: b500 b134 7831 c235 c15e 4135 0e73 5434
00000270: b028 8635 e1ba 0a35 40c0 dc35 a907 bf34
00000280: 76f8 ca35 d63e 6834 6c8a de34 53c2 8c35
00000290: b131 8934 8f9f 7334 ee69 3536 ae0c d535
000002a0: b8a7 ea35 61f8 2436 22cd eb34 2752 2636
000002b0: 630d 6e39 7905 0b38 9757 4938 717d 6b38
000002c0: d448 6335 7d6f 2b34 ee03 f535 8d2c b635
000002d0: efe7 4632 cf86 8132 6767 bd34 929c 1c34
000002e0: b643 7235 a75b c734 e267 6a35 7037 c034
000002f0: 1ebc 9e34 71b1 6235 563f 0734 56da 8b34
00000300: 6867 a235 d3ac 1534 3a8c bd35 e33e b935
00000310: 2ee6 2d37 136c 5137 cd27 5937 3618 a637
00000320: f2e5 9533 33b0 9733 5f66 4b35 7570 ec34
00000330: 4d1c 8235 798c 8135 ea97 8035 5b06 a434
00000340: ffb6 2a35 cd9c 2d35 f042 8435 0a2c d934
00000350: b07a cb34 5ad1 b934 0a82 7034 46e5 3434
00000360: 3fab 2838 7995 1839 bf63 5237 6776 8f36
00000370: 3dc3 1635 5ee1 5935 1816 2f35 456d 6e35
00000380: 43d9 8134 e7e9 1735 1562 ac34 f908 6834
00000390: f77c 9133 2b0d 0534 02e3 9b34 a049 b834
000003a0: a350 4334 098f 4a34 2d8f 0e35 dc3d b533
000003b0: 40f5 c635 1646 8535 fd0e 2036 9135 3735
000003c0: cf84 8d34 00a4 3834 268b 4034 aff9 3e34
000003d0: 840c 1234 193f 7234 ba94 7034 a7f0 4134
000003e0: e777 6734 d02e 9735 a81c f934 42a2 c234
000003f0: 2628 1435 60fa 7e34 bb95 2535 b632 e934

exp_avg f4 [64]
-4.561654e-05 -8.027131e-06 4.3221644e-05 -3.7018926e-05 -4.396702e-05 -4.669346e-06 9.032626e-05 4.5464247e-05
-3.6534144e-05 5.4562547e-06 -1.26126715e-05 -3.9305723e-05 0.0 -4.3703592e-05 -0.00014639742 8.3840816e-05
9.9555555e-06 5.5768316e-05 -2.380414e-05 -1.1712428e-05 0.0 4.7789985e-05 -0.0001053528 -1.8454613e-05
8.91642e-06 -5.471842e-05 -2.2632523e-05 0.00010922346 8.710118e-05 -0.00013195 6e-45 3.2017153e-05
2.8267406e-05 -3.1155843e-05 -9.004178e-05 0.00010193633 6.6995024e-05 -8.972334e-05 0.00013173529 6e-45
6.6554625e-05 1.3340095e-05 1.6917525e-05 4.2313543e-05 3.1843436e-05 2.329197e-06 -0.00012863072 0.0
-4.2429907e-05 5.5796878e-05 6e-45 -2.2887123e-06 -3.252092e-05 -4.655064e-06 -3.1235172e-06 0.0
0.00013583992 -0.0001858829 3.26945e-05 2.512288e-05 1.4813857e-05 8.51659e-05 0.000126247 6e-45
00000000: 6354 3fb8 44ac 06b7 e348 3538 c544 1bb8
00000010: 3a69 38b8 60ad 9cb6 8b6d bd38 ddb0 3e38
00000020: 3d3c 19b8 df14 b736 039b 53b7 33dc 24b8
00000030: 0000 0000 604e 37b8 4282 19b9 b2d3 af38
00000040: c906 2737 c6e8 6938 00af c7b7 7f80 44b7
00000050: 0000 0000 1b72 4838 dbf0 dcb8 fbce 9ab7
00000060: bb97 1537 7581 65b8 f9da bdb7 e60e e538
00000070: 17aa b638 0f5c 0ab9 0400 0000 284a 0638
00000080: cb1f ed37 55ad 02b8 d0d4 bcb8 a7c6 d538
00000090: ae7f 8c38 da29 bcb8 6c22 0a39 0400 0000
000000a0: 3e93 8b38 46cf 5f37 1cea 8d37 d279 3138
000000b0: a18f 0538 4d4f 1c36 0ce1 06b9 0000 0000
000000c0: c4f6 31b8 7107 6a38 0400 0000 c797 19b6
000000d0: 1267 08b8 b232 9cb6 9e9d 51b6 0000 0000
000000e0: 4070 0e39 90e9 42b9 7421 0938 f9be d237
000000f0: 0889 7837 189b b238 2c61 0439 0400 0000

exp_avg_sq f4 [64]
7.1740203e-07 4.4234227e-07 8.4575555e-07 1.762423e-07 1.9174712e-07 3.2045256e-07 8.028551e-07 4.0217373e-07
1.8475003e-08 1.4091003e-07 5.7020026e-07 4.688363e-07 0.0 2.5941376e-06 1.5935095e-06 3.3285723e-06
2.6285093e-07 9.428942e-08 1.1743292e-06 9.738721e-08 0.0 3.8391886e-07 2.3340696e-07 1.506542e-07
1.7223005e-06 3.74668e-06 3.1050273e-08 3.7596867e-06 4.669348e-07 1.2477173e-06 1.2593724e-16 4.8383672e-08
3.591094e-07 9.2920857e-07 4.299229e-06 4.328116e-07 8.809936e-07 4.164325e-07 2.3784336e-05 4.660171e-14
5.846916e-07 7.797753e-08 1.0518638e-07 2.924996e-07 2.0015776e-07 1.3832245e-06 4.3942596e-06 0.0
5.657793e-07 3.2322375e-06 4.6636206e-10 1.9662492e-08 7.5522166e-07 1.699728e-06 4.704728e-08 0.0
1.196446e-06 1.5909003e-06 1.1097528e-07 1.058805e-07 9.096904e-08 3.8134494e-06 1.981281e-06 3.7357906e-10
00000000: 7e93 4035 0f7b ed34 e107 6335 1d3d 3d34
00000010: 0ce3 4d34 aa0a ac34 c883 5735 56ea d734
00000020: f6b2 9e32 0e4d 1734 dd0f 1935 5fb4 fb34
00000030: 0000 0000 f216 2e36 92e0 d535 7060 5f36
00000040: f51d 8d34 287c ca33 a59d 9d35 2f23 d133
00000050: 0000 0000 681d ce34 6b9e 7a34 83c3 2134
00000060: cb29 e735 796f 7b36 235c 0533 ed4e 7c36
00000070: 08af fa34 3d77 a735 1d32 1125 69ce 4f33
00000080: 9fcb c034 ba6e 7935 1942 9036 2c5d e834
00000090: 6b7d 6c35 0c92 df34 7984 c737 1de0 5129
000000a0: b3f3 1c35 9a74 a733 d3e2 e133 d708 9d34
000000b0: f2ea 5634 3ba7 b935 6772 9336 0000 0000
000000c0: 0fe0 1735 6be9 5836 5031 0030 47e6 a832
000000d0: 70ba 4a35 3622 e435 0811 4a33 0000 0000
000000e0: 9295 a035 eb86 d535 4e51 ee33 6c60 e333
000000f0: c25a c333 90ea 7f36 26f6 0436 9460 cd2f
