log/alpha=1/version_None/checkpoints/epoch=2499-step=4999.ckpt (torch, 116924 bytes, 21 tensors)

dec.lin0.bias f4 [64]
000000 03 90 d1 3d b6 d0 a4 be 61 33 11 3f a0 29 18 3f
       0.10232546 -0.32190484 0.56719023 0.59438515
000010 1e b4 0b bf 4f 45 82 3c 13 a6 c4 be d3 5f f6 3e
       -0.5457171 0.01590219 -0.38407955 0.48119983
000020 20 16 84 3e 8e 09 8a 3e b4 af 31 3e e3 7c a1 bc
       0.2579813 0.26960415 0.17352182 -0.019712871
000030 ca 8c 92 3e 47 c1 05 3c bb da 70 be 07 56 8e 3e
       0.2862304 0.008163757 -0.23520939 0.2780001
000040 9f 0e 6b 3e a8 63 6e be f4 4e bc be 79 c6 fb be
       0.22954796 -0.23280203 -0.36778986 -0.4917486
000050 8d c6 40 be 18 bc 9b be 6c 5a 9c be 53 b0 ec be
       -0.18825741 -0.30416942 -0.30537736 -0.46228275
000060 8e a9 bd 3e 44 f7 d4 be 3e 2f 1d 3f c7 32 67 be
       0.37043422 -0.415949 0.6140021 -0.22577964
000070 66 1d 65 bd 6c c5 bf 3e b7 86 37 3e b6 14 dc bd
       -0.05593624 0.37455308 0.17922483 -0.10746138
000080 13 c4 b6 be 06 be 51 be 59 e0 ec 3e fb 68 12 be
       -0.35696468 -0.20482644 0.46264914 -0.1429786
000090 f7 ed c3 3e c0 2d e7 bd ef fc ad bd 92 92 32 3e
       0.3826749 -0.11288023 -0.08495509 0.17438725
0000a0 ac 99 ad bd 95 7e 37 bd ba 47 97 3e 51 16 1d 3e
       -0.08476576 -0.044798452 0.2954691 0.15340544
0000b0 ba f0 48 3a 4b c7 36 3e 3e d0 13 3f b0 2f 01 3e
       0.00076652656 0.17849462 0.5773963 0.12615848
0000c0 6a da 51 be 65 3f 31 3e c7 3d d4 bc 9e 25 c8 be
       -0.20493475 0.1730934 -0.025908364 -0.390912
0000d0 77 c2 85 be a3 b8 5d 3e d3 2f ee bc a3 0d 8c 3e
       -0.26124927 0.21652465 -0.029075539 0.27354154
0000e0 80 cd 7b be be cd 04 3f 25 ed 95 be b1 64 37 3e
       -0.24590111 0.5187644 -0.2928249 0.17909504
0000f0 9a 57 7c be e3 35 83 be 63 a1 3a 3e 9c eb 0e be
       -0.24642792 -0.2562705 0.18225627 -0.13957065

dec.lin0.weight_v f4 [64, 4]
000000 0f 8d 44 be bf e7 a9 bc 8b 5b 71 be f0 e1 47 3e
       -0.19194435 -0.020740388 -0.23570077 0.19519782
000010 94 2b bb be cb 60 c2 3e 8c 9a ea be 7c 48 f4 be
       -0.36556685 0.37964472 -0.45821035 -0.4771155
000020 c9 d2 af be 8a 29 75 3e ba 08 2c be 7a 63 b2 3d
       -0.34340504 0.23941627 -0.16800204 0.0871038
000030 93 ca d8 be e2 3c 9a be 09 f7 2f be 09 48 18 be
       -0.42342052 -0.30124575 -0.1718408 -0.14871229
000040 8c 0f a1 be 0a eb a1 3e 72 95 03 ba 46 d9 a7 3e
       -0.31457174 0.31624633 -0.00050195225 0.32782954
000050 d0 25 a9 3e a5 43 9d 3d b6 a5 18 3e f1 42 02 3f
       0.3303666 0.07678918 0.14906964 0.50883394
000060 01 ec 53 be 32 b7 32 3e 90 34 29 be 1e 08 dd 3e
       -0.20695497 0.17452696 -0.16523957 0.43170255
000070 91 4a c5 3e 34 bc 01 bf 41 03 b1 3e ff 33 68 3e
       0.38533452 -0.506778 0.34572795 0.22676085
000080 b0 28 50 3e 78 f9 43 3e c9 9f de 3e c6 8c 75 bd
       0.20328021 0.19138134 0.4348128 -0.059948705
000090 b8 58 bc be 3f 4a 16 be 84 42 d2 be 7d ce 12 3c
       -0.36786437 -0.1467676 -0.41066372 0.008960363
0000a0 91 8a 99 bd fe 10 85 be 7a b2 e2 bc e1 81 03 3f
       -0.074971326 -0.25989527 -0.027672995 0.51370054
0000b0 5c d2 4d bc 01 ac 97 3c d6 93 9d bd 3b c8 9f 3d
       -0.012562361 0.018514635 -0.07694213 0.07801863
0000c0 cd b2 cb 3e fe 9a 72 3e 51 ee 4f 3e 3d 19 36 3e
       0.39784852 0.23691937 0.20305754 0.17783065
0000d0 91 15 cb 3d 71 07 33 3e b5 b2 e3 bd 55 de fb be
       0.09916223 0.17483307 -0.1111807 -0.49193063
0000e0 51 5f 92 be f0 7e d4 3e 23 39 12 3e da ea d7 be
       -0.28588346 0.41503096 0.14279608 -0.42171365
0000f0 51 45 40 3d b1 26 bb 3e 12 99 f4 be 45 56 d1 be
       0.046941105 0.36552957 -0.47773033 -0.4088613
000100 e3 9e 4b be 44 8b 64 3d 8d 89 f8 bd 81 d5 c2 bd
       -0.19884829 0.055796877 -0.12135611 -0.09513379
000110 e5 95 e0 be 35 27 56 3e a8 17 0b 3f 84 68 8a 3e
       -0.4386436 0.20913394 0.5433297 0.27032864
000120 6e 2a 99 be e2 85 b2 be 49 a9 8b 3e e4 3d 42 bc
       -0.29915184 -0.3486777 0.27277592 -0.011855576
000130 a6 8c 1e 3e 8e 0b e2 be 71 b3 0a bc b5 5f d1 3e
       0.1548334 -0.4414944 -0.008465634 0.4089333
000140 1f c3 41 3e 89 7f 75 3c 7b c9 ee 3d dc 51 58 3d
       0.18922089 0.01498402 0.11659523 0.052812442
000150 6c 24 82 be b0 62 39 be a8 ad 83 be a8 a2 f1 3e
       -0.25418413 -0.18104053 -0.25718427 0.4719441
000160 57 e3 55 3e 25 15 f2 3d 16 f3 06 bf 6a 73 c4 3e
       0.20887505 0.11820439 -0.5271467 0.38369304
000170 57 3a 37 3e 92 ce ab 3e 17 88 30 be 3f cb 14 3e
       0.17893349 0.33556038 -0.17239414 0.14530657
000180 bc dd f9 3e a5 e1 a6 3e f8 b1 d0 3e c4 e7 f1 bd
       0.48801982 0.32594028 0.4076078 -0.11811784
000190 26 ea e9 3e d0 25 91 be 6f 4a ef 3a cd bf d5 be
       0.45686454 -0.2834916 0.0018256436 -0.41747895
0001a0 44 15 b3 bd 24 a2 cc bd 8e a3 3c 3d 02 49 00 3f
       -0.087442905 -0.09991863 0.046054415 0.501114
0001b0 84 2b 43 3e bb 6f 87 bb ee 6b b2 3e 07 96 96 be
       0.19059569 -0.0041331924 0.3484797 -0.29411337
0001c0 76 60 86 3e 01 c2 6f bd d4 27 d3 bd 29 60 71 3d
       0.2624547 -0.058534626 -0.10310331 0.058929596
0001d0 9d 0b a3 be 78 b1 eb 3d 25 cc 54 3e f0 60 e1 3e
       -0.31844798 0.11508459 0.20781 0.4401927
0001e0 b7 ae 1f be 81 ad 28 3e aa ab fc 3e 89 2c 78 be
       -0.15593992 0.16472436 0.4934972 -0.24235739
0001f0 a9 45 de 3e db 62 57 be 2b a3 8a 3e 29 9f a1 3e
       0.4341252 -0.21033804 0.27077612 0.31566742
000200 6b a9 0b 3e a2 3d b9 3e ea b7 6c be a3 2e e2 3d
       0.13638847 0.36179835 -0.23117033 0.110440515
000210 5e cf 0e 3d 8a fd b9 be 5a cd 38 be f8 d4 9c be
       0.03486573 -0.36326247 -0.18047085 -0.30631232
000220 30 d2 92 3e b3 2d a7 3c 6c 77 90 3b ab 1e 1b be
       0.28675985 0.020407533 0.0044087674 -0.15148418
000230 7b f7 ab 3d 85 22 93 bc 02 bb 26 3e ae d5 d3 3e
       0.083968125 -0.017960796 0.16282275 0.41373962
000240 6d b9 62 3d e0 39 60 be 4e 90 a0 be 87 74 b5 3c
       0.055352617 -0.21897078 -0.31360096 0.022150291
000250 a4 4a a6 be 1d cf a8 be 1d 30 b7 be df bc 49 be
       -0.3247882 -0.32970515 -0.35778895 -0.19700955
000260 e0 5c c5 3d 7d e4 ca 3e 07 5f c3 3d 60 3a b6 3e
       0.09636855 0.39627448 0.095396094 0.35591412
000270 d9 68 93 be ce 38 58 3d 83 60 e5 be 77 e5 a7 3e
       -0.2879093 0.05278855 -0.44800195 0.32792255
000280 35 92 f0 3d e7 20 06 3f d1 d6 9e be cb f6 bf 3e
       0.11746637 0.52393955 -0.31023267 0.37492976
000290 39 6a b8 3e 14 d0 b0 3e 69 d0 0a 3e 3e 6f 02 3f
       0.3601854 0.3453375 0.13556065 0.5095099
0002a0 e3 8a 89 3e bd df 9b 3e 83 7c 0e bd ce b4 e4 be
       0.26863775 0.30444136 -0.034786712 -0.44669193
0002b0 5f be 91 3b 68 0f bc 3d 87 87 b0 be 59 32 8c be
       0.004447743 0.09182626 -0.344784 -0.27382162
0002c0 fa cb eb be 72 27 1e be ae 22 e7 3e f5 5c f5 3d
       -0.4605406 -0.15444735 0.45143646 0.11980621
0002d0 00 a5 56 bc 69 52 61 3d ca 48 88 3e f0 bf ef be
       -0.0131008625 0.055010233 0.26618034 -0.46826124
0002e0 cb be da be a8 f0 1b be 2d 5c 85 be 2a 3a 80 3e
       -0.42723688 -0.15228522 -0.26046887 0.25044376
0002f0 49 72 c7 3e e7 1d db be a1 8d f1 be dd 6f f3 be
       0.3895438 -0.4279625 -0.47178367 -0.47546282
000300 ea 57 4d 3e ce a5 d4 3e 74 fe cb be 3d b9 36 be
       0.20053068 0.4153275 -0.3984257 -0.178441
000310 4f c7 03 3e 9b b7 a4 be e4 a3 e7 3e 64 21 b8 3d
       0.12868999 -0.3217133 0.45242226 0.08990744
000320 8f 07 e0 bd 8a 83 c9 3b 00 8d 2b 3e bb 4b 22 be
       -0.10938942 0.006149714 0.16753006 -0.15849201
000330 f4 5c c6 be 00 41 5c 3b 80 37 15 3c 80 31 25 3c
       -0.38742793 0.003360808 0.0091074705 0.0100826025
000340 2d 63 9f bd 6f d1 a5 3e 9b 60 22 be d9 12 25 bc
       -0.07782588 0.32386348 -0.15857165 -0.010075294
000350 18 48 fd 3d 13 b2 a5 be 52 0f 2d 3e e7 a7 9a bd
       0.123672664 -0.32362422 0.16900375 -0.07551556
000360 e8 27 67 3e e5 6a 95 be b3 e1 65 bc f9 bb 76 3d
       0.22573817 -0.29183117 -0.014030862 0.06023786
000370 71 62 d8 be 39 70 c4 be 3d 9b 0c 3e 19 9f 3c be
       -0.42262605 -0.3836687 0.13731094 -0.18420066
000380 72 62 c2 3e 16 e1 cf be 00 ac 91 be 91 66 04 bf
       0.37965733 -0.40601414 -0.28451538 -0.51719004
000390 38 e2 3a 3e c5 a7 c8 bc 58 d1 f2 bd f5 40 bc bd
       0.18250358 -0.024494061 -0.118563354 -0.09192077
0003a0 31 48 d5 be c9 b4 27 3e da 2d af 3d 4b 03 99 be
       -0.4165664 0.16377558 0.08553667 -0.29885325
0003b0 9f 0a 3e 3e 82 78 6e bc a9 9b e1 be ea 9a ad 3e
       0.18558739 -0.0145550985 -0.44064072 0.33907253
0003c0 fe 47 82 3e 85 24 a8 bd 1d 97 af be 66 10 74 bd
       0.2544555 -0.082100905 -0.34294978 -0.05958595
0003d0 07 bb bd 3e 4a a1 e5 3e 17 54 c7 be 78 6e 75 be
       0.37056753 0.44849616 -0.38931343 -0.23967922
0003e0 53 68 b4 3e e3 bb 1a 3e 49 06 ac 3e 94 e0 9d be
       0.35235843 0.15110736 0.33598545 -0.30835402
0003f0 86 8d dc 3e ea 72 d2 be c0 4c c5 bc 00 17 2a 3c
       0.43076724 -0.41103297 -0.024084449 0.01038146

dec.lin1.bias f4 [64]
000000 dc e8 81 3c f2 52 e1 bd 81 e1 e3 3c c0 ee 34 3d
       0.015858106 -0.11002149 0.02781749 0.044173002
000010 56 2d af 3d 6a 16 2b 3e ff 01 2d 3e ea 03 0b 3e
       0.08553569 0.16707769 0.16895293 0.13575712
000020 e6 28 27 be e6 23 47 3d ca 47 14 bc e0 71 a5 3c
       -0.16324195 0.04861822 -0.009050319 0.020195901
000030 30 67 b2 3d 3b 90 ab bc b3 7a 41 bd 25 6a 0e 3a
       0.08711088 -0.020942798 -0.047236156 0.0005432687
000040 4f 4e 01 be ce ea 9a 3d 37 34 57 bc 72 0e 91 3d
       -0.12627529 0.07564317 -0.013135008 0.07082833
000050 dd 33 7f 3c d4 2b e3 3d 95 52 1f be 74 7b 80 bd
       0.01557633 0.11092344 -0.15558846 -0.06273547
000060 f0 3f 2a 3c bc e1 68 3d 1d 85 0b bc 13 60 66 bd
       0.01039122 0.056855902 -0.008515623 -0.056243967
000070 25 1a 4d 3d 72 54 e8 3d f5 ed 87 3d cc a3 32 3d
       0.05007376 0.11344232 0.066371836 0.04361324
000080 17 75 1a 3e 16 a0 88 3d 53 b3 78 bd 87 a1 d8 3d
       0.15083729 0.06671159 -0.060717892 0.10577684
000090 66 47 70 bd 55 34 7e 3c d5 f4 9d bd d9 25 12 bd
       -0.05866184 0.015515407 -0.07712714 -0.035680626
0000a0 2c 2e cb 3d cc 58 96 bc 24 c2 7e 3d 7d 39 b6 bb
       0.09920916 -0.018352889 0.062196866 -0.0055610524
0000b0 01 9f b9 bd 8a 55 19 3d 3e 7d c7 3d 4e aa 33 bd
       -0.09063531 0.037435092 0.09740685 -0.043863587
0000c0 84 12 25 bd 3f f9 06 be eb 93 c4 3d ec b8 c2 bd
       -0.04030086 -0.13181017 0.095985256 -0.09507927
0000d0 0e 06 07 3d 96 a9 e7 3d 55 d2 40 3d b6 a3 9d bd
       0.03296476 0.11311643 0.04707559 -0.07697241
0000e0 ad d1 85 bc 48 d9 ca bd 60 8c c6 bb c9 0c d3 3d
       -0.016335333 -0.09904724 -0.0060592145 0.10305173
0000f0 80 74 8b 3a 89 fa cd 3d 75 69 89 be 7c 7d a2 3d
       0.0010639578 0.100575514 -0.2683827 0.079340905

dec.lin1.weight_v f4 [64, 64]
000000 b1 2a 79 bd c7 68 6f bd a2 11 db 3d b3 17 ba 3d
       -0.06083173 -0.058449533 0.106967226 0.090865515
000010 fc da 4a 3c 3a 81 e7 bd 00 e5 ff 3d d5 6e ab 3c
       0.0123813115 -0.11303945 0.1249485 0.020926872
000020 4b 8a bc bd 04 96 52 bd 32 89 93 bb 42 64 27 bd
       -0.09206065 -0.051412597 -0.004502439 -0.040867098
000030 b5 1e 83 bd a6 b8 ad 3d 8f 03 8f bc 26 73 5c bc
       -0.06402341 0.084824845 -0.017457752 -0.013455188
000040 de 9c c1 bd b6 43 ca bd 65 68 00 3e 70 d3 89 3d
       -0.09453748 -0.09876196 0.12539823 0.06729782
000050 0a 84 f5 bc de 39 8a 3d aa 83 0b bd 0c 44 dc bd
       -0.029970188 0.067493185 -0.03406111 -0.107551664
000060 5e 31 07 be fe 0a 20 3e 6d 9d ab bc d7 1e 87 3d
       -0.13202426 0.15629193 -0.02094909 0.06597679
000070 ae b4 e3 3d 53 96 b3 3c 74 1e eb 3d 0c 26 69 bd
       0.11118446 0.021922266 0.11480418 -0.05692105
000080 84 87 e7 3d 00 ea bd bd 75 06 d1 bc 16 50 ed 3c
       0.113051444 -0.092731476 -0.025515774 0.028968852
000090 37 10 85 bd 6c a7 03 3e d7 ea 99 3c b8 6f 2d 3c
       -0.06497233 0.12856835 0.018788738 0.010585718
0000a0 30 d5 ec 3d 72 1d ae 3d 9b 75 80 bd 94 4a 5a 3b
       0.115641 0.0850171 -0.062724315 0.0033308612
0000b0 ba 05 23 3d 00 02 d5 3d fe d9 71 3d db ce ab 3d
       0.039800383 0.10400772 0.059045784 0.08389064
0000c0 f8 c2 9d 3d e9 5c ad bd 36 c1 07 3e 86 8f 1f bd
       0.07703203 -0.08464987 0.13257298 -0.038955234
0000d0 34 96 d4 3d ac 24 03 3e 7a b5 c3 bd 17 9b fa 3c
       0.103802115 0.12806958 -0.09556098 0.03059153
0000e0 68 52 e1 bc 56 0f db 3c 65 bb ef bd 09 1e e9 3c
       -0.027505115 0.026740711 -0.117056645 0.028456705
0000f0 e4 60 b6 3d 91 41 86 3d 63 44 4d 3d 91 6d b1 3c
       0.08905199 0.065554745 0.050114047 0.02165869
000100 29 e5 95 bc b5 d3 52 3e 88 52 0f be f6 22 06 be
       -0.018297749 0.20588572 -0.13996327 -0.13099274
000110 41 80 db b2 44 cb 5e bd 25 37 64 2c 25 f7 8d bd
       -2.5553279e-08 -0.054393068 3.243136e-12 -0.06931905
000120 db 08 a5 bd 8b 33 8b bc f1 80 f0 39 c7 46 d5 3d
       -0.0805833 -0.016992351 0.00045872436 0.1041389
000130 70 58 1b be 0a 96 9a 3d 50 25 fe 3c 58 83 a6 bd
       -0.15170455 0.07548149 0.031023651 -0.081305206
000140 84 bc 99 3d 7e db 29 3d 0c 46 9b 3d 24 ff 0c 34
       0.075066596 0.04146909 0.0758172 1.3131336e-07
000150 3c 0c 6c bd 2b e5 00 00 57 3c 81 3c 3e c9 11 be
       -0.057628855 8.221e-41 0.015775843 -0.14236924
000160 94 1d 9c 3d 43 1f 90 3e 26 8c 37 3c ad a2 02 3e
       0.07622829 0.2814885 0.011202848 0.12757368
000170 42 d6 eb bd f1 90 b0 3b 46 39 21 bd 93 8a 45 bb
       -0.11515476 0.005388372 -0.03936126 -0.003014241
000180 e2 e8 14 be 9e c5 3f 3b 16 49 33 bc 4b bb 96 3b
       -0.14541963 0.0029262076 -0.010942718 0.004599964
000190 01 ff 88 3d ad b7 6f bc d8 4c 40 be 91 27 ed bc
       0.06689263 -0.014631194 -0.18779314 -0.02894953
0001a0 f9 74 48 be fd 07 93 be 63 34 3a 3d 74 ff c7 3d
       -0.19575872 -0.28717032 0.045460116 0.09765521
0001b0 e6 cf 99 bc 34 54 ac 3d c4 2c 73 bd 7d 92 1d 3b
       -0.018775892 0.08414498 -0.059368864 0.0024043613
0001c0 10 df 8f bb d1 b9 0c bb a9 49 92 3c 75 8e 98 21
       -0.004390605 -0.002147306 0.01785739 1.0337629e-18
0001d0 6e 5a 03 bc 9e d8 b8 bc 58 62 5d 38 07 ce 11 be
       -0.008017166 -0.022564229 5.2782096e-05 -0.1423875
0001e0 b6 0e 46 3e 42 55 78 3d c1 17 59 bd 70 82 f2 bd
       0.1934155 0.060628183 -0.05300117 -0.11841285
0001f0 2d 47 86 3d a5 12 9e bd 5b 72 37 3d 20 18 1b b5
       0.065565445 -0.077184 0.044786792 -5.7777106e-07
000200 b9 f8 9e 3c 12 0b 84 bc 36 0d d8 bd 58 12 5c be
       0.01940571 -0.01611856 -0.10549395 -0.21491373
000210 1d 71 f3 3d 20 f9 73 3d e4 09 b1 3d 7c 63 33 3d
       0.11886809 0.059563756 0.086444646 0.043796048
000220 b3 a1 32 bd 4b a8 19 3e 19 7e 50 bd 3f 5f 25 3e
       -0.04361124 0.15005605 -0.050901506 0.16149615
000230 38 e0 28 3d 97 97 70 bd c1 78 c5 3d 55 12 6b bd
       0.041229457 -0.058738317 0.096421726 -0.05739053
000240 1e 28 f3 3c 0b c6 c6 3d e1 a1 a1 3e bf 0d 0d 3c
       0.029682215 0.097057424 0.31568816 0.008609234
000250 2e 8e ab 3d 66 f6 13 3e e7 ce d7 bb 22 2a 1a bd
       0.08376728 0.14449462 -0.006585944 -0.037637837
000260 e6 00 a4 bd 0e 02 85 3d 74 4a e3 bd 0a 8c 73 3e
       -0.08007984 0.064945325 -0.11098185 0.2378389
000270 71 ea a7 3a a2 08 6c bd ce 08 95 bc 9f a4 a0 3d
       0.0012810958 -0.05762542 -0.018192675 0.07843899
000280 7d 19 90 bc 55 3e b6 3c 86 f9 78 be 31 35 cc 3d
       -0.017590279 0.02224652 -0.24313936 0.09971083
000290 5a 25 21 bc 7a a0 d6 bc 84 00 84 bd 67 2d 11 3e
       -0.009835565 -0.026199568 -0.06445411 0.14177476
0002a0 81 a5 0a 3e 26 3d 11 3d c7 8b 4f be 63 2e a1 bc
       0.13539697 0.035458706 -0.20268165 -0.01967544
0002b0 b6 53 59 3d 73 ee c5 3d f2 12 91 bc 65 82 63 bd
       0.05305835 0.09664621 -0.01770923 -0.055544276
0002c0 1f 87 30 bd 22 08 c4 3c a4 5f 46 3e da 36 2f 80
       -0.04309761 0.02392966 0.19372422 -4.335945e-39
0002d0 44 f6 24 bd 76 f6 03 bd 98 eb 2c 3c bd b1 05 bd
       -0.04027392 -0.032217465 0.010554217 -0.032640208
0002e0 33 d8 cf 3c c2 90 f8 bd 76 9b 7a 3d a2 f1 fd 3d
       0.025371647 -0.12136985 0.061183415 0.123996034
0002f0 01 84 e3 3c 8c bb 98 bd 56 52 ca 3b 9c 53 04 00
       0.027772905 -0.07457647 0.006174366 3.97335e-40
000300 a9 1f 59 3c 89 4d 1b be 63 f6 0b 3c 08 00 8b 3c
       0.013252177 -0.15166296 0.00854263 0.016967788
000310 74 7d 4a be 39 ee 79 3d 17 0e 86 bd a4 da cf bd
       -0.19774419 0.061018202 -0.06545656 -0.10149124
000320 a8 1f eb 3a fd 4b b9 bd a7 4f ae bd 85 a4 9c bd
       0.0017938511 -0.09047697 -0.08511286 -0.07648567
000330 bf 49 a3 bd e8 f7 dd 3d d3 d4 2d bd 2d a3 a7 bd
       -0.0797305 0.108383 -0.042439293 -0.0818542
000340 b2 6e b5 3d b9 3b 12 bd 4d e0 1c 3c dc b2 9d 3d
       0.08859004 -0.035701487 0.009574962 0.0770013
000350 4a 29 e7 3d 65 e8 80 3c 12 d5 f2 bc 67 0d 9f bd
       0.11287172 0.015735814 -0.029642615 -0.07766228
000360 6d 4d de 3d 9d e6 00 bd f8 e1 37 bd 8e d2 4c bb
       0.108546115 -0.03146993 -0.044893235 -0.003125343
000370 30 1d f7 3d b7 ae 7b 3c 16 d0 5d 3d d6 1f df 3d
       0.12066114 0.0153614795 0.054153524 0.10894744
000380 05 60 89 3a 69 ba da bd b3 ab f0 3c 75 0b 10 be
       0.0010480887 -0.10680086 0.029378748 -0.1406687
000390 00 bf bf 3c c3 f1 fd bc 6f 6d 80 bc 81 f9 59 bd
       0.023406506 -0.03099907 -0.015677182 -0.05321646
0003a0 e3 28 ce 3d 01 4b fc 3c 01 1a f2 bd 5e dc 0c 3e
       0.10066392 0.030797483 -0.11821366 0.13755938
0003b0 1d 9e 88 3d 22 95 4b 3d 14 93 98 3d 33 94 b4 3c
       0.06670783 0.04970277 0.07449928 0.022043323
0003c0 ea e1 b4 bd dd 23 bd 3d 37 21 0e be 2f 62 a5 bd
       -0.08832152 0.09235356 -0.13879858 -0.08075368
0003d0 42 14 b1 bc 2f 45 d9 bd ea ce ed 3d 10 66 2b 3e
       -0.021616105 -0.10608899 0.11611731 0.16738153
0003e0 d2 51 5f 3c 97 86 90 3d 30 87 29 be e2 98 9b 3d
       0.013630347 0.07056921 -0.16555476 0.075975195
0003f0 17 35 d5 3c 8b bd bd bd b2 6e b8 bd 86 17 0a 3d
       0.026026292 -0.09264668 -0.090054885 0.03371384

dec.lin2.bias f4 [64]
000000 26 1f e7 3d fc bd 32 bd 6a 57 51 3d 91 f6 f2 3d
       0.11285238 -0.043638214 0.051108755 0.11863435
000010 e9 47 ce bd 85 f3 14 3d 4a f8 c1 bd d2 1c 91 bc
       -0.100723095 0.03636505 -0.094711855 -0.017713938
000020 b8 0b 84 3d e1 0f 82 3d e2 ff e6 3d ff 4a 5b 3b
       0.06447548 0.06350685 0.112792745 0.003346145
000030 e8 33 fb bc 3b 77 0c 3e 4b bf 33 bd 70 aa bf 3d
       -0.0306644 0.13717358 -0.043883603 0.0935868
000040 9e f2 b7 3d 6f e9 9b bd 01 97 e0 3d 94 11 62 3d
       0.089818224 -0.07612883 0.10966302 0.055192545
000050 96 f8 84 bd f7 7d 81 bd ef 2d 10 3d 00 6e 6c 3a
       -0.064927265 -0.06322854 0.035200056 0.0009019077
000060 55 99 e9 3d 33 78 fe bc 5e 68 14 3d ac 08 03 3d
       0.11406199 -0.031063175 0.036232345 0.031990692
000070 05 cb ee bd f6 2a 89 be e4 16 aa bd aa 05 8e bd
       -0.11659817 -0.2679059 -0.08305147 -0.06934674
000080 e2 6e b1 3d 3a 9f 69 bd 08 35 c8 3c 2b 43 2c bd
       0.08663727 -0.057036616 0.02443935 -0.042056244
000090 9a 5e 01 3e 73 e0 ee 3d 3f 8e 9e 3d e5 50 58 bd
       0.12633744 0.11663904 0.07741975 -0.052811522
0000a0 a8 51 d8 bd 80 7a 12 3e a1 c8 ed bd 3f 3f 0e bc
       -0.1056245 0.14304543 -0.116105326 -0.008682071
0000b0 0a 2b 57 bd 55 b3 5a 3d 70 9f d9 bd 4f f7 d2 bd
       -0.05253128 0.05339368 -0.106261134 -0.103010766
0000c0 30 6a 17 3e 50 b0 a7 3d d1 48 d5 3d 28 1c 5f bc
       0.14786601 0.08187926 0.10414279 -0.013617553
0000d0 c5 aa 8b 3d 7e 96 4d bd 3f 0c a8 bd 10 2e 05 be
       0.06819681 -0.05019235 -0.08205461 -0.13005853
0000e0 26 6b 18 3e a4 a7 8d 3d 44 1e 19 3c 14 56 bb bd
       0.14884624 0.069167405 0.009345595 -0.091472775
0000f0 27 a9 58 3d 62 ed 23 3d 61 c0 a1 bd 50 d4 f6 bc
       0.05289569 0.040021308 -0.078980215 -0.030130535

dec.lin2.weight_v f4 [64, 64]
000000 67 4b f7 3c 70 36 d2 bd 09 ac 84 be 5a 14 9b bd
       0.030187322 -0.102642894 -0.25912502 -0.07572241
000010 a2 25 ba bc 98 59 93 be db 74 0a be c5 b2 0e bd
       -0.022723023 -0.28779292 -0.1352114 -0.034838457
000020 32 de c8 be 78 9c b2 3d d0 e5 13 3a cb d7 66 bc
       -0.39232022 0.0872125 0.000564185 -0.014089535
000030 90 e2 9f 3c 33 e9 c1 b8 c9 c5 47 bd 71 15 d1 bb
       0.019517213 -9.246394e-05 -0.048772607 -0.00638073
000040 b5 d3 6e bd b5 34 63 b7 38 99 7e 3c d2 66 29 3d
       -0.05830737 -1.3542526e-05 0.01553946 0.041357823
000050 1d 8a ee bc c9 6c 4f 3d 3a 5f ee 3a a0 dc 93 bc
       -0.029118592 0.050640855 0.0018186339 -0.018049538
000060 96 59 04 00 2a 55 c1 3d 42 97 a2 bc 70 01 1f bd
       3.9948e-40 0.09440072 -0.019847516 -0.03881973
000070 2a 33 86 3d 91 05 ed bd af d9 d1 3c 7e 33 01 a0
       0.065527275 -0.11573327 0.025616495 -1.0943762e-19
000080 68 5b d3 bd 67 fb 12 3d c7 9d 36 3d 6c a4 83 bc
       -0.10320169 0.035884287 0.044584062 -0.016069613
000090 e6 cc 86 bd 6d 99 8f bc 16 50 9c 3a 60 8b f8 3d
       -0.0658205 -0.017529214 0.0011925723 0.12135959
0000a0 1b 5c 9b bd 81 ff 16 3b fa 14 2c bd e0 0d 6f bc
       -0.07585927 0.0023040476 -0.042012192 -0.01459071
0000b0 77 cf 07 3c 43 4f 6e 2a 4c 54 64 bc 13 dd 01 37
       0.00828921 2.1166146e-13 -0.013936114 7.740472e-06
0000c0 56 a2 39 b8 bc eb ab 3c 42 a7 b3 3d 54 d2 c4 bd
       -4.4258624e-05 0.02098643 0.08772136 -0.096104294
0000d0 a5 af 09 be 2c 7e bb bd 03 99 e1 bd d8 23 46 3c
       -0.1344591 -0.09154925 -0.11015513 0.012093507
0000e0 30 1c 1a 1c 9c 81 48 bd 7a 2b 03 00 6c 80 bd bc
       5.0990757e-22 -0.04895173 2.91103e-40 -0.023132525
0000f0 1d db 76 ba 4b dd 53 be 9a 36 d3 be bf 5d 09 bd
       -0.00094168057 -0.20689885 -0.41252595 -0.03353667
000100 f4 df eb bd ae af b7 3d 80 f1 6b bb 80 dc 11 bc
       -0.11517325 0.08969055 -0.00360021 -0.008902669
000110 10 37 38 3c a0 5b 43 bd c0 fe a8 bb e2 56 f3 bd
       0.011243597 -0.047694802 -0.0051573217 -0.11881806
000120 82 7b e3 bd 30 f9 fd 3c d8 c4 5e 3d 00 f8 c4 bc
       -0.111075416 0.03100261 0.054386944 -0.024044037
000130 20 79 bb 3b a8 a0 64 3d ee c3 c6 bd 14 75 ef 3d
       0.0057212263 0.055817276 -0.09705339 0.11692253
000140 f2 ad d1 bd c0 1c ee bb a8 68 86 bc 02 dd a8 bd
       -0.102382556 -0.007266611 -0.016407326 -0.08245279
000150 e0 16 17 bc 84 99 03 bd 9a a0 f9 bd 94 2f 85 3d
       -0.009221762 -0.032128826 -0.121888354 0.065032154
000160 ce 21 9e bd f8 04 ac 3d 30 f4 d3 bc d0 e9 2b bc
       -0.077212915 0.08399385 -0.025873274 -0.010492757
000170 3e 26 86 bd 90 40 b9 3c e0 25 e9 bc 62 ef 8d bd
       -0.06550263 0.022613794 -0.028460443 -0.06930424
000180 20 20 35 bc f8 30 77 bd 00 e3 35 bb b8 4a f0 3c
       -0.0110550225 -0.060349435 -0.002775371 0.029332504
000190 bc ac d4 3d 4e 7f ee 3d f2 4d 89 3d 7c 4c c8 bd
       0.10384509 0.11645375 0.0670432 -0.09780213
0001a0 98 a3 b7 bd c0 0f 02 3d a8 6f 2e bd 08 5c 5e 3d
       -0.0896675 0.0317533 -0.042586952 0.054286987
0001b0 98 be 3b bd ec 51 f8 3d 48 d9 cf bd b8 f6 da 3d
       -0.04583606 0.12125 -0.10148865 0.10691589
0001c0 e0 e8 e9 3b ee 28 a9 bd 14 4c e3 bd a0 0c ff 3c
       0.0071383566 -0.0825976 -0.11098495 0.03113395
0001d0 48 ac 4c bd 68 ba cf 3c 40 4b 8f bc 00 71 3e bd
       -0.049968988 0.02535744 -0.017491937 -0.046494484
0001e0 06 5b 8a bd 50 a4 1c 3c 36 30 8c bd ec c3 b7 3d
       -0.067556426 0.0095606595 -0.06845133 0.08972916
0001f0 18 94 01 3d 88 85 d7 bc f0 7c 3a bc 70 12 3e bc
       0.031635374 -0.02630879 -0.0113823265 -0.0116010755
000200 35 f9 00 3d 56 fc e2 3b 80 30 e2 bd f4 22 e4 bc
       0.031487662 0.0069270534 -0.11044407 -0.027848698
000210 6f 4b 18 3e e8 f0 f7 bd 2e c8 06 3e fd 48 ca 3c
       0.14872526 -0.12106496 0.131623 0.024693007
000220 8b 0b 53 3d 53 e4 fe 3c 5a c2 89 3c 9d af e0 3d
       0.05152468 0.031114733 0.016816307 0.109709956
000230 d7 20 e3 bd 13 3c db 3d cb b5 1d bd 86 ec fb 3c
       -0.11090248 0.107048176 -0.03850345 0.030752432
000240 96 57 ec bc 6f 3a 89 bd 1b ad 52 3d a0 68 81 bd
       -0.028850358 -0.067005984 0.051434617 -0.06318784
000250 a8 2a 45 3c 6c 78 a1 3d 5d fc e1 3d 21 74 f7 3c
       0.012034096 0.07884297 0.110344626 0.030206742
000260 c4 bc a1 bd 9f 4c c6 bc 31 ff 58 3c 8c 3d 04 3d
       -0.07897332 -0.024206458 0.013244436 0.03228526
000270 3c 96 07 be 31 83 33 3d 67 f4 0d 3d f3 0d ee 3d
       -0.13240904 0.043826286 0.03465691 0.11623754
000280 4c 89 c3 3d 3b fa 9c 3d a3 03 c1 3d 34 28 16 be
       0.09547672 0.07664915 0.09424522 -0.14663774
000290 ad 1d 53 bd 3b f0 05 be 42 89 84 3d ac c4 d1 bd
       -0.051541973 -0.13079922 0.06471492 -0.1024259
0002a0 79 1f d5 3d a5 53 a7 bd 8c 0b 08 bd c7 9a da 3b
       0.104063936 -0.08170251 -0.033214137 0.006671283
0002b0 09 40 09 bd bc a1 e8 3c 8f e2 ea 3d e9 7f 24 bd
       -0.033508334 0.028397433 0.11468994 -0.040161047
0002c0 bb ac a5 3d fd 38 6c 3d b2 b9 0d bc 54 ba 90 bd
       0.08089586 0.057671536 -0.00865023 -0.07066789
0002d0 cf 44 ba 3d e1 cc b6 bd 54 93 ef 3d 81 80 06 bd
       0.090951554 -0.08925796 0.116980225 -0.032837395
0002e0 1b 98 e1 bd 40 c7 f1 bd 89 09 ab bd 9b 38 1a 3e
       -0.1101534 -0.11805582 -0.08351428 0.15060656
0002f0 32 ea 1c 3d 03 4c 9a 3d 26 ab 59 bc 3b 2d 30 3d
       0.038309284 0.07534029 -0.013285434 0.043011885
000300 e7 8b b8 ba 71 89 2e be 77 12 56 bd b4 50 b1 bd
       -0.001407978 -0.17044617 -0.052263703 -0.08657971
000310 12 12 a9 39 f2 2e 93 bd 16 6c 49 3d 55 59 c2 3d
       0.00032247655 -0.071866885 0.049175344 0.09489695
000320 51 be 12 bd f5 de bb 3d 49 2b 2c bd ab 92 ea 3d
       -0.03582603 0.09173385 -0.042033467 0.11453756
000330 0b 9e d0 bd 51 99 e9 3d c1 2b 2e bc 49 d4 0a be
       -0.10186394 0.11406196 -0.010630549 -0.13557543
000340 f4 d1 9f 3c 63 7c c5 3d c2 27 dc 3b 01 80 fb 3d
       0.019509293 0.096428655 0.0067186067 0.12280274
000350 6d a5 5c 3d 5e 47 2c bc d0 cb c9 bd 99 4f e9 3d
       0.0538687 -0.010515062 -0.09853327 0.11392135
000360 61 91 01 be 04 22 bf 3d cb 36 72 ba ca 81 d5 bd
       -0.12653114 0.0933266 -0.0009239732 -0.10425146
000370 9a 41 50 3c 5d 0a 09 3e e7 ab cd 3d 03 b3 b4 3d
       0.012710953 0.1338286 0.100425534 0.08823206
000380 65 a9 5f 3c 47 11 f7 bd b1 38 dc bd 78 d7 5e bd
       0.013651227 -0.12063842 -0.107530005 -0.054404706
000390 13 2b 5a 3c a1 e8 e2 3d 57 ec bc bd 43 c2 80 bd
       0.013315934 0.11079527 -0.09224766 -0.062870525
0003a0 b7 f1 52 3d 9c fd 89 3c 2e 5e 75 3d 67 ff 0c 3e
       0.05150005 0.016844563 0.05990427 0.13769303
0003b0 d8 82 d5 bc 4a 37 08 3d 12 26 60 3d 6a 5a 18 bc
       -0.026063368 0.033255853 0.054723807 -0.0092989
0003c0 86 1b a3 3d 76 e7 b9 bd 3f b5 5d 3d 04 ad e4 3d
       0.07964234 -0.09077351 0.054127928 0.111658126
0003d0 4f fb 6c bd 98 8d 50 bd 14 a2 9f bc 6a fd 43 bd
       -0.057856854 -0.050916284 -0.019486465 -0.047849096
0003e0 d9 2a ee 3d 05 f8 87 3d a0 8a c6 bd 2d 1a 2a be
       0.11629266 0.06639103 -0.09694409 -0.16611548
0003f0 0f bc 8d 3d 3f 52 4a bd 80 62 78 be 75 8b a1 bd
       0.06920635 -0.049394842 -0.24256325 -0.078879274

dec.lin3.weight_v f4 [1, 64]
000000 c5 ad 0e 3e 85 c4 f9 ac 5c 8d c7 bc 9b c1 bb 3c
       0.13933475 -7.0988237e-12 -0.024359398 0.022919467
000010 f8 6d 40 3d a8 73 32 3d a0 cb a9 38 3f c2 b5 bd
       0.046979874 0.04356733 8.096476e-05 -0.0887494
000020 a8 e6 74 3c 69 11 52 3d 8e 87 6e 3d ad a8 27 bd
       0.014947571 0.051286135 0.058234744 -0.040932346
000030 d9 8e d2 bd c7 e1 ec bd a8 89 10 bd 03 9d 9f bd
       -0.10281152 -0.11566501 -0.03528753 -0.077936195
000040 88 c2 98 bd 77 85 99 3d df de 13 3d 66 94 2e 3e
       -0.07458979 0.074961595 0.03610122 0.17048797
000050 20 64 3a 87 5a 29 87 3d 53 75 f5 bc 49 d3 2b bd
       -1.4022509e-34 0.06599684 -0.029963171 -0.041949544
000060 cd 84 49 bd 2a 68 69 3d 1e 58 cb bd 66 cc b4 3d
       -0.049198914 0.056984104 -0.099289164 0.088280484
000070 71 4b 15 bd 90 8f 29 be dc 3c 97 3d bf 5e f9 3d
       -0.0364489 -0.16558671 0.07384655 0.121762745
000080 99 f4 47 3c cd 03 2f 3d 74 38 d2 3d bf de c0 3c
       0.012204313 0.042728234 0.10264674 0.023543714
000090 1a 59 39 3d 9c 1d c9 3d 90 34 1c 3d 78 b5 1d 3d
       0.04525099 0.09820101 0.038136065 0.03850314
0000a0 d3 82 c9 bc 6b eb cd bd ec 6c 40 bd ea cb b0 bd
       -0.024598515 -0.10054668 -0.046978876 -0.086326435
0000b0 61 29 9d bd 9f f3 b2 3d 7b ba 5c bd 3e fb d3 bd
       -0.07673908 0.08737873 -0.05388878 -0.10350655
0000c0 04 cd f4 3d d0 7e 59 3d 0b 4b 81 bd 12 0d 81 3d
       0.11953166 0.053099453 -0.063131414 0.06301321
0000d0 db e4 2b 3b 5d 0a 90 bd 6a 82 ca 3d ae d0 0d bd
       0.0026228938 -0.07033227 0.09888156 -0.03462284
0000e0 95 a8 be 3d 70 cf 51 3d c3 57 c1 3d 80 17 8c ba
       0.09309498 0.05122322 0.09440567 -0.0010688156
0000f0 de d7 9f 3d 46 b4 3f bd ce 03 c7 3d ac 2c a0 bd
       0.07804845 -0.04680278 0.097175226 -0.078210205

exp_avg f4 [64]
000000 b3 f3 1b 38 7a 0e 29 38 28 af 9a 36 57 84 45 38
       3.7181842e-05 4.0306222e-05 4.6099485e-06 4.709171e-05
000010 39 4f 91 39 d6 f4 c5 37 76 e0 c3 38 33 40 93 b6
       0.0002771558 2.359824e-05 9.340134e-05 -4.388415e-06
000020 bc 93 e0 b6 b7 4f c0 37 21 cd 74 37 86 ce ab 38
       -6.6929188e-06 2.2925304e-05 1.4591294e-05 8.1923834e-05
000030 30 8e a7 38 f8 d8 49 b7 a2 f5 6e b8 96 d2 57 b7
       7.989665e-05 -1.2031051e-05 -5.6972385e-05 -1.28640295e-05
000040 04 3c 51 b8 d7 ed 16 b8 9e 84 ff b8 bd 27 9f 38
       -4.9885377e-05 -3.5984292e-05 -0.000121840494 7.589113e-05
000050 81 0b 02 b8 ec 78 20 38 2e 53 c3 38 b7 b8 55 38
       -3.100513e-05 3.825959e-05 9.313818e-05 5.0955186e-05
000060 52 8a 91 b8 12 b6 10 b9 92 99 17 b7 2a b2 45 b9
       -6.939903e-05 -0.00013800737 -9.036057e-06 -0.00018853755
000070 0b d7 e5 b7 e3 a9 9b b7 a1 21 25 b8 b5 d4 98 b8
       -2.7399064e-05 -1.855655e-05 -3.9370385e-05 -7.2875446e-05
000080 c1 68 43 38 f2 e8 c2 b6 e4 30 63 b7 12 34 d1 b7
       4.6589183e-05 -5.808769e-06 -1.3541638e-05 -2.4938989e-05
000090 5e 5f 86 b6 b1 a1 42 37 7f cb d5 38 6a 2b 1b 38
       -4.0046134e-06 1.1600948e-05 0.000101945356 3.6995312e-05
0000a0 c2 6c 24 38 0c 24 bc 38 7a aa 44 38 f2 30 24 b6
       3.9201936e-05 8.971253e-05 4.688881e-05 -2.4466394e-06
0000b0 ab 78 d0 b7 d9 c8 a1 b6 6d 7c 8a b7 5b da cc 36
       -2.4851723e-05 -4.8215556e-06 -1.6508822e-05 6.1050937e-06
0000c0 0c a0 47 38 ac f0 cf b8 c2 5d 1f b9 00 00 00 00
       4.7594353e-05 -9.915358e-05 -0.00015198349 0.0
0000d0 09 7d 97 38 18 dc a7 b7 03 6e fe 36 35 0a fb 37
       7.223531e-05 -2.001044e-05 7.582597e-06 2.9926285e-05
0000e0 88 ab b5 b7 6b 10 43 38 aa 66 0e b8 a4 67 00 b8
       -2.1656757e-05 4.6506913e-05 -3.395105e-05 -3.06141e-05
0000f0 a3 7b 79 38 57 42 f9 b7 7d d3 fa b7 00 00 00 00
       5.9481372e-05 -2.9714005e-05 -2.9900804e-05 0.0

exp_avg_sq f4 [64]
000000 f2 20 5e 35 ae 12 10 35 c6 22 78 35 0a 0a ba 35
       8.2749386e-07 5.367136e-07 9.24378e-07 1.3861002e-06
000010 a3 f8 62 35 b4 fd 2f 34 64 e4 06 34 af cd 11 35
       8.4553375e-07 1.6390442e-07 1.256281e-07 5.431602e-07
000020 68 a0 a0 35 74 6a cb 33 7a 61 7b 33 ac 1f cc 34
       1.1967613e-06 9.472288e-08 5.8529146e-08 3.8021005e-07
000030 51 2b a4 34 de 84 54 35 1d cc 3a 34 96 dd a7 34
       3.0578897e-07 7.91695e-07 1.7396856e-07 3.12674e-07
000040 53 0d ff 33 42 74 73 34 c3 0b 9a 34 5c cc 50 33
       1.18767865e-07 2.2673433e-07 2.8693293e-07 4.8614638e-08
000050 b7 60 75 34 9e 91 bd 32 94 6f bd 34 72 ae ba 34
       2.2852588e-07 2.2068715e-08 3.5285177e-07 3.4772125e-07
000060 99 e3 15 36 d9 0d 32 36 04 47 07 35 43 f1 05 35
       2.233521e-06 2.6532127e-06 5.039476e-07 4.9897443e-07
000070 34 cc a6 35 4c 12 c1 34 da 23 1f 36 b9 07 8f 34
       1.2427395e-06 3.5962364e-07 2.3713715e-06 2.6641445e-07
000080 8b a7 4e 35 a4 d3 b2 33 66 53 25 35 2d c6 c0 34
       7.698479e-07 8.327268e-08 6.158865e-07 3.590698e-07
000090 55 bc 2c 34 10 25 e0 34 39 be dc 34 6d 67 91 35
       1.6087263e-07 4.1750218e-07 4.1116598e-07 1.0833443e-06
0000a0 f4 9c b5 34 cc 1c a1 35 38 09 36 33 b4 17 5d 35
       3.3828076e-07 1.2003816e-06 4.238356e-08 8.236341e-07
0000b0 87 81 d1 34 0b 1b 14 34 c2 fa 7d 34 54 44 0c 34
       3.9023527e-07 1.3793412e-07 2.3653686e-07 1.3063374e-07
0000c0 93 c5 f3 34 03 42 45 35 c8 8f 5d 35 00 00 00 00
       4.540603e-07 7.348428e-07 8.2538145e-07 0.0
0000d0 18 67 10 34 27 5c 91 34 d0 c5 53 32 c4 41 12 34
       1.344855e-07 2.7075404e-07 1.2326794e-08 1.3621235e-07
0000e0 5c d9 3f 35 8d ad f0 34 2c 74 3b 35 05 38 0e 35
       7.1469344e-07 4.4829758e-07 6.983198e-07 5.298064e-07
0000f0 bf 23 5f 35 c4 91 4e 36 0f 31 df 34 00 00 00 00
       8.312599e-07 3.0781239e-06 4.1572682e-07 0.0

exp_avg f4 [64, 4]
000000 d0 c6 10 b8 e0 f6 83 b8 d4 bb a8 38 14 3b 67 38
       -3.4517434e-05 -6.292551e-05 8.04585e-05 5.5129713e-05
000010 eb 69 b6 b6 0d f1 c2 b7 b1 34 5a b8 65 72 17 38
       -5.436353e-06 -2.323885e-05 -5.2024323e-05 3.6107744e-05
000020 ba ed 42 b9 2b 49 6e b5 cb ea 9c 39 b1 87 2d b9
       -0.00018589842 -8.876838e-07 0.00029929573 -0.00016549115
000030 d6 06 a7 b8 d8 20 6e b8 3d bc e0 39 9f 6d 16 b9
       -7.964454e-05 -5.677421e-05 0.00042864858 -0.00014345952
000040 39 85 48 39 13 ab 9f b8 2d 3c b5 b8 9c e7 84 39
       0.00019123116 -7.613576e-05 -8.641961e-05 0.00025349564
000050 24 d9 1c b7 68 ea 7d b7 5d 9b aa b8 ee ed 04 38
       -9.348882e-06 -1.5134552e-05 -8.13517e-05 3.169284e-05
000060 06 e9 17 38 0c 23 a7 b7 77 aa b3 38 a0 20 71 38
       3.6218225e-05 -1.9924271e-05 8.567137e-05 5.7489262e-05
000070 63 17 1e b7 c0 20 3b b7 1d a3 7b 38 b5 60 d5 b8
       -9.422979e-06 -1.1153694e-05 5.9994974e-05 -0.000101746446
000080 c5 a0 2d 38 26 49 22 38 a8 55 15 b8 ac 4e 15 37
       4.1396142e-05 3.8691935e-05 -3.5604142e-05 8.899409e-06
000090 54 af 0f 38 c3 d0 4e 38 2e b7 4e b8 0d 03 9e b8
       3.4257144e-05 4.930865e-05 -4.9284827e-05 -7.534595e-05
0000a0 c6 a8 bc b6 d2 45 a2 b4 37 a2 19 38 60 4c 40 35
       -5.6224844e-06 -3.0225652e-07 3.6629117e-05 7.1636714e-07
0000b0 2a 90 bb 39 88 a6 9d 39 ba 46 1e b9 06 bf 39 b9
       0.0003577483 0.0003006945 -0.00015094402 -0.00017714137
0000c0 5c 85 2d 38 54 a9 aa 38 c1 02 4a b8 65 5e 1b b9
       4.1370615e-05 8.1377715e-05 -4.8163118e-05 -0.00014817117
0000d0 50 e7 f7 b7 13 89 c7 b7 a0 fa 3f b8 f2 64 7b b6
       -2.9552408e-05 -2.3786479e-05 -4.577136e-05 -3.7460673e-06
0000e0 90 be 43 b8 11 8c ca 37 0f 2d bb b7 53 9d 4b 38
       -4.6669098e-05 2.41455e-05 -2.231312e-05 4.854549e-05
0000f0 17 39 60 38 fc 88 2c 38 42 41 c4 38 fd 08 8a b8
       5.345893e-05 4.1135572e-05 9.3581635e-05 -6.582027e-05
000100 e8 14 83 b8 83 79 77 b8 dd 30 0f 39 d6 43 95 b8
       -6.250461e-05 -5.9002556e-05 0.00013655746 -7.117509e-05
000110 ea 25 99 38 23 cc f5 38 73 b4 07 b8 c3 4f bc 38
       7.3026706e-05 0.00011720534 -3.2354565e-05 8.979395e-05
000120 4b 7d a6 b8 0b f0 c1 b8 1e 7b 58 b9 bf c3 34 38
       -7.9388345e-05 -9.247669e-05 -0.0002064523 4.3097647e-05
000130 71 65 8a b7 41 4f 46 38 a2 84 23 b8 03 d3 6a 38
       -1.649812e-05 4.728069e-05 -3.8985752e-05 5.5986467e-05
000140 ca 32 10 39 0c 18 c4 38 67 2f 84 b9 49 26 e6 37
       0.0001375183 9.3504874e-05 -0.0002521232 2.7435965e-05
000150 39 f4 4f b7 5e 0c 9d b7 60 25 d3 37 38 6e 2d b5
       -1.2395024e-05 -1.8721617e-05 2.5170564e-05 -6.460791e-07
000160 4b 8f 52 38 ed 32 78 38 cb cd 16 38 4e 77 6d 36
       5.0201354e-05 5.9175236e-05 3.5954447e-05 3.5385196e-06
000170 70 68 c1 37 70 06 1e 36 5a dc 5c b8 6c 3b cd b8
       2.3056025e-05 2.3547582e-06 -5.2657306e-05 -9.78623e-05
000180 dd c2 6a b7 54 d0 f0 b7 71 71 d4 37 06 d6 49 b8
       -1.3992857e-05 -2.870724e-05 2.5325195e-05 -4.812146e-05
000190 22 18 d2 b8 a2 05 a0 b9 05 19 5c b8 b6 21 d0 38
       -0.000100180754 -0.00030521775 -5.247539e-05 9.924492e-05
0001a0 bb 29 78 b8 bc 72 77 b8 e8 1d 0a 37 33 1c c3 b7
       -5.9166672e-05 -5.8996244e-05 8.232404e-06 -2.3258943e-05
0001b0 15 66 68 38 3e 58 a0 b8 d2 6d c0 37 e2 18 89 38
       5.540818e-05 -7.645831e-05 2.2939323e-05 6.537304e-05
0001c0 fe cc 3a 37 14 33 de b8 b5 60 3a 38 7f 3c ae b8
       1.1134192e-05 -0.00010595299 4.443592e-05 -8.308235e-05
0001d0 13 7f bf b8 3c 0b b6 b8 37 a8 f1 b7 c1 5f fd b7
       -9.131259e-05 -8.680529e-05 -2.880777e-05 -3.020454e-05
0001e0 e7 b7 c6 b8 6c 0e a8 b8 2c 1c dd b7 7a d4 42 b8
       -9.47563e-05 -8.0135505e-05 -2.6358372e-05 -4.645109e-05
0001f0 11 2e e7 b7 f0 b4 fc b7 eb dc 00 b9 fc 45 fe 38
       -2.7558797e-05 -3.0124997e-05 -0.0001228933 0.000121246994
000200 73 ad c8 38 c5 8c 95 38 b5 96 18 38 e2 f1 93 b9
       9.5690506e-05 7.131094e-05 3.637998e-05 -0.00028218242
000210 b7 dc 41 b7 64 14 3d b7 22 15 89 36 62 fa 2e 37
       -1.1555086e-05 -1.1270025e-05 4.0853784e-06 1.0429505e-05
000220 85 b9 ed b8 e9 d5 f0 b8 99 28 cd 39 17 89 5d b9
       -0.00011335596 -0.00011483936 0.00039130895 -0.00021127272
000230 6a 57 a9 b8 cc 47 99 b8 68 8b 86 b8 8a ef 1d 38
       -8.07483e-05 -7.308982e-05 -6.415584e-05 3.7654805e-05
000240 d7 7f 85 38 28 91 f2 37 b0 e1 40 b7 ea 8f 50 b8
       6.365746e-05 2.8916242e-05 -1.1496639e-05 -4.9725095e-05
000250 34 a3 ed 35 97 5c f1 35 bd 93 0f 36 24 d0 1b b7
       1.7705374e-06 1.7982846e-06 2.1394656e-06 -9.2871815e-06
000260 58 09 ff 38 85 d3 e2 38 fa 90 5a b8 a9 11 13 b9
       0.00012161088 0.00010815918 -5.211027e-05 -0.00014025591
000270 bc 28 42 35 2e 19 e0 b6 3f fd 89 37 b5 3d c8 37
       7.232991e-07 -6.6786515e-06 1.64496e-05 2.3870592e-05
000280 b5 4b 63 38 0f 1d 89 38 5c f6 f7 b6 3b bf f1 b8
       5.4191525e-05 6.538082e-05 -7.3898536e-06 -0.00011527395
000290 5d 9a 7f 38 21 5b 82 38 23 a8 68 b8 77 04 95 b8
       6.09405e-05 6.215857e-05 -5.54697e-05 -7.105705e-05
0002a0 31 a8 95 37 30 42 8a 37 6a df b1 b6 35 c0 be 37
       1.7840504e-05 1.6481703e-05 -5.30102e-06 2.2739268e-05
0002b0 35 3f 15 38 1d 0e 31 38 ec bd 11 35 03 97 80 37
       3.5583234e-05 4.2213233e-05 5.429308e-07 1.532911e-05
0002c0 a2 17 85 b7 b5 a6 b3 b6 7b bb 64 b7 8c e3 92 b7
       -1.586584e-05 -5.354023e-06 -1.363351e-05 -1.7510516e-05
0002d0 9c e7 2a b8 0a da 16 b8 2a 8c 4c 38 f1 d0 d1 37
       -4.074686e-05 -3.596585e-05 4.8767928e-05 2.5012037e-05
0002e0 55 9c a0 b8 1c eb 27 b8 63 9e 28 39 5f 3d 33 37
       -7.658514e-05 -4.0034865e-05 0.00016080732 1.06835205e-05
0002f0 88 d0 1d 38 8e b6 47 38 9b 28 91 b7 49 56 ba 36
       3.7625927e-05 4.7615315e-05 -1.7304255e-05 5.553277e-06
000300 3d a0 46 38 8b 92 df 37 51 77 9f 38 a6 f5 5a b8
       4.7356112e-05 2.6651911e-05 7.603935e-05 -5.2204028e-05
000310 42 1e 8d b8 ae 64 04 b9 2d be c5 b8 11 d6 f2 38
       -6.72904e-05 -0.00012626007 -9.429115e-05 0.00011579332
000320 13 14 7b b9 bd 78 f1 b8 91 bd 8e b9 e7 7e fd b8
       -0.00023944704 -0.00011514265 -0.0002722559 -0.000120876175
000330 00 00 00 00 00 00 00 00 00 00 00 00 00 00 00 00
       0.0 0.0 0.0 0.0
000340 d9 9c 15 39 d8 45 1e 38 64 fb 74 37 f8 70 9d b8
       0.00014268178 3.7735183e-05 1.4602065e-05 -7.5073855e-05
000350 f3 74 8a b7 99 da 32 35 8a 58 e5 b7 cf 2b b6 b8
       -1.650534e-05 6.662827e-07 -2.7340157e-05 -8.686596e-05
000360 9d 0b 2a b6 75 ff 5b 36 5b df c9 b7 16 b2 97 37
       -2.5338734e-06 3.2782239e-06 -2.4065075e-05 1.808353e-05
000370 76 25 da 37 34 f1 c5 37 af 42 2c 39 d8 da 89 37
       2.600507e-05 2.3596549e-05 0.0001642804 1.643358e-05
000380 5e 8b 87 b8 4e c4 dc b8 55 4b f9 b7 f4 fd 5c 38
       -6.463261e-05 -0.00010526982 -2.9718192e-05 5.26886e-05
000390 ba 99 9c 37 bc 10 b2 b7 24 ef b6 39 1f 89 cf b9
       1.8668234e-05 -2.1227046e-05 0.0003489192 -0.0003958428
0003a0 87 f3 8d b7 52 5e e0 36 8b d6 a4 38 83 b1 57 38
       -1.6921911e-05 6.6867005e-06 7.860091e-05 5.1425315e-05
0003b0 e9 a7 50 b7 f3 a7 0d b8 53 1a 48 38 06 b5 8b 38
       -1.2436861e-05 -3.3773435e-05 4.7708232e-05 6.661755e-05
0003c0 c3 3c f8 38 cc cc 2c 39 c1 0a 4f 38 e3 0a 13 b5
       0.00011836879 0.00016479491 4.936266e-05 -5.477761e-07
0003d0 6f ef c0 37 a7 8a e2 37 a9 71 e8 38 b4 36 c2 b8
       2.2999679e-05 2.7005864e-05 0.00011083793 -9.26083e-05
0003e0 c4 10 c3 35 63 0a d0 b7 fe a5 b9 b7 18 7f 0e b8
       1.4533512e-06 -2.4800369e-05 -2.2131015e-05 -3.3973804e-05
0003f0 00 00 00 00 00 00 00 00 00 00 00 00 00 00 00 00
       0.0 0.0 0.0 0.0

exp_avg_sq f4 [64, 4]
000000 3b c5 99 34 ed 34 ca 33 ab 03 38 35 fd ac 2c 35
       2.8641975e-07 9.415985e-08 6.855068e-07 6.4326724e-07
000010 45 ce 85 35 65 4d bc 34 e2 0f 59 33 75 a1 5e 33
       9.969305e-07 3.507404e-07 5.0538695e-08 5.1835247e-08
000020 d2 9a 12 35 64 5a 87 35 4e 96 84 35 6a ec 77 35
       5.461453e-07 1.0084591e-06 9.878511e-07 9.23587e-07
000030 41 fe 16 34 f2 c8 99 33 8f a1 bc 35 1a f6 a9 35
       1.4062336e-07 7.1611694e-08 1.4054111e-06 1.2663106e-06
000040 8c 92 cb 35 0b 5e 14 35 8c 15 83 35 b5 7d a0 35
       1.5167329e-06 5.5271147e-07 9.766532e-07 1.1957515e-06
000050 ff e9 39 34 cc a2 96 34 32 78 06 34 98 85 dc 33
       1.7314595e-07 2.8058128e-07 1.252345e-07 1.0268849e-07
000060 4d 07 98 34 cf c8 0c 34 eb 3d bb 33 4b 60 20 33
       2.8317518e-07 1.311157e-07 8.719129e-08 3.734048e-08
000070 61 c1 4b 35 69 a5 2e 35 06 71 45 34 f2 a9 1b 34
       7.5904796e-07 6.5060755e-07 1.8388172e-07 1.4497326e-07
000080 e1 51 9d 35 ec 5c a8 35 54 09 67 35 5d 1b 8f 35
       1.1721241e-06 1.2544019e-06 8.606778e-07 1.0662294e-06
000090 41 43 0f 34 6f f4 29 34 c4 81 71 34 a1 a7 0c 34
       1.334238e-07 1.5828276e-07 2.2492083e-07 1.3099499e-07
0000a0 21 10 85 33 26 8a 99 33 63 ca 40 33 84 eb 0b 33
       6.196229e-08 7.149747e-08 4.4887553e-08 3.257766e-08
0000b0 3d ca 10 38 d0 4c b1 37 db 4e 17 37 51 ab 28 37
       3.4520624e-05 2.1135813e-05 9.018661e-06 1.0053468e-05
0000c0 d6 92 1c 33 23 4e 1e 34 d4 d6 43 34 80 ef eb 34
       3.6455127e-08 1.4743323e-07 1.8238944e-07 4.394642e-07
0000d0 da a6 bb 35 d4 ff 8d 35 05 9f b0 34 9e a9 cb 34
       1.3981146e-06 1.0579774e-06 3.2898257e-07 3.793511e-07
0000e0 a9 1f 92 34 37 67 e4 33 af a4 45 34 2b 9e 7b 33
       2.7217655e-07 1.0635852e-07 1.8406966e-07 5.8584344e-08
0000f0 31 91 ed 34 3d 7b 2d 34 c9 57 9f 33 0f de 1a 34
       4.425033e-07 1.6156714e-07 7.4199825e-08 1.4423152e-07
000100 c9 a1 d3 34 7b 8f df 34 92 46 03 35 b2 bd 20 35
       3.9419527e-07 4.1641383e-07 4.8903996e-07 5.988069e-07
000110 43 aa 38 34 91 c3 99 33 a6 a9 c6 33 97 a4 97 33
       1.7198276e-07 7.160191e-08 9.2509524e-08 7.061424e-08
000120 13 cb 88 33 6c 69 b8 33 20 3a 03 35 ee 9d 98 34
       6.3699325e-08 8.587344e-08 4.8885886e-07 2.8427115e-07
000130 dc 78 33 31 05 14 ab 32 6b 9e 89 32 ab be 0b 33
       2.6116629e-09 1.9916124e-08 1.602094e-08 3.253687e-08
000140 80 c5 58 35 de c3 fe 35 0b 0d 0b 36 3c 04 e7 35
       8.075367e-07 1.898148e-06 2.0720206e-06 1.7212074e-06
000150 40 7a 1e 32 3a f3 f2 31 8a 42 f8 32 64 8a 8e 32
       9.224607e-09 7.0707786e-09 2.8901258e-08 1.6593908e-08
000160 c9 2a b2 34 34 06 f5 34 41 c4 4d 33 27 0b 71 34
       3.3186214e-07 4.563932e-07 4.7908774e-08 2.2448931e-07
000170 3b c1 0b 35 a8 78 a2 33 af 97 bf 34 63 e8 78 35
       5.206272e-07 7.56566e-08 3.5686887e-07 9.2725367e-07
000180 63 2d bc 34 be a1 92 35 f8 51 14 36 c5 19 d7 34
       3.5050752e-07 1.0924921e-06 2.210143e-06 4.006562e-07
000190 d5 5b 04 36 ad e6 0c 37 39 5e 2d 35 de 98 00 35
       1.9722986e-06 8.398359e-06 6.4584634e-07 4.7906167e-07
0001a0 7e 74 83 35 fb 6e 81 35 9d 7f b8 34 e2 3f 18 34
       9.794164e-07 9.643549e-07 3.4365522e-07 1.4179344e-07
0001b0 09 47 3f 35 7b 91 a3 35 18 82 3f 35 82 fb dd 34
       7.1256414e-07 1.2186787e-06 7.1342356e-07 4.1347454e-07
0001c0 e9 a1 f8 35 a3 e2 a7 37 f2 5c 97 35 29 30 46 36
       1.8524562e-06 2.0013487e-05 1.1277427e-06 2.9532332e-06
0001d0 1c 36 89 34 db d0 63 34 12 b8 4a 34 43 d0 be 33
       2.5557608e-07 2.1217004e-07 1.887968e-07 8.885447e-08
0001e0 9f 25 a2 36 19 82 50 36 7c a2 3e 34 79 ac 2e 35
       4.832356e-06 3.1070142e-06 1.775424e-07 6.507103e-07
0001f0 5f 51 33 34 34 6c d1 34 9a 9c 8a 34 19 20 08 34
       1.6700277e-07 3.9008012e-07 2.5818446e-07 1.2677664e-07
000200 e8 fb de 35 09 6b 36 34 b5 be 84 35 f8 7c 8e 35
       1.6613603e-06 1.698901e-07 9.89027e-07 1.0616195e-06
000210 94 ed 48 31 c9 1b 1b 33 d2 1d 84 33 84 a1 c5 33
       2.9238878e-09 3.611402e-08 6.152153e-08 9.202907e-08
000220 00 94 81 34 c1 fb 7a 35 03 96 97 35 ce a0 8c 35
       2.4135807e-07 9.349861e-07 1.1294036e-06 1.0477613e-06
000230 09 70 a2 35 91 01 c8 35 55 de fa 34 ee d7 fe 32
       1.2102547e-06 1.4901617e-06 4.6727897e-07 2.9667685e-08
000240 da 6c 4d 35 4f ca 5d 35 d4 59 56 34 de 6b 4c 35
       7.652685e-07 8.2623313e-07 1.9962982e-07 7.615289e-07
000250 44 51 33 33 1f b3 38 33 3e 63 f9 33 82 8d cb 33
       4.1750596e-08 4.3003748e-08 1.1613018e-07 9.478664e-08
000260 20 93 98 35 8b cd 43 35 d9 0f f9 34 de c0 91 35
       1.1367702e-06 7.2942265e-07 4.6391395e-07 1.0859474e-06
000270 59 b2 07 35 15 6d d7 34 54 ff c5 34 f7 c9 af 34
       5.055095e-07 4.0126238e-07 3.6879885e-07 3.274324e-07
000280 51 64 b9 34 94 19 9c 33 31 ed 83 33 a3 8e 19 34
       3.4531925e-07 7.268969e-08 6.143308e-08 1.4301126e-07
000290 c8 8e 38 35 a0 16 44 35 ac 9e 51 34 a1 ed b0 35
       6.8753116e-07 7.3048614e-07 1.9522366e-07 1.3182181e-06
0002a0 aa af 85 32 6d fb 5f 32 b1 75 eb 32 f8 6b 00 33
       1.556312e-08 1.3037476e-08 2.741112e-08 2.990052e-08
0002b0 7a 85 4f 36 6a 54 35 36 86 21 d9 34 a1 d2 a5 35
       3.0923097e-06 2.7020237e-06 4.044379e-07 1.2354759e-06
0002c0 cd d9 31 33 ed 9b a0 31 8b 0c 9a 33 cf af fa 33
       4.1409113e-08 4.6743396e-09 7.1734654e-08 1.16735116e-07
0002d0 0a 76 77 34 07 92 68 34 04 44 18 34 4a b9 9f 33
       2.304661e-07 2.1659808e-07 1.4180847e-07 7.437718e-08
0002e0 0e b0 16 34 b6 fd 29 34 71 e9 c5 34 cf a5 cc 34
       1.4033887e-07 1.5831651e-07 3.686396e-07 3.8118603e-07
0002f0 97 67 dc 33 0d cd 17 34 6d 45 2c 33 14 2d 69 33
       1.0263391e-07 1.4137568e-07 4.0110013e-08 5.429054e-08
000300 fc df 7d 34 4c 23 50 34 3a 18 93 34 40 22 43 34
       2.3643946e-07 1.938435e-07 2.739851e-07 1.817325e-07
000310 61 64 d6 35 26 0a 0b 36 54 b1 ef 34 76 72 75 34
       1.5973457e-06 2.0718521e-06 4.4646242e-07 2.2859044e-07
000320 72 ce e6 35 da 4d 61 35 b9 83 57 35 7f 51 38 35
       1.7196419e-06 8.393232e-07 8.0285423e-07 6.8663934e-07
000330 00 00 00 00 00 00 00 00 00 00 00 00 00 00 00 00
       0.0 0.0 0.0 0.0
000340 7e 7f a5 35 2c d7 97 34 c7 17 b8 34 b2 91 e1 34
       1.2330563e-06 2.82825e-07 3.428997e-07 4.2015523e-07
000350 69 a1 fe 33 b7 3c 31 34 fa d6 9a 34 44 6e 43 34
       1.1857157e-07 1.6506498e-07 2.884115e-07 1.8200905e-07
000360 b0 a3 b6 30 3d d3 e7 30 fd 58 13 33 32 5d 1e 33
       1.3288766e-09 1.68675e-09 3.430704e-08 3.6872002e-08
000370 f7 b5 14 32 9f ec f4 31 2f 47 53 34 3e 0b 1e 34
       8.656108e-09 7.1282353e-09 1.9676803e-07 1.4718987e-07
000380 9a c5 f9 34 d4 36 98 35 e8 5a 8d 34 64 56 01 34
       4.6523638e-07 1.134084e-06 2.632944e-07 1.204549e-07
000390 4a e6 5f 36 8b ed 0c 37 27 e8 87 36 ed 10 16 36
       3.3363635e-06 8.399958e-06 4.0503396e-06 2.2361594e-06
0003a0 0f 6e 84 34 b5 b5 26 33 65 3d 2b 34 3c 98 3d 35
       2.4666994e-07 3.881515e-08 1.5947951e-07 7.0629517e-07
0003b0 28 81 91 35 06 c1 a9 35 4a c5 33 35 ad b0 fa 34
       1.0840931e-06 1.2647658e-06 6.696979e-07 4.6694677e-07
0003c0 a4 eb cc 35 89 50 ad 36 33 e8 68 34 95 aa ac 34
       1.5267765e-06 5.1651773e-06 2.1691157e-07 3.216161e-07
0003d0 b9 d2 ac 35 0d 7c 53 35 c8 5e 1b 36 b4 8c a2 35
       1.2876327e-06 7.8784143e-07 2.315197e-06 1.211089e-06
0003e0 00 c5 28 34 0f e4 d4 34 38 fd 15 35 ae ae 7f 34
       1.5717887e-07 3.9654012e-07 5.587531e-07 2.3812274e-07
0003f0 00 00 00 00 00 00 00 00 00 00 00 00 00 00 00 00
       0.0 0.0 0.0 0.0

exp_avg f4 [64]
000000 b7 d4 a5 36 68 ad 8f b8 82 ab d6 b8 82 24 3c b8
       4.9421465e-06 -6.851071e-05 -0.00010236261 -4.4856693e-05
000010 df 0c 7e b7 35 74 82 36 19 2f 99 b7 c1 7d 91 b8
       -1.5142577e-05 3.88783e-06 -1.8260953e-05 -6.937562e-05
000020 09 46 6e b8 9d e2 76 b7 2e c7 82 38 7d de 8d b8
       -5.6808847e-05 -1.4715505e-05 6.235983e-05 -6.7648456e-05
000030 7d f7 ac b6 d2 d1 2b b7 04 d3 b5 37 ad 59 0e b8
       -5.154811e-06 -1.0241247e-05 2.1675143e-05 -3.3938955e-05
000040 4d 56 0c 38 04 00 00 00 d0 f2 9b b8 f1 34 cc 36
       3.3458975e-05 6e-45 -7.436203e-05 6.085837e-06
000050 11 77 28 38 da 3a 5a 37 db dc df b7 bd d3 54 35
       4.016521e-05 1.3007515e-05 -2.6686515e-05 7.9284274e-07
000060 ef 3f d7 35 3a d5 26 b8 26 b3 7b 37 f3 59 60 b6
       1.6037355e-06 -3.9776067e-05 1.5002477e-05 -3.3430958e-06
000070 86 a8 13 b8 a7 58 1a b5 ce 38 5c b8 6c dd 19 38
       -3.520448e-05 -5.7498477e-07 -5.250499e-05 3.6684258e-05
000080 f6 3d 72 37 47 97 2f b7 27 12 2f b8 a6 fa 74 b8
       1.443875e-05 -1.0466035e-05 -4.1740157e-05 -5.8407568e-05
000090 cf 9c 43 b8 ce 70 49 b7 be fc e4 b7 b3 fb bf b7
       -4.6637662e-05 -1.2006798e-05 -2.729741e-05 -2.288618e-05
0000a0 f7 75 cc b7 9a c4 b8 35 82 fc 99 b7 19 21 3f 37
       -2.4373627e-05 1.3766287e-06 -1.8356604e-05 1.1392193e-05
0000b0 57 5a 3f 37 86 b6 13 38 fe c2 c2 37 04 00 00 00
       1.1405521e-05 3.521752e-05 2.3217402e-05 6e-45
0000c0 00 00 00 00 09 95 c0 37 dc ce 6a b8 17 45 6b b6
       0.0 2.2957583e-05 -5.59826e-05 -3.5057944e-06
0000d0 ee 8b fa b5 0e ff 43 b8 f1 38 66 38 ec 4c 6e 36
       -1.8667176e-06 -4.672916e-05 5.4889304e-05 3.5509538e-06
0000e0 04 00 00 00 7f 56 73 36 00 00 00 00 9d 2c e6 37
       6e-45 3.626017e-06 0.0 2.7438911e-05
0000f0 4c 9c 93 38 48 78 60 b9 b9 50 95 b8 a8 a9 38 b7
       7.038619e-05 -0.00021407113 -7.1199094e-05 -1.1006756e-05
