log/alpha=1/version_None/checkpoints/epoch=2499-step=4999-v2.ckpt (torch, 116860 bytes, 21 tensors)

dec.lin0.bias f4 [64]
00000000: b484 dabc fb73 f3bc dfa9 edbe 17cd 143f
00000010: e0d3 abbe 573d ce3e e4bf e8be f2ea 95be
00000020: 7746 79bd 7f33 ff3e eb75 643e 546c 08bf
00000030: 094e 7f3d 58fa 2a3d fe4d d0be b2cb b63e
00000040: 757f 91be 1de3 e83d 78ee 803e 4d07 e83e
00000050: 376b 86be a2d8 a3be d9b0 21bf feb9 463e
00000060: 2dfa 633d 305f 333d 2d3b 04bf 86a7 823c
00000070: 7ab8 27be a5e9 ebbe 2596 4b3e abc8 0c3d
00000080: 3be3 163f e303 163e c5b6 073f cd9a 8ebe
00000090: d433 58bc 7432 043f e3b9 d3be ceaf 30be
000000a0: 05f6 6ebe f907 303e 870f a33e 5b37 f5bd
000000b0: fb67 0abe 7cc3 8dbe 965b 93be 5b32 2e3e
000000c0: 1e8a 99bd 0f96 5a3e 7334 b6be cf26 1c3e
000000d0: cbaa 8fbd a8e5 b4be 3858 d7bd 910b 8d3e
000000e0: e525 cabe 8be0 e8be 027c d0bb dc34 aebe
000000f0: e087 ad3d c49d d63e 5b37 58be c6cc 41be
-0.026674606 -0.02971839 -0.46418664 0.5812544 -0.33560085 0.40281174 -0.454589 -0.29280812
-0.060858216 0.49843976 0.22310607 -0.53290296 0.06233028 0.041742653 -0.40684503 0.35702282
-0.28417554 0.113714434 0.25181937 0.4531807 -0.26253673 -0.32001215 -0.63160473 0.19406888
0.055658508 0.04379195 -0.51652795 0.015949022 -0.16378966 -0.46076694 0.19881494 0.03437106
0.58940476 0.1464992 0.5301326 -0.2785248 -0.013195951 0.51639485 -0.41352758 -0.17254564
-0.23336037 0.17190541 0.31847784 -0.11973449 -0.13516228 -0.27688205 -0.28780812 0.17011397
-0.07497047 0.21346305 -0.3558689 0.1524918 -0.07014998 -0.35331464 -0.10514873 0.27547887
-0.39482036 -0.45483813 -0.006362439 -0.34024704 0.08473182 0.4191724 -0.21114866 -0.18925771

dec.lin0.weight_v f4 [64, 4]
00000000: 4be3 513e ea54 813e 1883 c6be d6a9 683d
00000010: d72a 9bbe 1026 29be 2aa0 c93e 8db5 c73d
00000020: 19fa bb3c 35f0 64be 6642 30be 5d33 f5bd
00000030: 6a1c 26be 36a9 d63e 77cd 393c d1a2 3e3e
00000040: 3ae3 99bc 550c 8cbe f271 563e bb93 cf3e
00000050: 8586 523e 19f0 debd 6a5a 503e 8808 44bc
00000060: 6a31 67bc 50b4 bcbe 2aa4 223e 631d 043f
00000070: a13c 033c 58d7 aa3e 5984 5c3e 1e70 c7bd
00000080: 5794 5dbc ed78 90be 4d43 2a3e 3b95 dd3e
00000090: 8fdd 033e 46ba a5be 43dc 593e d4c0 033b
000000a0: 1d2b a13e 24f2 34be 1879 dd3e ba68 d73e
000000b0: 0f3d 0dbe 2f90 9c3e 7e10 a1be d957 403d
000000c0: 7c62 cebe 6cd3 c53d ef78 b43e 9b80 a73e
000000d0: 3a2a d13a a60c b8be ec4a 04be 4ec6 1bbe
000000e0: 6262 75be e4bf c2bb ba9a 0f3f f9f6 883e
000000f0: 8515 8f3e adb5 fbbd 4318 6b3e 8ddd 413e
00000100: fd7f 55bb 75a4 c4be 1fcf 45be 4441 203d
00000110: 3bcb b03b 43aa 32be 4b15 aebe d97b 443e
00000120: 0c65 d73e b81a c8be f514 043e dcc5 d43e
00000130: 5331 743e 6b06 cbbe ed5f b7be 7ad4 bebe
00000140: 3b21 72be c48a 793e 57d2 093f 1229 b33e
00000150: 953a b6bb 2fab 25bb 5400 c93e 4aa9 763e
00000160: 3fdb 3dbe eaeb 233e 55c4 1d3f a278 16be
00000170: b1d2 343d 4fe2 4a3e d15c 6d3a 25c0 ae3e
00000180: c951 c73c 6811 aabe 90a0 c7be 5ed9 e33e
00000190: 9473 553e 6e62 aabe df8c b8bb d472 ccbe
000001a0: 81ed 2cbd df43 cd3c f569 17bd f20a a13e
000001b0: 00c5 b0be 5d41 c53e f898 d53e e216 0c3f
000001c0: de8a a5be b8e1 1e3e 6651 983e 8113 71be
000001d0: dbfb 92be 82b4 603c 43ab c1be dd87 23bf
000001e0: 3f54 a63c 01bd 9e3e 12ce d5be 4c27 afbe
000001f0: 4557 abbd 5a5c f23e 00bb afbd 2817 cabe
00000200: 7c1c 3d3e 18f4 ddbe 64aa bd3d 8d53 62be
00000210: c93b 213e 737b 263d 091a ae3e b65f 61be
00000220: de94 293e 2189 c93e 9fa5 eebe 310e 4d3e
00000230: b3f3 91be b187 84be 621d 0cbe ecd5 87bc
00000240: 111d 363c ea05 cd3e 21ec a7be fa86 6dbd
00000250: 49f5 91be ce8e 89bd e3c9 cb3e 53be 113f
00000260: c3da 9d3c 068f f0bd e2b4 f9be 4faf 77be
00000270: 443e 10be 79ce 9b3e d88d e53e 7456 b3be
00000280: c45c 90be e476 fa3e 365c a7be 06a3 c8bd
00000290: f611 a8be 175e 033d 0e0f f8be 633a 67be
000002a0: 1429 be3d d695 92be ff01 a63e 1777 ac3e
000002b0: 8f91 2b3e 275c bebd 3e68 e8be a2b5 a03d
000002c0: d37b e0bd 8534 8d3e a6a3 09be 0c64 0abf
000002d0: ca20 5a3e 0e59 b93e 3767 f1be cda6 a5be
000002e0: d065 863e e17c e0be 8bbc f6be 43de e43e
000002f0: efc4 943e be22 b6be e4aa 613e 47db 473e
00000300: 8313 53be af89 bdbe 69b7 513d b101 363d
00000310: 580e 0dbe 65de 96be 13f4 16be 220d 7f3e
00000320: 570f 99be dc16 84be 1268 edbc cdd8 ad3e
00000330: ea79 10be 51d0 8cbd 2c19 133e 69b8 0dbf
00000340: 83c8 1e3e 8798 c3be 67ba 3a3e 5d15 eebe
00000350: d208 85be 8e71 f6be 2c2c 233e 809f f03b
00000360: 38f6 bb3e 01d3 82be c156 643e 207b 94be
00000370: 19e1 1fbe 4ddd ad3e 9eb6 c8bb a0d7 a03e
00000380: 744a 6f3d 6a6a a13e 0f22 95be 321b a53d
00000390: 88e7 20be 0538 493e 6499 de3e fca3 5c3e
000003a0: 11df eebe 7501 a9be d0b9 6ebd 26bb 853c
000003b0: a932 c7be 51d9 cb3e 5c63 573e d85f 953e
000003c0: f588 3bbd abd9 0f3e 5fad 693e 8dd8 4abe
000003d0: e671 8b3d cec2 a7be f644 7cbe 0986 d9be
000003e0: 0542 abbe da82 f2bd 1f04 96be 7886 433e
000003f0: de03 fd3d 95f3 3dbe d4ab 433e 1722 0cbf
0.20496862 0.25260097 -0.38771892 0.056802593 -0.30306122 -0.16518426 0.39380008 0.09751425
0.022946404 -0.22357257 -0.17212829 -0.119726874 -0.16221777 0.41925973 0.011340491 0.18616797
-0.018785108 -0.2735316 0.20941904 0.40542397 0.20559128 -0.10885639 0.2034699 -0.011964925
-0.014110902 -0.36856318 0.15882936 0.5160734 0.0080100605 0.3336742 0.21534862 -0.097381815
-0.0135241365 -0.2821726 0.16627236 0.43277916 0.12877487 -0.32368678 0.2127543 0.0020103948
0.31478205 -0.17670494 0.4325645 0.42072088 -0.13792823 0.30578753 -0.31457895 0.046958778
-0.40309513 0.09659466 0.35248515 0.32715306 0.0015958019 -0.3594715 -0.12919205 -0.15212366
-0.23963311 -0.0059432853 0.5609547 0.26750925 0.27946106 -0.12290511 0.22958474 0.18932171
-0.0032577508 -0.3840672 -0.19317292 0.039124742 0.0053953207 -0.17447762 -0.3400062 0.19187869
0.4206928 -0.39082885 0.1289862 0.41557205 0.2384694 -0.39653334 -0.35815373 -0.37271482
-0.23645489 0.24369341 0.5383658 0.34992272 -0.0055611827 -0.0025279035 0.39258063 0.24088016
-0.18540667 0.16007963 0.61627704 -0.14694455 0.044146243 0.19812892 0.0009054663 0.3413097
0.02433099 -0.33216405 -0.38989687 0.44501776 0.20844871 -0.3327822 -0.0056320275 -0.39931357
-0.04221869 0.025056778 -0.036966283 0.31453663 -0.345253 0.3852643 0.41718268 0.54722416
-0.3233251 0.15515792 0.29749602 -0.23542596 -0.28707775 0.013714911 -0.37825975 -0.63879186
0.020303844 0.31003574 -0.41758782 -0.3420967 -0.08366255 0.47336084 -0.08580589 -0.39470792
0.18467897 -0.4335029 0.09261015 -0.22102185 0.15745462 0.040645074 0.34004238 -0.22009167
0.16560695 0.39362434 -0.46610734 0.20024945 -0.2850624 -0.25884774 -0.13683084 -0.016581498
0.011115328 0.40043575 -0.3279734 -0.05799005 -0.2850745 -0.06716691 0.39802465 0.56931037
0.019269353 -0.117460296 -0.48770815 -0.24187969 -0.14086252 0.30430964 0.4483478 -0.35026896
-0.28195775 0.4891883 -0.3268754 -0.09796719 -0.32826203 0.032072153 -0.48448986 -0.22580867
0.09285179 -0.2862994 0.32423398 0.33684608 0.16754745 -0.092949204 -0.4539203 0.07847144
-0.109611176 0.27579132 -0.13441333 -0.5405891 0.2130157 0.36200756 -0.4714906 -0.3235382
0.26249552 -0.43845275 -0.48190722 0.44700822 0.29056498 -0.3557338 0.22037846 0.19517241
-0.20612912 -0.37019107 0.051200304 0.044435207 -0.13775003 -0.2946655 -0.14741544 0.24907354
-0.29894516 -0.2579869 -0.028980289 0.33954468 -0.14109007 -0.06875671 0.14365071 -0.5535951
0.15506177 -0.38202307 0.1823517 -0.46500674 -0.25983292 -0.4813351 0.15934819 0.0073432326
0.36711287 -0.25551608 0.22298719 -0.29000187 -0.15613212 0.33957902 -0.0061252853 0.3141451
0.058420613 0.315265 -0.29127547 0.08061828 -0.15713322 0.19650276 0.43476403 0.2154693
-0.4665456 -0.33008924 -0.058282673 0.01632459 -0.38905838 0.39814237 0.21033996 0.29174685
-0.04578491 0.14047877 0.22820042 -0.1980917 0.06808834 -0.32765812 -0.24635682 -0.42485073
-0.33448806 -0.11841364 -0.2930002 0.19094265 0.12354253 -0.1854995 0.19108516 -0.54739517

dec.lin1.bias f4 [64]
00000000: e870 713d affe f43c add9 473d 7ecf 403d
00000010: 9a41 8b3d 8c2f 86b9 bedc d4bd 04e8 e9bd
00000020: fcab 323d 5785 e5bd 3a9a 3c3b 2cd3 1d3d
00000030: 16d9 8abc 8209 343d ec05 3bbd e920 183e
00000040: 167f 98bd 3634 c73d 137c 553d 804e c1bb
00000050: 0d39 ffbd dbe2 623d 3c33 a4bd b99f 9a3d
00000060: 1877 b93d 1552 e5bd 1290 e7bd 95d5 003e
00000070: c294 89bd 137a 44bd b9d1 0a3e e697 a63c
00000080: f9e3 fb3d 89bb 9d3d 81c9 97bc 4b40 123e
00000090: 4fce 16be bcd1 9f3d 15ab 973d 8c9a 0abe
000000a0: d74f 11be 8290 9dbe 6430 fbbd 13b6 92bd
000000b0: 98ef 9cbc a307 1ebe 8a09 6cbe 5753 953d
000000c0: 88fe d33c 422c 4ebe 32b0 933b 0a7a 013d
000000d0: 67a6 cc3d 3e5a 743d f20a e9bd 72e0 f3bc
000000e0: 04fd 22bd 50d1 3bbe 21be cf3d 4eff d6bd
000000f0: a3b6 84bd 4c89 b63d 28b0 82bd 9d8b 053d
0.058945566 0.029906599 0.048791576 0.04707288 0.06799622 -0.00025593897 -0.10393666 -0.114212066
0.04362105 -0.11207073 0.002877845 0.038531467 -0.016949218 0.04395438 -0.045659944 0.14856304
-0.07446115 0.09726755 0.05212028 -0.0058992505 -0.124620534 0.055392127 -0.08017585 0.07549996
0.090559185 -0.111972965 -0.11306776 0.12581475 -0.067178264 -0.04796798 0.13556565 0.020336103
0.12299342 0.07701785 -0.018528702 0.14282338 -0.14727138 0.078036755 0.07405678 -0.13535517
-0.14190613 -0.30774313 -0.12265089 -0.07163634 -0.019157216 -0.154326 -0.23050514 0.072912864
0.025878206 -0.2013407 0.004507088 0.031610526 0.09992676 0.059656374 -0.11379041 -0.02977011
-0.039792076 -0.18341565 0.10143686 -0.10497914 -0.06480148 0.08912906 -0.063812554 0.03260385

dec.lin1.weight_v f4 [64, 64]
00000000: 46b5 f13d aaa9 023e e528 913d d2ec 41bc
00000010: 8143 783d 016c 50bd dc2e 813d 54fc eabd
00000020: 61d3 36bd 506f f0bd cad4 5cbd 3e21 a03d
00000030: 6fdc 903d 357e 62bd 7266 87bd b8d8 38bd
00000040: 25d5 cdbc c0fb 283e 6d02 c23d 847a 443d
00000050: 12af e6bd eba3 3c3d 40f1 4dbb 694e 00be
00000060: ab0e d83c bc97 393e d20b 8bbd 29f2 13be
00000070: 1d68 a43d 9678 fb3d 32d2 45ba 87ec b4bd
00000080: fed2 0d3d feb2 3f3d ad29 f93d ff34 d13d
00000090: 7d86 d93d 21a9 d9bd 3b55 363e 72ae fe3d
000000a0: 4ac4 0d3d e2db a63d 9229 b1bd e77e d4bd
000000b0: e148 a4bd 2f57 c43d 3855 9abd 86e4 f6bd
000000c0: 0381 afbd a213 b9bb 6cc2 47bd f350 263d
000000d0: 5d4d ecbd 901b 27b9 bf49 cfbc c585 25bc
000000e0: 7314 e43c 96e2 623c c9d7 bdbd 04c3 8fb7
000000f0: abe9 91bd 2a60 fabb cfbc 7fbc 3925 b33d
00000100: f130 c93d b0c4 9ebd 5bf5 b93d c06d 82bd
00000110: 17ae 94bc 5dcf 033e 4764 fc3d 25bd ae3d
00000120: f04f 183c b1c6 1a3d 7c3f ac3d d0fc 113e
00000130: aba8 d73c 7a75 8a3d ba6c 02be d694 50bd
00000140: e186 863c 56ae 2f3b 659d 5cbd 566e 9f3c
00000150: 12d6 8b3d be5c c43d 503a a7ba 587c fd3d
00000160: a0c9 053e 0eef 5dbd 5b73 903c c3c3 dabd
00000170: a0a5 893d 2055 a7bd 78ba febd 0c1a ecbd
00000180: 4936 fd3d bf28 df3d 610b f1bd de76 883c
00000190: c052 8cbd ae30 d43d a29d 7abc a2ff 91bd
000001a0: 0cab 65bd 52c8 c33d f7ec 913d a51d 723d
000001b0: d871 09be ec80 6a3c 433f 7ebd b80f d83d
000001c0: 2be2 633c 30f7 4b3c 5059 b23d 70af a7bd
000001d0: 7208 37bc babf c2bd 887a a43c 5ace 0bbc
000001e0: 1b0e 02be fdfd 7b3c d3bd 9f3d ebc4 d73d
000001f0: 49dd 00bc 4f41 5d3c 8b1c f03d baae f1bc
00000200: d5d9 833d dc23 02bb b60c 0f3b 66ed 973d
00000210: d2a0 18be 5459 663d 1384 1fbe 14fa e8bd
00000220: 81d4 3a3e 3c97 29be dcc9 c0bd f593 8abd
00000230: 559f 523d 435c cebd fd36 a5bd 7207 78bd
00000240: ff4a 8e3d 69b5 f53c 49ba b2bd cb45 633d
00000250: 05da c8bd 8b95 96bd 01d0 be87 1027 94bc
00000260: 453f 143e a6db 523c caac c5bd 9493 debd
00000270: 8ee2 5d2d 3da4 cebd 4231 033d 9d81 3b3d
00000280: a16b cbbd 03a9 063c a9c4 8d3d e476 4cbd
00000290: 06b1 443c e9ff 2abd 411e 383d f43c 02bc
000002a0: 7767 0ebc 6b93 093e dafc 943c ac05 753d
000002b0: cccd 38bd 64b9 b0bd b2b6 35bd 01bb 68bd
000002c0: 6e49 31bd dfbe c13d ef9b 99bd 7bf1 5fbd
000002d0: 3c63 f2bc 242a 12bd 8d35 323d f2a4 953d
000002e0: f742 07be 403f 433a 39eb 023d f1a6 3a3d
000002f0: e688 14be 78ba a83c f110 063b 3230 abbd
00000300: 72be 383b a0ec c6bc 1e5f bdbc d7fe a83d
00000310: 3c70 a03c 2dfe ab3d db53 393c 22f4 55bd
00000320: c6ad 2abe 78b8 4f3c 8367 25be 9e59 fcbc
00000330: a3ea 643c 8836 653d 0a01 493d ce68 babd
00000340: 8116 9c3d a23d d5bd 1f2f 1ebe df91 c43d
00000350: fe0c 083d a140 e13d d804 7abe 6e70 bbbd
00000360: 345f b63d f0d3 a33a 7737 113e 999d e2bd
00000370: 0e34 d6bd 7ec0 a1bd 890c a7bd b975 c8bc
00000380: 0e69 003e e364 2c3d 5e71 dc3d 249d c0bc
00000390: 4754 e2bd 0a2c de3d 1ef2 bebb e7b8 8c3d
000003a0: 86f5 80bb 7cb0 9b3d 5872 85bd 37ab de3c
000003b0: 5c42 cc3d 3ce0 053e 0a46 c93d 2c6c c5bb
000003c0: 4056 48bd dee3 b3bc c804 c83d dc33 97bd
000003d0: 4874 013d da56 dbb6 30fe a33d 7b9c 22bc
000003e0: ccbe 45bd 5798 ab3d 1c30 f93c 4f1d aebb
000003f0: 030f 75bd daf8 46bd 6443 ff3d 5f9f e2bd
0.11802153 0.12760034 0.07087878 -0.0118362475 0.06061125 -0.05088425 0.06307766 -0.11473909
-0.04463518 -0.11739981 -0.05391387 0.078188404 0.07073294 -0.05529614 -0.06611337 -0.045128554
-0.02512605 0.16502285 0.09473119 0.047968403 -0.11263861 0.04605476 -0.0031424314 -0.12529911
0.026374182 0.18124288 -0.06789364 -0.14447846 0.080276705 0.12278859 -0.0007546275 -0.088341765
0.034625046 0.04680156 0.12166152 0.10215186 0.10621355 -0.10627962 0.1780595 0.124356166
0.034611024 0.08147408 -0.08650507 -0.10375767 -0.08021713 0.095869415 -0.075357854 -0.12055306
-0.08569529 -0.0056480924 -0.0487694 0.040604543 -0.115381934 -0.00015936629 -0.02530372 -0.010102694
0.027841782 0.013847968 -0.092696734 -1.713774e-05 -0.07124647 -0.007640858 -0.01560898 0.08747334
0.09823788 -0.07752359 0.09080001 -0.063685894 -0.018149419 0.12872072 0.12323814 0.0853217
0.009296402 0.037787143 0.08410546 0.14256597 0.026325544 0.06760688 -0.12736788 -0.05092319
0.016421737 0.0026806793 -0.05386104 0.019461792 0.0682794 0.09588002 -0.0012758467 0.12377232
0.13065195 -0.05418306 0.01763313 -0.1068187 0.067210436 -0.08170533 -0.1243791 -0.115284055
0.1236387 0.108964436 -0.117697485 0.016658243 -0.06851721 0.103608474 -0.015296372 -0.07128836
-0.056071326 0.095596924 0.071252756 0.059110302 -0.13422334 0.014312964 -0.06207205 0.10549873
0.013908903 0.012449071 0.08708441 -0.08187759 -0.011171447 -0.09509225 0.020077959 -0.008533085
-0.12700693 0.01538038 0.07799878 0.10535606 -0.0078652585 0.01350434 0.11724194 -0.029502261
0.064380325 -0.00198578 0.0021827645 0.07418327 -0.14905098 0.056237534 -0.15577726 -0.113758236
0.18245126 -0.16561598 -0.094135016 -0.06766502 0.051421482 -0.10076191 -0.08067129 -0.060553975
0.06947898 0.02999373 -0.08726937 0.05548648 -0.09807209 -0.07352742 -2.8710276e-34 -0.018085033
0.1447726 0.012869751 -0.096520975 -0.10867992 1.2612701e-11 -0.1008992 0.032029398 0.045777906
-0.09932638 0.0082190065 0.069222756 -0.04991807 0.012005096 -0.04174796 0.044950727 -0.007949103
-0.00869166 0.13435142 0.018186975 0.059819862 -0.04511814 -0.086291105 -0.044363685 -0.056818966
-0.04328292 0.09460234 -0.07500445 -0.054673653 -0.029588334 -0.03568472 0.0435081 0.073068514
-0.13209139 0.00074480847 0.031962607 0.045569364 -0.14505348 0.020596728 0.0020456875 -0.08358802
0.0028189686 -0.024282753 -0.023116644 0.08251732 0.019584768 0.083980896 0.011311497 -0.052234776
-0.16667852 0.012678258 -0.16152768 -0.030804452 0.013971957 0.05596021 0.049073257 -0.09102021
0.0762148 -0.10412146 -0.15447663 0.09598135 0.033215515 0.10998655 -0.2441591 -0.09152304
0.08904877 0.0012499075 0.14181314 -0.110652156 -0.104591474 -0.07898043 -0.08156688 -0.024470197
0.12540075 0.0420884 0.107638106 -0.02351243 -0.11051231 0.108482435 -0.0058272025 0.06871205
-0.0039355187 0.07602021 -0.0651595 0.027181251 0.099735945 0.1307382 0.09827812 -0.006024858
-0.04891038 -0.021959241 0.09766537 -0.07382938 0.031605035 -6.5368195e-06 0.08007467 -0.009925003
-0.04827766 0.08378666 0.030418448 -0.0053135525 -0.05982877 -0.048577167 0.124640256 -0.11065554

dec.lin2.bias f4 [64]
00000000: 1fc4 f5bd 4084 8dbc f0e1 d33d a7a2 07bb
00000010: 18dc 9e3c c87e e93d 1d85 9cbd 9936 c03d
00000020: e4fc 5d3d 604d 9e3c db57 80bd 0903 cd3d
00000030: cf74 17bd dcd1 04bd 733f b53c ed1d dcbd
00000040: b691 3ebd 1379 a73c 70d8 f53c 1ee4 e53d
00000050: 33e2 9a3c 7b26 083e 3ee7 e2bd 789e c83b
00000060: 5a39 543d 7f10 4d3d 1bd2 763c 333e 7f3d
00000070: fb48 093d 4942 6bbd 4b17 d83d 8bc3 a03d
00000080: 1246 a53d b45c 28bd 38b5 9cbe 0546 e23d
00000090: 76e6 873d 4cc7 2dbd c2da 7dbd 95de fc3d
000000a0: bb01 e1bc 3ef3 0fbd daaa 693d 89b9 dcbc
000000b0: b79d a2bd c189 8a3d da3f bcbd 2f01 11bd
000000c0: 1e7e 1a3e bbfd d3bc cf8a 0ebe db21 51bd
000000d0: 213a 3d3d 09a9 db3d 0f3e c7bd c908 8cbd
000000e0: d91d f93d 32a1 adbc ead4 903d b4e8 3f3d
000000f0: f1c8 8c3d ae21 8c3b df84 063e e7a5 6cbd
-0.12000298 -0.017274976 0.103458285 -0.0020696314 0.019392058 0.11401135 -0.07642577 0.09385414
0.054196253 0.019324005 -0.06266757 0.100103445 -0.03697663 -0.0324267 0.022124982 -0.107478954
-0.04652568 0.020443475 0.030010432 0.112251505 0.018906688 0.13295929 -0.11079262 0.0061224066
0.051812507 0.05006456 0.0150647415 0.062315177 0.033516865 -0.05743626 0.10551318 0.07849797
0.080700055 -0.041104034 -0.3060701 0.110485114 0.06635754 -0.042426392 -0.0619762 0.12347142
-0.027466645 -0.035144083 0.057047702 -0.026943939 -0.07940238 0.06764556 -0.09191866 -0.03540152
0.15087172 -0.025877824 -0.13920139 -0.051057678 0.046198014 0.107256 -0.097286336 -0.06837613
0.12163896 -0.021195028 0.0707186 0.046852782 0.06874264 0.004276476 0.13136624 -0.057775404

dec.lin2.weight_v f4 [64, 64]
00000000: 05d0 b5bd ec54 553d ad65 18bd 86b0 7b3d
00000010: f120 0b3e 0eee d73d e580 9ebd 683d 6a3e
00000020: 4c7f 0c30 82ef 9b3d 808e 80bd f0f8 f839
00000030: c2e4 0dbe 414e a9bc b5a3 463c 4be7 3a3d
00000040: 1718 833d 8871 8e3d ba1d 8ebd e5cf 1c39
00000050: ae5d 51bd 0a80 4cbd 7ee6 993d d65f 033e
00000060: 19d4 0080 c0ac a73d 9892 30bd 90bc a9bd
00000070: 01a0 cc3c 4912 ce3a 28c5 84bd 98ee 5cbd
00000080: 2a19 cd3d 278f fbbc f389 0000 bc4a 9d3b
00000090: b675 9d3a 1599 df3d 6c96 10bd 87a4 8d3d
000000a0: 78a2 c33d 93ab 853e eb8c 81b4 f5ba a0bd
000000b0: 99b8 bbbd 3174 b93d c757 2f3e 056b a53d
000000c0: 7e2b e43b fa84 043e 04fe 0f3e 052e ae3d
000000d0: 152d 8bbd 9e67 98bd be53 863d 50eb c3bd
000000e0: 9cf5 683b cb53 683d b4e6 a13d f3b4 513d
000000f0: 0e4f 3bbc 4d8c 783c b421 8b3d a7fe f7bd
00000100: 584b ddbd 402e 723d 0646 fdbd 0058 d139
00000110: de27 b6bd 3009 66bd 0081 783a 38a0 2abd
00000120: 36ea a5bd cc7f cabd 5ea1 e9bd f057 f7bc
00000130: 684b 2e3d 2af7 edbd 9454 d83d f462 da3d
00000140: e403 18bd 9e68 a03d b0b7 803d 8cca dd3d
00000150: 1204 96bd 1014 f2bd 3c6d 063d a81d 85bc
00000160: 06c6 9a3d 20c5 20bc 0c74 2c3d 2e23 95bd
00000170: c0e7 c6bd 087a 63bd 007a 8b39 a826 cebd
00000180: 2451 173d f455 dd3d 3001 1dbd ea7f 943d
00000190: d84d 07bd 6091 433d c089 463b c81f eebd
000001a0: ee2d e5bd 6a95 ab3d f63e d43d 4004 0cbb
000001b0: 76eb b73d ec1f 593d a4e9 3fbd 3e64 81bd
000001c0: 5447 a93d 28dd 413d 0871 1ebd 9c9a c0bd
000001d0: 3477 893d 8805 b93c b005 05bc 0ccc 8e3d
000001e0: 5aa6 c23d 0885 913d d8a7 9d3c fce9 f4bd
000001f0: 487f f7bd 2ce8 e0bd f0f4 36bd 58fb cfbd
00000200: 9953 75bc e495 ab3d 7b82 023e 2997 a4bd
00000210: 9e1f b3bd 4ed2 09be 94ae ee3d dd4e 87be
00000220: 98a5 0000 00c2 89bc 503d bcbd 50a6 6e3c
00000230: e13c 60bd 1672 dc3d f8b7 1b3b 98e2 e33c
00000240: e88b 04bd db89 8e3d 391f fa3d 0b9d 243d
00000250: 60b9 8eb4 1782 973d e791 0180 a864 00be
00000260: 17f5 7fbc ac5d bb3d a3c6 3fbd 7d0a 303d
00000270: 815e 943d 767c 863d 6b69 073e cd7e 8d3d
00000280: ab07 c23c 16b3 189f 8d61 a0bc 391c 313c
00000290: 33d2 39bd 0cfc d53d 7b2d 323c e044 9d25
000002a0: c286 223d e0dd a3be 14e3 0000 af25 8bbd
000002b0: 97b4 9b3c 67c6 dcbd e8dd 26be d19d 283d
000002c0: 80da 0080 6d6c 2ebd 69c2 2ebe 4397 323d
000002d0: 6515 e13d f5fb 86bd 9c3f 0980 89ca f03d
000002e0: 8179 ecbb cadb 34bd 24d4 41bd d065 033b
000002f0: 3ba7 24bb e716 0b3d c598 0080 7fa4 60bd
00000300: 8057 d83d 45db fb3d 25c8 9c3c 5cfe 913d
00000310: 17af a83d a93b 5a3d 5caf 0b3e b9cf 44be
00000320: 2d71 423d 6c45 213b ad54 d23d 410b 573d
00000330: 472e 6b3d dded d23d 237a 8cbd 7ed5 2ebd
00000340: 8d94 ddbd 7420 fdbd cf79 e33d 39f7 563d
00000350: f4d4 f499 cc45 053e 52de e2bc 5254 a13d
00000360: 7bda f23c 8d99 4dbd 1b65 433d 6b0c 37bd
00000370: 7c24 653d 03a3 c9bd ad86 633c 09c4 103e
00000380: 9f99 423c c756 d43c 5508 9b3d 11be a0bc
00000390: a731 c9bc adca ae3d bdab c3bd 64cd ccbc
000003a0: f816 1a3d 0e87 85be b5b6 913d cbc8 1f3d
000003b0: 1142 9bbc 02d4 25bd 68dc 4bbd 8d5d 5c3d
000003c0: b402 1b3a b3bd 49bd fb3c ddbd b5bc 9e3d
000003d0: 0bb9 adbd 35b0 abbd f318 7abc 7352 263d
000003e0: 3788 9d3d 96a0 333c 4f5f d9bb d2b1 a2bb
000003f0: d304 c83b 5b7e 193d ad31 2c38 2ad8 a9bc
-0.08877567 0.05208294 -0.03720634 0.061447643 0.13586785 0.10543452 -0.077394284 0.22874987
5.1112603e-10 0.07614042 -0.0627718 0.0004748772 -0.13856795 -0.020667197 0.012123992 0.045630734
0.06401079 0.06955248 -0.06939264 0.00014954766 -0.05111473 -0.049926795 0.07514666 0.12829527
-7.6086e-41 0.08187246 -0.043108553 -0.082879186 0.02497864 0.0015722002 -0.06482917 -0.05393848
0.10014565 -0.030707909 4.9487e-41 0.004800169 0.001201323 0.1091787 -0.035299703 0.06916147
0.09552473 0.26107463 -2.4130654e-07 -0.07848159 -0.091660686 0.09055365 0.17123328 0.08077053
0.0069631925 0.12941352 0.14061743 0.08504871 -0.06795708 -0.074416384 0.06558941 -0.09566367
0.0035546785 0.056720536 0.07905331 0.051197957 -0.011432422 0.015170169 0.06793538 -0.12109118
-0.10805386 0.05912614 -0.123668715 0.00039929152 -0.08894323 -0.056161106 0.0009479672 -0.041656703
-0.08101313 -0.098876566 -0.114077315 -0.030193299 0.04255238 -0.116194084 0.10563007 0.10663405
-0.037113085 0.07832454 0.062850356 0.108296484 -0.07324995 -0.11820233 0.032819018 -0.016249493
0.07557301 -0.009812623 0.04210286 -0.072821006 -0.097121716 -0.0555363 0.00026603043 -0.10065967
0.036942616 0.1080741 -0.03833121 0.0725096 -0.033033222 0.047746062 0.0030294508 -0.116271555
-0.11190401 0.08378108 0.10363571 -0.0021364838 0.089804575 0.05300896 -0.046853676 -0.06317948
0.08265558 0.04733005 -0.038682014 -0.094044894 0.06712189 0.022585645 -0.008119032 0.069725126
0.09504385 0.07105452 0.019245073 -0.119586915 -0.12084824 -0.10981783 -0.044667184 -0.10155362
-0.0149735445 0.08378199 0.12745087 -0.08036644 -0.08746265 -0.13459131 0.11654392 -0.26427355
5.9404e-41 -0.01681614 -0.09191382 0.014566019 -0.05474556 0.10763948 0.0023760777 0.02781801
-0.032359987 0.069598876 0.122129865 0.04018883 -2.658444e-07 0.073978595 -1.44175e-40 -0.12538397
-0.015622399 0.09148726 -0.046820294 0.042978752 0.07244588 0.06566708 0.13223808 0.06908951
0.023685297 -3.233539e-20 -0.019577766 0.010809951 -0.045366477 0.10448465 0.010875101 2.728183e-16
0.039679296 -0.32005215 8.146e-41 -0.06794297 0.01900701 -0.1078003 -0.16295588 0.04116613
-7.8383e-41 -0.04258387 -0.17066349 0.043601286 0.10990409 -0.06591026 -8.49338e-40 0.117573805
-0.007216633 -0.04415492 -0.047321454 0.0020049699 -0.0025124091 0.03395739 -5.4803e-41 -0.054844376
0.10563564 0.12297682 0.019138405 0.07128593 0.08236521 0.053279553 0.13641113 -0.19219865
0.047471214 0.002460803 0.10270057 0.052500967 0.05741718 0.10299275 -0.06859233 -0.04268407
-0.108193494 -0.123597056 0.111072175 0.052481864 -2.531502e-23 0.13014907 -0.027693901 0.07877411
0.029645195 -0.050195266 0.047703844 -0.044689577 0.055942997 -0.09845545 0.01388709 0.14137281
0.011877446 0.025920285 0.075699486 -0.01962188 -0.024559809 0.08534751 -0.09554241 -0.025000282
0.03761956 -0.260796 0.07114927 0.03900985 -0.018952401 -0.04048539 -0.049770743 0.053800154
0.00059131836 -0.049253177 -0.10802647 0.07750837 -0.0848256 -0.08383218 -0.015264737 0.040605973
0.076919965 0.01096358 -0.006633676 -0.0049650455 0.0061040907 0.037474018 4.105426e-05 -0.020732958

dec.lin3.weight_v f4 [1, 64]
00000000: 7156 93bd b9df 7930 450a 7b3d 4fa1 ad3d
00000010: 2fb1 6fbd 0f41 9cbc a036 313d add3 433d
00000020: c4ae 95bd 2999 b63d 208e a53d 53d4 2a3d
00000030: 4f9e b4bd 6c15 b5bd 3974 b03d 99da 3abe
00000040: 7957 cfbd 424c c53c 11ac cabc 7d57 873d
00000050: e9b7 71bd 0bb1 833d fbe4 aa2e c86d c4ba
00000060: 9f8b 2bbd ac66 0fa6 07b6 0e3d 6d1c 9d3c
00000070: 33f9 333d fddc ebbd 3738 cfbd f77e 383d
00000080: c2bc a2bd 9860 b33d 5cc7 8ebe f6ff 48bd
00000090: 690e b8bd 355f 5bb3 66e3 853d 2964 5fbd
000000a0: f91c 6aba 4779 d23d 291b 5a3d cd60 16be
000000b0: 93d2 d4bd 497a d93d 602d 1cbe d7cf f0bd
000000c0: c4e0 b3bd 9362 753c a5fa 633d 5718 2cbc
000000d0: d5ab a9bd f5ef a0bd 3dee 02be 6c3c 933d
000000e0: 623e ab3d 38c7 65bd df60 e13c 8c07 b13d
000000f0: 61d8 6d3d d62a e0bd 81cb c63d f1b3 6338
-0.07194222 9.09036e-10 0.06128909 0.08478033 -0.058518585 -0.019073991 0.043264985 0.04780929
-0.073087245 0.08915932 0.08083749 0.041706394 -0.088192575 -0.088419765 0.08615918 -0.18247451
-0.10124106 0.024084214 -0.02474025 0.06608484 -0.05901328 0.06430253 7.77138e-11 -0.0014986331
-0.0418812 -4.975224e-16 0.034841564 0.019178594 0.043938827 -0.115167595 -0.10118144 0.045042958
-0.07946159 0.08758658 -0.27886474 -0.04907223 -0.089871235 -5.10765e-08 0.065375134 -0.05453888
-0.0008930709 0.10277038 0.05324856 -0.14685364 -0.10391726 0.10619027 -0.15251684 -0.11758392
-0.08783105 0.014977115 0.055658955 -0.01050385 -0.082847275 -0.07858268 -0.12786193 0.07189259
0.08361508 -0.056098193 0.027512012 0.086440176 0.058067683 -0.1094567 0.09706784 5.42886e-05

exp_avg f4 [64]
00000000: a2c7 e837 c874 26b5 6790 5e38 67e3 85b8
00000010: dab8 eeb7 99aa c938 df70 d438 c59d 5037
00000020: f4e0 9137 14aa d1b8 e204 1639 fbed cab9
00000030: dda9 2eb6 894c 5fb7 cb1c 8d38 3614 ea38
00000040: e5a4 6a38 1461 0739 6f4c 5638 855f f938
00000050: e57a 0b38 0457 4738 1f52 b138 6d18 68b8
00000060: 6d06 0539 ab99 da38 5bf9 01b9 e28b 55b9
00000070: ad3e b637 93a2 5a39 7b9e 8b37 da19 33b8
00000080: ff92 4bb9 2e42 5b38 4a56 3338 527f 2838
00000090: 848f 2838 ab95 04b8 625e 3537 2119 a838
000000a0: 0c24 6a37 c61d 9338 d872 1138 0932 65b9
000000b0: 1d4c 5b38 8565 8eb8 34d8 2838 7627 13b9
000000c0: e0fd ae37 c4e7 4ab8 a6f2 6e38 a185 9b38
000000d0: 6048 f038 0000 0000 1b2c 5a38 0534 9338
000000e0: 7520 07b9 201f 8b38 7cb3 9b37 d4a1 36b7
000000f0: e958 ab38 b3dc c1b8 bd25 e438 a8b0 1a39
2.7749516e-05 -6.200976e-07 5.306341e-05 -6.384291e-05 -2.845789e-05 9.616203e-05 0.000101299716 1.24345e-05
1.7390099e-05 -9.997576e-05 0.00014306934 -0.00038705752 -2.6026894e-06 -1.33096555e-05 6.728767e-05 0.00011161754
5.5943518e-05 0.00012910768 5.109276e-05 0.00011891037 3.3254637e-05 4.7526337e-05 8.455314e-05 -5.533586e-05
0.00012686262 0.00010423673 -0.00012395291 -0.00020365373 2.1725276e-05 0.00020850664 1.664389e-05 -4.2701e-05
-0.00019414349 5.2275303e-05 4.275729e-05 4.0172898e-05 4.018798e-05 -3.161064e-05 1.0810416e-05 8.015545e-05
1.395588e-05 7.015052e-05 3.467765e-05 -0.00021857781 5.2284555e-05 -6.789997e-05 4.0255676e-05 -0.00014033713
2.0860636e-05 -4.83764e-05 5.6969606e-05 7.415866e-05 0.00011457573 0.0 5.2016327e-05 7.0191956e-05
-0.00012886694 6.633834e-05 1.8561019e-05 -1.0885724e-05 8.170476e-05 -9.2440656e-05 0.000108789165 0.00014752394

exp_avg_sq f4 [64]
00000000: 1d8b 6535 7623 df33 c0a1 e233 1db8 9436
00000010: ea52 0535 1710 0b36 22a0 c934 0052 b235
00000020: d52b 2f33 114f bc35 a560 3735 1df7 fc36
00000030: d17e d834 5df6 2034 5699 ee35 6c10 8935
00000040: 43f7 0835 0e56 0236 b41b c834 af0c b735
00000050: d269 f135 92fa 1235 74f4 df36 63f7 2c35
00000060: e72e 0b35 9104 6535 fec0 0835 9e68 1936
00000070: 8a79 2035 4d2b 4535 618e 9534 9a63 f834
00000080: df36 0836 25e4 af35 1993 bb35 9cc7 ea34
00000090: 433c 3635 d5b1 9035 aac2 3e36 95a7 3d35
000000a0: fd10 8f35 981a 0a35 a184 cf34 0055 d535
000000b0: 90c9 0e36 992e c934 ec24 0035 ee05 9835
000000c0: e3b8 4a33 353b 9c34 a0e5 db33 5784 4b35
000000d0: 4e14 b834 0000 0000 1131 f233 58b4 0e35
000000e0: 0cc4 a635 b7e1 8b35 a2f6 4b33 96ab 3a34
000000f0: 20d6 9834 412e a435 e7ab b734 5aaf da34
8.5511584e-07 1.0390697e-07 1.0553367e-07 4.4321773e-06 4.9667017e-07 2.072198e-06 3.755568e-07 1.3285899e-06
4.0785228e-08 1.4030103e-06 6.831345e-07 7.538953e-06 4.0325406e-07 1.4990788e-07 1.7777008e-06 1.0212075e-06
5.102376e-07 1.94216e-06 3.727306e-07 1.3638254e-06 1.7986697e-06 5.4753866e-07 6.674376e-06 6.443499e-07
5.1849787e-07 8.531579e-07 5.094479e-07 2.2859672e-06 5.978151e-07 7.345123e-07 2.7857007e-07 4.626607e-07
2.0297518e-06 1.3104915e-06 1.3975397e-06 4.3731131e-07 6.7887976e-07 1.0780592e-06 2.8425516e-06 7.065185e-07
1.0659274e-06 5.1447705e-07 3.8653255e-07 1.5894475e-06 2.1276974e-06 3.7473072e-07 4.7737444e-07 1.1326608e-06
4.7199944e-08 2.9100343e-07 1.0239751e-07 7.5815973e-07 3.4287444e-07 0.0 1.1277928e-07 5.3161557e-07
1.2425021e-06 1.0421999e-06 4.7488932e-08 1.7385022e-07 2.8468003e-07 1.2232414e-06 3.4211482e-07 4.073325e-07

exp_avg f4 [64, 4]
00000000: 261a 5a36 4528 8337 2f83 f236 21f0 38b8
00000010: dc8f 9736 40be 2336 5a4f 0537 47fe 75b7
00000020: 6f87 e5b6 0b8c 9338 b8fe 03b9 6d71 6138
00000030: ba8b 123a a74c a138 8110 ddb9 4a2e af39
00000040: 9e3d 9e36 33b3 a0b7 3841 afb8 fe86 f037
00000050: b9e0 113a fe6c e039 5c63 aab9 0fa1 7039
00000060: e185 bd35 f74f 2b38 ab48 b7b8 b2ff 6738
00000070: cdde 41b9 f3e3 13b9 112f 5639 692c 2bb8
00000080: f8d5 0037 0615 dc36 5734 bbb7 047f 5637
00000090: 0ac7 8338 7174 c738 b782 d938 5f57 40b8
000000a0: a7cb 8e39 50c9 8939 d854 79b9 d933 1d39
000000b0: 7b13 b3ba a7dd b8b9 6216 4139 495c 08ba
000000c0: 5812 8fb6 040f 83b7 5c0f 15b8 c5c0 1b38
000000d0: b90d 3db2 4f52 3136 12eb 6db8 f95a 3238
000000e0: bc70 c3b7 7aaa 20b8 0b5a c537 8ad2 98b8
000000f0: f66c 8039 6bee 9c39 b7a5 b0b9 535b 7839
00000100: 309b 9434 70e8 1038 d278 9bb8 31aa 18b8
00000110: 7b85 e1b7 4916 eab7 5b11 6cb7 9ad5 54b8
00000120: 1c5f d038 70e9 2739 e585 5db9 f677 f038
00000130: b4aa ad39 637c 9e39 40b2 8eb9 d9a6 2039
00000140: cdc7 f9b7 74f0 26b8 8bc4 9bb7 d37e 1038
00000150: 608f 8837 768d 8537 ef35 2ab6 c444 3a36
00000160: 58a4 6db8 22ab abb8 6b67 0737 5aa7 d937
00000170: c2d9 41b9 e059 51b9 a694 f638 85f7 1039
00000180: 2427 3037 0e86 9337 30b6 6bb8 f92b 1cb8
00000190: 399f 1639 527e 5e39 a9f6 15b9 8eee cfb8
000001a0: 0239 f3b9 b1ae d6b9 07fd f739 4d45 bf37
000001b0: d5a0 b6b9 a6e7 9fb9 a3b3 4639 219f 1db9
000001c0: aa53 c9b8 1922 d8b8 b1b2 65b7 852d 4b38
000001d0: 40b6 0c39 3c94 a238 c188 97b8 8657 80b7
000001e0: 0ba7 8938 14c8 4a38 1e8c 34b7 1eaf 8038
000001f0: 784c 6fb8 e115 4ab8 4cd2 4538 b7d2 67b8
00000200: ee91 2639 5c4e 8c38 dc8c 9238 5bf5 0e38
00000210: c7d3 43b8 c4bc f0b7 ce3b ab36 ecde f1b7
00000220: dc19 2039 7285 f237 7f19 cc38 29bb 2738
00000230: 695a 9537 4791 8737 fbe9 75b8 a81f 65b8
00000240: c936 4838 68e6 ef37 617e 1d38 0b44 db36
00000250: 9471 3cb8 6610 57b8 aef1 02b8 e57b eeb6
00000260: 6371 3eb9 1015 2fb9 c586 1639 34f4 66b9
00000270: 6c18 fe37 d555 bab6 d2ab 6e36 e395 36b7
00000280: 442b b8b8 2946 76b8 d84c 0a38 438e 1ab9
00000290: af7f 1638 8326 4a37 dfbe 9737 698f b9b8
000002a0: 5ea4 1b38 cc12 df36 66f3 c5b8 fa2b b238
000002b0: 0f3b beb9 eaa2 25ba 83f7 02b8 eb5f 2bb9
000002c0: 2ad6 84b8 98af aab8 5bc3 1e38 2d8d 1db8
000002d0: ee21 aab8 c843 84b8 d78a 7b38 0be7 5cb9
000002e0: 4714 4fb8 7ca9 80b8 79da 9f36 3cfd ddb7
000002f0: d4e9 83b9 7830 69b9 2f01 2639 ce9b 5db9
00000300: a492 1d36 5f02 8e36 2821 ea37 b69a 4737
00000310: 882e 9eb8 43a7 83b8 47dc ad38 9948 8fb8
00000320: cb19 1238 b1d0 fb37 ea72 1bb8 6999 4d38
00000330: 2aa6 0839 93ac 0339 3a0c c0b8 c22a 97b8
00000340: 8b0e d437 7e4e 9938 d534 29b8 de2d 8cb8
00000350: 0000 0000 0000 0000 0000 0000 0000 0000
00000360: 962d 4e38 f06a 8438 3ed9 fab8 477e b0b8
00000370: e52e b839 6e3e 6838 6f57 9db9 e203 e138
00000380: a0a5 a3b9 1fc2 92b7 80aa b0b8 a617 9bb7
00000390: 6851 9136 6456 deb7 73fa 5138 04ee a5b8
000003a0: 3371 8035 da96 3535 6e2c 56b7 ffb9 e1b6
000003b0: b402 9eb7 54fa d6b6 7181 37b8 4194 7237
000003c0: 8949 55b8 49a0 96b8 57d2 7fb8 4044 d9b8
000003d0: 4179 0139 4a59 9c38 aa49 6ab8 6851 94b6
000003e0: c0c9 4c38 ea0d 9037 69ee 08b9 f2d8 dfb8
000003f0: 8eb5 b438 750f 0839 f28f 14b9 c2fd 99b8
3.2499752e-06 1.5635169e-05 7.227434e-06 -4.4092656e-05 4.516898e-06 2.4399633e-06 7.945893e-06 -1.46623415e-05
-6.8404984e-06 7.035591e-05 -0.00012588024 5.3749816e-05 0.0005590279 7.691356e-05 -0.000421647 0.0003341309
4.71594e-06 -1.9156932e-05 -8.356798e-05 2.867309e-05 0.00055647973 0.00042805815 -0.00032498955 0.00022948183
1.4120561e-06 4.084405e-05 -8.7396555e-05 5.5312827e-05 -0.00018488914 -0.0001410393 0.00020426164 -4.0810937e-05
7.679213e-06 6.5589584e-06 -2.231651e-05 1.2784967e-05 6.283641e-05 9.510748e-05 0.00010371714 -4.5857738e-05
0.00027236083 0.00026280666 -0.00023778097 0.00014992002 -0.0013662422 -0.0003526036 0.00018414253 -0.000520174
-4.2638676e-06 -1.562341e-05 -3.5538673e-05 3.713441e-05 -1.1004368e-08 2.6422965e-06 -5.672413e-05 4.2523232e-05
-2.3298307e-05 -3.830574e-05 2.352616e-05 -7.287141e-05 0.00024495245 0.00029932274 -0.00033692803 0.00023685144
2.7680062e-07 3.454875e-05 -7.4134805e-05 -3.6398127e-05 -2.6884247e-05 -2.7905351e-05 -1.4070737e-05 -5.074367e-05
9.9359284e-05 0.00016013323 -0.00021126082 0.00011466436 0.00033124315 0.00030228784 -0.00027217157 0.00015320945
-2.9776153e-05 -3.9801424e-05 -1.8568962e-05 3.445039e-05 1.6279228e-05 1.5920708e-05 -2.5363368e-06 2.7756187e-06
-5.665826e-05 -8.1857914e-05 8.070706e-06 2.5946345e-05 -0.00018487035 -0.00019965274 0.00011757882 0.00013825118
1.0499531e-05 1.758619e-05 -5.619804e-05 -3.723425e-05 0.0001436443 0.00021218628 -0.00014301635 -9.9149634e-05
-0.00046391046 -0.00040947416 0.0004730003 2.2801245e-05 -0.00034833574 -0.00030499435 0.00018949671 -0.00015031967
-9.6000105e-05 -0.00010306034 -1.36910685e-05 4.8441365e-05 0.00013419334 7.752373e-05 -7.2257135e-05 -1.5299545e-05
6.563783e-05 4.834689e-05 -1.076146e-05 6.136134e-05 -5.7053257e-05 -4.818093e-05 4.7164314e-05 -5.5270935e-05
0.00015885357 6.690316e-05 6.9880596e-05 3.4083943e-05 -4.6688856e-05 -2.869813e-05 5.1031593e-06 -2.8833245e-05
0.00015268422 2.8910788e-05 9.732227e-05 3.999021e-05 1.7804285e-05 1.6160904e-05 -5.8630463e-05 -5.4627337e-05
4.773474e-05 2.8598311e-05 3.7549416e-05 6.53463e-06 -4.492847e-05 -5.1275267e-05 -3.1219497e-05 -7.107376e-06
-0.00018162052 -0.00016697147 0.0001435532 -0.00022025482 3.0290532e-05 -5.553224e-06 3.5564776e-06 -1.0882944e-05
-8.7818626e-05 -5.8716312e-05 3.297333e-05 -0.00014739581 3.58817e-05 1.2049105e-05 1.8089484e-05 -8.8482e-05
3.710796e-05 6.648106e-06 -9.4390285e-05 8.495893e-05 -0.00036283626 -0.00063185266 -3.122493e-05 -0.00016343563
-6.334142e-05 -8.1389386e-05 3.7852074e-05 -3.7563197e-05 -8.1125516e-05 -6.306876e-05 5.9972368e-05 -0.00021066905
-4.937153e-05 -6.1350845e-05 4.764003e-06 -2.6463174e-05 -0.00025160483 -0.00022238668 0.00015831435 -0.00021134244
2.348018e-06 4.232206e-06 2.7910413e-05 1.1897346e-05 -7.542694e-05 -6.277722e-05 8.290313e-05 -6.832294e-05
3.4833134e-05 3.0018711e-05 -3.7061902e-05 4.9018683e-05 0.00013031872 0.00012557422 -9.157551e-05 -7.208205e-05
2.5279141e-05 7.310229e-05 -4.0341944e-05 -6.684264e-05 0.0 0.0 0.0 0.0
4.9156683e-05 6.314169e-05 -0.000119613935 -8.415855e-05 0.00035130154 5.5371253e-05 -0.00030010517 0.00010729559
-0.00031213183 -1.7494951e-05 -8.424092e-05 -1.8488452e-05 4.3308137e-06 -2.6504691e-05 5.0062732e-05 -7.912147e-05
9.569688e-07 6.764727e-07 -1.2765739e-05 -6.7271753e-06 -1.8836326e-05 -6.406839e-06 -4.375115e-05 1.4458842e-05
-5.0851642e-05 -7.182413e-05 -6.0992632e-05 -0.00010360079 0.0001234757 7.455291e-05 -5.5858553e-05 -4.4202206e-06
4.8825284e-05 1.7172617e-05 -0.00013058785 -0.00010673878 8.616886e-05 0.00012975729 -0.00014168004 -7.3428746e-05

exp_avg_sq f4 [64, 4]
00000000: 1307 9835 f170 8b35 1333 d935 afba 3135
00000010: 3ede 1a33 fefb 3b32 c8e0 1933 ce9c d033
00000020: 4b30 5a32 68a9 a334 5b75 9e34 6d53 4d34
00000030: f7b9 c736 ca61 0236 8ff2 2837 1910 6a36
00000040: e62e 2834 7300 f034 a1e9 4135 9f3c 9834
00000050: fd90 7537 1eff 8c37 af1e d836 00ff c536
00000060: 4619 0c30 8d18 0134 8764 ec34 843e ff33
00000070: 1648 8a36 06c4 b435 7828 7536 ca55 cb35
00000080: 919c 2d33 5f90 a233 1e9b 9333 90eb a332
00000090: db33 0336 0298 1f36 e0d6 7436 6f85 1b36
000000a0: 4930 3935 3a57 8135 e3f0 1b35 0c40 cd34
000000b0: c043 c737 0661 bf36 8f24 f936 1adf 0237
000000c0: f3ea 8134 6209 0934 f6b8 9d34 166e 3334
000000d0: 4a15 8630 ca23 7833 7a5c cb34 4abd 7d34
000000e0: 42f8 4a35 56e9 9a34 7ac8 1935 4716 c435
000000f0: 113b 1f36 0c85 6336 37b9 5c36 ebf3 4636
00000100: fa39 b230 eaf1 ef34 a7d5 da35 7ae4 2a35
00000110: 1f56 af36 4746 db36 5e7e fc35 c045 a935
00000120: 9ec2 3a34 7841 8f34 f47d 0135 a0ef a733
00000130: 96db 8035 05d4 bf35 4b81 a335 8e87 1d35
00000140: db4a 9135 5336 1235 54ba 3535 833a 6835
00000150: 07b6 f034 853f ee34 c0a9 9f34 e665 5535
00000160: 11c1 9b36 7a79 1136 c3f9 3735 b308 9236
00000170: 92cf 5536 e666 4e36 2e54 ad35 9351 d735
00000180: 8094 fb34 2769 3335 ebda 8234 aca8 4734
00000190: 9393 0d36 7e4b 5236 efbc d234 ed18 1a35
000001a0: 57e5 2936 fc24 ee35 e3dc 4536 7f2a d933
000001b0: c9db 6a36 4281 0b36 c7b1 2b35 3106 0635
000001c0: 6762 0a35 ae98 6034 9302 aa34 8fa4 9d34
000001d0: 38e2 d334 9c50 3d34 8956 5434 34eb 8233
000001e0: 755e 1035 663b 6734 66a7 4734 3125 6234
000001f0: 1c6a 9335 c3ae cd34 e536 cf34 0f58 9234
00000200: 69e8 c035 a8bf 8e35 82d9 5d36 50db dd35
00000210: 670e 2635 de71 3235 c9c3 ed34 deae a935
00000220: cc2f 7735 f789 4935 96bd 9b35 52f4 3d35
00000230: 2019 0434 827a da33 e108 0636 72cf 2735
00000240: 4bbb e935 c03a 8b35 b248 cb35 64ce 5b35
00000250: d2c0 0835 4155 1035 1cad 8435 ec2a 4235
00000260: a942 1f36 0500 6c36 c311 6635 d71b 2236
00000270: 9524 d534 9f54 9834 e17e b934 f24d ad34
00000280: c42b 0236 d797 1435 e125 6335 f3f0 0635
00000290: 1ca9 d034 2154 9f34 8649 8e34 0a64 e734
000002a0: a62b 5735 e09d 8535 32f5 dc34 0d4e 7834
000002b0: 271b 0e36 fa30 a836 0351 ec33 7290 a035
000002c0: 7c18 6236 b063 e735 b809 b535 94f3 9d34
000002d0: 3ec8 7f34 e25c 3f34 bbf3 3734 85ae d634
000002e0: ea93 6634 432d 1235 4069 3234 d5ab 9433
000002f0: 5664 6736 f415 6b36 5d89 ad34 7c32 8a35
00000300: 867d a230 974e 7031 8ef3 cc33 2345 ee33
00000310: c3f4 9c33 9f62 ea33 e887 1835 9d86 b934
00000320: c3c1 4633 397d 1533 352a 4034 7371 ce33
00000330: 0ccc e435 98da d535 d532 0235 3086 8a34
00000340: 0823 6934 50cb d234 57f6 c334 cffe 5334
00000350: 0000 0000 0000 0000 0000 0000 0000 0000
00000360: c85d 1934 0a93 b634 d889 0f34 341d 0734
00000370: 1629 ea35 e02e 1c35 fc54 9c35 dbd9 6934
00000380: 8724 e735 0ba8 9735 8142 d435 5819 c135
00000390: 47cf 9035 480d 1435 3e4c 0435 9301 4935
000003a0: 30b6 7230 3930 0430 8ee4 7633 bcf3 0034
000003b0: cd4e 8f34 fcde cd33 067d 3c34 dbf9 b333
000003c0: a4f3 a635 61a5 3035 bc1c 6035 1d33 a335
000003d0: a9aa a735 2b5b ae35 4fb4 eb35 5796 1435
000003e0: c107 6a34 12dc fe32 38a6 1435 e26b a534
000003f0: 4e51 1835 9faf 7335 6a2f 4034 d6d5 9833
1.1326941e-06 1.0389177e-06 1.6182624e-06 6.62093e-07 3.6058047e-08 1.0942129e-08 3.5827526e-08 9.7142774e-08
1.2700251e-08 3.0484375e-07 2.951518e-07 1.9122463e-07 5.9523113e-06 1.942843e-06 1.0070055e-05 3.4878087e-06
1.5663281e-07 4.470381e-07 7.223808e-07 2.8356314e-07 1.4636896e-05 1.6808099e-05 6.4408737e-06 5.9007434e-06
5.096762e-10 1.2022993e-07 4.403157e-07 1.1885734e-07 4.1211124e-06 1.3468095e-06 3.65314e-06 1.5149647e-06
4.0422098e-08 7.569974e-08 6.8734366e-08 1.9082819e-08 1.9550705e-06 2.3781326e-06 3.6483907e-06 2.3174468e-06
6.8988135e-07 9.636635e-07 5.8092536e-07 3.8230826e-07 2.3754197e-05 5.7035386e-06 7.4250343e-06 7.800549e-06
2.419907e-07 1.2762533e-07 2.9378106e-07 1.6710723e-07 9.755834e-10 5.777455e-08 3.7878982e-07 2.3631324e-07
7.5612127e-07 2.885451e-07 5.7288673e-07 1.4609622e-06 2.3727227e-06 3.390308e-06 3.2890364e-06 2.9646278e-06
1.2967682e-09 4.4693235e-07 1.6304447e-06 6.366241e-07 5.2254322e-06 6.53489e-06 1.8812241e-06 1.2611781e-06
1.7393401e-07 2.668346e-07 4.823953e-07 7.820131e-08 9.600651e-07 1.4292315e-06 1.2182076e-06 5.8684316e-07
1.0825128e-06 5.446829e-07 6.76989e-07 8.651188e-07 4.4835926e-07 4.437717e-07 2.9739567e-07 7.9496965e-07
4.641836e-06 2.1677392e-06 6.8536264e-07 4.352152e-06 3.1860295e-06 3.0756287e-06 1.2914004e-06 1.604249e-06
4.686044e-07 6.6835713e-07 2.437367e-07 1.8594682e-07 2.1096537e-06 3.133638e-06 3.9253015e-07 5.740574e-07
2.5316456e-06 1.7743146e-06 2.948386e-06 1.011258e-07 3.499665e-06 2.0787852e-06 6.3961164e-07 4.99279e-07
5.15522e-07 2.091717e-07 3.166684e-07 2.936326e-07 3.9466408e-07 1.7631322e-07 1.977552e-07 6.09638e-08
5.3781633e-07 2.153516e-07 1.8594218e-07 2.106142e-07 1.0983235e-06 3.8311381e-07 3.8596696e-07 2.725869e-07
1.4372755e-06 1.0635604e-06 3.3058172e-06 1.6529611e-06 6.1860777e-07 6.6475866e-07 4.4287142e-07 1.2642374e-06
9.2084224e-07 7.50791e-07 1.1603577e-06 7.076352e-07 1.2302598e-07 1.01737e-07 1.9972724e-06 6.251422e-07
1.7414362e-06 1.0373406e-06 1.5145836e-06 8.1884195e-07 5.094454e-07 5.376824e-07 9.885148e-07 7.233309e-07
2.3731648e-06 3.5166752e-06 8.5707524e-07 2.4156086e-06 3.970096e-07 2.8373776e-07 3.4551252e-07 3.2280474e-07
1.9396984e-06 5.535525e-07 8.461921e-07 5.026952e-07 3.8866062e-07 2.967727e-07 2.6503056e-07 4.309989e-07
8.015726e-07 9.95522e-07 4.1156596e-07 2.3125195e-07 2.1175454e-06 5.012492e-06 1.1004342e-07 1.1962968e-06
3.3690876e-06 1.7239854e-06 1.3488379e-06 2.9420755e-07 2.3821573e-07 1.7822052e-07 1.7131872e-07 3.9987586e-07
2.147423e-07 5.44551e-07 1.6615832e-07 6.923043e-08 3.4480086e-06 3.5030507e-06 3.2323706e-07 1.0296494e-06
1.1822727e-09 3.496927e-09 9.5437926e-08 1.10953145e-07 7.308838e-08 1.0914413e-07 5.682218e-07 3.455688e-07
4.6276693e-08 3.4805655e-08 1.7896748e-07 9.613259e-08 1.7046709e-06 1.5933356e-06 4.8502744e-07 2.5802137e-07
2.171256e-07 3.9263477e-07 3.6500816e-07 1.9743605e-07 0.0 0.0 0.0 0.0
1.4283353e-07 3.4007127e-07 1.336806e-07 1.2583479e-07 1.7446316e-06 5.818274e-07 1.164764e-06 2.1779071e-07
1.7221472e-06 1.1299284e-06 1.5814586e-06 1.4386997e-06 1.0789162e-06 5.5153623e-07 4.928478e-07 7.4880626e-07
8.829799e-10 4.808985e-10 5.7484208e-08 1.2009599e-07 2.669316e-07 9.586617e-08 1.7554348e-07 8.3807855e-08
1.2438873e-06 6.580577e-07 8.3488317e-07 1.2159322e-06 1.2492138e-06 1.2990544e-06 1.7561341e-06 5.535307e-07
2.1795769e-07 2.9669568e-08 5.5376177e-07 3.081214e-07 5.6742726e-07 9.0780117e-07 1.7898643e-07 7.116948e-08

exp_avg f4 [64]
00000000: 97fa 8139 aa6f a238 4b1a b738 4c0b c0b8
00000010: 38d0 3838 7b68 b4b9 06b6 aa39 135a 4f39
00000020: 0000 0000 3a8e 1738 521a c0b8 ef1c 8b37
00000030: 5513 6f39 9a8a 83b6 0400 0000 b0f5 03b9
00000040: 2c29 02b8 4bee 07b8 fcf0 2337 0000 0000
00000050: 0400 0000 6159 3739 0400 0000 e04e a538
00000060: 0400 0000 477b ca38 87ff 2637 8c9a 39b9
00000070: 53e6 d737 5f93 69b9 a8dc 9539 7a6f 6138
00000080: cbc3 a2b8 9a34 0400 0400 0000 b93b fab8
00000090: 34dc 98b7 142b dc38 a2c3 c7b8 0400 0000
000000a0: e90d 89b8 0365 05ba 0000 0000 0c3b 96b6
000000b0: f629 9e38 de5e 9438 07a0 13b7 08ea 00b9
000000c0: 0000 0000 1d20 feb7 4a0f 2db8 003d cdb7
000000d0: 031e efb8 804b 6236 0000 0000 7124 0938
000000e0: 0000 0000 41bd 6638 0400 0000 ce3d edb8
000000f0: f3a8 4537 b9ac a9b5 0000 0000 75ff 0bb8
0.000247915 7.745561e-05 8.7310174e-05 -9.157378e-05 4.4062937e-05 -0.0003441012 0.00032560545 0.00019774614
0.0 3.6133664e-05 -9.160176e-05 1.6583565e-05 0.00022800018 -3.9202396e-06 6e-45 -0.00012584659
-3.103276e-05 -3.2408436e-05 9.771666e-06 0.0 6e-45 0.00017485536 6e-45 7.882505e-05
6e-45 9.655073e-05 9.953866e-06 -0.00017700548 2.573725e-05 -0.00022275512 0.00028583896 5.3748e-05
-7.761231e-05 3.86212e-40 6e-45 -0.00011932053 -1.8222352e-05 0.000104984414 -9.525499e-05 6e-45
-6.53526e-05 -0.0005088599 0.0 -4.4772223e-06 7.541843e-05 7.07486e-05 -8.799142e-06 -0.00012294215
0.0 -3.0294113e-05 -4.1260653e-05 -2.446631e-05 -0.00011401998 3.372057e-06 0.0 3.2697284e-05
0.0 5.501253e-05 6e-45 -0.00011312553 1.1781452e-05 -1.264175e-06 0.0 -3.3378095e-05

exp_avg_sq f4 [64]
00000000: 9354 9736 6bd0 2a36 ba15 8235 0e64 df35
00000010: 46b1 c333 4e49 ea36 23f1 8536 3a0c 9436
00000020: 0000 0000 c4a7 ca34 ab24 8235 054f 0f34
00000030: cce3 1736 9852 1a35 c66e 932b 8d17 8e35
00000040: 9695 4335 8e19 2334 bc97 1436 0000 0000
00000050: 8eb9 3724 df3f d135 72fd a32d e1df 3035
00000060: fbde 1531 4079 8f35 a8c3 6f33 06f0 1736
00000070: 983d 3f36 db4c 6236 9ede 5a36 e88d c735
00000080: 7044 2935 18a8 782e 62d9 082d c76a 1d35
00000090: e51f 0435 4ec2 9235 fd1e 1435 c0c2 f029
000000a0: e9af 2d35 64b4 5f37 0000 0000 d460 f432
000000b0: 0972 db34 ef59 0035 112d 8036 99ec 4d35
000000c0: 0000 0000 7186 ad36 4140 e235 1ae9 8032
000000d0: 2af5 3d35 3b7d 7834 0000 0000 58b1 4136
000000e0: 0000 0000 4d54 cb33 25f7 3d31 e1e4 a835
000000f0: 8434 5f33 bd71 e435 0000 0000 b4c1 ea34
4.5099964e-06 2.545329e-06 9.692078e-07 1.6643914e-06 9.112641e-08 6.9822772e-06 3.991781e-06 4.412167e-06
0.0 3.7747498e-07 9.696427e-07 1.334666e-07 2.2633349e-06 5.748966e-07 1.0475724e-12 1.0586679e-06
7.2860837e-07 1.5189855e-07 2.214204e-06 0.0 3.983897e-17 1.5590302e-06 1.8643507e-11 6.5890896e-07
2.1809103e-09 1.0689619e-06 5.5824472e-08 2.2640465e-06 2.849707e-06 3.372136e-06 3.2614112e-06 1.4867956e-06
6.3056996e-07 5.653797e-11 7.778974e-12 5.864244e-07 4.9220245e-07 1.0934398e-06 5.517939e-07 1.0691925e-13
6.4703505e-07 1.3333836e-05 0.0 2.844937e-08 4.08749e-07 4.7814586e-07 3.8199437e-06 7.6712746e-07
0.0 5.171453e-06 1.6857012e-06 1.5007164e-08 7.076475e-07 2.3142358e-07 0.0 2.8862469e-06
0.0 9.468258e-08 2.7643605e-09 1.2583588e-06 5.1968996e-08 1.7020426e-06 0.0 4.3726834e-07
