log/alpha=1/version_None/checkpoints/epoch=2499-step=4999-v1.ckpt (torch, 116924 bytes, 21 tensors)

dec.lin0.bias f4 [64]
0.01348272 -0.31586605 -0.4424134 0.40691304 0.03462761 0.10140999 0.51033586 -0.14478779
-0.5098104 -0.010321681 0.084486976 0.4950284 -0.06617146 -0.3473478 -0.011781641 -0.2280277
-0.004015766 0.23572594 0.46514463 0.36174497 0.2603562 -0.12787823 -0.04476548 -0.256983
0.009793684 -0.31398642 0.42048025 0.12749675 0.053313415 -0.1862288 0.15885319 0.26135373
-0.0044187303 0.430513 0.21155787 0.25690973 0.35902902 0.32337773 0.609737 -0.33621335
-0.05689569 -0.40675423 0.42043018 -0.12115379 0.5454833 -0.35620445 0.2970557 -0.68348104
-0.3761814 -0.08238434 -0.45477128 -0.3618938 -0.22371505 0.22661357 0.3466466 0.36500025
-0.37859294 -0.20436978 0.030444395 0.4163434 -0.21006359 -0.4615337 -0.58030117 -0.13847558
00000000: a0e6 5c3c 32b9 a1be 0284 e2be e856 d03e
00000010: aed5 0d3d 0ab0 cf3d 5fa5 023f 4043 14be
00000020: ef82 02bf 451c 29bc 8207 ad3d 5d74 fd3e
00000030: e784 87bd 92d7 b1be c907 41bc 1880 69be
00000040: b096 83bb 2462 713e 7027 ee3e a336 b93e
00000050: 684d 853e 83f2 02be 025c 37bd 4793 83be
00000060: b075 203c d4c2 a0be 3049 d73e 828e 023e
00000070: 2b5f 5a3d c3b2 3ebe 69aa 223e 28d0 853e
00000080: ffca 90bb 336c dc3e a0a2 583e ac89 833e
00000090: a7d2 b73e c491 a53e b917 1c3f 2824 acbe
000000a0: 740b 69bd 1742 d0be a042 d73e 7a1f f8bd
000000b0: cba4 0b3f 6e60 b6be af17 983e 9df8 2ebf
000000c0: d99a c0be 1fb9 a8bd c8d7 e8be 254a b9be
000000d0: 8f15 65be 630d 683e aa7b b13e 50e1 ba3e
000000e0: efd6 c1be 5046 51be 8666 f93c f62a d53e
000000f0: e91a 57be 254e ecbe 9e8e 14bf 8bcc 0dbe

dec.lin0.weight_v f4 [64, 4]
-0.4101592 0.123072796 -0.27803904 0.29652488 -0.34053016 0.42830542 0.23711555 -0.5092987
0.050491918 0.12224634 -0.07765082 -0.46581468 0.2578151 0.00046016427 -0.114209436 -0.006391447
0.24331853 -0.13219675 0.46823058 -0.31148198 -0.3692425 0.37320015 -0.055137582 -0.46092892
0.5131902 0.28972557 0.30539656 -0.25651672 0.1378725 -0.009340082 0.34907228 -0.29759133
0.2112469 -0.15148151 -0.0048909807 0.17988236 0.39581284 -0.18963557 -0.38337442 0.09018982
-0.033872295 0.10552923 0.06175303 -0.1310982 0.35596493 0.19696179 -0.33308578 -0.33334038
-0.28895822 0.39712745 0.49070007 0.55286753 -0.3010564 0.19300666 -0.13100904 0.343516
-0.42514578 0.4779206 0.30164757 0.38461733 0.13379475 0.08146374 -0.2162368 -0.16167934
-0.06319087 -0.112360865 -0.13862132 0.04001135 -0.08156985 -0.34511715 0.4402375 -0.13542365
-0.34213322 0.34813005 0.056907006 -0.25660995 0.55167305 -0.22121643 -0.43425888 -0.28156027
-0.337911 0.09838191 -0.35101995 -0.4153451 -0.35065913 0.2264126 -0.2399049 -0.4252897
0.4019155 -0.40153378 -0.28673658 0.3418625 -0.012718008 0.4277261 0.21303125 0.08125021
0.33834416 0.25778687 -0.19468164 0.49621564 -0.08187755 0.40494055 0.2578249 -0.4893922
0.27825114 -0.41840297 -0.3216844 -0.16332959 0.11425822 0.32314593 -0.29786053 -0.37108624
-0.25271684 -0.05571791 -0.2849986 0.00024934765 -0.033468634 0.43702567 0.33497906 0.24230385
0.10154268 0.29320884 0.38487008 -0.25737405 -0.5150007 0.11302322 0.11927604 0.09042507
-0.2141945 0.31098744 -0.24154672 0.32368535 -0.097196594 -0.016083334 0.14434625 -0.2023666
-0.011946125 -0.30209047 0.07030383 0.21233185 0.05410284 0.4490529 -0.43188226 0.24478698
-0.17749031 -0.48082784 0.056448378 0.42342734 0.18883038 -0.19658034 -0.026716977 -0.0764507
-0.52287495 -0.12836613 0.18405923 0.114216626 -0.1965676 0.09201727 -0.52312267 -0.2986727
-0.26371098 0.0030470525 0.10848361 0.011961099 -0.35428452 0.09698634 0.74302256 0.32853246
0.42533824 0.2810157 -0.0108997915 -0.0731661 0.3552571 -0.062137514 0.0036508713 0.25759408
-0.23294033 -0.3822918 0.25039014 0.37559906 -0.3864174 -0.21488206 0.4650826 0.28900293
0.01828057 0.1582374 -0.4453291 -0.18070972 -0.3237426 -0.14853956 -0.3993777 0.0018726891
-0.19302611 0.25460947 -0.43861493 -0.300012 0.14877814 0.19111364 -0.0023904627 0.33321184
-0.025069961 0.14300463 -0.2869994 0.44748372 -0.018372236 -0.019567212 0.23770154 -0.45545858
-0.073963836 -0.20846112 -0.09214607 -0.5290486 -0.2534274 0.0957337 0.22141194 0.49479696
0.06397064 -0.19261132 0.15905112 -0.06465815 -0.47153506 0.37119392 -0.50772 -0.39266536
-0.25169992 -0.31282797 0.13543478 0.26398242 -0.26723507 0.071838714 0.15250786 -0.058250625
-0.19235398 0.30824327 0.02229332 0.38182887 -0.21412045 -0.1897872 0.20627372 -0.3954337
0.21718447 -0.12666309 -0.28459406 -0.43245864 -0.34208906 0.058365434 0.35369456 0.011966563
3.7159556e-05 -0.33105546 -0.54097193 0.058815613 -0.422068 0.02859634 0.2372676 -0.32611766
00000000: 6300 d2be 970d fc3d 225b 8ebe 1cd2 973e
00000010: f859 aebe d94a db3e 6bce 723e 6661 02bf
00000020: 9dd0 4e3d 4a5c fa3d 6507 9fbd 437f eebe
00000030: 5700 843e 3442 f139 a3e6 e9bd 586f d1bb
00000040: 7e28 793e 965e 07be ebbb ef3e 917a 9fbe
00000050: 5a0d bdbe 1714 bf3e f2d7 61bd e0fe ebbe
00000060: 6f60 033f e956 943e f05c 9c3e 2956 83be
00000070: 732e 0d3e 2507 19bc 9ab9 b23e e45d 98be
00000080: 1b51 583e f81d 1bbe 8544 a0bb 1533 383e
00000090: fba7 ca3e d42f 42be a749 c4be 71b5 b83d
000000a0: adbd 0abd b51f d83d bff0 7c3d 9b3e 06be
000000b0: 0941 b63e 5ab0 493e 388a aabe 97ab aabe
000000c0: 55f2 93be 4a54 cb3e 0a3d fb3e ba88 0d3f
000000d0: 1124 9abe 8aa3 453e 3c27 06be 54e1 af3e
000000e0: b5ac d9be 02b2 f43e 8d71 9a3e 90ec c43e
000000f0: 7e01 093e 76d6 a63d 2e6d 5dbe 458f 25be
00000100: 376a 81bd 741d e6bd bff2 0dbe f1e2 233d
00000110: 180e a7bd 32b3 b0be cf66 e13e 7fac 0abe
00000120: 162c afbe 1a3e b23e 5217 693d 6162 83be
00000130: 723a 0d3f 8f86 62be 2e57 debe ab28 90be
00000140: ac02 adbe 747c c93d e3b8 b3be 1da8 d4be
00000150: 9889 b3be b4d8 673e a1a9 75be 92bf d9be
00000160: dec7 cd3e d695 cdbe 23cf 92be 9a08 af3e
00000170: 315f 50bc eafe da3e dd24 5a3e 8366 a63d
00000180: 723b ad3e a4fc 833e a05a 47be fa0f fe3e
00000190: 6baf a7bd 5e54 cf3e a001 843e 9d91 fabe
000001a0: ef76 8e3e ea38 d6be d1b3 a4be df3f 27be
000001b0: 3700 ea3d 6273 a53e 2d81 98be 04ff bdbe
000001c0: 1a64 81be 7738 64bd 56eb 91be e0ba 8239
000001d0: 6816 09bd d4c1 df3e 6082 ab3e 801e 783e
000001e0: 9cf5 cf3d 781f 963e b10d c53e 88c6 83be
000001f0: 16d7 03bf b878 e73d ff46 f43d c730 b93d
00000200: ce55 5bbe bf39 9f3e 0658 77be 16ba a53e
00000210: 020f c7bd 32c1 83bc 81cf 133e 3139 4fbe
00000220: aeb9 43bc 9aab 9abe 74fb 8f3d 856d 593e
00000230: f19a 5d3d 43ea e53e ac1f ddbe 70a9 7a3e
00000240: 05c0 35be 112f f6be 6a36 673d 78cb d83e
00000250: c05c 413e 5b4c 49be 90dd dabc 2f92 9cbd
00000260: 22db 05bf 6972 03be 067a 3c3e 68ea e93d
00000270: 0449 49be 8d73 bc3d 5eeb 05bf a1eb 98be
00000280: 2005 87be 0fb1 473b a82c de3d 7cf8 433c
00000290: c864 b5be c6a0 c63d ba36 3e3f 6835 a83e
000002a0: efc5 d93e 4ae1 8f3e 0a95 32bc 1cd8 95bd
000002b0: 42e4 b53e e883 7ebd 7543 6f3b 5fe3 833e
000002c0: e987 6ebe c0bb c3be 2333 803e 854e c03e
000002d0: 80d8 c5be 0b0a 5cbe 4e1f ee3e 31f8 933e
000002e0: 22c1 953c fc08 223e 2d02 e4be f80b 39be
000002f0: 97c1 a5be c11a 18be 3c7b ccbe 0575 f53a
00000300: a3a8 45be 2c5c 823e 2392 e0be 2c9b 99be
00000310: 4c59 183e 4bb3 433e 4fa9 1cbb be9a aa3e
00000320: 855f cdbc ce6f 123e 96f1 92be 961c e53e
00000330: 5f81 96bc 6b4b a0bc 0868 733e de31 e9be
00000340: 5a7a 97bd d576 55be 14b7 bcbd bb6f 07bf
00000350: 3cc1 81be 0810 c43d d0b9 623e 0756 fd3e
00000360: 0a03 833d e73b 45be 4cde 223e 7e6b 84bd
00000370: 0b6d f1be 210d be3e f0f9 01bf 6f0b c9be
00000380: d0de 80be fd2a a0be 6aaf 0a3e b428 873e
00000390: 09d3 88be 2d20 933d 052b 1c3e 3598 6ebd
000003a0: 71f8 44be 10d2 9d3e 7ba0 b63c 137f c33e
000003b0: 6442 5bbe 9357 42be 6b39 533e 4976 cabe
000003c0: 9b65 5e3e f8b3 01be 50b6 91be 386b ddbe
000003d0: 4c26 afbe 9810 6f3d 7417 b53e 670f 443c
000003e0: c5db 1b38 1a80 a9be 237d 0abf a4e8 703d
000003f0: 4c19 d8be df42 ea3c 47f6 723e e5f8 a6be

dec.lin1.bias f4 [64]
0.029822005 0.115034334 0.08253574 0.06138016 0.025005426 0.07512505 0.004302325 -0.05185146
0.04798319 -0.06060725 0.14114192 0.07575247 -0.013052686 -0.11275579 -0.13200831 0.06956356
0.004872385 0.1337676 -0.122643925 0.17508554 -0.0037098883 0.0943829 0.10275638 -0.08295729
0.11708903 0.112007156 -0.0049926257 -0.02793564 0.12415435 -0.09088912 0.120797664 0.024011075
-0.044219695 -0.07689103 -0.1034924 -0.089401126 0.08296442 0.043816447 0.061417457 0.018656539
0.14966145 0.065100074 -0.06556159 0.02354265 0.03989137 0.000439434 0.052186217 0.07231713
-0.076676145 -0.055389065 -0.06316359 -0.04412021 -0.0010483733 0.08262664 0.05982226 -0.05254213
-0.04451733 -0.035457034 -0.08271048 -0.21781263 -0.19191109 0.08908338 -0.116338894 -0.1401255
00000000: 474d f43c 1f97 eb3d 8008 a93d c369 7b3d
00000010: 2ed8 cc3c 2adb 993d 85fa 8c3b 3262 54bd
00000020: 058a 443d 4f3f 78bd 8287 103e 1c24 9b3d
00000030: efda 55bc 82ec e6bd 302d 07be 5777 8e3d
00000040: 87a8 9f3b 60fa 083e bd2c fbbd a049 333e
00000050: 9921 73bb d24b c13d f071 d23d 83e5 a9bd
00000060: 60cc ef3d 0264 e53d 2e99 a3bb 49d9 e4bc
00000070: a344 fe3d 1324 babd c464 f73d e0b2 c43c
00000080: b61f 35bd 0b79 9dbd d3f3 d3bd f017 b7bd
00000090: 40e9 a93d e078 333d df90 7b3d 99d5 983c
000000a0: da40 193e 3053 853d 2845 86bd 84dc c03c
000000b0: 2265 233d d563 e639 37c1 553d 011b 943d
000000c0: 6208 9dbd a5df 62bd ea5b 81bd 65b7 34bd
000000d0: 9269 89ba 2838 a93d 3008 753d 6b36 57bd
000000e0: ce57 36bd 653b 11bd 1d64 a9bd 460a 5fbe
000000f0: 5784 44be 5971 b63d 1643 eebd 0f7d 0fbe

dec.lin1.weight_v f4 [64, 64]
-0.06957974 -0.031419132 -0.0556571 -0.02554178 0.015482414 -0.09191684 0.048770957 -0.03361069
0.13930261 0.09182291 -0.1502459 0.05435647 0.070490085 0.047263782 0.020949231 -0.039729908
0.022885079 -0.09980465 0.035724066 0.05159801 0.035979524 -0.021472458 -0.03330262 -0.008970176
0.06642928 -0.062818944 -0.09253885 -0.03637731 -0.066717595 0.116200246 -0.069096506 -0.121142656
0.11599606 -0.07955178 0.107311465 0.022102404 -0.08535116 -0.11588225 -0.12520738 0.1515686
0.060477547 -0.031831037 -0.09584762 0.024303684 -0.04107207 -0.06507403 -0.08360077 0.018039238
0.10375604 0.08022807 0.1151038 0.008728298 0.001432973 -0.07789767 -0.11524518 -0.119104385
0.098326854 -0.008978238 0.05259536 0.019648924 0.19677532 -0.08711245 0.06394235 0.0049895924
0.036699574 0.063848935 -0.07092232 0.037283175 0.05789417 -0.009645111 0.02151106 -0.1351142
0.0017348696 -0.06649034 -0.052846458 0.04477241 0.03260834 0.050270148 0.04759364 0.103561565
0.004915386 0.09908753 0.046427827 -0.01945421 0.100929275 -0.0723622 -0.036488928 0.0738252
-0.13762754 0.06831724 0.09914174 -0.070780344 -0.09695317 0.036436435 0.059229333 0.04387006
-0.093430154 0.0700601 0.021455824 0.003846935 0.11891477 -0.022445047 0.027614748 -0.013668603
0.066015355 -0.10785515 -0.08178104 0.06864754 -0.089448184 -0.07823016 0.051335633 -0.11031328
-0.0048090927 -0.070111245 0.10877909 0.10347206 0.1415852 0.09411454 -0.0594492 -0.10492241
-0.115298726 0.050201867 0.0606313 0.07036852 -0.08042541 -0.0394458 -0.11275118 -0.098171875
0.09231454 -0.10145227 -0.07061303 0.10370672 -0.12346795 -0.12457856 0.07842721 0.008467278
-0.052120887 -0.007659374 -0.015614532 -0.0005862678 0.1067278 0.14713852 -0.05860765 0.055146594
-0.024073163 -0.09651959 0.055162735 0.010312374 -0.31435284 -0.04235809 -0.061269283 -0.03666769
-0.10497057 -0.084586054 0.096435785 -0.064146414 -0.03849164 0.08988489 0.055295225 -0.057641834
0.045063935 -0.09195495 -0.17216332 -0.052676123 -0.23109196 -0.12651764 -0.08916318 -0.091657594
-6.0905637e-07 0.016812114 -0.016480753 0.12623684 0.19998415 0.078848414 -0.08408142 -4.1462087e-09
-0.118153356 -0.05182546 0.10428595 -0.13380061 -0.06473456 -0.13277441 -0.08731398 0.09869449
-0.058715448 -0.00024256425 0.111093156 -0.09949221 -0.3009966 -0.03408696 0.0658474 -0.037045933
-0.010718158 0.13261737 0.055787805 -0.12694295 -0.02707925 -0.125987 0.023364583 0.16369937
0.0031669957 -0.015862495 0.10387691 -0.11570722 0.10063763 0.16487892 -0.008959906 0.004515873
0.07527103 0.10076169 0.023772273 -0.055917043 -0.12971084 -0.10676942 0.04933474 0.053105466
0.031301163 0.052226804 0.049651526 -0.14357363 -0.08948751 0.052665163 0.05086768 -0.111263186
-0.13043472 0.046298865 0.0825463 -0.043433342 0.010555328 -0.065285124 0.078705296 -0.0014052403
-0.090016216 0.10830096 0.09817283 0.094557986 0.10546645 -0.08002111 -0.035170916 0.034879606
0.0053289845 0.049269684 -0.016089272 -0.03717723 -0.0023495883 0.11878411 -0.009966283 -0.029384421
-0.103754416 -0.058596786 -0.001995659 -0.07213023 -0.04791255 0.002221045 -0.10148537 -0.08836325
00000000: d37f 8ebd 59b1 00bd b3f8 63bd ff3c d1bc
00000010: f3a9 7d3c e53e bcbd 0ec4 473d 5dab 09bd
00000020: 58a5 0e3e a60d bc3d 10da 19be e4a4 5e3d
00000030: 1b5d 903d ab97 413d b99d ab3c d4bb 22bd
00000040: 7d79 bb3c 6166 ccbd 6653 123d 6f58 533d
00000050: 445f 133d 02e7 afbc 5468 08bd a5f7 12bc
00000060: 130c 883d 38a7 80bd 0285 bdbd 6000 15bd
00000070: 3ca3 88bd 65fa ed3d 7882 8dbd a419 f8bd
00000080: 588f ed3d 0bec a2bd 1dc6 db3d 1a10 b53c
00000090: 97cc aebd ac53 edbd 5d36 00be cd34 1b3e
000000a0: 4eb7 773d 4361 02bd c24b c4bd 8518 c73c
000000b0: 303b 28bd 8845 85bd e136 abbd 06c7 933c
000000c0: 0c7e d43d 9d4e a43d 8bbb eb3d 2301 0f3c
000000d0: 98d2 bb3a d088 9fbd aa05 ecbd 00ed f3bd
000000e0: 975f c93d 7619 13bc 3b6e 573d c8f6 a03c
000000f0: 787f 493e 0368 b2bd 35f4 823d bc7f a33b
00000100: 4b52 163d 3bc3 823d b93f 91bd 3eb6 183d
00000110: 7022 6d3d 8706 1ebc f637 b03c 605b 0abe
00000120: 9064 e33a 162c 88bd 8775 58bd 4663 373d
00000130: 5390 053d 12e8 4d3d 8cf1 423d 1618 d43d
00000140: 3f11 a13b 67ee ca3d 1b2b 3e3d 6f5e 9fbc
00000150: 02b4 ce3d a232 94bd 6a75 15bd ab31 973d
00000160: 3cee 0cbe e9e9 8b3d d30a cb3d 49f5 90bd
00000170: 628f c6bd 5f3e 153d 759a 723d 18b1 333d
00000180: 4f58 bfbd ab7b 8f3d 20c4 af3c dc1c 7c3b
00000190: 9689 f33d adde b7bc 5338 e23c 47f2 5fbc
000001a0: 0f33 873d 29e3 dcbd d17c a7bd 1597 8c3d
000001b0: 9c30 b7bd 2237 a0bd 5045 523d eeeb e1bd
000001c0: 9895 9dbb 7c96 8fbd 92c7 de3d 29e9 d33d
000001d0: b6fb 103e 20bf c03d 0181 73bd 8fe1 d6bd
000001e0: bd21 ecbd 79a0 4d3d 8758 783d 5f1d 903d
000001f0: 14b6 a4bd eb91 21bd 17ea e6bd 560e c9bd
00000200: 680f bd3d 35c6 cfbd 909d 90bd 3064 d43d
00000210: c4dc fcbd 0b23 ffbd 729e a03d 57ba 0a3c
00000220: b67c 55bd 7cfb fabb 18d4 7fbc c4af 19ba
00000230: 1b94 da3d 7bab 163e 930e 70bd 65e1 613d
00000240: 1535 c5bc 10ac c5bd 52f2 613d 3bf5 283c
00000250: dbf2 a0be ad7f 2dbd 80f5 7abd dc30 16bd
00000260: cffa d6bd 743b adbd 2080 c53d 325f 83bd
00000270: 69a9 1dbd 9215 b83d 3f7d 623d d819 6cbd
00000280: f694 383d e052 bcbd 954b 30be ebc2 57bd
00000290: 5fa3 6cbe d78d 01be 2f9b b6bd fab6 bbbd
000002a0: 097e 23b5 8fb9 893c a502 87bc 3b44 013e
000002b0: a5c8 4c3e 477b a13d e132 acbd 7076 8eb1
000002c0: 63fa f1bd ef46 54bd df93 d53d 0703 09be
000002d0: 8e93 84bd 04f6 07be acd1 b2bd 5620 ca3d
000002e0: 9c7f 70bd d858 7eb9 cf84 e33d 92c2 cbbd
000002f0: 3a1c 9abe c59e 0bbd 00db 863d 7abd 17bd
00000300: 379b 2fbc d9cc 073e c181 643d 55fd 01be
00000310: 4ed5 ddbc bc02 01be 1567 bf3c cfa0 273e
00000320: 5f8d 4f3b 10f2 81bc 6bbd d43d e8f7 ecbd
00000330: 1a1b ce3d 05d6 283e 92cc 12bc e3f9 933b
00000340: b327 9a3d 255c ce3d 12be c23c 4509 65bd
00000350: ebd2 04be eda9 dabd 3913 4a3d 1e85 593d
00000360: a635 003d c6eb 553d 665f 4b3d f704 13be
00000370: 3a45 b7bd 6db7 573d a15a 503d f4dd e3bd
00000380: ae90 05be e1a3 3d3d 090e a93d 29e7 31bd
00000390: 41f0 2c3c 35b4 85bd 3e30 a13d 0a30 b8ba
000003a0: 6c5a b8bd e5cc dd3d d60e c93d 9ea7 c13d
000003b0: cbfe d73d 1ce2 a3bd 610f 10bd ebdd 0e3d
000003c0: c39e ae3b 02cf 493d a6cd 83bc 2747 18bd
000003d0: 8dfb 19bb 1545 f33d 9f49 23bc 99b7 f0bc
000003e0: 327d d4bd 2f03 70bd 9ac9 02bb 04b9 93bd
000003f0: f33f 44bd f48e 113b 90d7 cfbd cbf7 b4bd

dec.lin2.bias f4 [64]
0.05069396 -0.009368548 -0.05920421 0.090938166 0.010965383 -0.07266841 0.05518735 0.11520582
-0.021319352 0.01926816 -0.10406738 0.04042561 -0.19964433 -0.070863664 0.08686965 -0.066250384
-0.034416534 -0.030493714 -0.109838866 -0.08133265 -0.10768373 0.10155183 -0.00078921503 0.09042318
-0.04370054 -0.1336483 -0.05065085 -0.1117332 0.022912817 0.09120079 0.110095255 0.06818019
-0.24992874 -0.10254925 -0.025442177 -0.037065305 0.0061973464 -0.048578575 -0.14318252 -0.11022162
-0.10853285 -0.064303905 0.10897916 0.111531354 0.12055271 0.11668632 -0.05398902 0.09787137
-0.10134685 0.07672074 0.07907763 -0.04322105 0.08455859 0.05696262 -0.047334805 0.07806035
-0.0004133581 0.023063393 0.12544821 -0.08331663 -0.054455686 -0.08001889 0.091108754 -0.12229004
00000000: 78a4 4f3d 8a7e 19bc 1d80 72bd ca3d ba3d
00000010: 26a8 333c 2dd3 94bd 210c 623d 07f1 eb3d
00000020: eca5 aebc 43d8 9d3c 4721 d5bd 5395 253d
00000030: 906f 4cbe f820 91bd b7e8 b13d 48ae 87bd
00000040: 5af8 0cbd f4cd f9bc 33f3 e0bd bb91 a6bd
00000050: 4a89 dcbd 68fa cf3d 53e3 4eba ca2f b93d
00000060: 56ff 32bd 1adb 08be 4477 4fbd 60d4 e4bd
00000070: a9b3 bb3c 7bc7 ba3d 9f79 e13d 0ea2 8b3d
00000080: 52ed 7fbe 5705 d2bd 1d6c d0bc cad1 17bd
00000090: 1c13 cb3b 54fa 46bd 709e 12be dfbb e1bd
000000a0: 7946 debd c4b1 83bd 7730 df3d 8d6a e43d
000000b0: 57e4 f63d 3df9 ee3d 9723 5dbd c970 c83d
000000c0: f08e cfbd c31f 9d3d 74f3 a13d 8e08 31bd
000000d0: 0e2d ad3d a351 693d 24e2 41bd 1bde 9f3d
000000e0: fcb7 d8b9 71ef bc3c 7f75 003e e9a1 aabd
000000f0: ed0c 5fbd f2e0 a3bd 3a97 ba3d 3373 fabd

dec.lin2.weight_v f4 [64, 64]
-0.061302166 0.11143715 0.08123221 -0.1255682 0.058547646 -0.025301572 0.102000244 0.11571166
-0.034989484 -0.0028600167 0.101692595 -0.10742936 -0.032287158 -0.05521003 0.09454153 5.11449e-05
0.021156697 0.11689746 -0.105229564 -0.01601871 -0.0879966 0.12359447 -0.08446765 -0.05636669
0.0061370456 -0.14504255 -0.06917168 0.0055030626 -0.0066054356 -0.089434505 0.04554008 -0.09714966
-0.048373763 -0.035598695 0.06155083 0.031385973 -0.09728812 0.07333307 -0.1115482 0.11082849
0.09507709 -0.09746409 0.095996395 0.049876533 -0.016551951 0.11630135 -0.12050123 0.06471765
0.06970833 -0.08541129 0.07571193 0.018977826 -0.10577893 -0.015386325 0.09859066 -0.14520192
-0.091454506 -0.005352725 -0.0040151975 0.23489207 -0.09433594 0.07274587 0.032412585 -0.07636869
-0.04147135 -0.004056586 -0.0037105253 0.041807633 -0.029326225 -0.023348007 -0.020240285 -0.05207059
-0.04135776 0.09340675 -0.055188313 -0.017460462 -0.06018398 4.697e-42 -0.063237004 -0.09601163
0.0006077487 -0.10433136 0.00038956507 -0.059793975 0.00042230383 -0.09755128 0.08615055 -3.49512e-15
-0.020611212 0.010068936 -0.056805387 -0.021766186 2.7372985e-17 -0.1086649 0.026494302 0.009054331
-0.04139728 0.016008418 -8.1826296e-14 0.00968131 0.0255648 -0.12564237 -6.5487e-41 0.06182282
-0.2725695 -0.07816365 -2.8538294e-13 0.12742202 0.086657405 0.011064522 -0.10707611 -0.025924936
3.9548764e-10 -0.06360237 -0.004556029 0.00056984054 0.1699729 -0.007839918 -0.039201654 0.16692655
-0.06849543 0.13066094 -0.040923726 0.044393003 -2.0432927e-14 -1.2275987e-09 -0.008661785 -4.6407913e-05
-0.000840894 -0.03488768 0.09065525 0.01695746 0.110750824 -0.05928383 -0.10511238 0.13150288
-0.034675635 0.021392033 -0.05477249 -0.016674569 -0.047740538 -0.06428954 0.11611734 0.1101734
-0.0057277274 0.104472324 -0.060488574 0.08326081 -0.05447526 0.027342321 -0.0097060995 -0.10527386
-0.09455716 -0.051678482 -0.019286506 -0.06894649 -0.07902019 0.057583842 0.018623745 -0.0418034
-0.06831072 -0.075584926 -6.861425e-05 -0.04917184 -0.13261642 0.03258175 0.015584598 -0.1086786
0.038653247 -0.025499573 0.0726234 -0.01071822 0.04186842 -0.13589962 -0.0023149059 -0.042011052
-0.10537415 -0.11854579 -0.019188061 -0.03229065 0.092577524 -0.05196984 -0.06108359 -0.031659104
0.01925447 0.063906506 0.06701898 -0.05986296 -0.05569542 0.104167044 0.048021037 0.0062151095
-0.1257192 -0.13136806 0.09445469 -0.12861209 0.11606512 0.028864821 -0.009058373 0.12736157
0.012093287 -0.07620244 0.081951424 -0.056153767 0.0042199236 0.083817154 0.08738762 0.06708898
-0.046188522 -0.046359975 -0.061984874 0.045562167 0.06721175 0.10913529 0.015748277 0.19032902
-0.016728686 0.078330904 0.08931523 -0.12014744 0.0076640057 -0.076525256 0.009459928 0.01171317
0.09230267 0.02733703 -0.08032428 -0.09101275 0.07888108 -0.06226304 -0.02809049 -0.10090695
-0.045800578 0.13296579 0.00085512234 -0.113300204 -0.019282077 -0.06612216 -0.12816845 -0.01596475
-0.058579702 -0.038977966 0.12605089 -6.7192894e-05 0.008588017 0.07561631 0.0011772627 0.03186809
0.102205664 0.08354998 -0.029255899 -0.020884993 -0.11508155 0.058880743 -0.02300892 0.057684388
00000000: fb17 7bbd 2939 e43d 135d a63d f394 00be
00000010: a8cf 6f3d 3e45 cfbc 81e5 d03d 3cfa ec3d
00000020: 2251 0fbd 1e6f 3bbb 3544 d03d ed03 dcbd
00000030: 8a3f 04bd ea23 62bd fd9e c13d 6b84 5638
00000040: cf50 ad3c ef67 ef3d 9982 d7bd ab39 83bc
00000050: 9037 b4bd 191f fd3d 60fd acbd c2e0 66bd
00000060: 4519 c93b 0986 14be e2a9 8dbd 0953 b43b
00000070: 6972 d8bb 7029 b7bd 3c88 3a3d 67f6 c6bd
00000080: 9123 46bd f0cf 11bd b91c 7c3d 948e 003d
00000090: fe3e c7bd a62f 963d 6273 e4bd 0cfa e23d
000000a0: c7b7 c23d 419b c7bd c299 c43d 564b 4c3d
000000b0: f597 87bc 672f ee3d 59c9 f6bd b08a 843d
000000c0: 3ec3 8e3d 1dec aebd db0e 9b3d 6377 9b3c
000000d0: a0a2 d8bd ed16 7cbc e6e9 c93d d0af 14be
000000e0: 804c bbbd e965 afbb eb91 83bb 8c87 703e
000000f0: 3433 c1bd c9fb 943d 0fc3 043d 3067 9cbd
00000100: dddd 29bd 1ced 84bb 492c 73bb 7b3e 2b3d
00000110: 8d3d f0bc 5244 bfbc f4ce a5bc f947 55bd
00000120: c166 29bd 0a4c bf3d 240d 62bd 3e09 8fbc
00000130: 7a83 76bd 180d 0000 6782 81bd bfa1 c4bd
00000140: 5351 1f3a aeab d5bd 8a3e cc39 87ea 74bd
00000150: a968 dd39 f7c8 c7bd b36f b03d 96d9 7ba7
00000160: d8d8 a8bc 2ef8 243c c4ac 68bd 004f b2bc
00000170: a278 fc23 b48b debd 940a d93c 9e58 143c
00000180: 3290 29bd 1624 833c a641 b8a9 5b9e 1e3c
00000190: 456d d13c 65a8 00be 8db6 0080 ed39 7d3d
000001a0: 3b8e 8bbe 4414 a0bd 04a8 a0aa eb7a 023e
000001b0: 7079 b13d f847 353c b84a dbbd 8860 d4bc
000001c0: f06b d92f f641 82bd be4a 95bb 5a61 153a
000001d0: 600d 2e3e 0073 00bc ea91 20bd cbee 2a3e
000001e0: 5547 8cbd fbcb 053e a39f 27bd 70d5 353d
000001f0: 1f0b b8a8 4ab8 a8b0 29ea 0dbc 1ea6 42b8
00000200: 716f 5cba 62e6 0ebd 76a9 b93d 5fea 8a3c
00000210: 54d1 e23d 9ad3 72bd 2945 d7bd b1a8 063e
00000220: 0a08 0ebd 583e af3c 1e59 60bd 1b99 88bc
00000230: 958b 43bd 3caa 83bd eece ed3d 97a2 e13d
00000240: a9af bbbb 96f5 d53d dec2 77bd a584 aa3d
00000250: 7321 5fbd 01fd df3c 5506 1fbc d299 d7bd
00000260: 2fa7 c1bd d1ac 53bd bcfe 9dbc d133 8dbd
00000270: 56d5 a1bd 09dd 6b3d d390 983c 0b3a 2bbd
00000280: 7ee6 8bbd 45cc 9abd ffe4 8fb8 6968 49bd
00000290: 99cc 07be 7174 053d 8b56 7f3c e392 debd
000002a0: de52 1e3d 7be4 d0bc 94bb 943d 799b 2fbc
000002b0: 387e 2b3d 4529 0bbe adb5 17bb c813 2cbd
000002c0: 67ce d7bd 23c8 f2bd 4830 9dbc 3343 04bd
000002d0: 4999 bd3d 54de 54bd c932 7abd faac 01bd
000002e0: 8dbb 9d3c 6ae1 823d 3f41 893d dd32 75bd
000002f0: e120 64bd 8855 d53d b5b1 443d 1ea8 cb3b
00000300: 89bc 00be 5985 06be 7671 c13d e3b2 03be
00000310: 8db3 ed3d eb75 ec3c 9269 14bc 126b 023e
00000320: ec22 463c 0610 9cbd 26d6 a73d 7e01 66bd
00000330: 4947 8a3b 54a8 ab3d 48f8 b23d f265 893d
00000340: 2d30 3dbd f5e3 3dbd dae3 7dbd 659f 3a3d
00000350: 50a6 893d 5382 df3d 8802 813c 9ce5 423e
00000360: 990a 89bc f46b a03d e7ea b63d dc0f f6bd
00000370: 5722 fb3b 46b9 9cbd d0fd 1a3c 99e8 3f3c
00000380: 2f09 bd3d e8f1 df3c 0e81 a4bd e564 babd
00000390: 678c a13d 8807 7fbd 071e e6bc 4ea8 cebd
000003a0: 6399 3bbd 2f28 083e 4a2a 603a f009 e8bd
000003b0: 72f5 9dbc 0e6b 87bd 973e 03be 82c8 82bc
000003c0: 45f1 6fbd 5ca7 1fbd 7c13 013e e9e9 8cb8
000003d0: c1b4 0c3c b9dc 9a3d 624e 9a3a 1d88 023d
000003e0: 3451 d13d 401c ab3d 11aa efbc 0117 abbc
000003f0: e0af ebbd ef2c 713d 347d bcbc 7746 6c3d

dec.lin3.weight_v f4 [1, 64]
-0.09626801 -0.14856054 -0.057005838 0.01826629 -0.033507455 -0.06386821 -0.04756505 -0.13120732
0.039360438 0.049987078 -0.028021917 -0.030793184 -0.25186723 0.00029147818 0.04149146 -0.02145838
-0.0155828865 -0.01800654 0.114290684 -0.0030878475 0.061715037 -0.0054771784 0.09159722 0.07764462
-0.06037849 0.00032178272 0.0330191 0.08096841 -0.06619694 0.09136423 0.14531879 0.04931839
-0.20678744 -0.11924217 -0.26384464 0.09076057 0.088160485 -0.09939475 -0.041367386 -0.006657892
0.029397277 -0.04692988 0.09187914 0.06852418 -0.105487324 -0.070140816 -0.06771524 0.09019061
-0.13618828 0.025035884 0.055265438 0.0015337468 -0.008627107 0.14511244 -0.03894757 0.05231848
-0.032853667 -0.074966356 -0.10829061 0.09234721 -0.06710234 -0.047655232 0.06082902 0.08623921
00000000: 2a28 c5bd 4120 18be f47e 69bd 30a3 953c
00000010: 1d3f 09bd 56cd 82bd 92d3 42bd 365b 06be
00000020: 6938 213d 40bf 4c3d 388e e5bc fd41 fcbc
00000030: bef4 80be 8ad1 9839 f3f2 293d 7cc9 afbc
00000040: 5d4f 7fbc 7482 93bc 3c11 ea3d 7c5d 4abb
00000050: e8c8 7c3d e779 b3bb 5397 bb3d 2404 9f3d
00000060: 6f4f 77bd f2b4 a839 093f 073d c4d2 a53d
00000070: 4392 87bd 2b1d bb3d 73ce 143e 1502 4a3d
00000080: 16c0 53be 3d35 f4bd a516 87be ade0 b93d
00000090: 7c8d b43d 7a8f cbbd d970 29bd 722a dabb
000000a0: 8fd2 f03c 8c39 40bd 212b bc3d 6856 8c3d
000000b0: bd09 d8bd fda5 8fbd 4aae 8abd dbb5 b83d
000000c0: f174 0bbe 0e18 cd3c 035e 623d 0108 c93a
000000d0: b658 0dbc 5b98 143e 7d87 1fbd e74b 563d
000000e0: 9191 06bd f687 99bd 78c7 ddbd 8920 bd3d
000000f0: f46c 89bd 2232 43bd da27 793d 2f9e b03d

exp_avg f4 [64]
9.866528e-06 0.00020426024 0.00014647853 -4.765046e-05 0.00012005162 -2.6361115e-05 -0.00010711095 0.00013959932
-4.9236984e-05 2.3451581e-05 6.808067e-06 2.9129505e-05 -2.7417746e-05 3.8631093e-05 -1.1477267e-05 -1.7151811e-05
-2.9001656e-05 8.840884e-05 -0.00012423472 1.0382483e-06 5.695932e-05 2.3555669e-05 2.7519905e-05 4.944369e-05
-7.329104e-05 0.00017664937 -1.7634089e-05 2.036749e-05 -2.7989185e-05 2.809981e-05 2.0406584e-05 -6.867475e-05
-4.1044936e-05 -5.3297023e-05 -3.781621e-05 1.9274159e-05 -3.0053607e-05 -2.9058916e-05 -0.00014185336 -5.1599716e-05
-4.0051083e-05 0.00016686152 -0.0001792939 -3.7365044e-05 -4.0048493e-05 6.908783e-06 0.00010205928 -0.00015013646
-5.828992e-05 -3.929723e-05 -3.1135558e-05 0.00020269948 0.00011673365 -7.457995e-05 -1.0337815e-06 -3.0360978e-05
-6.7285284e-05 4.1147847e-05 -5.8138216e-05 2.1794312e-05 0.00013390539 0.00010930732 -5.795997e-05 0.00012716935
00000000: 6a88 2537 b12e 5639 0898 1939 4bdc 47b8
00000010: 39c4 fb38 1022 ddb7 c1a0 e0b8 6861 1239
00000020: cf83 4eb8 e3b9 c437 da70 e436 235b f437
00000030: 29ff e5b7 d207 2238 7d8e 40b7 3ce1 8fb7
00000040: 9548 f3b7 2268 b938 0145 02b9 f159 8b35
00000050: 9be7 6e38 6a99 c537 8cda e637 c261 4f38
00000060: d4b3 99b8 f43a 3939 ebec 93b7 dada aa37
00000070: 51ca eab7 e2b7 eb37 ce2e ab37 7a05 90b8
00000080: aa27 2cb8 3e8b 5fb8 d99c 1eb8 f1ae a137
00000090: a11b fcb7 8cc3 f3b7 79be 14b9 c66c 58b8
000000a0: 86fc 27b8 8cf7 2e39 d700 3cb9 69b8 1cb8
000000b0: bef9 27b8 fed1 e736 a908 d638 f36d 1db9
000000c0: 537c 74b8 14d3 24b8 8d97 02b8 ba8b 5439
000000d0: e7ce f438 ce67 9cb8 76c0 8ab5 b4af feb7
000000e0: 831b 8db8 2a96 2c38 6fd9 73b8 eed2 b637
000000f0: f468 0c39 ec3b e538 0b1a 73b8 c358 0539

exp_avg_sq f4 [64]
6.749409e-08 4.159549e-07 3.0474678e-07 9.839846e-07 1.0944212e-06 2.060639e-07 8.285052e-07 9.163533e-07
9.760863e-07 1.2738254e-06 4.7224717e-07 8.561021e-07 7.649387e-07 8.4329166e-08 7.8648844e-07 2.2824534e-07
6.058758e-07 4.0314814e-07 9.863453e-07 4.9019553e-07 3.1951308e-07 1.220953e-07 8.7287356e-07 4.6738455e-07
3.6862818e-07 2.976944e-07 4.9347886e-07 9.3230034e-07 3.6482632e-07 1.423587e-07 5.012758e-07 1.793832e-07
2.4361162e-07 4.8480115e-07 1.5111799e-07 1.3625578e-06 2.3202762e-07 3.8203007e-07 3.193099e-07 1.361748e-07
7.8521026e-07 6.587565e-07 1.1678328e-06 5.661057e-07 4.4113784e-07 1.2654267e-07 2.3931188e-06 1.1956595e-06
1.7527526e-07 3.4788877e-07 1.26493e-07 1.00900984e-07 7.050615e-08 4.798248e-07 1.7165603e-07 2.2580902e-07
2.1413375e-07 1.5829279e-07 1.3635356e-07 1.5085807e-07 1.2674366e-06 2.92084e-07 2.0118016e-07 1.562529e-07
00000000: 45f1 9033 6850 df34 149c a334 7411 8435
00000010: 07e4 9235 6a42 5d34 7266 5e35 52fb 7535
00000020: 1202 8335 4ff8 aa35 2889 fd34 e3ce 6535
00000030: 3056 4d35 7318 b533 131f 5335 9a13 7534
00000040: 78a3 2235 4270 d834 9162 8435 fb95 0335
00000050: 8b89 ab34 4d19 0334 6a4f 6a35 d8ec fa34
00000060: dfe7 c534 cfd2 9f34 9c77 0435 3143 7a35
00000070: 59dd c334 43db 1834 698f 0635 7b9c 4034
00000080: bac9 8234 4823 0235 ff42 2234 21e1 b635
00000090: 4423 7934 d019 cd34 9e6d ab34 7237 1234
000000a0: 3dc7 5235 67d5 3035 6ebe 9c35 7df6 1735
000000b0: 86d5 ec34 c9df 0734 7899 2036 8c7a a035
000000c0: 4c33 3c34 78c5 ba34 22d2 0734 e7ae d833
000000d0: 2a69 9733 4fcd 0035 7350 3834 e975 7234
000000e0: a3ec 6534 31f7 2934 9568 1234 8dfb 2134
000000f0: ca1c aa35 b8cf 9c34 fb03 5834 78c6 2734

exp_avg f4 [64, 4]
1.2101789e-05 2.1867681e-05 -3.2164928e-06 4.3557625e-06 7.258763e-05 -6.9764086e-05 -3.9821196e-05 -0.00012435054
1.2803792e-05 -2.345753e-05 0.00010680492 -2.1874564e-05 5.7060508e-05 -3.1121986e-06 0.000112144786 0.0005705744
-3.471299e-05 2.446828e-05 -4.560321e-06 -4.177123e-05 1.776559e-05 6.550485e-05 -3.6340258e-05 4.3620435e-05
-3.5669734e-06 -3.194923e-05 -4.001511e-05 -9.010728e-05 -4.7717585e-05 -1.468693e-05 7.2593255e-05 6.6634115e-05
-5.7547364e-05 -0.00017553738 0.00010791993 -8.1975624e-05 -3.271128e-05 7.5509506e-06 -1.4940259e-05 9.326694e-05
-3.0016887e-05 3.3985038e-05 -0.00011382954 -1.4280625e-05 6.416257e-05 5.921859e-05 6.7741144e-05 3.8734226e-05
-6.293745e-05 -7.7385004e-05 -9.668366e-06 2.994864e-05 3.2542222e-05 2.3431237e-05 3.7296213e-05 2.8727345e-05
-3.552475e-05 -2.9627845e-05 -1.627168e-05 9.571837e-06 2.7938029e-06 4.700368e-06 0.00010726174 -0.00013619069
-3.209924e-05 -5.6714987e-05 0.00015802009 0.00032007668 6.924037e-05 7.389998e-05 5.168265e-05 -5.7742745e-05
-4.5064528e-05 9.4073475e-05 -0.0001248218 0.00016304027 2.7354698e-05 8.367053e-06 2.6884118e-06 4.3815613e-05
7.1758725e-05 5.2075207e-05 9.364003e-05 -0.00012382075 2.589525e-05 2.9368113e-05 4.146185e-05 -2.8632767e-05
1.3337787e-05 1.483562e-05 -2.408392e-05 -1.9114821e-05 -3.8020036e-05 -5.850197e-05 8.1584716e-05 8.17101e-05
-2.7721353e-05 -3.4354503e-05 -2.721597e-05 2.545267e-05 9.522113e-05 -4.4068597e-06 1.2453742e-05 -1.21049925e-05
3.684847e-05 3.242362e-05 -9.873004e-05 0.00017673643 4.3178625e-05 4.2103125e-05 0.0001026773 -3.1637315e-05
-4.4109263e-05 -9.800167e-06 4.2360036e-05 0.00016933939 6.729052e-08 -2.8666414e-05 -4.132212e-06 5.5453755e-05
-1.2570758e-05 -8.856898e-06 -3.7948834e-05 -6.9352e-05 -3.731977e-05 8.362421e-06 -0.00016597882 -1.3412385e-05
-4.5449673e-05 -1.1060593e-05 8.709713e-05 4.4673016e-05 9.687905e-06 1.858853e-05 -1.717634e-05 -1.689802e-05
2.2828352e-05 -6.632455e-05 -0.00010104134 -6.261176e-05 1.3021484e-05 3.2992768e-06 3.0737494e-05 4.4363103e-05
8.952828e-06 -2.0447249e-05 -4.4873133e-05 -1.4792601e-05 -2.0365494e-05 -2.4890702e-05 -4.5181292e-05 3.8220354e-05
-4.4891553e-05 -1.1288022e-05 -0.00020879808 0.000109185574 -3.1826516e-05 -1.6798331e-06 4.2354197e-05 -5.2464093e-05
-7.123709e-05 8.3094716e-07 -0.00015459978 -0.00020157444 8.759677e-05 2.5760457e-05 4.31786e-05 -1.47081e-05
2.7384109e-05 -4.36428e-06 -0.00017202758 0.00017729998 -0.00012298253 -0.00016062857 -5.0903982e-05 0.00012807183
-5.6229994e-05 -6.691646e-05 -0.00019999663 2.8818373e-05 1.8282459e-05 9.931872e-06 2.4650623e-07 2.933478e-05
4.1014944e-05 3.8017137e-05 -7.0812353e-06 5.686987e-05 -0.00016470536 -7.5862496e-05 0.00016535974 4.8012766e-06
-5.398734e-05 -1.4375179e-05 5.1586412e-05 -5.2161984e-05 -0.000112293055 -0.00010712662 4.78751e-06 0.000109540655
5.6028193e-06 2.4573497e-05 3.0046489e-05 1.1453712e-05 3.9020433e-05 3.9643604e-05 -0.00015991511 -8.453407e-05
0.00010114295 0.00012774684 6.8858906e-05 -7.473613e-05 -7.4369855e-05 -5.2610514e-05 1.6886865e-05 -3.581422e-05
-1.6128952e-05 -6.7513625e-05 -0.00016457147 -0.00020777853 4.686636e-06 2.8677527e-05 -8.1882e-06 3.250097e-05
-3.4406356e-05 -4.2731783e-05 -4.2903317e-05 -6.21514e-05 -4.0571454e-06 1.2887609e-06 -6.3452794e-06 1.3948754e-05
-5.642041e-05 1.2693129e-05 -4.53021e-05 -3.6419486e-05 6.003948e-05 5.8544603e-05 -5.376941e-05 -8.676987e-05
-7.228057e-05 4.2136413e-05 0.00017147242 -0.00015929545 7.901741e-05 -1.2712718e-05 6.759613e-05 0.00016923598
7.242986e-09 -6.370675e-05 3.5482968e-05 -3.564505e-05 7.052296e-05 1.2644746e-06 -6.601244e-05 -0.00013686842
00000000: ca08 4b37 7d70 b737 edda 57b6 b727 9236
00000010: 303a 9838 4f4e 92b8 af05 27b8 1864 02b9
00000020: decf 5637 a9c6 c4b7 74fc df38 457f b7b7
00000030: 4154 6f38 2adb 50b6 462f eb38 9a92 153a
00000040: ca98 11b8 3b41 cd37 dc04 99b6 8433 2fb8
00000050: 5007 9537 a65f 8938 0e6c 18b8 16f5 3638
00000060: 2360 6fb6 3901 06b8 e6d5 27b8 faf7 bcb8
00000070: 5e24 48b8 e267 76b7 353d 9838 ebbd 8b38
00000080: 035f 71b8 7510 38b9 1253 e238 54ea abb8
00000090: 7833 09b8 2c5e fd36 eca7 7ab7 4f98 c338
000000a0: c6cc fbb7 288b 0e38 c5b7 eeb8 d196 6fb7
000000b0: 048f 8638 7a61 7838 4010 8e38 8f76 2238
000000c0: 49fd 83b8 c249 a2b8 5135 22b7 373a fb37
000000d0: f27d 0838 338e c437 816e 1c38 81fb f037
000000e0: 6900 15b8 5089 f8b7 2b7f 88b7 ba96 2037
000000f0: 2b7d 3b36 dbb7 9d36 b5f1 e038 69ce 0eb9
00000100: 4ca2 06b8 41e1 6db8 32b2 2539 f7cf a739
00000110: 2435 9138 c0fa 9a38 d3c5 5838 cd30 72b8
00000120: ab03 3db8 5049 c538 99e2 02b9 caf5 2a39
00000130: c477 e537 3860 0c37 906a 3436 a8c6 3738
00000140: 2c7d 9638 546b 5a38 9c60 c438 e1d5 01b9
00000150: a039 d937 8b5b f637 53e7 2d38 6630 f0b7
00000160: 5cc5 5f37 81e6 7837 d307 cab7 c458 a0b7
00000170: b477 1fb8 0360 75b8 7618 ab38 c75b ab38
00000180: 278b e8b7 de17 10b8 da4d e4b7 3183 d537
00000190: 74b1 c738 a3de 93b6 6af0 5037 8c16 4bb7
000001a0: be8d 1a38 99fe 0738 490d cfb8 5352 3939
000001b0: b21a 3538 e397 3038 7554 d738 4fb2 04b8
000001c0: f601 39b8 666b 24b7 beab 3138 b290 3139
000001d0: 5b81 9033 a878 f0b7 6ea7 8ab6 0497 6838
000001e0: ffe6 52b7 1698 14b7 402b 1fb8 1271 91b8
000001f0: cc87 1cb8 534c 0c37 9a0a 2eb9 c105 61b7
00000200: 37a1 3eb8 e390 39b7 eaa7 b638 495f 3b38
00000210: 3c89 2237 90ee 9b37 e915 90b7 39c0 8db7
00000220: 837f bf37 b917 8bb8 28e6 d3b8 6f4e 83b8
00000230: d976 5a37 2569 5d36 22ec 0038 8512 3a38
00000240: 1a34 1637 2286 abb7 2936 3cb8 bd2d 78b7
00000250: 91d6 aab7 60cc d0b7 0b81 3db8 cb4e 2038
00000260: f049 3cb8 af61 3db7 cff0 5ab9 8ffa e438
00000270: 767d 05b8 a076 e1b5 79a5 3138 e40c 5cb8
00000280: 1f65 95b8 410e 5f35 101c 22b9 ba5d 53b9
00000290: 28b4 b738 2918 d837 ab1a 3538 cfc2 76b7
000002a0: edb6 e537 e170 92b6 4d62 34b9 9ae9 3939
000002b0: dff4 00b9 676e 28b9 bc81 55b8 054b 0639
000002c0: 7fd8 6bb8 8055 8cb8 30b6 51b9 fcbe f137
000002d0: 485d 9937 11a1 2637 8f57 8434 f613 f637
000002e0: 7607 2c38 9774 1f38 599b edb6 8f87 6e38
000002f0: c2b4 2cb9 5e18 9fb8 6b64 2d39 a71a a136
00000300: 7770 62b8 ec2c 71b7 7d5e 5838 81c8 5ab8
00000310: e07e ebb8 2ba9 e0b8 66a4 a036 31b9 e538
00000320: daff bb36 2f23 ce37 580c fc37 5229 4037
00000330: dfa9 2338 ff46 2638 e3ae 27b9 e247 b1b8
00000340: b51c d438 c8f3 0539 5868 9038 a7bb 9cb8
00000350: 03f7 9bb8 1caa 5cb8 44a8 8d37 3a37 16b8
00000360: a94c 87b7 1a96 8db8 d190 2cb9 20df 59b9
00000370: e641 9d36 8590 f037 0d60 09b7 a751 0838
00000380: 8b4f 10b8 e73a 33b8 16f3 33b8 4757 82b8
00000390: 9d22 88b6 7df9 ac35 89e9 d4b6 7105 6a37
000003a0: f4a4 6cb8 93f4 5437 c202 3eb8 20c1 18b8
000003b0: e7d2 7b38 ca8d 7538 7786 61b8 38f8 b5b8
000003c0: 5695 97b8 a1bb 3038 47cd 3339 8c08 27b9
000003d0: 26b6 a538 b548 55b7 65c2 8d38 f074 3139
000003e0: fbdd f831 4d9a 85b8 8cd3 1438 9581 15b8
000003f0: bae5 9338 04b7 a935 2970 8ab8 5684 0fb9

exp_avg_sq f4 [64, 4]
8.067453e-08 5.2649746e-08 4.3671413e-08 4.1999613e-08 7.930814e-07 2.3328006e-07 1.4454375e-07 8.9975465e-08
5.396674e-07 4.4597547e-07 7.678376e-07 5.2860423e-07 1.1370191e-06 5.3578465e-06 4.7640756e-06 2.7990866e-06
8.0166194e-07 1.5540841e-06 1.6796334e-07 3.943461e-07 3.5908417e-07 2.3227685e-07 2.1080955e-07 4.6103388e-08
7.4650465e-08 3.3423063e-07 8.900605e-07 5.434484e-07 1.7288171e-06 2.890061e-06 5.3199153e-07 7.384841e-07
3.127032e-06 1.5151838e-05 1.4230465e-06 2.4039202e-06 9.0958986e-07 3.7490397e-06 6.296443e-08 3.3392342e-07
2.8441877e-05 4.5728116e-06 3.9728575e-06 2.73022e-06 6.308387e-07 1.0657814e-06 8.489594e-07 5.961337e-07
9.18965e-07 3.6582045e-07 3.0987997e-07 1.3839073e-07 3.8599376e-07 1.5823942e-07 9.902782e-08 8.415075e-08
1.2233602e-06 8.0449314e-07 5.193125e-07 3.776781e-07 6.4461614e-07 9.976687e-07 1.6328148e-06 1.3690878e-06
2.4403448e-07 7.96363e-07 1.118848e-06 2.3831678e-06 5.205052e-07 5.874312e-07 4.594113e-07 1.8610083e-07
1.6466977e-06 2.0098198e-06 1.0322391e-06 7.3896354e-07 6.929132e-07 6.6279136e-07 2.728147e-07 1.2637769e-07
5.6015995e-07 4.930957e-07 1.5643161e-07 1.9942668e-07 2.3294693e-07 1.2806147e-07 5.6448858e-08 1.9830555e-08
6.9059314e-07 1.5305191e-06 3.5332218e-07 9.427401e-08 1.2109999e-06 3.0254844e-07 1.3377961e-06 5.502148e-07
2.4947727e-07 3.3265388e-07 3.6229423e-07 3.3697776e-07 5.8521243e-07 1.7812597e-07 1.8299838e-07 1.6002373e-07
5.48136e-07 5.497361e-07 2.1367556e-07 5.1513575e-07 2.158949e-06 1.5976307e-06 4.4393784e-07 1.5381711e-06
1.6988395e-07 1.487015e-08 1.2895181e-07 5.13788e-07 2.2753377e-07 8.243048e-08 1.15929595e-07 9.8873954e-08
9.554207e-07 6.52818e-07 4.16363e-07 5.932352e-07 2.3837416e-08 1.847493e-09 3.5706978e-07 1.6111215e-07
7.9437467e-07 4.1181082e-07 1.5553805e-07 1.313265e-07 5.304603e-06 4.147185e-06 7.789424e-07 1.7843745e-06
7.923124e-08 1.9819416e-07 9.141089e-07 2.3131038e-07 1.7760548e-06 1.5061939e-07 1.8276764e-07 3.3208303e-07
6.6684734e-08 7.691261e-08 2.8031704e-07 1.3498041e-07 4.183968e-06 3.969867e-06 2.7504707e-06 1.1332453e-06
7.9280944e-08 6.0275696e-09 6.018e-07 3.3818523e-07 1.8940219e-07 1.0325238e-07 2.803624e-08 4.750452e-08
4.4151173e-07 2.631129e-08 2.4988542e-06 1.7611405e-06 6.4230164e-07 3.1913675e-07 1.0379151e-07 1.3009816e-07
9.2238275e-07 4.711736e-07 1.7329513e-06 1.4710878e-06 9.514824e-07 5.309342e-06 6.7669134e-07 1.6739749e-06
1.7010454e-07 1.7003191e-07 3.9656726e-07 2.8587627e-07 3.75788e-08 1.21271855e-08 3.7366156e-08 2.7245997e-08
5.351527e-06 3.4386298e-06 7.4869905e-07 1.2476758e-06 8.0002303e-07 1.7706354e-07 8.4999255e-07 1.0487258e-06
5.15625e-07 1.6948574e-07 2.5715138e-08 1.9939689e-08 1.4421506e-06 1.3513483e-06 5.1990065e-07 1.6838579e-06
4.5499146e-07 1.8973655e-07 1.1976374e-07 9.169799e-08 2.7447456e-07 2.7540113e-07 1.1657232e-07 4.364066e-08
1.264804e-07 1.54525e-07 7.727043e-08 5.0370808e-08 1.1739735e-06 1.0432412e-06 3.1738665e-07 3.2855633e-07
3.9975825e-07 5.067605e-07 3.891384e-07 7.927694e-07 1.373723e-07 1.11190694e-07 3.7496022e-08 4.5284935e-08
6.073266e-08 9.308807e-08 9.658499e-08 2.4411017e-07 2.0464176e-07 3.836361e-08 3.3346814e-07 3.3382275e-07
3.9615531e-07 1.4773656e-07 2.2186697e-07 2.013748e-08 1.2284136e-07 1.1994999e-07 2.6799665e-07 8.861286e-08
1.9181048e-06 3.580237e-06 7.3961587e-07 4.1267134e-07 2.98925e-07 2.4124153e-08 2.4095476e-07 2.7634945e-07
2.297935e-09 9.1798604e-08 4.022137e-08 1.2575885e-07 4.5809042e-08 3.9212193e-09 5.5088876e-08 5.567182e-08
00000000: 4b3f ad33 0221 6233 3a91 3b33 1063 3433
00000010: 24e4 5435 897b 7a34 e233 1b34 8938 c133
00000020: a9dd 1035 676e ef34 661d 4e35 68e5 0d35
00000030: ae9b 9835 8dc7 b336 19db 9f36 f1d7 3b36
00000040: ca31 5735 ec95 d035 6959 3434 84b6 d334
00000050: 27c8 c034 c667 7934 e35a 6234 3603 4633
00000060: 874f a033 4f70 b334 7eec 6e35 7de1 1135
00000070: b409 e835 dff2 4136 2ece 0e35 3e3c 4635
00000080: 00da 5136 a634 7e37 81ff be35 0953 2136
00000090: 8a2a 7435 0398 7b36 1037 8733 1646 b334
000000a0: 7796 ee37 2770 9936 964e 8536 d338 3736
000000b0: e856 2935 f80b 8f35 0ce4 6335 ff05 2035
000000c0: cbae 7635 fb65 c434 945d a634 8e98 1434
000000d0: 943a cf34 85e8 2934 1fa9 d433 5db6 b433
000000e0: 5632 a435 59f4 5735 e266 0b35 afc3 ca34
000000f0: af09 2d35 a3e7 8535 1727 db35 80c1 b735
00000100: d803 8334 a6c5 5535 532b 9635 83ee 1f36
00000110: d8b8 0b35 f7af 1d35 02a5 f634 02d3 4734
00000120: 1a04 dd35 71e0 0636 778b 8a35 305d 4635
00000130: a200 3a35 adea 3135 5e77 9234 6fb2 0734
00000140: e65d 1635 475d 0435 98f7 2734 fd21 5634
00000150: f71f 7a34 4581 0934 2d72 7233 da57 aa32
00000160: 3361 3935 3c6c cd35 3bb0 bd34 af73 ca33
00000170: a489 a235 f16d a234 538e b335 79b2 1335
00000180: e5ef 8534 9a97 b234 5781 c234 dfe9 b434
00000190: 7e17 1d35 e542 3f34 367e 4434 fdd2 2b34
000001a0: 9e23 1335 9491 1335 b16e 6534 dc47 0a35
000001b0: 76e2 1036 2c6e d635 5a56 ee34 2873 ce35
000001c0: 5869 3634 9c77 7f32 0176 0a34 3eeb 0935
000001d0: 0250 7434 a304 b133 f8f4 f833 8854 d433
000001e0: 013c 8035 503d 2f35 7f88 df34 d03e 1f35
000001f0: 08c3 cc32 e2ea fd30 4cb3 bf34 2cfe 2c34
00000200: 033d 5535 d916 dd34 f901 2734 c102 0d34
00000210: 31fe b136 0c28 8b36 8418 5135 a47e ef35
00000220: d625 aa33 32cf 5434 1661 7535 1d5e 7834
00000230: c760 ee35 f1b9 2134 c93e 4434 2549 b234
00000240: 5234 8f33 282b a533 7b7e 9634 22ef 1034
00000250: 0364 8c36 e634 8536 ba94 3836 031a 9835
00000260: 2941 aa33 101b cf31 628b 2135 d38f b534
00000270: 7a5e 4b34 99bb dd33 58d4 f032 c607 4c33
00000280: e908 ed34 2303 e232 fdb1 2736 5460 ec35
00000290: a26a 2c35 d255 ab34 fce3 de33 1cb1 0b34
000002a0: a999 7735 9bf5 fc34 c197 e835 3172 c535
000002b0: 5f69 7f35 e726 b236 e0a5 3535 57ad e035
000002c0: fba5 3634 0492 3634 cae7 d434 897a 9934
000002d0: 5466 2133 ed57 5032 867c 2033 950a ea32
000002e0: 4491 b336 36c3 6636 35fa 4835 d075 a735
000002f0: 2ac1 5635 db1e 3e34 0b2b 6435 f2c1 8c35
00000300: 7b69 0a35 e3fb 3534 30e4 dc32 d747 ab32
00000310: eb8f c135 f95f b535 4d8f 0b35 eb00 e235
00000320: 8d45 f434 63ba 4b34 6898 0034 81eb c433
00000330: 7f5b 9334 d8da 9334 5056 fa33 6a6f 3b33
00000340: abce 0734 82eb 2534 deef a533 4a57 5833
00000350: 6c91 9d35 7f05 8c35 4a65 aa34 7064 b034
00000360: 5b9e d634 5108 0835 c6ea d034 b3ce 5435
00000370: 9c80 1334 bbc7 ee33 500b 2133 507f 4233
00000380: 226c 8233 b5e7 c733 296a cf33 3f0e 8334
00000390: 80bb 5b34 3cc5 2433 8307 b334 4038 b334
000003a0: 2caf d434 84a1 1e34 543a 6e34 c9fa ac32
000003b0: 60e6 0334 9acb 0034 2ee1 8f34 6f4b be33
000003c0: cab8 0036 0144 7036 048a 4635 1e8d dd34
000003d0: f07b a034 9339 cf32 925c 8134 2e5d 9434
000003e0: b3e9 1d31 d122 c533 ddbf 2c33 5408 0734
000003f0: 93bf 4433 69bb 8631 dc9a 6c33 d01b 6f33

exp_avg f4 [64]
1.8024961e-06 4.5494875e-05 -2.3256069e-05 -7.644081e-06 -8.588422e-06 -5.1965253e-05 -8.245435e-06 -2.9922267e-06
-3.8517657e-05 1.1072544e-05 -5.924409e-06 -6.1610306e-05 -3.4038447e-05 6e-45 -3.3669636e-05 -0.00013854624
1.22445235e-05 -0.00010212213 6e-45 -7.962778e-05 -2.6823705e-05 -9.07533e-06 5.7492474e-05 8.7924396e-05
-1.74162e-05 -2.431062e-05 -1.6584603e-05 1.2917718e-05 2.5108708e-05 -2.3254534e-05 -1.746411e-05 1.6587053e-05
7.2224356e-07 -2.7905521e-06 6e-45 1.1236375e-05 -2.8864886e-05 3.8029844e-05 6e-45 5.3307167e-06
-0.00019527444 -6.6367014e-05 6e-45 7.0542075e-05 2.984177e-05 5.991041e-05 5.0772405e-06 -1.2893467e-05
6e-45 -2.0690927e-06 2.2331693e-05 -5.9731112e-05 -7.985503e-05 1.0718483e-05 -2.2144692e-05 5.4248167e-06
-1.2053663e-05 -7.5413586e-06 -2.0106932e-05 0.0003817934 -1.5141766e-05 6e-45 2.6955622e-05 -4.4225184e-05
00000000: 4bed f135 c0d1 3e38 0716 c3b7 143f 00b7
00000010: fe16 10b7 44f5 59b8 e055 0ab7 10ce 48b6
00000020: 058e 21b8 37c4 3937 49ca c6b6 c834 81b8
00000030: 81c4 0eb8 0400 0000 7f38 0db8 b946 11b9
00000040: d46d 4d37 672a d6b8 0400 0000 d7fd a6b8
00000050: 7803 e1b7 3f42 18b7 1324 7138 0d64 b838
00000060: 0119 92b7 a9ee cbb7 2a1f 8bb7 2db9 5837
00000070: 8aa0 d237 bb12 c3b7 e47f 92b7 6d24 8b37
00000080: 33e0 4135 5245 3bb6 0400 0000 dd83 3c37
00000090: df22 f2b7 3c82 1f38 0400 0000 82de b236
000000a0: 95c2 4cb9 852e 8bb8 0400 0000 fdef 9338
000000b0: b754 fa37 5048 7b38 2a5d aa36 0551 58b7
000000c0: 0400 0000 beda 0ab6 f254 bb37 cb87 7ab8
000000d0: d877 a7b8 89d3 3337 5dc3 b9b7 d206 b636
000000e0: 173a 4ab7 c70b fdb6 4fab a8b7 712b c839
000000f0: 6409 7eb7 0400 0000 c21e e237 6e7e 39b8

exp_avg_sq f4 [64]
3.9424933e-07 1.5824495e-06 1.5909901e-06 2.4506917e-07 6.790283e-07 1.4706244e-06 1.6002041e-06 9.489821e-08
1.0218077e-06 1.0287013e-06 2.5864063e-07 2.6510434e-06 3.412193e-07 3.060528e-14 4.273574e-07 4.962713e-07
2.2443924e-06 1.1599789e-06 2.6447333e-09 2.2240836e-07 1.2804269e-07 9.924652e-07 1.0772991e-06 1.5129914e-06
2.615044e-07 6.596757e-07 8.184559e-07 3.1525994e-07 2.0345146e-06 4.1497316e-07 8.4835193e-07 2.4751266e-06
1.3649988e-06 1.1546069e-07 5.894672e-08 5.518681e-07 1.8941091e-07 2.2590204e-07 1.12802025e-08 1.0499501e-06
2.1855017e-06 2.9231674e-07 3.5819512e-09 6.239104e-07 1.7683418e-07 1.0381671e-07 2.6219072e-07 3.0268376e-07
1.1362888e-08 8.536445e-07 4.416786e-06 1.1601659e-06 1.2332009e-06 1.2310892e-06 1.441923e-07 3.7800504e-07
1.4385768e-07 2.251893e-06 1.04181936e-07 3.062627e-06 9.3357194e-08 7.3677686e-09 1.5787526e-07 2.3741512e-07
00000000: 37a9 d334 8d64 d435 018a d535 0d92 8334
00000010: 7846 3635 4562 c535 98c6 d635 d8ca cb33
00000020: 0c25 8935 e811 8a35 4cdb 8a34 94e8 3136
00000030: d330 b734 7cd5 0929 8e6f e534 8137 0535
00000040: 5e9e 1636 92b0 9b35 a4be 3531 25cf 6e34
00000050: 1b7c 0934 d834 8535 b797 9035 fd11 cb35
00000060: e464 8c34 9214 3135 dcb3 5b35 ff40 a934
00000070: b288 0836 7ac9 de34 4dba 6335 5a1a 2636
00000080: 0035 b735 30f3 f733 9b2c 7d33 1624 1435
00000090: e060 4b34 7b8f 7234 dbca 4132 03ec 8c35
000000a0: a2aa 1236 b5ef 9c34 5a26 7631 cc7a 2735
000000b0: cfdf 3d34 d7f1 de33 38c3 8c34 8a80 a234
000000c0: 8336 4332 0126 6535 e733 9436 ffb6 9b35
000000d0: 7684 a535 e73b a535 47d3 1a34 9ef0 ca34
000000e0: 4c77 1a34 3a1f 1736 a0ba df33 8887 4d36
000000f0: a97b c833 9427 fd31 6c84 2934 2cec 7e34
