log/alpha=0.01/version_None/checkpoints/epoch=2499-step=4999-v1.ckpt (torch, 116924 bytes, 21 tensors)

dec.lin0.bias f4 [64]
000000 28 fb b3 3d 3f 95 f4 be 15 c4 2c be bc 69 e8 be
       0.08788139 -0.47770116 -0.16871674 -0.4539317
000010 19 dc 0c bf 7d b4 1e 3f 1f c5 10 bf 92 0c f4 bd
       -0.5502334 0.61994153 -0.5655078 -0.1191646
000020 ee 3d 02 bf d5 47 2d 3c 50 95 ea 3e e6 40 e2 3e
       -0.5087575 0.010576208 0.4581704 0.4419014
000030 64 a7 c4 be a7 c8 b2 be 92 88 9a 3d 21 d2 04 bf
       -0.3840896 -0.3491871 0.0754558 -0.5188313
000040 64 ee 21 bf d3 c9 35 3e 68 88 60 3a 22 1c c6 3d
       -0.6325438 0.17752771 0.0008565248 0.09673335
000050 9e 54 f0 be aa e8 2d be e9 8f 50 3d 7e 77 ed 3e
       -0.46939558 -0.16983286 0.050918493 0.46380228
000060 43 f3 a4 3e 68 c5 b8 3d 57 73 39 3e 59 16 33 3e
       0.32216844 0.09022027 0.18110405 0.17488994
000070 26 3f 51 bd d1 fd 98 3e 26 79 fa 3e 6c de b4 be
       -0.051085614 0.29881147 0.48920554 -0.35325944
000080 c8 ba 61 be 6b 57 bc be 60 b3 fb be 02 4f 03 bd
       -0.22043908 -0.36785445 -0.4916029 -0.03205777
000090 46 0f be bc 0b a8 d5 3e 0c 61 52 3d d9 25 06 3f
       -0.023200642 0.4172977 0.051362082 0.524015
0000a0 14 91 a1 3e 44 53 2e bc 64 f7 9f be 14 35 06 be
       0.31555998 -0.010639969 -0.31243432 -0.13106185
0000b0 93 c1 da be 61 ba 68 bd 48 7c 11 3e 64 2c 8c be
       -0.4272581 -0.05681837 0.14207566 -0.27377617
0000c0 20 4b d9 3e 6f 4e 60 be 73 c7 08 bf 57 bd ad be
       0.42440128 -0.2190492 -0.53429335 -0.33933517
0000d0 2a b2 44 bc 7f b9 f3 be 2a dd f3 be f7 90 21 be
       -0.012005368 -0.4760246 -0.47629672 -0.15777956
0000e0 38 e6 75 be b0 38 19 3f f4 bc 01 3f e5 10 df bd
       -0.24013603 0.59852123 0.50678945 -0.10891894
0000f0 60 ff a3 3c 81 2f ee be cc b5 f4 bd 1d d9 d5 be
       0.020019233 -0.46520618 -0.119487375 -0.41767207

dec.lin0.weight_v f4 [64, 4]
000000 60 2e 0f be d8 64 4f 3e c0 5b 0a 3f 75 14 43 3e
       -0.13982534 0.20253313 0.5404625 0.19050772
000010 d8 c8 a0 3d 58 d2 5a be 27 03 18 be 89 a5 6c 3e
       0.07850808 -0.21369302 -0.14844953 0.23110022
000020 af ee 8e be aa e5 cc be 92 eb 7f 3e 32 80 d3 3d
       -0.27916476 -0.4001897 0.24992207 0.10327186
000030 0f 2a f1 be 7e 0e a4 3e 62 61 04 bf 76 ea c4 be
       -0.471024 0.32042307 -0.51711094 -0.3846013
000040 10 1f 23 3e 19 96 84 be 67 9b db be da 23 f2 3d
       0.15929818 -0.25895765 -0.42892 0.118232444
000050 73 c5 44 bd 58 c5 c7 be 6f 42 41 be 70 57 68 3e
       -0.048039865 -0.3901775 -0.18872999 0.22689605
000060 67 f7 99 be d1 d0 9e 3e 80 6f 0d 3f de 3f 05 be
       -0.30071566 0.3101869 0.5524826 -0.13012645
000070 fd fa a5 be 03 d4 08 be ac a5 4f 3e 1b 8a 88 3e
       -0.3241805 -0.13362126 0.20278043 0.26667866
000080 34 f3 8e be a7 64 3a be f5 c7 b6 3e 02 5f 32 be
       -0.27919924 -0.18202458 0.3569943 -0.17419055
000090 b4 f5 9e be 07 4a b5 3d c9 5f 55 be 8c 81 ef 3e
       -0.31046832 0.0885201 -0.2083732 0.46778524
0000a0 8b f0 b0 3e 0f 33 1d 3e 15 6b 46 be 74 d8 9a be
       0.3455852 0.15351509 -0.19376786 -0.30243266
0000b0 97 65 d5 3d 19 a0 36 3e 3f 79 88 3e 74 2a ce be
       0.10419767 0.1783451 0.26655003 -0.40266764
0000c0 43 28 95 be c0 59 9a bd 13 5c eb 3c f3 80 8b 3e
       -0.2913228 -0.0753665 0.028730428 0.27246818
0000d0 a4 ab a8 be 07 bb b2 3e 88 0e f3 be 81 fa ba be
       -0.3294345 0.34908316 -0.47472024 -0.36519244
0000e0 b9 d6 41 3e b2 79 85 bc 09 fc 89 3e 58 35 bd be
       0.18929566 -0.01629338 0.269501 -0.3695476
0000f0 e3 97 a2 be b9 d1 0a 3f 5a 73 26 be ad 7b c2 3e
       -0.31756505 0.5422626 -0.1625494 0.37984982
000100 d3 f4 93 bd c2 12 b7 be 4e 29 e1 be 80 bb 22 3d
       -0.07224431 -0.357565 -0.43976825 0.039729595
000110 43 39 c9 be b4 7d ee 3d 5e 2a ba 3d 89 c6 91 be
       -0.393015 0.1164507 0.09090112 -0.28471783
000120 b6 45 d4 3e 81 1f 5c 3e ce 9b 0e 3e 5d b9 c0 bd
       0.41459435 0.21496393 0.13926622 -0.09410355
000130 8d 3d 76 3b 8e 04 6f 3e c0 e8 21 be 7c e8 92 bc
       0.0037573308 0.23341581 -0.15811443 -0.017933123
000140 d0 7b 17 3d 0f d9 fc bb 2a 52 e8 be 92 8f 0c 3e
       0.03698331 -0.007716305 -0.45375186 0.13726643
000150 48 31 a2 bd 07 c1 85 be 7b 6e 62 be 3b 16 27 3e
       -0.07919556 -0.2612383 -0.22112457 0.16317074
000160 82 29 8a bd 75 7f 52 3e 05 d8 7f be c4 fd 31 3e
       -0.06746198 0.20556433 -0.24984749 0.1738196
000170 0f a2 9f 3e a0 97 d9 3d 50 f9 e6 3e 70 69 85 3e
       0.31178328 0.10624623 0.45112085 0.26057005
000180 6b 45 0e 3e e0 5b ef be 26 89 07 bc af f5 f9 be
       0.13893668 -0.46749783 -0.008272445 -0.48820254
000190 ae 07 bf be 3d c2 84 3e c6 e8 eb be 1a c5 e5 be
       -0.37310547 0.25929442 -0.4607603 -0.4487694
0001a0 21 b3 b6 bd ff f7 84 be 9e fb 55 3e d6 5b bb bd
       -0.08920885 -0.25970456 0.20896766 -0.09148376
0001b0 11 76 ee 3d b7 22 af 3e 3a ee be be 75 83 c1 be
       0.11643613 0.34206173 -0.37291127 -0.37795606
0001c0 5e 33 d5 3e 14 ad 9a be 6f 86 45 be 24 c7 fb 3e
       0.41640753 -0.30210173 -0.19289564 0.4917537
0001d0 6d 9e 6f bc b7 0f 36 3c e6 ba da be 14 dd 7e 3e
       -0.014625174 0.011112145 -0.42720717 0.24889022
0001e0 64 90 9f 3e cf dd 12 bb c5 0f b8 be 65 a6 d8 bc
       0.3116485 -0.002241004 -0.3594953 -0.02644653
0001f0 66 7f 03 be 7e 57 62 be a4 85 be 3e f9 f5 4d be
       -0.12841567 -0.22103688 0.37211335 -0.20113362
000200 d3 b3 5b be d5 52 3e 3e a5 53 de be ad cd 82 3e
       -0.21455316 0.18586285 -0.4342319 0.25547543
000210 73 50 87 3e 68 65 d6 be 29 54 62 be e8 6a 32 be
       0.26428565 -0.41874242 -0.22102417 -0.17423594
000220 cd 1d a9 be f9 02 8b 3e 60 bf 04 3f 5d 05 13 bf
       -0.3303055 0.27150705 0.51854515 -0.5743006
000230 d9 55 23 3e 5b 84 31 be 90 0b c5 be c3 f4 d5 be
       0.15950717 -0.17335646 -0.38485384 -0.417883
000240 67 7f b2 be 3a 36 d5 3e fd 37 37 bd f1 44 be bc
       -0.34862825 0.41642934 -0.04473113 -0.023226233
000250 9c 84 cd bb 47 c2 ef 3e a8 fb 23 be 97 e6 94 be
       -0.006271912 0.4682791 -0.16013968 -0.29082176
000260 00 9c 6d be d5 ae 7d be 00 39 08 bf 73 b0 44 3e
       -0.2320404 -0.24773724 -0.53211975 0.19207935
000270 43 cf 9e be 7a 31 bb 3e 10 35 00 3e e9 85 58 3e
       -0.31017503 0.36561185 0.12520242 0.21144833
000280 b8 52 82 3e e6 ef d5 be c5 1b 30 3e 40 42 89 3e
       0.25453734 -0.4178459 0.17198093 0.26808357
000290 13 70 ae be d7 6d 78 be 79 e6 99 3e d3 84 d6 bd
       -0.3406988 -0.2426065 0.3005865 -0.10474553
0002a0 7b ba 83 3e 34 c5 02 3e 34 f4 00 bf 6f 59 98 be
       0.2572821 0.1277054 -0.50372624 -0.29755732
0002b0 e7 16 29 3e 66 00 12 bd 72 fc 09 be 35 f2 01 bf
       0.16512643 -0.03564491 -0.13475206 -0.50760204
0002c0 5c 52 b2 bd b5 eb 9f 3e d2 0f 40 be 2d 3d f4 be
       -0.08707115 0.31234518 -0.18756035 -0.47702923
0002d0 ee b0 84 3e db 71 2e be 2e 44 47 be 1f 5d 01 3f
       0.25916237 -0.1703562 -0.19459602 0.50532717
0002e0 69 01 59 3d 11 2c fb 3e 15 a8 b0 be 6f dd cc 3e
       0.05297986 0.49057057 -0.34503236 0.4001269
0002f0 56 5a 97 3e b2 8f e6 bd 4f 2f 9b 3c 48 26 98 3e
       0.29561108 -0.112578765 0.018943457 0.29716706
000300 54 2c 43 be ed 1b 38 be 96 93 b7 bd 36 ed 58 3e
       -0.19059879 -0.17979403 -0.08963697 0.21184239
000310 df 6e 7d be de 4d 8e 3e f5 94 ec 3e fb 17 a1 3e
       -0.24749325 0.27793783 0.46207395 0.31463608
000320 3e 84 f4 3c cb 48 87 be 2a 7b 18 3e 53 3e 2c 3d
       0.029848214 -0.26422724 0.14890733 0.042051625
000330 6e 04 2c 3e 3d c7 81 3e 95 46 2c be 2f 71 bb be
       0.16798565 0.2534732 -0.168238 -0.3660979
000340 29 47 c6 bc 3d 43 c8 be 31 e1 7b 3e c3 03 84 3e
       -0.024203854 -0.391138 0.24597622 0.2578412
000350 49 d0 84 be c6 ac 9f be 59 55 da 3e 5f 9a 04 be
       -0.2594016 -0.31186503 0.4264324 -0.12949513
000360 27 79 e2 be 6a 01 39 be 6b fe c9 be 02 c5 ab 3d
       -0.44233057 -0.18066946 -0.39451918 0.08387186
000370 d2 29 45 3d 1e 47 e0 3c ed de cd be 90 cc e8 bb
       0.048135586 0.027377661 -0.4020914 -0.007104464
000380 10 68 cf 3b cc 79 e4 3d 1a 1b 0e bf 8d 4e cb be
       0.006329544 0.111560434 -0.55510104 -0.39708367
000390 1f 6b 1f bd ff 11 08 bf e9 ae 2f be 30 cb ea be
       -0.038920518 -0.5315246 -0.17156567 -0.45858145
0003a0 6e f7 6e be e1 fe a5 be 19 cf d1 3e 03 17 04 3f
       -0.23336574 -0.3242102 0.40978315 0.51597613
0003b0 d0 94 6f 3e d7 89 84 3e 2c 55 0d be 24 7d 63 3e
       0.23396611 0.25886413 -0.13802022 0.22215706
0003c0 8e 27 84 3e 7a 4c c9 be 44 8d 9d bd bf ba e6 be
       0.25811428 -0.3931616 -0.0769296 -0.4506435
0003d0 90 44 c0 3e 45 34 b2 3e ff 63 d4 3e d6 8f c0 bd
       0.3755231 0.34805503 0.4148254 -0.094024345
0003e0 f0 20 70 3c f8 9d 4e be c4 df 5d 3e 6d 1d f1 be
       0.01465629 -0.20177448 0.21667391 -0.47092763
0003f0 80 58 c7 be 1f db 34 3e 27 f3 98 3e f5 98 2d 3d
       -0.38934708 0.17661713 0.2987301 0.0423822

dec.lin1.bias f4 [64]
000000 95 21 94 3d b8 ea 0f be c3 09 b3 3d 4c 19 16 be
       0.07232968 -0.14054382 0.08742096 -0.14658087
000010 c3 a7 ef 3d 4c 09 50 3d a9 85 93 bd c5 75 37 3d
       0.1170192 0.050790116 -0.07203228 0.04479005
000020 1f 84 30 3e c3 ac c7 3d c7 42 25 3e 3c 24 c1 3d
       0.172379 0.097497486 0.16138755 0.09430739
000030 83 98 d4 bc d7 b8 bb 3c 64 b5 13 3e 8b 55 c0 bd
       -0.02595163 0.022915287 0.14424664 -0.09391316
000040 74 31 c7 3d af 57 01 bc 7a da a0 bd 10 de d0 3c
       0.09726229 -0.007894441 -0.07854171 0.025496513
000050 92 f3 5a be 33 cc e7 bd bb 2c db bc 54 db 17 be
       -0.21381977 -0.11318245 -0.026754728 -0.14829761
000060 46 76 82 3d f4 b3 3d bd be b7 90 3e 04 0a 30 3d
       0.06370215 -0.046314195 0.28265184 0.0429783
000070 f6 54 02 3e 04 2b 3f bd 80 21 2b 3c 16 cf e0 bb
       0.12727723 -0.046671882 0.010444999 -0.006860624
000080 c9 3a 06 3d 7a 7b ba 3d ee b8 13 3d de 87 f3 b9
       0.032770906 0.091055825 0.036065035 -0.000464498
000090 e8 e7 a7 bc 31 52 ec 3d b1 77 6a 3d 2a 04 c2 bd
       -0.020496324 0.11539114 0.057243053 -0.094734505
0000a0 f9 11 de 3d 11 c5 2b 3e 4e 81 af 3d e4 2a f2 bc
       0.10843272 0.16774394 0.08569585 -0.029561467
0000b0 5e f9 40 bd 3b 1b af 3d 1b eb 82 3d c9 20 8b 3d
       -0.047112815 0.08550116 0.06392499 0.06793363
0000c0 0d fa fa 3d c3 70 77 3c 77 60 b4 3c 0b 48 00 3d
       0.12254725 0.015102568 0.022018654 0.031318706
0000d0 da f6 9d bd 6e 74 ca bd 47 33 c4 bd 35 36 ed 3d
       -0.07713099 -0.098854885 -0.09580093 0.11582605
0000e0 81 78 3b bc 50 42 55 3d 3f d8 8b 3d 70 23 b3 3c
       -0.011442305 0.052065194 0.06828355 0.021867484
0000f0 ea 69 11 be 15 04 c2 3c e0 37 e7 3d 08 32 e0 3d
       -0.1420056 0.023683587 0.11289954 0.10947043

dec.lin1.weight_v f4 [64, 64]
000000 b9 69 fc bd f6 be 1b bd 6c 9f ec bd b8 2b be bd
       -0.123248525 -0.03802391 -0.11553845 -0.092856824
000010 12 29 09 be e1 14 ba bc 1f 2f db 3d 5e 0f 8a bd
       -0.13394573 -0.022715034 0.10702347 -0.06741212
000020 bc 5c e6 bd 63 aa 56 3c b2 7b 6b 3d b2 ee 29 3d
       -0.112481564 0.013102147 0.057491012 0.041487403
000030 9e 3a e9 3d 6a b5 91 bd 43 6a 5d bd d2 a8 d1 bd
       0.113881335 -0.0711468 -0.054056417 -0.10237278
000040 57 70 b8 bd bf 7c 6f 3d a0 15 0e bd ba 23 2b 3d
       -0.09005802 0.058468577 -0.034688592 0.04178212
000050 7e 0e 07 bc 51 ad ab 3d aa 94 ec 3d 3b 72 35 bd
       -0.008243201 0.08382667 0.11551793 -0.04429839
000060 44 e4 3c ba 47 28 1b bd 4a e4 92 bd b5 12 97 3d
       -0.0007205645 -0.03788021 -0.07172449 0.07376615
000070 77 3c ff bd 9c 50 46 bd 76 43 d7 3c 18 04 93 bd
       -0.12462705 -0.04841672 0.026277285 -0.07178515
000080 d5 36 9e bd c2 fc 70 bd aa 46 1c 3d 0c e1 8a 3c
       -0.07725302 -0.0588348 0.038153328 0.016953014
000090 f6 f4 ea bd c7 6f d8 3d f8 3a 5c 3d ee d8 41 bd
       -0.11472504 0.10568195 0.053767174 -0.04732602
0000a0 50 8a 0d be c0 b2 a1 bd 09 8f 41 3d 3d 78 2c bd
       -0.13822293 -0.07895422 0.04725555 -0.042106856
0000b0 c0 68 9d 3a 1f 9e 3c bd 43 87 98 bd a0 59 28 be
       0.0012009367 -0.046049234 -0.07447674 -0.16440439
0000c0 8c f2 fe bd 1e 6c 7d bd ff ab e5 3d 9b 8f c9 3d
       -0.12448606 -0.061870687 0.11214446 0.09841844
0000d0 c9 30 91 bd 86 77 e9 bc 90 93 d3 3d 9e 96 89 bc
       -0.07089383 -0.028499376 0.1033088 -0.016795453
0000e0 6e da 35 bd c6 15 a9 3d 50 7e d7 bd 6e ee f5 bd
       -0.044397764 0.08256106 -0.10522139 -0.120083675
0000f0 a0 52 6c 3d 07 47 a4 3d dd 92 89 3d 67 99 e9 3c
       0.057695985 0.0802136 0.06717465 0.02851553
000100 c4 56 f6 3d 79 c7 69 3c 00 27 c9 3d 94 ea bf 3d
       0.12028268 0.014268749 0.09821892 0.09370914
000110 b6 8d 17 3e 5b 9f a8 bd b7 6e 3a 3e 63 a1 b1 3c
       0.14800152 -0.0823352 0.18206297 0.0216834
000120 75 12 15 3e 1a f4 88 bd 50 7c ea bd 06 12 d5 bc
       0.14557822 -0.06687184 -0.11449492 -0.02600957
000130 49 5e 79 bc ea 99 93 3c 3c 17 3c 3d 08 1c 83 3d
       -0.015220233 0.018017728 0.045920596 0.06401831
000140 f9 39 4c 3e ea 16 2a 3c 79 c5 b9 3d 13 d9 37 3c
       0.1994399 0.01038144 0.09070868 0.011221188
000150 4d 63 ee 3d 77 c5 2e 3d 26 9b b4 3d d2 91 9c bc
       0.11640034 0.042668786 0.08818655 -0.019112501
000160 9e a5 d3 bd 49 cc cf 3d 02 e4 80 bc ff d3 0a bd
       -0.10334323 0.10146386 -0.015733723 -0.03389358
000170 ee 0b da 3c 86 f8 59 bd 6a ac bf bd 52 b3 b3 3d
       0.026617017 -0.053215526 -0.09359057 0.08774437
000180 4a e5 84 bb d2 7a 02 3d ca 46 db 3d ff c4 00 3e
       -0.0040556537 0.03185541 0.10706861 0.12575148
000190 80 f6 23 3d 2b d2 d7 3c fc 6a 86 bb ce 41 d4 bd
       0.040030003 0.026345333 -0.004102109 -0.10364114
0001a0 a1 ea 19 bb 29 66 1a 3c ff 93 89 3d f8 d2 09 3d
       -0.0023485797 0.009423771 0.06717681 0.03364846
0001b0 3a 52 8e 3d 8e 58 09 3d b8 63 34 3d 38 f3 6c 3d
       0.06949277 0.033531718 0.04404041 0.05784914
0001c0 2d a2 00 3c 81 41 31 3e a6 0e 3c 3e cd ed 02 3d
       0.007851166 0.17310144 0.18364963 0.031965066
0001d0 4a d6 6c 3d de c5 12 3e 8b 06 f9 3d 6f 7b db 3d
       0.05782155 0.14333293 0.12159451 0.107169025
0001e0 b7 80 25 3e fc f6 26 be 2e 37 13 be 09 35 82 3d
       0.16162382 -0.16305155 -0.14376518 0.06357772
0001f0 9d ac f0 bd 85 3f 2e 3e ea 0b 53 3d 5e b5 17 3e
       -0.11751673 0.17016418 0.051525034 0.1481528
000200 31 80 0c be 39 98 b0 bd cf 26 09 be a8 27 61 bd
       -0.13720776 -0.08622784 -0.1339371 -0.05496946
000210 7b 04 e3 3c 50 6f 5e 3e 50 58 ee bd 52 a7 86 bd
       0.027712097 0.2172215 -0.11637938 -0.065748826
000220 04 a6 e7 3c 8e 19 a2 3d 2b 32 ef 3c 09 66 6a bc
       0.028277405 0.079150304 0.029198727 -0.014306554
000230 da f9 c7 bd 28 6b b2 bd 30 95 50 bc 55 30 fc 32
       -0.09764452 -0.08711845 -0.012730882 2.935864e-08
000240 42 25 86 0e 70 cd c6 3d 01 9e 51 bd 5e 73 87 bd
       3.306943e-30 0.09707153 -0.051176075 -0.066138014
000250 a2 15 28 3d 2a 32 56 bd 56 4a 0e be f4 34 41 3c
       0.041036256 -0.052293934 -0.13895544 0.01179241
000260 53 c4 b3 bc 2e 68 9d 3c a5 97 24 bd bf c6 87 3d
       -0.0219442 0.019214716 -0.040183682 0.06629705
000270 42 d7 6d 3d 72 d5 ba bc 60 e6 20 bd 38 2c c9 3c
       0.058066614 -0.022806857 -0.039282203 0.024557218
000280 0f 83 ae bd 21 c3 38 bd ee 42 7c 3d 28 b3 8c bd
       -0.08521091 -0.045107964 0.061587267 -0.06870109
000290 cd 27 40 bc 79 84 be 3c ce 55 11 be 6b c1 28 bd
       -0.011728239 0.023256527 -0.14192888 -0.041200083
0002a0 1e d2 19 bd 4d aa ee 39 7b db ab 3d 9e cf e9 3c
       -0.0375539 0.0004552178 0.08391472 0.028541382
0002b0 dd 8a 09 3e 01 be d8 bd a6 99 f3 bd 62 ab b5 bd
       0.13431878 -0.10583115 -0.118945405 -0.08870579
0002c0 44 4d b7 3d 8a bf 48 bd 3b fb 1e 3c 36 d4 e8 bc
       0.08950284 -0.04901079 0.009703453 -0.028421503
0002d0 82 31 c6 3d bc 65 0f be 03 90 88 3d 71 67 2a be
       0.096774116 -0.14003652 0.06668093 -0.16641022
0002e0 c0 5d 8c 3c cc 07 4c 3d 4b 72 dd 3d c2 fc a3 bd
       0.017134547 0.049812123 0.10812815 -0.08007194
0002f0 fb 3c 02 be fe 77 5d 3d 69 95 23 3d 36 bd 2f be
       -0.12718575 0.05406951 0.03993741 -0.17162022
000300 b6 13 00 00 33 80 e9 3d 6a a8 01 9f 99 d8 10 3e
       7.071e-42 0.11401405 -2.745612e-20 0.14145125
000310 9c 20 94 3e 90 b6 9c bd 0d c8 cc 07 b4 64 84 3c
       0.2893113 -0.076520085 3.0812088e-34 0.0161613
000320 1c 76 1a 0d 0d a8 a5 3c 97 84 e5 bd 7e 17 e7 bd
       4.7597083e-31 0.020221734 -0.1120693 -0.11283778
000330 ee 4f 91 bc ac e0 09 3e e9 4b 57 bd 88 e2 bc 3d
       -0.017738309 0.13464612 -0.052562628 0.09222895
000340 24 3b 65 3e 8d 4b 72 bd e1 5d 0d bd 92 dd c9 3d
       0.22385842 -0.059154082 -0.034513358 0.09856714
000350 7b ab a4 3d dd dc 3d bc 34 26 f1 bb c3 e2 62 be
       0.0804052 -0.011588302 -0.0073592905 -0.22156815
000360 4a f1 c9 bd cd 74 bf 3b bf cd 1a 82 c2 f6 e0 bb
       -0.09860475 0.005842781 -1.1373179e-37 -0.0068653533
000370 65 4f d0 3b 7d 9f b7 3d 25 79 43 bd 2e 61 00 00
       0.006357121 0.08965967 -0.047722954 3.4862e-41
000380 57 14 b1 3d c7 31 22 3d 68 78 00 00 73 8f d7 3d
       0.08646458 0.039598253 4.3194e-41 0.10525408
000390 13 b4 10 3b 94 2a de bd 74 0b 94 3d 8b dc 0b be
       0.002207999 -0.10847965 0.07228747 -0.13658349
0003a0 26 b7 fe bd ab e2 2e 18 91 06 01 3d 90 42 f6 bc
       -0.124372765 2.260341e-24 0.031500403 -0.030061036
0003b0 da f4 bd 3d bc d0 c5 bb e8 77 9d 3d 4c f8 ef bc
       0.09275217 -0.006036846 0.07688886 -0.029293202
0003c0 65 6c b2 bd 1c 35 00 80 ec 01 00 00 05 b6 9b 3c
       -0.08712081 -1.9052e-41 6.9e-43 0.019007692
0003d0 c1 85 53 3c 0c d9 2e bc 7c e6 2b 3e b2 e4 7e 3d
       0.012910307 -0.010671865 0.16787142 0.06222982
0003e0 6b 6a 27 3e 8b b5 0c be 4a 45 fb bd 62 8b bb bd
       0.16349189 -0.13741128 -0.12269075 -0.091574445
0003f0 37 64 51 bc fd 54 ad bd 66 91 09 bd e4 0d 00 00
       -0.012780241 -0.08463476 -0.03358593 4.983e-42

dec.lin2.bias f4 [64]
000000 76 1a 37 3c a7 35 77 3d 10 87 db bd 28 46 eb bc
       0.011175742 0.0603539 -0.107191205 -0.028719977
000010 20 c7 a6 bd 79 28 04 3d bc 61 ab bc ab ad 8a 3c
       -0.08143449 0.03226516 -0.020920627 0.016928514
000020 5d 7e 97 be 6c 5e 64 bb 0a 7d d4 3d 01 95 ad bc
       -0.29588595 -0.003484632 0.10375412 -0.021189215
000030 0a bd 78 bd 52 e7 2b bd 7c a8 c6 bd bf 62 09 3d
       -0.060727157 -0.04196865 -0.097001046 0.033541437
000040 9d 31 fd 3d 97 34 82 3d 63 20 d2 bd c2 9d f3 bd
       0.123629786 0.06357687 -0.102600835 -0.11895324
000050 ef 3d b0 bd e2 92 be bd 83 b1 be bd dc af 27 bc
       -0.08605563 -0.093053594 -0.093112014 -0.010234799
000060 2b ba cb 3d 93 63 81 3d 7c 3d f8 3b 84 8a 92 3d
       0.09947618 0.063178204 0.007575689 0.07155326
000070 76 ac 8f bd 7f 7f 2a bd 90 52 2e bd 0a 66 06 3d
       -0.07015316 -0.041625496 -0.042559206 0.032812156
000080 93 ec c0 bc c8 be 13 be 7f a0 be 3d b6 11 c6 bd
       -0.023550307 -0.14428246 0.09307956 -0.09671347
000090 3b 8d b1 bd 8f 48 79 3d a2 84 f7 bd af df 94 bd
       -0.08669516 0.060860213 -0.120858446 -0.07269227
0000a0 23 62 f8 3d 41 96 99 bd 1f ad 7e 3c ae ec b7 bd
       0.12128093 -0.07499362 0.015544205 -0.0898069
0000b0 2a 15 a5 be 1d a7 17 bc 9d b5 8d 3d 9e d3 c6 3d
       -0.3224271 -0.0092561515 0.069194056 0.097083315
0000c0 48 10 33 3d b3 3d 7f 3d eb d3 08 3d d2 7e a7 bc
       0.0437167 0.0623147 0.033405226 -0.020446215
0000d0 c4 3b c4 bb b3 51 da 3c a0 4b ab bd 80 9e 02 bc
       -0.00598857 0.026650285 -0.08364034 -0.00797236
0000e0 63 15 58 bd c5 87 7f 3d 1b 5c 94 bd 46 58 a3 3d
       -0.05275477 0.06238534 -0.0724413 0.07975821
0000f0 13 ef 85 bd 19 58 11 3b 37 b9 b3 3c 7a 14 a8 3d
       -0.065397404 0.0022177754 0.021938903 0.082070306

dec.lin2.weight_v f4 [64, 64]
000000 d5 c6 78 bd a1 61 af 3e 5d 1f dd 3d f3 fb fc 3d
       -0.060736496 0.34254172 0.10796998 0.12352743
000010 49 a7 96 bd 36 46 d9 bc 7e 17 84 bd 3e 7a a7 3d
       -0.07356126 -0.026522737 -0.06449793 0.08177613
000020 c3 a9 4c bd 0a ba e6 bc d5 17 8e 3d 96 54 b4 bb
       -0.049966585 -0.028164882 0.06938139 -0.0055032475
000030 40 c6 39 bb 53 f7 57 bc 15 1d c0 bd 01 53 d9 3d
       -0.0028346926 -0.013181525 -0.09380547 0.10611535
000040 d7 af a3 bd c5 47 72 3b 08 6c f1 bd 6b 28 e5 bb
       -0.07992523 0.0036969048 -0.117881835 -0.0069933436
000050 6e 73 1b 3e 37 cb b1 3c 89 d7 f8 3c 17 28 bc 3d
       0.15180752 0.021703346 0.030376213 0.09187334
000060 b8 f4 72 3c 17 60 9f bc 5b 1a f2 3c f0 d6 13 bd
       0.014828853 -0.019454999 0.029553583 -0.036093652
000070 29 5f e8 ba df 88 28 3d bb 20 57 bc 8b cf 13 3d
       -0.0017728555 0.041146155 -0.013130362 0.0360866
000080 3d 80 cd 3d e4 64 96 3c f6 85 e5 bd b3 65 4d bd
       0.10034225 0.018358655 -0.11207192 -0.050145816
000090 e9 83 69 bc 51 40 16 3d f0 0b d3 bd 4f 3d 4d bc
       -0.014252641 0.03668243 -0.10305011 -0.012526824
0000a0 ae e6 22 3d 61 09 bc 3d 62 09 4a a3 1f fb b0 3c
       0.039770775 0.091814764 -1.0952429e-17 0.021604119
0000b0 7e 2d e5 bd 59 f2 c8 bc 08 a0 22 3e 19 00 73 3d
       -0.111903176 -0.024529623 0.1588136 0.059326265
0000c0 0d 7e af 3d b1 59 a4 bd 2b 7f 74 3c 98 fc bd bd
       0.08568964 -0.0802492 0.014922897 -0.09276694
0000d0 83 83 95 3d 15 f5 09 be 46 4e 7c bc bf ac 0b be
       0.073004745 -0.13472398 -0.015399521 -0.13640116
0000e0 9f a2 64 3d d4 b5 be bd d3 05 9b 3d 39 7d 9e 3b
       0.05581915 -0.09312025 0.0756947 0.004836705
0000f0 fb 81 c2 bd 8d 03 ee bd 94 b1 30 3e 5c 78 17 3d
       -0.09497448 -0.11621771 0.1725524 0.036980018
000100 4d e7 10 3d d8 f8 22 be 6f 53 52 bd 90 7a 0e bd
       0.035376836 -0.15915239 -0.0513491 -0.034784853
000110 b2 b4 95 bd 9a 7a 86 bd 56 9b f4 bc 4b 58 e5 bd
       -0.073098555 -0.06566353 -0.029859226 -0.11198481
000120 80 43 45 3d 0b 91 e1 3c db 6e b1 bd 32 32 8b bc
       0.048160076 0.027534982 -0.08663722 -0.016991708
000130 c1 5d 64 3d 97 39 da bd 8f 1e 24 3d e4 3a e8 bd
       0.055753473 -0.10655516 0.040068205 -0.113393575
000140 b6 df 83 bd a7 63 8c 3b 08 96 b8 3d d3 52 a6 bd
       -0.06439154 0.0042843404 0.09012991 -0.08121266
000150 33 07 28 be 57 b1 9c 3c 6f 30 a1 bd 98 1a 4e 3d
       -0.16408996 0.019127531 -0.07870566 0.05031833
000160 d6 d4 84 3d e7 ff f9 3d bd 0d 8f 3d e3 1d fa bb
       0.06485908 0.122070126 0.06985042 -0.0076329573
000170 f9 3d a6 3b 3a c1 80 3d 77 d5 ad 3c dc ef 86 3c
       0.0050733057 0.06286855 0.021219952 0.016471796
000180 bf 52 54 3c 60 de 1c be 31 fa 3c bd 03 98 d8 3b
       0.012959181 -0.15319204 -0.04613704 0.006609918
000190 a9 ed b2 a1 09 42 13 3e 8e 69 d3 bd 7b 87 0c be
       -1.2124657e-18 0.14380659 -0.10322867 -0.13723557
0001a0 b1 7c 08 bc 5a dd 65 3d 63 7f 1f bd 03 80 6c bd
       -0.00833051 0.0561193 -0.038939845 -0.05773927
0001b0 af a6 b4 3d 4f b9 ae bd 75 e2 72 bd 8c 79 a0 ba
       0.08820855 -0.085314386 -0.059297998 -0.0012243255
0001c0 0e dc 88 3d 38 a4 0a bc bd 20 76 bd 41 cf 8d bb
       0.06682597 -0.008462004 -0.060089815 -0.004327685
0001d0 15 04 f7 3d bc 16 a0 3d 93 47 13 bd 97 10 f3 bd
       0.120613255 0.07816836 -0.03595693 -0.11868399
0001e0 99 99 06 3e 4f 0c de bd 52 1d c3 bd c0 f7 5b bd
       0.1314453 -0.108421914 -0.09527077 -0.05370307
0001f0 11 29 07 bd 9a 01 a8 bb 7a 1c 9a 3d 86 94 3b bd
       -0.03299815 -0.005127144 0.07524963 -0.04579594
000200 d4 aa 54 bd 20 95 5d 3c e6 6e f0 bd 44 36 4c bd
       -0.051920727 0.013524324 -0.11739902 -0.04985644
000210 88 87 38 bd a4 7e 73 bd 20 07 99 bc 8e fa e3 bd
       -0.045051128 -0.059446946 -0.018680155 -0.11131774
000220 3c 3d 45 3d 70 35 25 bc 96 83 fb bd 86 fa 94 bd
       0.0481541 -0.010083541 -0.122809574 -0.07274346
000230 de 68 fc bd 02 bc 8a bd 00 cf cc 3c cc d0 bc bd
       -0.12324689 -0.06774141 0.025001049 -0.09219512
000240 10 5a ef 3c 9c 3b 4e bd c8 93 a5 3c 44 31 4a 3d
       0.02921775 -0.050349817 0.02021207 0.04936339
000250 c8 f0 47 bd 70 0b db 3c 80 7c a3 bc 88 aa f7 3d
       -0.04881361 0.026738852 -0.019956827 0.12093073
000260 b6 a1 97 bd 64 62 31 3d b0 82 cd 3c a4 14 14 3d
       -0.07403891 0.043306723 0.02508673 0.036152497
000270 ac 73 f0 bd d2 c7 d8 bd 98 be 92 3d 40 b0 0b 3b
       -0.11740813 -0.10584988 0.07165259 0.002131477
000280 80 9b 10 bd 20 18 be bb b0 f3 d6 bc fc 0c c0 3d
       -0.035304546 -0.005801216 -0.026239246 0.093774766
000290 00 54 4c 3b 8c a3 c6 3d 38 70 6a bd 80 5b 6b 3b
       0.0031177998 0.09699163 -0.057235926 0.0035912693
0002a0 c8 1f 50 3d 2a 8f fe 3d 94 ff c6 bd c0 5d 51 3c
       0.05081156 0.1242965 -0.097167164 0.012778699
0002b0 68 eb 35 bd 2e e6 a9 bd 58 25 a6 bc b0 2d 38 bc
       -0.044413954 -0.082958564 -0.020281479 -0.0112413615
0002c0 1e 68 99 bd 48 f2 9c bd fc fb 7e 3d 98 46 b9 3d
       -0.07490562 -0.07663399 0.06225203 0.09046668
0002d0 72 1b be bd 48 34 6d 3d 92 c2 ad bd 78 75 a2 bd
       -0.092825785 0.057911187 -0.08484377 -0.07932562
0002e0 9c a7 7e 3d 20 7a 60 3d fa 7e f0 3d 98 6d 7f bd
       0.062171564 0.054803967 0.11742969 -0.062360376
0002f0 d8 eb e3 bc d0 ec 36 bc a0 76 df 3d f2 53 96 bd
       -0.02782242 -0.011164859 0.10911298 -0.0734023
000300 0d 5f be 3d 36 a7 89 bd 4f 0e a6 3d cb ea e7 3c
       0.09295473 -0.06721346 0.08108198 0.0283102
000310 26 4a 8c 3c 96 93 db 3b 01 90 0b be 04 78 a1 3d
       0.0171252 0.006700943 -0.13629152 0.07884219
000320 ee 02 43 3d f0 e7 40 3d 76 c1 04 be 18 f0 82 3d
       0.047610216 0.047096193 -0.12964424 0.063934505
000330 9e 7c 08 3d 69 c1 8c bd 6d dd 1d bd bf 63 a8 bc
       0.03332197 -0.068728276 -0.038541246 -0.020555375
000340 28 3c c5 bd c4 43 83 3d bf 7a 32 bd b1 e8 93 3d
       -0.096306145 0.0640941 -0.04357409 0.07222117
000350 c4 25 5c bd ef f1 b6 bd 1e 64 83 3c c2 28 a2 bd
       -0.053746954 -0.08932864 0.01603895 -0.0791793
000360 95 9a 6b 3d 1a 08 fa bd 63 c3 c2 bd bd af 83 3d
       0.057520468 -0.122085765 -0.09509923 0.06430004
000370 14 c3 a1 bd fa 53 68 bd f2 1b df 3d cc 89 d1 3d
       -0.07898536 -0.05672071 0.10894002 0.10231361
000380 53 f6 7d bd 37 39 f8 3d 76 c3 b2 3d 03 31 ec bb
       -0.06200249 0.12120288 0.087286875 -0.007207991
000390 de b0 fb 3c fc b7 93 3d 03 f8 aa 3d 6d f0 8c 3d
       0.030723985 0.072128266 0.08348086 0.06881795
0003a0 bb ab 38 bd 44 d7 1b bd af 06 82 bd 10 e1 ed bc
       -0.04508565 -0.03804709 -0.06348931 -0.029037982
0003b0 7f d0 68 bc da 30 c5 bc df ca ff bd 72 b4 6d 3d
       -0.014209866 -0.024071146 -0.124898665 0.058033414
0003c0 f3 d0 a3 bc 44 af b8 3d cc 61 97 3d 63 db dd 3d
       -0.019997096 0.09017804 0.073917 0.1083286
0003d0 ed da d7 bd 92 cf c9 bd 38 7e d5 3d 38 e0 c3 bd
       -0.10539804 -0.09854044 0.10424465 -0.09564251
0003e0 9f fa ab bd e9 aa 26 3b c5 8c 0a 3d f0 ae a8 3d
       -0.083974116 0.002543146 0.033825655 0.08236492
0003f0 85 b7 68 bd f7 2f 05 be 4e b3 d5 3d b4 21 87 3d
       -0.056815643 -0.13006578 0.1043459 0.06598225

dec.lin3.weight_v f4 [1, 64]
000000 77 25 aa bd 1e 80 84 3d dc d3 a7 3b a5 c5 a1 bb
       -0.08307927 0.06469749 0.005121691 -0.004936891
000010 71 5c 24 bc 46 00 fd 3c ed a4 c8 3c ce 1d f5 bd
       -0.010031805 0.03088392 0.024492705 -0.119685754
000020 a5 42 ae be de d9 97 3c 3f 54 c9 a9 25 16 c8 3d
       -0.3403522 0.018536504 -8.9408075e-14 0.09769849
000030 0d 71 ca bd f4 05 9d 39 a1 67 ac 3c 78 2a 0c be
       -0.09884844 0.0002994981 0.021045508 -0.13688076
000040 80 da 56 3d 31 d6 88 3d d1 7d 4f bc cb 4b 8a 39
       0.05245447 0.06681479 -0.012664274 0.0002637788
000050 27 1c c0 3d ac aa 05 3b 20 75 5a 3d 0d 54 50 be
       0.0938037 0.0020395918 0.053334355 -0.20344563
000060 87 9c 80 3d e1 60 d3 bd 64 c8 9d 3d 37 41 1a 3d
       0.06279855 -0.103212126 0.07704237 0.03765985
000070 f4 a5 6f 38 79 62 83 bb 9a ec be bc 65 15 82 bd
       5.7136596e-05 -0.0040095416 -0.02330618 -0.06351737
000080 72 5f b9 39 9e 05 8d be e4 24 0e 3c c7 b9 87 3d
       0.00035357062 -0.27543348 0.008675788 0.06627231
000090 0d 89 58 bd 05 1b d6 bd 26 98 5f bb 80 9a ac bd
       -0.052865077 -0.10454372 -0.0034117787 -0.08427906
0000a0 2a 70 89 3d 4e 28 e4 3d cd 23 09 3d 8c 40 d0 3d
       0.06710847 0.111405 0.033481408 0.10168561
0000b0 e3 9f 82 be 44 17 c0 3d 49 c3 ef bd 1d ab 1a bc
       -0.2551261 0.093794376 -0.117071696 -0.009440211
0000c0 ef 66 9e 3d fd 7b eb 3d 37 02 23 3d ff a5 12 bd
       0.07734477 0.11498258 0.039797034 -0.035802837
0000d0 f9 2e 72 bd 7e d6 b9 3d ad a0 11 be 44 a6 7f bd
       -0.059126828 0.09074114 -0.14221449 -0.062414423
0000e0 a6 92 36 3d 3a f3 73 bc ee c4 44 3d a0 3a 51 bd
       0.04457345 -0.014889533 0.04803937 -0.0510813
0000f0 d7 a6 86 be 93 fe ae 3d 81 1e 86 3d 3c 71 f7 bd
       -0.26299164 0.0854465 0.06548787 -0.120821446

exp_avg f4 [64]
000000 f8 47 0b 39 89 9a 62 38 22 c4 19 39 14 0b 84 38
       0.00013282883 5.402652e-05 0.00014664282 6.296314e-05
000010 9e cf 91 39 89 07 3b b9 fe a0 e9 39 7d 01 8b 36
       0.00027811242 -0.00017836517 0.00044561172 4.142696e-06
000020 81 c8 4f 39 97 a9 07 b8 fc 9e 66 b8 df 14 8f b7
       0.00019815752 -3.234445e-05 -5.498434e-05 -1.7056647e-05
000030 44 2f 59 37 04 11 f4 38 3a 11 a5 38 55 d1 b2 b8
       1.2945213e-05 0.00011637996 7.871022e-05 -8.5266925e-05
000040 ce 18 8e 39 62 dd 04 b9 58 d1 48 b8 c5 79 4d 37
       0.00027102832 -0.00012670973 -4.7878682e-05 1.2247304e-05
000050 b2 7f 5a 39 a2 a0 48 38 57 e6 fd 38 46 58 62 b8
       0.0002083767 4.7833317e-05 0.00012106884 -5.396481e-05
000060 65 4b 71 b9 69 d1 56 38 53 79 9b b5 66 39 c7 37
       -0.00023011638 5.1216604e-05 -1.158371e-06 2.3749377e-05
000070 16 4d 93 38 b2 ef 1b 39 f8 64 9c 38 a5 a9 e0 38
       7.0238646e-05 0.00014871245 7.4574666e-05 0.00010712751
000080 94 ad 4c 39 33 37 0b 38 ad 6c 0d 39 38 e7 f4 38
       0.00019519619 3.319159e-05 0.00013487293 0.000116778945
000090 ff 13 4b 38 47 fc 18 b9 3a 65 04 39 08 f0 62 b9
       4.8417594e-05 -0.0001458983 0.00012626211 -0.00021642458
0000a0 15 d0 db b8 fb 0b 76 38 c2 73 11 39 ee 1d c3 b7
       -0.00010481492 5.8662128e-05 0.00013871401 -2.3259749e-05
0000b0 9a 21 92 37 79 21 82 38 f0 ba 14 37 e5 bd 9e 37
       1.7420203e-05 6.205118e-05 8.865012e-06 1.8923494e-05
0000c0 48 a2 f8 b8 cd 71 ba 39 54 08 85 39 93 db 46 39
       -0.00011855789 0.00035561473 0.00025373942 0.00018964549
0000d0 34 5d 09 b8 63 8a 54 39 1f 9d 6e 39 dc 35 34 39
       -3.2750148e-05 0.00020269449 0.00022755981 0.00017186202
0000e0 dc 05 86 38 68 0b b3 b9 73 d8 21 b9 64 db e8 37
       6.390709e-05 -0.0003415004 -0.0001543479 2.7758717e-05
0000f0 5c 71 1b 38 c1 ec 7e 38 21 c6 21 38 60 84 72 39
       3.7060454e-05 6.0778813e-05 3.8569913e-05 0.00023128232

exp_avg_sq f4 [64]
000000 87 f7 6b 35 c2 3a b6 34 72 d3 14 35 72 2c 03 35
       8.790452e-07 3.3942894e-07 5.544199e-07 4.886598e-07
000010 8c 26 76 36 20 a1 c5 35 02 f8 7f 36 14 6f 81 34
       3.6679294e-06 1.4724537e-06 3.814232e-06 2.4108942e-07
000020 b3 9a 1a 35 e6 b1 e7 33 45 bc f2 35 9f fa 97 35
       5.759459e-07 1.0789135e-07 1.8085199e-06 1.1323317e-06
000030 95 5e fa 33 0a 72 74 34 56 26 1a 35 97 8e 9c 35
       1.16587366e-07 2.2765758e-07 5.7425257e-07 1.1664405e-06
000040 e7 7c 46 36 a0 38 38 34 60 e1 c9 34 de 74 d1 34
       2.9577002e-06 1.7156935e-07 3.760315e-07 3.9014316e-07
000050 65 f9 86 35 b5 83 c2 33 c3 e2 aa 34 46 b6 7c 35
       1.0056361e-06 9.057786e-08 3.1829958e-07 9.414256e-07
000060 c7 e3 86 35 68 e4 c6 34 8a 9f d4 34 09 3f 57 35
       1.005007e-06 3.704656e-07 3.9604157e-07 8.018547e-07
000070 c0 bd be 34 10 38 50 35 53 f1 35 35 6c 6d 93 34
       3.552832e-07 7.756762e-07 6.777893e-07 2.74605e-07
000080 6d 8c 58 35 6b 37 f7 33 30 ad 33 35 ee ea 2e 35
       8.0670617e-07 1.1511914e-07 6.693472e-07 6.516192e-07
000090 b3 af d3 33 5c ce 50 35 c6 76 0c 35 d1 e9 91 35
       9.857413e-08 7.778633e-07 5.23269e-07 1.0871391e-06
0000a0 40 ae 6d 35 d9 24 3e 34 c1 c7 91 35 a4 7f bd 34
       8.854295e-07 1.7708534e-07 1.0861478e-06 3.5296864e-07
0000b0 18 32 8d 35 09 76 b9 33 e6 3d 87 35 57 f3 a4 34
       1.0519898e-06 8.636204e-08 1.0076299e-06 3.0724433e-07
0000c0 a4 d6 90 34 94 30 1f 36 d9 87 b7 35 fa 8b fd 34
       2.6978262e-07 2.3721122e-06 1.3674099e-06 4.722677e-07
0000d0 f8 93 b5 34 eb cd 52 35 21 2b 1b 36 c3 8b 34 35
       3.382154e-07 7.8530746e-07 2.3121904e-06 6.7258605e-07
0000e0 b6 70 21 36 f4 29 3b 36 b4 81 a9 35 48 5f 64 35
       2.4056476e-06 2.7889591e-06 1.262923e-06 8.507527e-07
0000f0 7c f9 e5 35 40 7f 8b 35 4b 77 ad 34 fe b8 7c 35
       1.7134439e-06 1.0393342e-06 3.2310558e-07 9.4146515e-07

exp_avg f4 [64, 4]
000000 e2 58 5f 37 e1 dd 33 b8 76 c4 50 38 f5 e7 b7 b8
       1.331253e-05 -4.2883566e-05 4.9774033e-05 -8.769325e-05
000010 af 20 58 b8 a0 fe d4 38 bb 66 e5 b6 05 9a bb b7
       -5.1528852e-05 0.00010156375 -6.836691e-06 -2.2363858e-05
000020 da 39 17 38 66 25 59 38 24 ae 2a 39 e1 b0 d4 b8
       3.6055084e-05 5.177166e-05 0.00016277336 -0.00010141894
000030 76 bf 8b b8 19 5a d6 b8 fc ad 20 b8 f1 8d 4c 38
       -6.663699e-05 -0.00010221097 -3.830901e-05 4.8769583e-05
000040 09 a9 d6 b8 53 2f 2e 39 80 b6 25 b9 31 91 ad b8
       -0.000102358004 0.00016611563 -0.00015803613 -8.276327e-05
000050 24 58 d1 38 19 15 a1 38 34 b5 2b b7 e8 78 14 39
       9.982314e-05 7.681008e-05 -1.0234584e-05 0.00014159421
000060 2c 54 9c 39 51 9e fa b8 f3 f1 1b 39 9c f0 ad b9
       0.00029817352 -0.00011950418 0.00014872085 -0.000331764
000070 af 69 c8 b7 e2 52 28 b7 2b 1f 66 38 f9 63 a2 b8
       -2.389107e-05 -1.0032878e-05 5.48653e-05 -7.743383e-05
000080 4a c9 28 39 6d 53 db 38 75 b2 18 39 be 9f 85 b8
       0.00016096715 0.00010458273 0.0001456233 -6.3716885e-05
000090 74 e4 51 b7 9c 52 fd 36 1d 19 f4 b8 0a 56 82 b8
       -1.2510562e-05 7.5496046e-06 -0.000116395044 -6.214909e-05
0000a0 6c f7 3c 38 b6 fe 49 39 44 0a 0b b9 1d dd 77 39
       4.5053122e-05 0.00019263741 -0.00013259897 0.00023638127
0000b0 71 c7 6d 38 77 ab a6 38 56 b1 b9 b7 cc 53 18 38
       5.6690948e-05 7.947435e-05 -2.2136297e-05 3.6317666e-05
0000c0 26 1e c9 34 db 0f 9e 32 28 ed f2 b7 c6 a8 2d 34
       3.7461103e-07 1.8400831e-08 -2.8959083e-05 1.617328e-07
0000d0 81 ac 6b 38 96 13 2b b7 f5 f7 4e b8 49 88 97 36
       5.6189023e-05 -1.01969545e-05 -4.9345155e-05 4.5160164e-06
0000e0 94 0c dc b8 74 42 84 b8 92 d1 df 38 fd 9c ec 37
       -0.0001049276 -6.306628e-05 0.00010672504 2.8206496e-05
0000f0 78 97 2b b9 ab 1f 85 b8 2b 70 4c 38 5a de e2 b7
       -0.00016364257 -6.347833e-05 4.8741855e-05 -2.704484e-05
000100 65 01 24 38 51 8b 4e 39 0e 13 31 b9 c7 02 4a b8
       3.9101946e-05 0.0001969759 -0.00016887134 -4.816314e-05
000110 e6 a0 83 b8 aa 31 8e b7 17 53 7c 37 ee e2 b4 38
       -6.2765364e-05 -1.6950846e-05 1.5039716e-05 8.625338e-05
000120 c3 9e 48 b8 78 d5 0a b9 1e fe af 39 e4 df 54 b7
       -4.7831574e-05 -0.00013240229 0.00033567933 -1.2688313e-05
000130 04 90 31 b9 ed e1 89 b9 25 8f 48 b9 02 6d b6 38
       -0.00016933685 -0.00026299004 -0.00019126812 8.6987406e-05
000140 fb 5e 45 b9 04 5d 02 3a 24 cc ac 39 df 19 af b9
       -0.00018822767 0.0004972967 0.00032958493 -0.00033397877
000150 5f ad 07 38 13 a8 5e 38 d3 1a 52 b6 0b fc 10 b7
       3.2347973e-05 5.3085456e-05 -3.1308052e-06 -8.641752e-06
000160 ec 45 83 39 cf c6 15 b9 9d 6b 1e 38 5f 4f 1e b9
       0.00025038363 -0.0001428381 3.7770358e-05 -0.00015097622
000170 cd f2 3f b8 a8 8e 89 b8 58 47 be 37 79 a1 26 38
       -4.5764074e-05 -6.559241e-05 2.2682987e-05 3.9727867e-05
000180 f8 4b a0 b7 d2 19 a6 b8 1c 00 4b b9 1a c5 9d 38
       -1.9108862e-05 -7.920306e-05 -0.0001935963 7.5230564e-05
000190 ed 1c a5 b8 99 d2 ac b8 38 1e da 37 01 11 09 b7
       -7.873201e-05 -8.240826e-05 2.6001697e-05 -8.169795e-06
0001a0 ed b1 3f b8 d9 5c 99 b8 b9 f4 5e 37 76 d9 81 38
       -4.5703655e-05 -7.312903e-05 1.328921e-05 6.1917046e-05
0001b0 87 d5 2d 39 31 74 14 39 4f 89 94 38 4d 49 e8 38
       0.00016578111 0.00014157665 7.082766e-05 0.000110762754
0001c0 92 8a ba 38 49 06 ed 38 79 92 88 b8 f8 8e 05 b8
       8.894982e-05 0.00011302211 -6.512268e-05 -3.184282e-05
0001d0 3a 7a d1 39 38 7d 8e 39 0b 83 44 b8 93 48 80 b9
       0.00039954652 0.00027177646 -4.6852085e-05 -0.00024468135
0001e0 83 83 fc b8 fb b8 11 3a 03 d3 a8 39 00 64 50 39
       -0.00012040792 0.0005558875 0.00032200673 0.00019873679
0001f0 12 27 89 38 e2 cc cd 38 22 e0 79 38 ca 97 1c b8
       6.5399465e-05 9.813324e-05 5.9574966e-05 -3.7334663e-05
000200 3d 82 5c 39 b9 5b a3 38 a6 8d 9c b8 f6 1d 16 b7
       0.00021029353 7.78953e-05 -7.465044e-05 -8.9476725e-06
000210 06 76 45 b8 6e 6d 8d b7 bc 08 31 b8 70 ad c5 37
       -4.7078378e-05 -1.6859467e-05 -4.2208223e-05 2.3564993e-05
000220 d8 cd 97 38 aa 76 40 b8 ef 77 0e 38 1e 32 06 b8
       7.2385825e-05 -4.588688e-05 3.3967135e-05 -3.1994765e-05
000230 2a 6e c5 b8 97 2c f3 b8 fb f3 35 39 a5 f9 17 b9
       -9.414212e-05 -0.000115954484 0.00017352395 -0.00014493482
000240 bb fc 56 38 70 bc 2e 38 71 66 1c b7 6a 70 88 36
       5.125695e-05 4.166033e-05 -9.322176e-06 4.0662026e-06
000250 65 fd 68 b7 b8 03 59 36 17 e1 be b7 02 b1 a3 37
       -1.3887276e-05 3.2337684e-06 -2.275458e-05 1.951354e-05
000260 a5 90 6b 38 b6 fe 6e 38 a5 4c 28 b8 33 d6 f2 37
       5.6163077e-05 5.698084e-05 -4.0125702e-05 2.8948392e-05
000270 1d 2c 8c b7 70 f7 8d b8 56 55 9b b7 bc c9 ce 38
       -1.6709842e-05 -6.769493e-05 -1.8517178e-05 9.8604214e-05
000280 5e ad 08 b9 ac ae a7 b8 ce 76 f5 b7 85 f7 85 37
       -0.00013034555 -7.995716e-05 -2.9261599e-05 1.5970096e-05
000290 15 59 05 38 94 ba bd 37 ef 7b 20 38 e1 13 3a b8
       3.1792635e-05 2.2617438e-05 3.8262395e-05 -4.436437e-05
0002a0 0b 26 54 b7 f5 c7 db b6 25 9d 8f b8 9a ab dd 38
       -1.2645042e-05 -6.5499867e-06 -6.848042e-05 0.000105700645
0002b0 b9 ba 66 b8 75 c5 92 b8 7b 2f 2d 39 46 d2 6b b8
       -5.5010172e-05 -6.998602e-05 0.00016516254 -5.62242e-05
0002c0 7a 57 56 b9 3d a8 14 b9 02 13 8c 39 4f 0f 26 b9
       -0.00020441218 -0.00014177054 0.00026717043 -0.00015836697
0002d0 d1 55 94 38 49 7a a0 38 fa 6d 2b b8 33 a5 de b7
       7.0731745e-05 7.652172e-05 -4.0872e-05 -2.654139e-05
0002e0 0a 94 9e 37 1b 51 5b 38 08 30 05 38 ec 0a 29 b8
       1.8904004e-05 5.2289204e-05 3.1754404e-05 -4.030291e-05
0002f0 66 e0 02 38 17 fc f1 b7 77 b7 67 b8 1b 86 9c 35
       3.1203403e-05 -2.8846827e-05 -5.5245557e-05 1.1661936e-06
000300 08 8d a5 b8 c3 6c a2 b8 7a 89 14 39 c8 f1 57 35
       -7.894082e-05 -7.7450204e-05 0.00014165594 8.044558e-07
000310 43 f2 8f b7 a9 6c 01 b9 6b 23 d3 39 ea 01 04 ba
       -1.715974e-05 -0.00012342878 0.00040271445 -0.00050356856
000320 cb 62 b8 b9 35 fb 3c 3a e0 ba 36 3a 90 23 b1 ba
       -0.0003516882 0.00072090636 0.00069705956 -0.0013514627
000330 5b e9 7c 38 8c b2 ef 37 a7 ac fc 37 28 86 11 38
       6.029881e-05 2.8574163e-05 3.0121138e-05 3.4695637e-05
000340 51 62 11 b8 92 b3 84 b8 6d 48 d9 37 81 48 04 b9
       -3.466226e-05 -6.327698e-05 2.5902142e-05 -0.00012615511
000350 be 8b e4 38 4e 89 09 39 e8 40 ff 38 80 ee 05 b9
       0.00010897916 0.00013116488 0.00012171437 -0.00012772717
000360 13 81 11 39 a4 5a 6c 38 e8 5a 49 b9 8f b7 7e b8
       0.00013876361 5.63512e-05 -0.00019202719 -6.072927e-05
000370 ab bd 93 b9 80 3a 86 b9 9b a5 ec 39 7c 74 01 3a
       -0.0002817934 -0.00025602058 0.00045136813 0.0004938317
000380 68 7d 70 b9 5a 37 6d b9 9b 71 00 b9 d4 70 de 38
       -0.00022934901 -0.00022622701 -0.00012249353 0.00010606801
000390 06 06 9a 38 3e 84 3b 38 e2 9d b3 b9 11 fa 95 38
       7.344414e-05 4.4707434e-05 -0.00034259172 7.151452e-05
0003a0 87 06 e9 36 4e a3 3e 37 8f 8c c0 b8 fe e4 ab 38
       6.944701e-06 1.1362905e-05 -9.1814545e-05 8.1965685e-05
0003b0 ea 20 71 37 51 6d 93 37 3b 0b b6 38 90 b5 7c 37
       1.4372383e-05 1.757467e-05 8.680528e-05 1.5062644e-05
0003c0 0a 87 99 b8 5f 3f 2d b8 f7 b4 b0 b8 fd 06 24 37
       -7.3207615e-05 -4.1305433e-05 -8.426041e-05 9.776789e-06
0003d0 57 01 70 b9 45 eb 6b b9 4d 9b c0 39 bb 1c f6 b8
       -0.00022888683 -0.00022498991 0.00036736802 -0.000117355456
0003e0 fb 7d 8b b8 6b 34 02 b8 01 fd 1f 39 2c 3a ae 38
       -6.651502e-05 -3.1043233e-05 0.00015257673 8.307802e-05
0003f0 50 71 1d 39 09 02 8e b8 f1 57 90 39 40 95 a4 b9
       0.00015014899 -6.771467e-05 0.00027531342 -0.00031391717

exp_avg_sq f4 [64, 4]
000000 c2 b3 f3 34 8b 12 91 34 39 b0 bc 33 dd e7 ce 34
       4.5393068e-07 2.7021846e-07 8.786487e-08 3.8539193e-07
000010 c4 a8 be 35 1f 82 8f 36 1a 0b a0 34 b3 45 93 34
       1.420522e-06 4.27688e-06 2.98104e-07 2.7431597e-07
000020 36 79 5b 33 45 0b df 33 52 9d 0e 35 e0 e6 98 34
       5.110015e-08 1.03862966e-07 5.3128053e-07 2.848019e-07
000030 99 b3 e6 34 49 85 13 34 eb 7e 49 34 e6 1e 88 33
       4.2971513e-07 1.373893e-07 1.8765756e-07 6.338614e-08
000040 be 0b 0d 36 17 8e c4 36 6f 2e da 35 d4 9c 0e 36
       2.1017472e-06 5.8577966e-06 1.625578e-06 2.1250935e-06
000050 e6 49 ff 34 41 15 48 35 5a 65 48 36 2c ab 95 35
       4.755122e-07 7.4536734e-07 2.9861317e-06 1.1151183e-06
000060 90 0f 38 36 f5 99 ae 35 08 95 95 35 81 48 c2 35
       2.7427195e-06 1.3008818e-06 1.1144739e-06 1.4475228e-06
000070 c6 30 f7 33 2e 78 bf 32 0e 60 19 35 74 80 99 34
       1.15107056e-07 2.2289978e-08 5.713672e-07 2.8591933e-07
000080 a0 99 db 34 33 d6 3e 34 57 8a dd 34 9a 5b 41 34
       4.0903706e-07 1.7773054e-07 4.1265113e-07 1.800785e-07
000090 e1 c5 07 34 e9 7a b0 33 6d fc 29 34 97 ad 9b 33
       1.2644843e-07 8.217996e-08 1.5831183e-07 7.249326e-08
0000a0 64 6e 17 35 b3 82 ab 35 ba 24 7b 36 65 72 f2 35
       5.6412523e-07 1.2778531e-06 3.7423292e-06 1.8063698e-06
0000b0 a5 88 c7 35 a7 44 a9 35 a3 54 bb 35 15 14 26 35
       1.4866424e-06 1.2611462e-06 1.3957218e-06 6.186904e-07
0000c0 04 3d 16 35 93 79 59 34 1c 10 80 35 29 2c 23 33
       5.5968144e-07 2.0253928e-07 9.541432e-07 3.799156e-08
0000d0 1b dd 8d 34 0f 54 c3 33 08 a4 8b 33 91 7b e4 32
       2.6424172e-07 9.095685e-08 6.502529e-08 2.6598885e-08
0000e0 f4 5e 06 35 e3 8e 50 35 27 93 bd 34 5e 65 7c 34
       5.0057065e-07 7.7693966e-07 3.531106e-07 2.3506206e-07
0000f0 3f 98 02 36 69 44 f4 34 91 3d 47 35 2d be 0b 35
       1.9460128e-06 4.5498317e-07 7.422287e-07 5.205828e-07
000100 e0 68 bc 33 79 0c 08 36 26 64 bd 35 53 ec f7 35
       8.773509e-08 2.027284e-06 1.4110744e-06 1.8471713e-06
000110 06 34 11 34 ae 2e d6 33 94 19 ee 34 bc 3d 0b 34
       1.3523103e-07 9.9736425e-08 4.4349565e-07 1.2967843e-07
000120 1c 40 39 33 04 87 b0 34 ee 4c c0 35 78 f8 91 34
       4.3131976e-08 3.2880791e-07 1.4327504e-06 2.718914e-07
000130 ee d4 8b 36 ab 11 ad 36 83 e1 89 37 8d 78 a8 36
       4.167311e-06 5.1578586e-06 1.6436685e-05 5.020824e-06
000140 18 a8 40 36 96 6b 19 37 91 98 63 36 5e a1 a6 36
       2.8708073e-06 9.14456e-06 3.3914441e-06 4.965971e-06
000150 36 32 d6 33 a4 83 8d 34 78 9d 43 33 d1 a5 c4 33
       9.974285e-08 2.6359078e-07 4.5545193e-08 9.157123e-08
000160 46 d8 4d 36 3b 82 bd 35 b9 86 18 35 1d 1f 9a 35
       3.0673268e-06 1.4119499e-06 5.682046e-07 1.1482949e-06
000170 d7 77 82 35 1c a3 95 35 f3 80 72 35 22 a8 0d 35
       9.720633e-07 1.1148836e-06 9.033967e-07 5.277126e-07
000180 50 3f 82 35 ee f8 82 35 c6 69 9c 35 43 d7 fe 34
       9.704181e-07 9.758203e-07 1.165369e-06 4.746781e-07
000190 0a 83 04 35 97 9b 9f 34 9d af 8d 34 25 4d 37 34
       4.936452e-07 2.9729264e-07 2.6391072e-07 1.7071268e-07
0001a0 e8 35 11 35 ca 00 b9 35 c0 11 a3 34 ee 57 83 35
       5.4095153e-07 1.3783804e-06 3.037403e-07 9.785851e-07
0001b0 36 93 9d 35 5d 54 7b 35 d9 86 8e 35 8f ac bd 34
       1.1740256e-06 9.362755e-07 1.061907e-06 3.5329546e-07
0001c0 ce 71 7c 34 cc 3b ef 34 01 08 33 34 76 1a ef 32
       2.3510731e-07 4.4560727e-07 1.6673586e-07 2.7835295e-08
0001d0 e4 1b 8a 36 d6 0d c5 35 bb 77 84 35 0b 05 3b 36
       4.1159674e-06 1.468167e-06 9.869613e-07 2.7868107e-06
0001e0 36 bf 18 36 63 2f a7 35 59 f1 17 36 04 8f 67 36
       2.2761064e-06 1.2456261e-06 2.2641236e-06 3.4504928e-06
0001f0 60 aa 0c 34 35 39 83 34 21 e7 56 34 0f 6b 89 34
       1.3100498e-07 2.4442275e-07 2.0014387e-07 2.5596134e-07
000200 7a 42 04 36 6d b8 75 35 37 b4 1b 34 b2 dd 7e 34
       1.9708227e-06 9.1537987e-07 1.4501062e-07 2.3736246e-07
000210 4b e4 4b 33 46 51 fd 33 68 3f 60 34 c5 df c4 33
       4.7472252e-08 1.1796014e-07 2.0884693e-07 9.167665e-08
000220 e2 54 ab 34 d8 f5 16 34 45 47 0e 34 3e 7e 27 33
       3.1912992e-07 1.4059276e-07 1.3250708e-07 3.8997534e-08
000230 9b 7f 1e 35 e5 a9 96 35 6b 65 30 35 45 af 03 35
       5.9045277e-07 1.1225317e-06 6.571269e-07 4.9056354e-07
000240 de b7 6c 34 89 e5 2b 34 c5 e5 2b 34 bc 92 8c 33
       2.2046103e-07 1.600912e-07 1.6009206e-07 6.545949e-08
000250 c7 ea 2c 35 a4 99 50 34 84 19 d2 35 44 12 31 35
       6.441664e-07 1.9427404e-07 1.5653645e-06 6.596422e-07
000260 35 78 bd 33 50 32 c9 33 e6 7c 81 33 c3 37 f8 33
       8.822864e-08 9.368944e-08 6.0297495e-08 1.1558543e-07
000270 5e 93 8e 35 4c 6f b0 35 4c 66 1e 36 a7 6a 82 35
       1.0622714e-06 1.3145414e-06 2.360338e-06 9.716795e-07
000280 1b e9 60 35 86 4f 7f 35 9d fc bd 35 89 e6 03 35
       8.3785716e-07 9.5110624e-07 1.4155117e-06 4.9136776e-07
000290 80 16 06 33 be 02 8a 32 5c e7 ce 33 76 76 ad 33
       3.121977e-08 1.6066561e-08 9.6347065e-08 8.077488e-08
0002a0 43 78 01 35 59 a1 28 35 75 f5 26 35 6f fb 65 35
       4.823125e-07 6.281967e-07 6.2197006e-07 8.567503e-07
0002b0 33 9f 3b 35 39 28 90 35 2e 27 67 34 f1 e1 87 33
       6.9894594e-07 1.0740542e-06 2.1527805e-07 6.327526e-08
0002c0 3b 67 1c 36 5a 5c 17 35 cc 86 97 35 cb 3e 8e 34
       2.33059e-06 5.638627e-07 1.1289608e-06 2.649525e-07
0002d0 ce 26 bd 33 d7 5f 2e 34 78 cd fc 33 8d bd 8c 32
       8.808057e-08 1.6239879e-07 1.1772039e-07 1.6384343e-08
0002e0 ce 1e bd 35 4c 84 16 35 d0 9e d3 34 81 86 28 35
       1.4090563e-06 5.607187e-07 3.9417364e-07 6.2780606e-07
0002f0 12 b0 a4 34 01 ce 83 36 7d 9c 0c 35 bd b3 df 34
       3.0675488e-07 3.9280862e-06 5.2381785e-07 4.1667764e-07
000300 07 3b 3e 35 f2 9b 33 35 9f 2d c5 35 ed a0 93 34
       7.086641e-07 6.6909627e-07 1.4690921e-06 2.7497973e-07
000310 7e e2 20 36 c6 fe 9b 35 10 e6 a2 35 aa ad 86 35
       2.3973694e-06 1.1622549e-06 1.2136898e-06 1.0034321e-06
000320 d6 1c 98 36 73 f2 9b 37 87 f7 1f 37 99 d5 6e 37
       4.53331e-06 1.859034e-05 9.5347705e-06 1.42356375e-05
000330 b2 55 01 35 42 9c a9 34 42 12 2b 35 cc 5c 26 35
       4.818095e-07 3.1592396e-07 6.372903e-07 6.1974856e-07
000340 75 e9 f0 32 7f 79 20 34 4e 52 1b 35 8b 8d b7 34
       2.8045841e-08 1.4945361e-07 5.786177e-07 3.4189392e-07
000350 72 12 55 34 64 95 99 34 03 bb 09 35 dc 53 e0 34
       1.9843881e-07 2.8607167e-07 5.1308615e-07 4.1784267e-07
000360 c6 b8 a1 35 99 9f 5d 34 cb 58 01 36 5a 8d a5 35
       1.2049211e-06 2.064029e-07 1.9274182e-06 1.2334597e-06
000370 7e b6 63 36 5b 9d 53 36 2b d2 ad 36 2a 06 1a 37
       3.393186e-06 3.1533043e-06 5.1802685e-06 9.1805505e-06
000380 8b 5d 24 36 10 15 00 36 9d 21 41 35 bc 7b dd 35
       2.4492354e-06 1.9085746e-06 7.1947017e-07 1.6501795e-06
000390 06 94 da 35 0d 7b ab 35 45 a1 73 36 81 12 e2 35
       1.6285346e-06 1.2776305e-06 3.6303693e-06 1.6843697e-06
0003a0 56 5f 61 35 06 f5 5f 35 30 81 93 35 4e ea 47 35
       8.3957764e-07 8.343053e-07 1.0989952e-06 7.4474235e-07
0003b0 30 4d 76 35 89 49 43 35 bb 28 86 35 68 0f 3f 36
       9.1754464e-07 7.275017e-07 9.995632e-07 2.8470185e-06
0003c0 43 3a 36 36 c4 3c 8e 36 53 af e3 34 10 38 54 35
       2.7154026e-06 4.239004e-06 4.240961e-07 7.9057736e-07
0003d0 4a 15 f1 34 63 46 f4 34 a7 19 be 35 9b a3 e4 34
       4.4905238e-07 4.5499755e-07 1.4163569e-06 4.2587348e-07
0003e0 db 86 1d 35 7c e8 5e 35 be 9a a7 34 dd b7 6e 34
       5.86833e-07 8.3039754e-07 3.1218764e-07 2.2232366e-07
0003f0 c0 c6 1b 35 d8 2c 01 34 ff c1 c5 35 2c db 45 35
       5.803122e-07 1.2030375e-07 1.4734104e-06 7.3707156e-07

exp_avg f4 [64]
000000 96 3b 12 b7 21 6b a3 39 f4 44 38 b9 01 c6 1a 39
       -8.716152e-06 0.000311696 -0.00017573294 0.00014760347
000010 72 59 c2 b7 3a 08 ac b7 91 11 af 38 85 be 46 b8
       -2.3168253e-05 -2.0507829e-05 8.347922e-05 -4.7384314e-05
000020 ea c3 c0 b8 93 ea bb 37 25 ce 2a b8 04 00 00 00
       -9.191765e-05 2.240137e-05 -4.0723146e-05 6e-45
000030 04 00 00 00 77 c4 99 37 f9 3b f2 36 ee d2 af 38
       6e-45 1.8330507e-05 7.2191438e-06 8.383939e-05
000040 e4 92 de 37 09 39 80 37 c4 61 92 38 fe da dc b8
       2.6532864e-05 1.5285348e-05 6.980033e-05 -0.00010531208
000050 86 d8 38 37 f1 8b 2c 39 4a 54 15 37 e8 a1 81 39
       1.1017668e-05 0.0001645533 8.900717e-06 0.00024725427
000060 0a dc d8 36 a9 d2 af 37 cf c7 2c b9 fa 55 54 b7
       6.4629176e-06 2.0959722e-05 -0.00016477633 -1.2656203e-05
000070 0c 0d 87 b7 b5 ac aa 38 00 00 00 00 10 b7 9f 38
       -1.609933e-05 8.138401e-05 0.0 7.615809e-05
000080 68 88 85 39 ab cd 55 b9 00 9f 4c b7 62 a6 39 b8
       0.00025469367 -0.0002038988 -1.2196368e-05 -4.4262393e-05
000090 00 00 00 00 86 65 02 b7 5a f3 62 b7 6b 91 d6 b7
       0.0 -7.772242e-06 -1.3527309e-05 -2.5578503e-05
0000a0 04 00 00 00 b0 da 77 b9 04 00 00 00 04 00 00 00
       6e-45 -0.00023637223 6e-45 6e-45
0000b0 df 58 12 37 5e 18 db b8 8a 02 ed b7 40 d7 0b 39
       8.72297e-06 -0.000104472725 -2.8253784e-05 0.0001333626
0000c0 50 a0 af 36 89 58 9e 38 8c b1 97 b7 a2 b5 7f b7
       5.2340692e-06 7.550518e-05 -1.808328e-05 -1.5241474e-05
0000d0 bf ec b6 38 62 d5 1b b8 ef 94 69 37 ca 31 b2 b8
       8.722534e-05 -3.7153608e-05 1.39225585e-05 -8.496975e-05
0000e0 03 17 01 39 1d 73 8f b7 cf 28 0d 37 04 00 00 00
       0.00012310971 -1.7100532e-05 8.413756e-06 6e-45
0000f0 ae 1f b2 b7 2d 21 7b b8 eb 5c 7a 37 eb 55 86 38
       -2.1234006e-05 -5.987396e-05 1.4922795e-05 6.4056214e-05
