log/alpha=0.01/version_None/checkpoints/epoch=2499-step=4999.ckpt (torch, 116924 bytes, 21 tensors)

dec.lin0.bias f4 [64]
0.2794102 0.06690359 -0.1828542 -0.66266876 -0.462682 0.14230074 -0.21709073 -0.020084295
-0.103297666 -0.2175391 0.3517277 -0.48047495 -0.36837894 0.2161539 0.27460447 -0.0032471318
-0.114886984 -0.00059140264 0.11935013 -0.18616715 0.56419116 -0.10222171 0.37595093 -0.061782658
-0.3085029 0.046373785 0.15325072 0.4098426 0.23014787 -0.3759704 0.40982804 0.4304918
0.20972812 0.026544822 0.21615708 0.2402669 -0.23251763 0.30249876 -0.4816536 0.2360453
0.17238502 -0.48675793 0.19126154 -0.3824628 -0.057423294 0.15536408 0.32402667 -0.09299641
0.46310756 -0.4373751 0.20439714 -0.32223698 0.3474964 -0.34267825 0.6323711 -0.087168224
-0.44535574 -0.047650572 0.377983 -0.22307816 -0.14146286 -0.1195012 -0.42732072 -0.3407457
00000000: db0e 8f3e c004 893d 223e 3bbe a9a4 29bf
00000010: a8e4 ecbe 49b7 113e 084d 5ebe d287 a4bc
00000020: ba8d d3bd 92c2 5ebe a715 b43e d000 f6be
00000030: 2a9c bcbe 7357 5d3e f598 8c3e d5cd 54bb
00000040: de49 ebbd 5c08 1bba d76d f43d 9aa2 3ebe
00000050: d56e 103f 9e59 d1bd a47c c03e d00f 7dbd
00000060: 18f4 9dbe 70f2 3d3d c2ed 1c3e e4d6 d13e
00000070: e2ab 6b3e 317f c0be fbd4 d13e 6c69 dc3e
00000080: f8c2 563e 8774 d93c 4858 5d3e 8708 763e
00000090: 1a19 6ebe 1ee1 9a3e 4d9b f6be dcb5 713e
000000a0: b385 303e 5638 f9be 11da 433e 2ad2 c3be
000000b0: b034 6bbd c317 1f3e d3e6 a53e e774 bebd
000000c0: 6f1c ed3e a1ef dfbe 7c4d 513e 3ffc a4be
000000d0: 0ceb b13e 8673 afbe 13e3 213f 4185 b2bd
000000e0: ab05 e4be 3f2d 43bd fd86 c13e 9a6e 64be
000000f0: a4db 10be 0cbd f4bd c8c9 dabe 3876 aebe

dec.lin0.weight_v f4 [64, 4]
0.076738164 -0.10179573 0.16907774 0.3008484 -0.45918196 0.2915134 0.07680511 -0.50073767
0.40887642 0.12258195 -0.11120254 -0.3233467 0.0785317 -0.40356046 0.42482334 -0.005093259
-0.3041337 -0.041965183 0.4882799 -0.19077249 -0.24358244 -0.18730351 -0.18347381 0.18216214
-0.09049915 0.08892589 -0.20375122 0.1644281 -0.24663582 0.14279744 -0.2517737 0.11771488
0.16419262 0.032797918 -0.43877935 -0.2497704 0.18546566 0.52021706 0.16448417 0.44471762
0.09582955 -0.3177979 -0.26138002 0.10206102 -0.16393897 0.26705533 -0.008967524 -0.30628598
-0.42704487 -0.13993716 -0.110039055 -9.572506e-05 -0.028184017 -0.47369495 0.034814265 -0.49598777
-0.06285849 0.023790283 0.14067233 -0.36983648 -0.2909565 -0.39556324 -0.46326134 0.122537
0.18651958 0.35167876 -0.051605422 0.31464294 0.42522475 -0.024920423 0.48732686 -0.13209353
-0.16548316 0.069994636 -0.395981 0.37263983 0.34602115 -0.08662354 -0.14659587 -0.26210365
-0.114435196 -0.3963257 -0.40587902 -0.086289 -0.36351725 0.24712405 -0.12999271 -0.058189683
-0.21825986 -0.38992846 -0.28256026 0.11492842 0.16092303 -0.19374584 -0.2214031 -0.2823884
0.13153082 -0.13111359 -0.04895728 0.27134463 0.21771698 0.059601486 -0.24819636 0.042655498
0.36336052 -0.28876397 -0.23760416 0.4422066 -0.462347 0.15474586 0.019562127 -0.18169513
0.21508858 -0.28376362 0.353724 0.27403614 -0.011322191 -0.043842863 -0.17063671 0.4434406
0.16063417 -0.42789364 0.4155936 -0.29281288 0.14330372 -0.36690876 0.35091296 0.24877268
-0.44924486 0.0076959054 -0.09744161 0.2904 -0.4575551 -0.07147257 0.041491766 0.44769618
0.32815138 -0.3630912 -0.074327014 0.023667373 -0.25639847 -0.011087212 -0.34826767 0.025240462
0.36783037 -0.09417381 -0.09340847 -0.10525745 0.46198532 -0.26474258 -0.051932555 -0.26864064
0.39190018 -0.39357027 -0.61889285 -0.010292265 0.0058775716 0.094076715 -0.096848935 0.0078097796
-0.15881766 0.17792661 -0.031072168 0.31317952 0.0026334196 0.06666157 -0.16020049 -0.26096037
-0.39559218 -0.23164421 -0.18820517 -0.10599293 0.08944393 0.23953454 -0.33634555 -0.23432577
-0.14941011 0.13756889 0.2965947 -0.10487369 0.20925197 0.39474055 -0.15937383 -0.11919615
0.29128167 -0.27700722 0.18783729 0.337936 0.35573015 0.064822964 0.38012373 -0.013801959
0.03692329 -0.3984545 0.11541036 -0.4357184 -0.07404329 0.014527837 -0.3450404 -0.14607905
-0.2760993 -0.45321903 0.020664576 0.36974218 0.22441006 0.47156954 0.08661228 -0.041775208
-0.4800315 -0.46584344 -0.446915 0.20888387 -0.3927013 -0.052699678 -0.048193503 -0.21888404
-0.4329021 0.07220831 0.4233404 -0.0013950937 0.46199432 0.08748762 -0.083688155 0.4114127
0.30914086 0.33146858 -0.058413822 -0.33161697 0.38844857 -0.21212155 -0.08092796 -0.53480613
-0.5098974 0.3325088 0.056413732 -0.1616586 0.28432587 0.22305444 0.30723485 -0.031801503
0.18733844 -0.16705425 -0.37269995 0.472338 0.027452372 0.11705774 0.06916406 0.40106466
-0.41572633 0.41511592 0.48146597 -0.13110074 -0.42285803 -0.44166836 -0.10019363 0.38082552
00000000: e628 9d3d 487a d0bd b722 2d3e cd08 9a3e
00000010: e619 ebbe 3f41 953e ff4b 9d3d 5830 00bf
00000020: 4058 d13e 3f0c fb3d 28be e3bd b38d a5be
00000030: 3ad5 a03d 7a9f cebe 7282 d93e 5ae5 a6bb
00000040: 6ab7 9bbe afe3 2bbd d3ff f93e dd59 43be
00000050: ad6d 79be 7ecc 3fbe 8fe0 3bbe b688 3a3e
00000060: 9e57 b9bd c71e b63d 29a4 50be d75f 283e
00000070: 1a8e 7cbe 7e39 123e 7be8 80be 8014 f13d
00000080: 1c22 283e 1c57 063d b0a7 e0be d0c3 7fbe
00000090: b6ea 3d3e f22c 053f 8a6e 283e 07b2 e33e
000000a0: 4842 c43d 68b6 a2be 9ad3 85be 5e05 d13d
000000b0: 9edf 27be 7abb 883e 86ec 12bc 84d1 9cbe
000000c0: a0a5 dabe b04b 0fbe 285c e1bd 00c0 c8b8
000000d0: 2be2 e6bc 2588 f2be 6799 0e3d 1cf2 fdbe
000000e0: f4bb 80bd d7e3 c23c 680c 103e 355b bdbe
000000f0: 40f8 94be 4487 cabe 9730 edbe aef4 fa3d
00000100: fdfe 3e3e 3d0f b43e 3560 53bd e118 a13e
00000110: 0fb7 d93e ea25 ccbc e882 f93e 8743 07be
00000120: 6b74 29be 5959 8f3d 06be cabe a6ca be3e
00000130: af29 b13e af67 b1bd 3a1d 16be 7332 86be
00000140: 005d eabd 34eb cabe 60cf cfbe 4ab8 b0bd
00000150: ef1e babe 160e 7d3e cf1c 05be 4e58 6ebd
00000160: 837f 5fbe b4a4 c7be bdab 90be 975f eb3d
00000170: 02c9 243e 4f65 46be 7fb7 62be 3695 90be
00000180: 04b0 063e a442 06be 6e87 48bd afed 8a3e
00000190: 33f1 5e3e b020 743d 3027 7ebe 88b7 2e3d
000001a0: 640a ba3e dfd8 93be 814e 73be e768 e23e
000001b0: bfb8 ecbe b375 1e3e c140 a03c 4a0e 3abe
000001c0: 2e40 5c3e 7749 91be 501b b53e 774e 8c3e
000001d0: b680 39bc 9394 33bd 64bb 2ebe a50a e33e
000001e0: 497d 243e e014 dbbe afc8 d43e 92eb 95be
000001f0: 36be 123e 77db bbbe ddaa b33e 44be 7e3e
00000200: 6c03 e6be ef2d fc3b 788f c7bd 4faf 943e
00000210: a944 eabe 3660 92bd 45f3 293d 6f38 e53e
00000220: 7503 a83e 17e7 b9be c338 98bd 14e2 c13c
00000230: a946 83be 23a7 35bc 2450 b2be 16c5 ce3c
00000240: 4354 bc3e 33de c0bd f14c bfbd 3891 d7bd
00000250: 5789 ec3e 578c 87be 3bb7 54bd 448b 89be
00000260: 24a7 c83e 0b82 c9be c36f 1ebf e3a0 28bc
00000270: a598 c03b 4bab c03d bc58 c6bd 2ee9 ff3b
00000280: 19a1 22be 6532 363e 0f8b febc 1159 a03e
00000290: 7395 2c3b dc85 883d 990b 24be 999c 85be
000002a0: 0f8b cabe 2434 6dbe dbb8 40be d212 d9bd
000002b0: 612e b73d 8b48 753e 7c35 acbe 18f3 6fbe
000002c0: f7fe 18be dcde 0c3e 43db 973e 04c8 d6bd
000002d0: 2646 563e 6f1b ca3e e532 23be 1c1d f4bd
000002e0: df22 953e e4d3 8dbe 6b58 403e f305 ad3e
000002f0: 4322 b63e e7c1 843d 949f c23e 9d21 62bc
00000300: e03c 173d 3a02 ccbe 445c ec3d 7b16 dfbe
00000310: 02a4 97bd 2a06 6e3c 23a9 b0be bf95 15be
00000320: e35c 8dbe 530c e8be c248 a93c d94e bd3e
00000330: c0cb 653e 9071 f13e c761 b13d 7b1c 2bbd
00000340: b0c6 f5be 0883 eebe 0bd2 e4be a7e5 553e
00000350: 2510 c9be 9edb 57bd 8d66 45bd 2323 60be
00000360: 58a5 ddbe f3e1 933d 13c0 d83e 94db b6ba
00000370: 858a ec3e b62c b33d b264 abbd afa4 d23e
00000380: b647 9e3e 40b6 a93e 5543 6fbd b3c9 a9be
00000390: bbe2 c63e 6436 59be 8fbd a5bd 0ee9 08bf
000003a0: a388 02bf 983e aa3e 1612 673d d589 25be
000003b0: 2993 913e 6268 643e e34d 9d3e 4b42 02bd
000003c0: a6d5 3f3e 4510 2bbe 87d2 bebe 49d6 f13e
000003d0: cce3 e03c f8bb ef3d e3a5 8d3d 5958 cd3e
000003e0: 15da d4be 138a d43e b582 f63e 463f 06be
000003f0: d980 d8be 5b22 e2be 5132 cdbd 90fb c23e

dec.lin1.bias f4 [64]
0.0018670618 0.08382553 -0.025230875 -0.108583145 0.07734939 -0.080125704 -0.029593538 -0.11298632
0.089942105 0.11948613 0.03999798 -0.06403448 -0.10875663 -0.015206291 0.1114962 -0.11070557
0.17310926 -0.09020926 0.031525765 -0.08460854 0.114158526 -0.06121566 0.028161962 0.03063716
-0.06343079 0.05425228 -0.07044984 0.15893877 0.06858116 -0.14636768 0.02908506 0.059146196
0.106691346 0.040849745 -0.04759192 -0.047272254 0.11504715 -0.05345317 0.039219968 -0.17036662
-0.04562771 -0.006105662 -0.03331927 0.06017283 -0.095996976 0.007216758 0.10888702 -0.012925322
0.02311337 -0.04316701 0.10300884 -0.123821035 -0.0303286 -0.011175675 0.11853652 0.012700995
-0.1704364 0.074646674 0.07456695 -0.117342144 -0.008850942 -0.037456054 -0.028986402 0.078604
00000000: 33b8 f43a b8ac ab3d fbb0 cebc d760 debd
00000010: 5b69 9e3d f218 a4bd 266e f2bc 5f65 e7bd
00000020: 9133 b83d 25b5 f43d ecd4 233d 8224 83bd
00000030: ccbb debd cf23 79bc 1f58 e43d 9ab9 e2bd
00000040: 8e43 313e a2bf b8bd 2921 013d 3e47 adbd
00000050: f2cb e93d 46bd 7abd eab3 e63c c8fa fa3c
00000060: 01e8 81bd a437 5e3d 0148 90bd d8c0 223e
00000070: 4774 8c3d 69e1 15be cb43 ee3c 4843 723d
00000080: fe80 da3d 1052 273d bfef 42bd 8da0 41bd
00000090: d79d eb3d b6f1 5abd 1ea5 203d 9674 2ebe
000000a0: 1fe4 3abd 0112 c8bb c979 08bd c977 763d
000000b0: 109a c4bd 8e7a ec3b 2800 df3d bbc4 53bc
000000c0: 4058 bd3c e4cf 30bd 4cf6 d23d e295 fdbd
000000d0: af73 f8bc 2e1a 37bc 46c3 f23d d617 503c
000000e0: e186 2ebe 5be0 983d 8fb6 983d 1451 f0bd
000000f0: 8b03 11bc 856b 19bd e474 edbc 22fb a03d

dec.lin1.weight_v f4 [64, 64]
-0.0071673435 4.903189e-38 -0.061487958 0.016435824 0.003435658 0.11145889 -0.0142353615 0.06406833
-0.16596684 0.21410047 -0.096054085 1.6499631e-32 2.014797e-36 -4.139231e-37 -7.262569e-27 -0.04750817
0.0013585979 -0.093719155 -0.011844372 0.0010885173 -0.09593832 -0.03983803 0.04724341 1.3594389e-38
-0.020391146 -0.08561716 0.049627177 -0.10277124 -0.05309094 0.19829427 -0.15325399 -0.010515706
0.003376951 0.077602014 -0.01514585 -0.09734726 -0.027631031 -0.03725101 -0.014649372 -0.069292046
0.09950144 4.756663e-33 -0.18075386 0.024535948 -0.05229949 -0.15722364 -0.010810443 -0.0689183
-0.007702204 -0.14693567 0.053676482 0.02085616 0.026777964 -3.2323477e-38 -0.14061278 0.050201714
-0.07751202 2.1492576e-37 -0.1589198 -0.009977602 0.16275208 0.12196807 0.014927985 0.14926244
0.08483494 0.05679022 0.07695413 0.03283928 -0.028986238 0.04964796 0.019341826 -0.015499826
-0.10920322 0.102796495 -0.08978294 0.06930032 -0.017720703 -0.086566895 -0.041798543 -0.045769934
0.009731399 0.104172334 -0.055631887 -0.09522808 -0.08739833 0.10575391 0.101926364 -0.0686743
-0.11815814 -0.06189368 -0.07663112 0.01788087 -0.044801563 0.093614146 -0.03933695 -0.047286928
-0.04216623 -0.106431104 -0.05219114 -0.005289607 -0.08915704 0.001329932 -0.019095238 -0.11240489
0.033231035 0.0278213 -0.110588096 -0.028808592 0.04344108 0.043950547 0.011882621 -0.11717071
-0.04505975 0.059489336 -0.0063823406 -0.0825824 0.09964739 -0.041431513 -0.1226795 0.026615925
0.10202152 -0.09257927 0.09256862 -0.07020593 0.05459302 -0.080437765 -0.066815786 -0.090346605
-0.10566052 -0.06435964 -0.121029735 -0.085555896 -0.12531066 -0.09007686 -0.007645383 0.069354326
0.07424999 -0.07131967 -0.05166011 -0.07698252 -0.08050293 -0.039593466 -0.013222731 0.102673166
0.071231864 -0.12979947 0.026240021 0.05706264 0.006970893 0.0932695 0.098828554 0.067477435
-0.100423254 -0.066915855 0.036110345 0.005891759 -0.096682906 -0.11044067 -0.11354345 -0.031762585
0.03453737 -0.081207946 -0.053644195 -0.13193253 -0.043408614 0.03877195 0.084620655 -0.06629163
0.055646133 -0.0038550622 0.10101525 -0.078629345 -0.09039637 -0.08476642 0.10475292 -0.089164704
-0.10080343 -0.12730537 0.10468943 -0.0664975 -0.033688717 -0.08273357 -0.09138739 0.11743265
-0.038815666 -0.068930045 0.040000543 -0.02653118 0.114147246 0.059349794 -0.088661134 0.017211063
-0.062242232 0.078817554 0.06917131 0.061682973 -0.05252015 0.07810061 0.10331978 0.046175674
0.06643732 -0.023709647 0.053516258 -0.004401488 0.074970044 0.13634025 0.1287697 0.16740881
-0.03560697 0.12088656 0.05363675 0.006344767 0.09271608 0.05371245 0.119952925 -0.057392664
0.038976446 -0.03760873 -0.016140305 -0.09747232 -0.054412857 -0.096100554 0.03172023 -0.11236737
0.050079666 -0.031742506 0.09202118 0.15004738 -0.0041701957 -0.10237394 0.14305109 -0.0034393973
0.11932707 0.12816195 0.11954082 0.11026531 0.10497883 -0.10879279 -0.09097282 -0.08737574
0.09276346 -0.067304395 0.064505994 0.09595229 -0.0704618 0.08947034 -0.030345595 -0.113656946
0.12514229 0.040006436 -0.053719822 0.0094827665 0.07169007 0.06834674 -0.022116637 0.03621538
00000000: 09dc eabb 3d7a 8501 ccda 7bbd 6ca4 863c
00000010: c728 613b 8f44 e43d 6f3b 69bc 4236 833d
00000020: 36f3 29be 273d 5b3e 01b8 c4bd 8b57 ab0a
00000030: 6566 2b04 cad9 0c83 9ad9 0f94 ed97 42bd
00000040: fb12 b23a d4ef bfbd e60e 42bc 94ac 8e3a
00000050: 4f7b c4bd 342d 23bd 4e82 413d a007 9400
00000060: 550b a7bc 0d58 afbd de45 4b3d ba79 d2bd
00000070: e375 59bd a70d 4b3e 9dee 1cbe 114a 2cbc
00000080: d64f 5d3b ceed 9e3d 4d26 78bc 005e c7bd
00000090: 795a e2bc 8494 18bd eb03 70bc fde8 8dbd
000000a0: 69c7 cb3d 8495 c509 8a17 39be 9dff c83c
000000b0: fd37 56bd 3cff 20be 491e 31bc 0a25 8dbd
000000c0: c562 fcbb 4e76 16be dfdb 5b3d 8ada aa3c
000000d0: 765d db3c 5afc 2f81 ccfc 0fbe 50a0 4d3d
000000e0: 9fbe 9ebd 5945 9202 dfbb 22be 1979 23bc
000000f0: 7ba8 263e 65ca f93d 8294 743c 41d8 183e
00000100: f1bd ad3d dd9c 683d 209a 9d3d 7b82 063d
00000110: 8c74 edbc a95b 4b3d c072 9e3c fbf2 7dbc
00000120: f0a5 dfbd f886 d23d 1ee0 b7bd 54ed 8d3d
00000130: 022b 91bc fc49 b1bd f334 2bbd 4179 3bbd
00000140: 7270 1f3c 4e58 d53d 43de 63bd f106 c3bd
00000150: e5fd b2bd 8295 d83d c5be d03d 1da5 8cbd
00000160: e5fc f1bd 3a84 7dbd c7f0 9cbd e77a 923c
00000170: d881 37bd c6b8 bf3d c81f 21bd f0af 41bd
00000180: 7fb6 2cbd 8df8 d9bd 60c6 55bd 7154 adbb
00000190: f797 b6bd 1d51 ae3a 9e6d 9cbc 8934 e6bd
000001a0: 441d 083d 7fe9 e33c 037c e2bd ffff ebbc
000001b0: 46ef 313d 7d05 343d 53af 423c 32f7 efbd
000001c0: 9390 38bd 17ab 733d f422 d1bb f620 a9bd
000001d0: ee13 cc3d 17b4 29bd 643f fbbd a409 da3c
000001e0: a9f0 d03d 339a bdbd 9e94 bd3d 20c8 8fbd
000001f0: ee9c 5f3d 8ebc a4bd b7d6 88bd a407 b9bd
00000200: 8b64 d8bd fdce 83bd 70de f7bd ee37 afbd
00000210: 7051 00be 377a b8bd 1f86 fabb a409 8e3d
00000220: 6110 983d 0c10 92bd 8d99 53bd 03a9 9dbd
00000230: b8de a4bd c22c 22bd 27a4 58bc 4f46 d23d
00000240: 03e2 913d 27ea 04be 50f5 d63c 84ba 693d
00000250: 176c e43b 1404 bf3d a066 ca3d 9c31 8a3d
00000260: b5aa cdbd 2e0b 89bd 71e8 133d a80f c13b
00000270: b001 c6bd b82e e2bd 7889 e8bd 7c19 02bd
00000280: 0f77 0d3d 5a50 a6bd 04ba 5bbd 5219 07be
00000290: 3bcd 31bd 56cf 1e3d 984d ad3d e8c3 87bd
000002a0: 33ed 633d 36a5 7cbb 15e1 ce3d 6c08 a1bd
000002b0: bb21 b9bd 049a adbd b388 d63d fc9b b6bd
000002c0: 0772 cebd 575c 02be 6967 d63d d72f 88bd
000002d0: 2efd 09bd 3870 a9bd 5029 bbbd 8780 f03d
000002e0: 2dfd 1ebd 322b 8dbd 9cd7 233d eb57 d9bc
000002f0: 08c6 e93d c518 733d f893 b5bd 37fe 8c3c
00000300: b6f1 7ebd 196b a13d b0a9 8d3d 49a7 7c3d
00000310: 5e1f 57bd 36f3 9f3d 5299 d33d b422 3d3d
00000320: 4a10 883d bc3a c2bc dd33 5b3d 5c3a 90bb
00000330: e589 993d c79c 0b3e 34dc 033e 376d 2b3e
00000340: 9dd8 11bd 5f93 f73d 35b2 5b3d c3e7 cf3b
00000350: eee1 bd3d 9601 5c3d e1a9 f53d 9214 6bbd
00000360: c4a5 1f3d 9d0b 1abd ac38 84bc 919f c7bd
00000370: 04e0 5ebd 5ed0 c4bd 12ed 013d dd20 e6bd
00000380: 5620 4d3d 6e04 02bd 9a75 bc3d 05a6 193e
00000390: 23a6 88bb 6ea9 d1bd fc7b 123e 8367 61bb
000003a0: c061 f43d e33c 033e d1d1 f43d c7d2 e13d
000003b0: 24ff d63d c1ce debd f54f babd 0df2 b2bd
000003c0: c5fa bd3d e3d6 89bd b81b 843d a282 c43d
000003d0: 474e 90bd 3a3c b73d 5397 f8bc f9c4 e8bd
000003e0: 4d25 003e cadd 233d 5109 5cbd 9b5d 1b3c
000003f0: 3ed2 923d 60f9 8b3d f32d b5bc 9456 143d

dec.lin2.bias f4 [64]
0.06779003 0.050732847 0.12522472 0.07325099 0.082614385 -0.01538303 0.010880731 -0.089169465
0.1077528 -0.19499469 -0.006897809 0.11255345 0.0049522505 -0.13042203 0.10129017 -0.11659585
-0.0015316907 -0.041405182 -0.085385874 -0.10675265 -0.12538996 -0.0030742064 0.0012643667 -0.02343826
-0.30988023 0.012921091 0.0843892 0.027958816 -0.11135151 0.0950161 0.009904952 -0.039980374
0.006006936 -0.08545165 -0.07974144 0.07830052 0.059238665 0.13505563 0.0753558 0.061177865
-0.13913096 -0.083096296 0.014100204 -0.011985365 0.0907365 -0.11176952 -0.0352686 0.11556445
0.01819628 0.13712108 0.05811885 -0.10594788 0.0796262 -0.025277635 -0.02081974 -0.04046022
-0.0014715355 -0.10504374 -0.006875781 0.1069757 0.09754111 -0.12945624 0.06423376 -0.05196866
00000000: 80d5 8a3d 3fcd 4f3d e93a 003e 9d04 963d
00000010: bb31 a93d 1b09 7cbc 1845 323c 7b9e b6bd
00000020: 80ad dc3d b0ac 47be 0407 e2bb 6c82 e63d
00000030: 7d46 a23b 5a8d 05be 3871 cf3d cec9 eebd
00000040: 03c3 c8ba 7b98 29bd cade aebd 22a1 dabd
00000050: 3a66 00be a078 49bb 1bb9 a53a 9801 c0bc
00000060: 9fa8 9ebe fcb2 533c 3fd4 ac3d e309 e53c
00000070: 430c e4bd cd97 c23d 6148 223c 76c2 23bd
00000080: d5d5 c43b 4601 afbd 7b4f a3bd 065c a03d
00000090: 3ea4 723d 064c 0a3e 2454 9a3d a495 7a3d
000000a0: 5978 0ebe 642e aabd 8b04 673c 445e 44bc
000000b0: 0fd4 b93d 6be7 e4bd cf75 10bd 0ead ec3d
000000c0: 5d10 953c 7869 0c3e 080e 6e3d 34fb d8bd
000000d0: 1013 a33d 0b13 cfbc 298e aabc 9eb9 25bd
000000e0: 8ae0 c0ba 2c21 d7bd 3b4e e1bb 1316 db3d
000000f0: a2c3 c73d 2d90 04be fd8c 833d 17dd 54bd

dec.lin2.weight_v f4 [64, 64]
0.057779506 0.071344845 -0.04613688 0.09752011 -0.016429538 -0.121900365 0.017799221 0.029060192
-0.11089729 -0.07826475 -0.015512734 0.070694365 0.020902002 -0.07483515 -0.0672161 0.042717036
0.008641648 0.05229987 0.12304624 0.07782206 -0.093627825 -0.03367852 -0.0494033 -0.017361697
-0.1036869 0.04208408 -0.09738848 -0.12416412 0.061866667 -0.07564915 0.008118914 -0.09245174
0.053641245 0.07129231 -0.102686346 0.057704538 0.017500585 0.0646235 -0.09053819 -0.015233574
-0.107211664 -0.116151884 -0.12077955 -0.03331001 -0.11197528 0.01617635 0.06808966 0.05009009
-0.11551604 -0.1038816 0.04605427 0.07213172 -0.09838891 0.005595196 0.02063583 -0.12953267
0.12261037 -0.0030256044 0.121948786 -0.06200537 -0.09585805 0.103144914 0.118613645 -0.096388035
-0.1627058 -0.04394312 -0.03069273 0.010096698 0.11844783 0.050773457 -0.039834723 0.13331579
-0.07661319 0.11180716 -0.0019560382 0.07341771 0.13002366 0.0965132 -0.12923472 -0.07851973
0.078639545 -0.09723144 -0.02471875 -0.013885099 -0.015724294 -0.053733364 -0.053703792 0.035004597
-0.07493497 -0.15114853 -0.109457046 0.033413414 0.12902176 -0.12441884 -0.006204976 -0.007221815
0.09541141 -0.10265486 -0.14758396 -0.025487965 -0.043213665 0.014824439 0.034131844 0.019456508
-0.15532549 -0.11398774 0.011864507 -0.06100078 -0.222481 0.015341124 -0.0119599765 -0.11902486
-0.12302944 -0.0032392829 0.024024986 0.03646568 0.031489205 0.14470695 0.0074855713 0.008432046
-0.08432478 -0.037971176 0.05948559 -0.025096739 -0.045212843 0.0837933 0.07233023 0.030630866
-0.06562545 -0.0084842015 1.0364375e-37 -0.016108386 0.014937191 -0.025794651 0.004099728 -0.2450547
-0.06569349 0.087096214 -0.07785343 -0.06446239 -7.735317e-06 0.11984013 -0.07210647 -0.007019594
-0.0007927781 -0.021319745 0.009972256 0.037881207 0.14920539 -0.025936732 -0.07435175 -0.07743265
0.00019272286 0.054128025 -0.011828267 -0.043014526 -0.055884305 -0.023058277 -0.01843933 -0.08644324
-0.040014103 -7.2706e-41 0.08520055 0.00011212626 0.053513456 0.035611704 -0.1592266 0.08044018
-0.07428729 -0.011332823 0.12361396 -0.1819099 -0.028467884 -0.117527805 -0.03931001 0.036147505
0.072531216 -0.05311118 -0.008945057 -0.0024000662 0.04427536 0.10000927 -0.017353889 0.1519103
0.08008419 -0.088901095 -0.07677294 0.16526517 -0.020181183 -0.09478827 0.074375756 -0.08663438
0.08367978 -1.46478e-40 3.31542e-40 0.008746722 -0.095334925 -1.2842885e-27 -3.70457e-40 -0.1054972
-0.035726946 0.07563616 0.039012123 -0.043323606 1.0094739e-33 -0.16243172 -0.028309088 8.105868e-09
0.028520862 -0.15339625 -0.05290009 9.1965885e-06 0.039309382 -0.022378474 0.092680365 0.0071068113
0.031180456 0.09261755 3.43866e-40 -0.027657343 0.18229443 -0.0681947 -0.12751086 -0.04859321
-0.07904064 -0.015257436 0.10694478 5.596444e-07 0.06531123 -0.0343001 0.1044807 0.049928293
-0.04046823 -0.0012721376 -0.109600104 0.008499924 0.041570097 0.07577062 -0.048188444 -0.38925728
0.09502911 -0.08796624 -0.046257243 -0.089087866 -0.019049717 -0.15076262 0.07510169 0.083686866
-0.118160374 -0.05463692 -0.053295583 -0.043121174 -0.06778268 0.06930873 0.06606163 0.0055327034
00000000: 34aa 6c3d 3f1d 923d 06fa 3cbd a0b8 c73d
00000010: 3d97 86bc e6a6 f9bd accf 913c a40f ee3c
00000020: 1e1e e3bd 4549 a0bd 1f29 7ebc 35c8 903d
00000030: ad3a ab3c 2c43 99bd 98a8 89bd 0ff8 2e3d
00000040: b395 0d3c 6338 563d abff fb3d 2c61 9f3d
00000050: f2bf bfbd 7df2 09bd 1d5b 4abd 1e3a 8ebc
00000060: cc59 d4bd 5b60 2c3d 9d73 c7bd c249 febd
00000070: e767 7d3d f1ed 9abd 3205 053c 5657 bdbd
00000080: ecb6 5b3d b401 923d 384d d2bd 985b 6c3d
00000090: 635d 8f3c 5359 843d 166c b9bd 3e96 79bc
000000a0: ca91 dbbd 0ae1 edbd 455b f7bd 1470 08bd
000000b0: 4c53 e5bd 4484 843c 9772 8b3d 442b 4d3d
000000c0: ac93 ecbd e0bf d4bd 67a3 3c3d ccb9 933d
000000d0: 2080 c9bd e857 b73b 790c a93c 36a4 04be
000000e0: 251b fb3d 3849 46bb 49c0 f93d 58f9 7dbd
000000f0: 3a51 c4bd a43d d33d b6eb f23d 1767 c5bd
00000100: 599c 26be b3fd 33bd 526f fbbc 9f6c 253c
00000110: c794 f23d d4f7 4f3d bc29 23bd ef83 083e
00000120: 60e7 9cbd 27fb e43d e030 00bb 065c 963d
00000130: ec24 053e b6a8 c53d 1b56 04be f4ce a0bd
00000140: c50d a13d 4721 c7bd fa7e cabc 547e 63bc
00000150: 3cd0 80bc 8417 5cbd 82f8 5bbd fb60 0f3d
00000160: 8177 99bd aec6 1abe 042b e0bd 81dc 083d
00000170: 481e 043e 4ecf febd 1c53 cbbb faa4 ecbb
00000180: 0f67 c33d b63c d2bd 4020 17be 23cc d0bc
00000190: d000 31bd 34e2 723c d5cd 0b3d 4163 9f3c
000001a0: a50d 1fbe 6772 e9bd 5963 423c f4db 79bd
000001b0: 0fd2 63be 5659 7b3c c7f3 43bc 4ec3 f3bd
000001c0: dcf6 fbbd 264a 54bb 0cd0 c43c 095d 153d
000001d0: d3fa 003d 0f2e 143e 8649 f53b 9026 0a3c
000001e0: 78b2 acbd aa87 1bbd 29a7 733d ad97 cdbc
000001f0: 1a31 39bd d29b ab3d df21 943d 95ed fa3c
00000200: a366 86bd 5201 0bbc 9312 0d02 bcf5 83bc
00000210: 1fbb 743c 4e4f d3bc 0357 863b 9fef 7abe
00000220: 4f8a 86bd 805f b23d 9e71 9fbd dc04 84bd
00000230: efc6 01b7 be6e f53d 8fac 93bd 9f04 e6bb
00000240: 70d2 4fba bfa6 aebc ac62 233c 5329 1b3d
00000250: 4cc9 183e 4579 d4bc bb45 98bd 0295 9ebd
00000260: a615 4a39 59b5 5d3d 59cb 41bc 0030 30bd
00000270: f1e6 64bd b6e4 bcbc 140e 97bc 2709 b1bd
00000280: d4e5 23bd adca 0080 a07d ae3d 5425 eb38
00000290: ed30 5b3d 94dd 113d 4c0c 23be d2bd a43d
000002a0: ef23 98bd 4ead 39bc 5129 fd3d 9746 3abe
000002b0: 7b35 e9bc 6bb2 f0bd 8803 21bd 680f 143d
000002c0: 3f8b 943d 1c8b 59bd 4a8e 12bc 6e4a 1dbb
000002d0: 145a 353d a9d1 cc3d be29 8ebc 608e 1b3e
000002e0: 2e03 a43d c711 b6bd 223b 9dbd 463b 293e
000002f0: 0253 a5bc 5a20 c2bd 5152 983d 5e6d b1bd
00000300: 4e60 ab3d 5298 0180 349c 0300 694e 0f3c
00000310: f53e c3bd ee80 cb92 af08 0480 ea0e d8bd
00000320: 6b56 12bd 22e7 9a3d 2dcb 1f3d 1874 31bd
00000330: 45ba a708 8054 26be 76e8 e7bc fc41 0b32
00000340: 95a4 e93c e813 1dbe c4ad 58bd 0c4b 1a37
00000350: e002 213d 1053 b7bc 34cf bd3d 41e0 e83b
00000360: 286e ff3c 45ae bd3d 8fbe 0300 a791 e2bc
00000370: 64ab 3a3e aaa9 8bbd 3592 02be ac09 47bd
00000380: 0fe0 a1bd 53fa 79bc dd05 db3d 783a 1635
00000390: e5c1 853d 437e 0cbd faf9 d53d 9c81 4c3d
000003a0: 04c2 25bd dbbd a6ba 0576 e0bd 4443 0b3c
000003b0: 6845 2a3d a02d 9b3d 3f61 45bd bb4c c7be
000003c0: 9f9e c23d a527 b4bd 3c78 3dbd b373 b6bd
000003d0: 270e 9cbc 8461 1abe eace 993d 0564 ab3d
000003e0: 11fe f1bd f7ca 5fbd 784c 5abd d49f 30bd
000003f0: a5d1 8abd bcf1 8d3d 524b 873d ae4b b53b

dec.lin3.weight_v f4 [1, 64]
-0.00023061922 -0.011232093 0.086970806 0.054157313 -0.025712313 -0.024074404 -0.06198725 0.06656478
0.06637284 -0.1972218 -0.07438236 -0.038928498 0.13866805 -0.04904524 0.025333738 0.02381365
0.004729971 0.057971314 -0.0052126823 0.09594826 0.0911036 0.032054845 -0.031927634 0.017772367
-0.22384071 -0.035207883 0.022977099 0.056035228 -0.002974455 0.07113122 -0.099230446 -0.028815981
-0.006734599 0.010422753 -0.021885041 -0.002692242 -0.06453684 0.02741283 -0.00034104925 0.020483002
-0.06865744 -0.007859923 -7.530039e-07 -0.069076814 0.05671368 -0.109786645 0.0664342 0.05200531
-0.058539826 -0.13482067 0.12556307 0.0077172564 0.08871165 0.11024996 0.062273026 0.08269297
-0.038662743 0.09385532 -0.099600285 0.028616957 -0.11240861 -0.1593422 0.11393279 0.06940965
00000000: 60d2 71b9 d006 38bc c01d b23d 0fd4 5d3d
00000010: a1a2 d2bc af37 c5bc 58e6 7dbd 1e53 883d
00000020: 7cee 873d 83f4 49be c755 98bd 7d73 1fbd
00000030: fffe 0d3e a9e3 48bd b388 cf3c d814 c33c
00000040: dffd 9a3b 5473 6d3d 26cf aabb 8580 c43d
00000050: 8694 ba3d f14b 033d 8dc6 02bd 5b97 913c
00000060: 8036 65be 2436 10bd 783a bc3c 3285 653d
00000070: 13ef 42bb 3fad 913d 5539 cbbd 7e0f ecbc
00000080: e9ad dcbb 32c4 2a3c 4248 b3bc 5370 30bb
00000090: e42b 84bd df90 e03c dbce b2b9 f8cb a73c
000000a0: 469c 8cbd e8c6 00bc 0922 4ab5 2578 8dbd
000000b0: 9b4c 683d d2d7 e0bd a70e 883d 8503 553d
000000c0: 75c7 6fbd 6e0e 0abe 9b93 003e 0ae1 fc3b
000000d0: 74ae b53d bbca e13d 0012 7f3d ef5a a93d
000000e0: d35c 1ebd 3837 c03d 3cfb cbbd 1c6e ea3c
000000f0: 7c36 e6bd 9a2a 23be 9855 e93d a626 8e3d

exp_avg f4 [64]
-7.874714e-05 -7.684542e-06 1.884767e-05 0.00053621986 0.00017032695 7.4859972e-06 4.40504e-05 0.00011418094
2.43646e-05 -2.4902925e-05 2.4622703e-05 5.0512335e-05 0.0 -2.5541467e-05 -1.440356e-05 3.3543485e-05
-2.8630151e-05 0.000103490005 7.5380165e-05 3.9385162e-05 -9.677434e-05 1.6775435e-05 -3.5957896e-06 1.3563522e-05
-5.2013896e-05 -5.1144475e-06 -9.477415e-06 -0.000113187 1.7394663e-06 -0.00011321639 -2.0228515e-05 -6.371058e-05
-1.8281728e-05 -2.3699977e-05 -3.2484983e-05 5.2994106e-05 -7.4695567e-06 -7.383072e-05 0.00013084577 7.1751754e-05
-1.8702729e-05 1.3725463e-05 8.702918e-06 3.65798e-05 0.00012990595 -4.33035e-05 -0.00010178687 6.1743696e-05
-6.647792e-05 0.00015168545 -3.3733834e-06 -2.4055624e-05 -1.6052741e-06 1.9595453e-05 4.0427294e-05 1.2503456e-05
4.0877956e-05 -3.8465732e-05 -0.00014397816 8.1380815e-05 -4.8030277e-05 2.7740534e-05 0.00023386542 2.551348e-05
00000000: 0d25 a5b8 dbec 00b7 101b 9e37 1b91 0c3a
00000010: cb99 3239 3a30 fb36 c2c2 3838 6d74 ef38
00000020: 9562 cc37 a0e6 d0b7 da8c ce37 35dd 5338
00000030: 0000 0000 e241 d6b7 d2a6 71b7 0bb1 0c38
00000040: c82a f0b7 c608 d938 6b15 9e38 7f31 2538
00000050: 54f3 cab8 f9b8 8c37 324f 71b6 e28e 6337
00000060: 7f29 5ab8 c59c abb6 3001 1fb7 cf5e edb8
00000070: 9b77 e935 966e edb8 68b0 a9b7 5b9c 85b8
00000080: b65b 99b7 50cf c6b7 7c40 08b8 fd45 5e38
00000090: 01a3 fab6 91d5 9ab8 a533 0939 6e79 9638
000000a0: cee3 9cb7 6a46 6637 c002 1237 436d 1938
000000b0: 5d37 0839 c7a0 35b8 6976 d5b8 657c 8138
000000c0: 106a 8bb8 c10d 1f39 4962 62b6 0fcb c9b7
000000d0: cc74 d7b5 ea60 a437 7a90 2938 efc5 5137
000000e0: 5f74 2b38 4456 21b8 d8f8 16b9 feaa aa38
000000f0: 1e74 49b8 58b4 e837 c539 7539 c805 d637

exp_avg_sq f4 [64]
3.1069737e-07 9.303945e-08 9.625658e-08 4.491388e-06 1.6166868e-07 7.688067e-08 1.3684482e-07 3.1947602e-07
7.254894e-07 2.7992476e-07 2.2982492e-07 1.7085255e-06 0.0 7.3153393e-07 1.3425428e-07 2.0384303e-07
9.5890265e-08 7.1963177e-07 3.4975534e-07 1.3622348e-07 1.8728255e-07 6.0842055e-08 4.9770097e-08 1.9442524e-07
8.6348166e-08 3.2925016e-07 1.3459335e-07 2.8018135e-07 2.1373249e-07 2.2862812e-07 2.2027814e-07 2.3877465e-07
1.6682804e-07 6.767718e-08 2.7403547e-07 2.9962357e-07 1.5971789e-07 1.0918714e-06 1.5273869e-07 8.196405e-07
6.5414434e-07 2.7835063e-07 1.54121e-07 1.0276834e-06 1.1401189e-06 9.5035625e-07 1.8357247e-07 3.8374716e-07
3.1588212e-07 1.3191486e-07 2.3326892e-08 2.3621988e-07 1.6198578e-07 1.14569325e-07 8.278528e-07 1.6983195e-07
2.276553e-07 5.6781005e-07 7.5085063e-07 7.441487e-07 6.632147e-08 9.842595e-07 9.319855e-07 2.7472133e-08
00000000: eccd a634 fbcc c733 9db5 ce33 bbb4 9636
00000010: 2697 2d34 9819 a533 9eef 1234 7384 ab34
00000020: 40bf 4235 9148 9634 cbc5 7634 7d50 e535
00000030: 0000 0000 a15e 4435 8927 1034 f2df 5a34
00000040: 3bec cd33 b82c 4135 02c6 bb34 d344 1234
00000050: d617 4934 46a8 8233 cdc2 5533 34c3 5034
00000060: 686e b933 ccc3 b034 bd84 1034 d56b 9634
00000070: 577e 6534 d27c 7534 9885 6c34 f030 8034
00000080: 5821 3334 ec55 9133 261f 9334 f3db a034
00000090: eb7e 2b34 6a8c 9235 7e00 2434 4405 5c35
000000a0: 7598 2f35 3870 9534 757c 2534 efee 8935
000000b0: 3006 9935 fc1b 7f35 041c 4534 cf05 ce34
000000c0: 8296 a934 7ba4 0d34 6160 c832 a0a3 7d34
000000d0: 50ee 2d34 2709 f633 9c39 5e35 0d5b 3634
000000e0: 6a71 7434 9c6b 1835 108e 4935 82c1 4735
000000f0: 9d6c 8e33 e61a 8435 8e2d 7a35 dcfb eb32

exp_avg f4 [64, 4]
-9.5006835e-05 -0.00026676976 0.0001266071 -1.0972238e-05 -1.7193433e-05 -1.6088206e-05 -9.722487e-06 5.2494056e-06
6.3490996e-05 5.8481888e-05 2.5925952e-05 9.4158415e-05 -6.8325535e-05 0.0003568503 0.00034690002 -4.5244276e-05
0.00012911945 5.725786e-05 6.917416e-05 -3.6609243e-05 7.62673e-06 6.633092e-06 -9.031887e-06 -8.041326e-06
0.00027984497 -0.00011255963 4.541437e-05 -0.00014783289 0.0002957137 0.00012518596 -4.2237374e-05 8.669449e-05
3.3216107e-05 3.5315174e-05 -3.467803e-05 8.916152e-05 6.983428e-06 1.7848053e-05 3.5737918e-05 -3.7561935e-05
6.329003e-05 3.800191e-05 -2.1168185e-05 5.2140946e-05 9.1576934e-05 -7.559998e-05 7.002716e-05 -1.7768459e-06
0.0 0.0 0.0 0.0 -1.1362617e-05 -1.0709912e-05 -7.1994466e-05 6.4286783e-06
-2.7001144e-05 7.686129e-06 -0.0001369368 -6.9080095e-05 6.73121e-06 9.166532e-06 -1.25156375e-05 -2.8990758e-06
-1.910968e-05 1.0420483e-05 -1.2360374e-05 -3.0357266e-06 -4.3966535e-05 2.5919007e-05 3.7172482e-05 -7.2897997e-06
0.000117038166 9.471041e-05 -1.8640836e-05 1.3459869e-05 2.8908391e-05 4.7087527e-05 4.9667524e-05 -3.3349872e-06
-7.219675e-05 -3.3649874e-05 3.197732e-05 0.00010577906 8.556174e-06 5.802054e-06 -1.7389639e-05 2.1677235e-05
-2.1455185e-06 -3.8001326e-06 -3.2974328e-06 -2.6589054e-05 2.5674522e-05 4.692211e-05 7.242232e-06 -2.176331e-05
-0.00016315962 -0.00049918186 -0.00028756246 -3.6780602e-06 -8.665829e-05 -9.952288e-05 -5.0704357e-06 0.0007216425
2.1694857e-06 8.354956e-06 -2.0975887e-05 -7.893676e-06 -1.9197523e-05 -9.390563e-06 -0.0001353956 1.7190177e-05
-4.097084e-05 -1.8759136e-05 8.8912704e-05 -0.000103585546 -0.00045879703 -0.00046959828 -0.000573035 -0.000111220324
-4.2576507e-06 -3.0008834e-05 -3.7581224e-06 3.7040038e-05 1.634916e-05 5.667291e-05 -5.3831372e-05 0.00014794222
-1.3516081e-06 1.5569703e-05 -2.4852756e-05 -1.1208306e-05 -9.959277e-07 -1.7436118e-07 -2.469923e-05 1.062628e-06
9.447878e-05 0.00012076355 -6.5249005e-05 0.00010143648 0.0001379117 0.00011187927 -4.5970635e-05 2.6666814e-06
6.0335653e-05 -7.662234e-05 -4.405652e-05 0.00010340617 1.583171e-05 -1.1265384e-05 -3.3288063e-05 4.567163e-05
5.039965e-05 0.00012408794 -4.744862e-05 6.120512e-05 0.0008630459 0.0008113053 0.0015903594 0.0065373117
6.076732e-05 -1.4318889e-05 -2.773301e-05 -1.2274739e-05 -0.00012588663 -0.00011387451 0.00020662257 -0.00022276433
3.7920715e-06 2.2087352e-06 -1.3262397e-05 6.845932e-06 5.6420173e-05 4.0132116e-05 -3.8169946e-05 0.000119290584
0.00029361589 -0.00017263288 -2.5029743e-05 0.00018918901 1.0623006e-05 2.4607738e-05 5.399898e-05 3.0368636e-05
-2.605568e-05 1.9461506e-05 -4.8322956e-05 6.3960266e-05 -0.00010536683 -7.046116e-05 2.2621447e-05 -1.2375008e-05
-4.8199727e-05 -4.8986527e-05 -0.00013153884 7.0600217e-06 0.00067145034 0.00021460357 4.2380456e-05 0.00036299598
1.1462334e-06 1.8988779e-06 8.712843e-06 2.5552304e-06 1.4660741e-06 2.1758418e-05 7.410885e-05 -0.00014832646
6.438443e-06 6.247812e-06 -2.58473e-05 -2.781114e-05 4.9552777e-06 2.468617e-06 0.000116875235 -2.5835447e-05
0.00017039123 0.00021698876 0.00013566522 7.7088465e-05 -2.2737817e-05 -4.20196e-06 4.2127318e-05 3.4346984e-05
1.6320662e-05 1.7878892e-05 8.345743e-05 2.0075368e-05 -3.1443273e-05 -7.294868e-05 5.229665e-06 5.7567963e-06
-4.5450677e-05 -4.9434377e-05 -0.00010359273 7.745779e-06 -8.523916e-05 -7.2032504e-05 0.00012968571 -5.242107e-06
-5.612413e-05 -7.030467e-05 -0.00010883291 -8.926365e-05 -7.877013e-05 -6.2626044e-05 -9.225034e-05 0.00011871299
0.000116220755 -7.391657e-05 0.00010314424 -0.0002169967 5.31429e-06 5.5525556e-06 6.4244214e-06 1.3666125e-05
00000000: 683e c7b8 3bdd 8bb9 d6c1 0439 6715 38b7
00000010: 9e3a 90b7 29f5 86b7 c41d 23b7 0d24 b036
00000020: 7826 8538 734a 7538 8f7b d937 ea76 c538
00000030: fe49 8fb8 a317 bb39 22e0 b539 acc4 3db8
00000040: 3d64 0739 2928 7038 9811 9138 e08c 19b8
00000050: 1de9 ff36 d491 de36 a987 17b7 3be9 06b7
00000060: 28b8 9239 fe0d ecb8 4f7b 3e38 9703 1bb9
00000070: 050a 9b39 5a44 0339 0928 31b8 c0cf b538
00000080: 8651 0b38 611f 1438 4073 11b8 3afc ba38
00000090: 3153 ea36 67b8 9537 4ce5 1538 d28b 1db8
000000a0: 93ba 8438 3d64 1f38 5592 b1b7 eab1 5a38
000000b0: fe0c c038 6e8b 9eb8 8cdb 9238 f67b eeb5
000000c0: 0000 0000 0000 0000 0000 0000 0000 0000
000000d0: 12a2 3eb7 b9ae 33b7 bcfb 96b8 edb5 d736
000000e0: 8480 e2b7 acf3 0037 b196 0fb9 18df 90b8
000000f0: a7dc e136 f5c9 1937 41fa 51b7 be8d 42b6
00000100: ba4d a0b7 a2d3 2e37 675f 4fb7 63b9 4bb6
00000110: b568 38b8 a56c d937 a6e9 1b38 e79a f4b6
00000120: 6372 f538 449f c638 e45e 9cb7 b2d1 6137
00000130: 4c80 f237 d97f 4538 1952 5038 a5ce 5fb6
00000140: 5668 97b8 4723 0db8 631f 0638 b3d5 dd38
00000150: 7d8c 0f37 44af c236 f7df 91b7 82d7 b537
00000160: bafb 0fb6 c805 7fb6 7749 5db6 8f0b dfb7
00000170: 9e5f d737 3bce 4438 4d02 f336 5a90 b6b7
00000180: d415 2bb9 87db 02ba fbc3 96b9 98d4 76b6
00000190: 51bc b5b8 f0b6 d0b8 b622 aab6 9c2c 3d3a
000001a0: 7b97 1136 432c 0c37 60f5 afb7 156f 04b7
000001b0: 5e0a a1b7 298c 1db7 fbf8 0db9 a033 9037
000001c0: 1bd8 2bb8 f05c 9db7 a576 ba38 113c d9b8
000001d0: b28a f0b9 6a34 f6b9 ba37 16ba f53e e9b8
000001e0: f1dc 8eb6 7bbb fbb7 0d34 7cb6 705b 1b38
000001f0: 8e25 8937 13b4 6d38 ffc8 61b8 f020 1b39
00000200: e768 b5b5 af9b 8237 e37a d0b7 4f0b 3cb7
00000210: d1ab 85b5 0938 3bb4 3131 cfb7 9f9f 8e35
00000220: e922 c638 7042 fd38 4bd6 88b8 4cba d438
00000230: 649c 1039 baa0 ea38 98d0 40b8 3df5 3236
00000240: ea10 7d38 4eb0 a0b8 54c9 38b8 c4db d838
00000250: 57ce 8437 7500 3db7 c99e 0bb8 8a8f 3f38
00000260: 3664 5338 9a1d 0239 9103 47b8 405b 8038
00000270: 083e 623a c7ad 543a 9b73 d03a f236 d63b
00000280: 6ae0 7e38 293b 70b7 2fa4 e8b7 9aef 4db7
00000290: 6f00 04b9 e9cf eeb8 d3a8 5839 d895 69b9
000002a0: 4b7b 7e36 c839 1436 9081 5eb7 1cb6 e536
000002b0: b3a4 6c38 8853 2838 ab18 20b8 a52b fa38
000002c0: 75f0 9939 c904 35b9 f7f6 d1b7 0a61 4639
000002d0: 7739 3237 b76c ce37 f77c 6238 26c0 fe37
000002e0: 2692 dab7 4441 a337 61ae 4ab8 6822 8638
000002f0: 63f8 dcb8 8cc4 93b8 30c3 bd37 419e 4fb7
00000300: 102a 4ab8 e276 4db8 b0ed 09b9 20e5 ec36
00000310: 4504 303a 3507 6139 abc1 3138 7f50 be39
00000320: 48d8 9935 f3dc fe35 602d 1237 867a 2b36
00000330: ecc5 c435 d985 b637 e36a 9b38 1588 1bb9
00000340: ce09 d836 4ca4 d136 a7d2 d8b7 f84b e9b7
00000350: 8345 a636 84aa 2536 ea1a f538 33b9 d8b7
00000360: 0cab 3239 7a87 6339 5b41 0e39 8eaa a138
00000370: 17bd beb7 90fe 8cb6 ddb1 3038 cb0f 1038
00000380: 5be8 8837 a1fa 9537 de05 af38 8667 a837
00000390: f5e1 03b8 06fc 98b8 7b7a af36 812a c136
000003a0: 4ba2 3eb8 c257 4fb8 ec3f d9b8 def3 0137
000003b0: 6dc2 b2b8 2810 97b8 3efc 0739 5be5 afb6
000003c0: d366 6bb8 8870 93b8 393d e4b8 0f33 bbb8
000003d0: 6431 a5b8 1a56 83b8 8676 c1b8 8df5 f838
000003e0: 8bbb f338 a803 9bb8 244f d838 9c89 63b9
000003f0: 6751 b236 1750 ba36 5c91 d736 8f47 6537

exp_avg_sq f4 [64, 4]
1.8718058e-06 4.264356e-06 1.6760646e-06 7.0713645e-07 1.1190618e-07 7.9858374e-08 5.65878e-08 2.9988772e-08
5.5357066e-08 1.3850402e-07 1.5556034e-07 1.2767572e-07 1.3182306e-07 2.8727745e-06 3.137777e-06 3.5607936e-06
8.3371106e-08 1.9645276e-08 4.170773e-08 1.003695e-07 4.892222e-08 3.7258523e-08 1.3984341e-07 1.212854e-07
2.9523435e-06 7.466782e-07 2.5587778e-07 3.591348e-07 2.1157643e-06 8.8481795e-07 1.4610788e-07 2.1555023e-07
1.3975139e-06 2.0807342e-06 1.8857969e-07 3.2470416e-07 3.3483815e-07 1.4519031e-07 1.7701227e-07 2.9566613e-07
1.0319535e-06 8.1704934e-07 5.204758e-07 3.6021427e-07 2.4775014e-05 1.9384577e-06 3.558092e-06 3.9169714e-07
0.0 0.0 0.0 0.0 1.8763755e-07 2.166611e-07 4.2215947e-07 1.8829654e-07
2.1106284e-06 6.9820817e-07 3.4725622e-07 2.1801284e-07 8.174963e-09 1.4974239e-08 3.7023376e-08 5.42424e-08
1.06311035e-07 4.199785e-08 1.928309e-07 1.5172608e-07 1.2853599e-07 1.8910458e-07 1.0790973e-07 1.8458306e-07
8.418857e-07 6.114956e-07 1.533678e-07 1.2498703e-07 1.5008786e-07 3.4267103e-07 1.9682201e-07 2.396832e-07
9.349689e-08 9.400527e-08 1.1317059e-07 2.895517e-07 3.186163e-08 2.0009422e-08 8.572865e-08 3.6955775e-08
1.6505889e-09 5.138147e-09 2.6105742e-08 4.572336e-08 4.024608e-07 9.521461e-07 2.2179618e-07 3.1965183e-07
4.5286762e-07 1.8897001e-06 8.6540166e-07 2.6659412e-08 2.9433354e-06 3.30489e-06 6.0793973e-06 1.7037441e-06
9.2580855e-08 1.8072194e-07 7.2098544e-08 2.5621176e-08 9.9748135e-08 1.5747644e-07 6.958892e-07 2.5351918e-07
2.7724437e-07 3.4805984e-07 1.2935445e-07 1.9214393e-07 1.7527382e-06 1.8764706e-06 1.418816e-06 2.165845e-07
2.3647809e-07 2.6595697e-07 9.253978e-08 7.986177e-08 3.7034957e-07 5.816359e-07 2.4971033e-07 1.6124454e-07
5.6381776e-08 1.5852885e-08 1.4796576e-07 7.161569e-08 1.7296074e-08 4.5762164e-10 8.9543605e-08 1.2645121e-08
3.7631983e-07 3.6405987e-07 4.811372e-07 3.6607693e-07 1.4878755e-06 1.1550895e-06 6.0458615e-07 6.915912e-07
1.7728472e-07 3.1378008e-06 2.0175557e-06 4.3698654e-07 8.3577936e-07 1.9036347e-06 3.470005e-07 1.9538658e-07
9.276976e-08 2.967493e-07 3.3314972e-08 5.1100624e-08 0.000469122 0.0003980474 0.000731841 0.00036026834
1.0110031e-05 2.981917e-06 1.3876644e-06 9.487837e-08 1.5631001e-06 1.6419714e-06 7.867496e-06 2.0371494e-06
1.66685e-08 6.4884635e-09 1.6133122e-07 1.6653156e-07 2.8163752e-06 1.2739705e-06 3.9273365e-07 1.4557626e-06
1.2800689e-05 3.220261e-06 1.776396e-07 2.1477836e-06 6.6696833e-07 9.311866e-08 7.4193116e-07 5.1660925e-07
2.0112397e-07 3.9977067e-07 2.3978006e-07 5.9296728e-08 3.4598335e-07 1.6089432e-07 2.4895388e-07 3.7493814e-07
4.6759658e-07 3.8238218e-07 2.748411e-07 2.641607e-07 2.7860256e-06 4.326535e-07 4.0518952e-07 4.738231e-07
1.0640199e-09 3.0647347e-09 2.7679894e-08 6.4364625e-09 1.8848021e-07 1.0772181e-06 9.869179e-07 1.0114398e-06
6.577925e-09 6.192274e-09 6.663193e-08 9.0644676e-08 2.826786e-07 7.097531e-08 2.1295662e-07 1.2617969e-07
3.6624934e-07 3.5859412e-07 2.952883e-07 5.6774036e-07 1.8587005e-07 3.0345177e-07 1.00810595e-07 3.648885e-07
9.082224e-08 8.5398696e-08 3.462989e-07 2.8435585e-07 3.9417787e-07 1.4730964e-06 1.2215295e-07 2.0429766e-08
3.8980164e-07 5.947562e-07 3.1626027e-07 1.9639467e-07 3.8377712e-07 5.1435273e-07 1.2830287e-06 4.999572e-07
4.8327834e-08 8.597764e-08 5.8550693e-08 4.763686e-08 2.5755285e-06 2.063047e-06 2.0390366e-06 4.51619e-06
1.4112014e-06 4.334498e-07 5.747146e-07 4.5895698e-07 3.8717745e-09 4.2176094e-09 1.4376633e-08 2.0599197e-08
00000000: c23a fb35 8a16 8f36 24f5 e035 0cd2 3d35
00000010: 1351 f033 9b7e ab33 f20a 7333 01cd 0033
00000020: bdc1 6d33 b2b7 1434 1a08 2734 3c17 0934
00000030: 3f8b 0d34 e4c9 4036 9992 5236 f8f5 6e36
00000040: c009 b333 6bc0 a832 2222 3333 b78a d733
00000050: 8d1e 5233 2e06 2033 dd27 1634 ad3a 0234
00000060: e020 4636 566f 4835 935f 8934 1ccf c034
00000070: 8efc 0d36 3a84 6d35 d4e1 1c34 ff71 6734
00000080: 3692 bb35 bea2 0b36 647c 4a34 0053 ae34
00000090: cec3 b334 9ce5 1b34 c310 3e34 0bbc 9e34
000000a0: a781 8a35 3453 5b35 d3b6 0b35 7963 c134
000000b0: f0d3 cf37 7316 0236 8ec7 6e36 724a d234
000000c0: 0000 0000 0000 0000 0000 0000 0000 0000
000000d0: 6b79 4934 5aa3 6834 28a5 e234 8f2e 4a34
000000e0: 52a4 0d36 806c 3b35 886e ba34 ea16 6a34
000000f0: de71 0c32 b3a0 8032 a203 1f33 26f8 6833
00000100: 1c4d e433 2061 3433 f40c 4f34 26ea 2234
00000110: b403 0a34 ac0c 4b34 00bc e733 ce31 4634
00000120: f2fd 6135 a825 2435 6bad 2434 2c34 0634
00000130: d627 2134 59f8 b734 0656 5334 cfad 8034
00000140: 75c8 c833 f2df c933 3108 f333 af73 9b34
00000150: 3cd8 0833 2fe1 ab32 d319 b833 4eb9 1e33
00000160: efda e230 9e8b b031 223f e032 5e61 4433
00000170: cb11 d834 fb96 7f35 df26 6e34 9d9c ab34
00000180: a721 f334 9aa1 fd35 f34d 6835 ab00 e532
00000190: 1e86 4536 94c9 5d36 a0fd cb36 34ac e435
000001a0: ddd0 c633 780c 4234 98d4 9a33 9015 dc32
000001b0: 1e35 d633 cb16 2934 24cd 3a35 691b 8834
000001c0: 2dd8 9434 fbdc ba34 aee4 0a34 1f50 4e34
000001d0: a03f eb35 0adb fb35 266e be35 4b8e 6834
000001e0: 9aea 7d34 d9c8 8e34 48ba c633 7980 ab33
000001f0: 75d4 c634 b721 1c35 ed0f 8634 9022 2d34
00000200: 6b28 7233 dd2c 8832 85e0 1e34 24cb 9933
00000210: 7892 9432 8594 fb2f 1e4b c033 d53d 5932
00000220: 0109 ca34 0274 c334 7f27 0135 3b89 c434
00000230: 03b3 c735 9308 9b35 d84a 2235 c9a5 3935
00000240: a75b 3e34 0293 5236 5865 0736 f99a ea34
00000250: 525a 6035 6480 ff35 634b ba34 74cb 5134
00000260: b738 c733 ea50 9f34 3316 0f33 bb79 5b33
00000270: 7df4 f539 05b1 d039 05d9 3f3a 66e2 bc39
00000280: 419e 2937 f21c 4836 c93f ba35 efbf cb33
00000290: b6cb d135 b561 dc35 a3fe 0337 f6b5 0836
000002a0: 6b2e 8f32 21f1 de31 633a 2d34 d9cf 3234
000002b0: f500 3d36 4bfd aa35 e7d8 d234 9f63 c335
000002c0: 8ac2 5637 aa1b 5836 34bd 3e34 a422 1036
000002d0: b709 3335 86f8 c733 1f29 4735 1ead 0a35
000002e0: 89f4 5734 10a0 d634 1fbb 8034 71ad 7e33
000002f0: 97bf b934 4bc2 2c34 f6a7 8534 1b4b c934
00000300: fc09 fb34 354a cd34 e08d 9334 f8d1 8d34
00000310: 8ef7 3a36 7247 e834 d388 d934 c061 fe34
00000320: df3c 9230 629b 5231 bbc4 ed32 b927 dd31
00000330: 0c61 4a34 ef94 9035 3e76 8435 cfc0 8735
00000340: 0a04 e231 d1c3 d431 4a17 8f33 70a8 c233
00000350: 0dc3 9734 176b 9833 12a9 6434 027c 0734
00000360: eda0 c434 cd84 c034 1d88 9e34 d266 1835
00000370: 9293 4734 18ea a234 367d d833 e5e5 c334
00000380: 0e0a c333 6e64 b733 f5ea b934 92a9 9834
00000390: 659f d334 35b7 c535 2629 0334 887d af32
000003a0: ee45 d134 56a7 1f35 7bca a934 8ee0 5234
000003b0: ed09 ce34 0d12 0a35 8834 ac35 cc34 0635
000003c0: 0491 4f33 b5a2 b833 2b79 7b33 4899 4c33
000003d0: 3ed7 2c36 e172 0a36 62d6 0836 c789 9736
000003e0: 8368 bd35 e3b4 e834 1646 1a35 9166 f634
000003f0: 7d08 8531 7cea 9031 1afd 7632 1df2 b032

exp_avg f4 [64]
-4.9379087e-05 6e-45 6e-45 2.5498508e-05 3.0149074e-06 1.8032041e-37 6e-45 -0.0001875207
-1.274093e-05 5.6738e-05 -6.364919e-05 -2.0358288e-05 0.0 3.622244e-05 -2.1234755e-05 0.0
-4.8517086e-06 1.0721978e-05 -2.554583e-05 6e-45 0.00018807032 -2.9338901e-08 3.2098927e-05 -3.40256e-05
-3.1725995e-05 7.235895e-05 6e-45 -4.659501e-05 -4.4031116e-05 6.463191e-05 5.3711105e-05 4.9526647e-05
1.4901143e-06 0.0 6.060607e-06 6e-45 2.9262237e-05 -6.5192476e-06 -6.837563e-05 2.947636e-05
9.0370755e-05 -4.215656e-06 1.4669685e-05 -2.4360568e-05 7.3566734e-05 -1.2371572e-05 -1.3122649e-05 0.00030923216
3.2629023e-07 -2.7446462e-05 7.400827e-05 1.5500678e-05 4.5987153e-06 3.8766255e-05 1.2587447e-05 -0.00015701311
7.7502555e-05 3.1940875e-05 -5.6701615e-06 1.4528221e-05 -7.785385e-05 -2.2343397e-06 -2.5422916e-05 -1.1493644e-06
00000000: 641c 4fb8 0400 0000 0400 0000 a1e5 d537
00000010: b753 4a36 7e70 7502 0400 0000 34a1 44b9
00000020: e1c1 55b7 f7f9 6d38 667b 85b8 17c7 aab7
00000030: 0000 0000 8ced 1738 4a21 b2b7 0000 0000
00000040: dccb a2b6 8be2 3337 414b d6b7 0400 0000
00000050: be34 4539 ed04 fcb2 f6a1 0638 b6b6 0eb8
00000060: 8711 05b8 6abf 9738 0400 0000 036f 43b8
00000070: 0dae 38b8 fe8a 8738 dc47 6138 d5ba 4f38
00000080: f0ff c735 0000 0000 385c cb36 0400 0000
00000090: 2d78 f537 e9bf dab6 e364 8fb8 0044 f737
000000a0: 6e85 bd38 3674 8db6 d11d 7637 ec59 ccb7
000000b0: d747 9a38 7f8f 4fb7 5929 5cb7 7020 a239
000000c0: fd2c af34 d43c e6b7 e334 9b38 7407 8237
000000d0: aa4e 9a36 f398 2238 ac2e 5337 e3a3 24b9
000000e0: de88 a238 41f8 0538 5142 beb6 3cbe 7337
000000f0: 7845 a3b8 aaf1 15b6 4c43 d5b7 dc43 9ab5

exp_avg_sq f4 [64]
3.0690234e-08 1.1019724e-09 1.5731092e-09 1.3440616e-06 4.3418663e-07 3.089666e-10 2.3375984e-13 1.1039228e-06
3.757632e-07 9.821756e-07 1.2410273e-07 1.3949713e-07 0.0 6.359912e-07 2.3674451e-07 0.0
1.7647174e-07 1.1825924e-08 7.6817294e-08 4.698922e-09 1.5482527e-06 3.19362e-08 9.5231434e-07 8.037516e-07
8.227814e-07 8.624655e-07 4.339425e-15 1.2115893e-07 1.2419448e-06 3.3730905e-07 1.0650737e-06 1.339453e-07
2.965625e-07 0.0 1.4923418e-07 8.5565593e-13 4.6079828e-07 1.0603773e-07 2.728107e-07 9.885998e-08
2.2940606e-06 4.3774094e-08 6.620307e-07 2.8613553e-07 1.1292651e-06 1.1035784e-07 1.6587264e-06 4.936627e-06
4.659837e-07 2.5693424e-07 5.3043175e-07 5.257804e-07 1.2098518e-06 1.7985856e-06 2.80818e-07 2.1434676e-06
1.1087274e-07 1.497681e-07 7.549107e-08 1.3619419e-07 2.481537e-07 1.8357923e-07 1.1735261e-07 1.5453901e-08
00000000: 45d0 0333 3574 9730 dc34 d830 9b65 b435
00000010: 281a e934 2fdb a92f 5898 832a 802a 9435
00000020: 80bc c934 4cd3 8335 1941 0534 aec8 1534
00000030: 0000 0000 fcb8 2a35 d633 7e34 0000 0000
00000040: 2f7c 3d34 f72a 4b32 c1f6 a433 2874 a131
00000050: 8fcd cf35 392a 0933 8ba2 7f35 64c1 5735
00000060: 1bdd 5c35 2e84 6735 2258 9c27 ea17 0234
00000070: e6b0 a635 6717 b534 a7f3 8e35 9bd2 0f34
00000080: 3d37 9f34 0000 0000 2e3d 2034 82d8 702b
00000090: a263 f734 dcb6 e333 d176 9234 d94c d433
000000a0: a9f3 1936 2002 3c33 67b6 3135 2b9e 9934
000000b0: 4191 9735 ddfd ec33 68a1 de35 4ea5 a536
000000c0: 502c fa34 c6f0 8934 fe62 0e35 5b23 0d35
000000d0: 3162 a235 ee66 f135 55c3 9634 7ed8 0f36
000000e0: ef18 ee33 f1cf 2034 a81d a233 c63c 1234
000000f0: fc39 8534 e01d 4534 4803 fc33 7dbf 8432
