wn:lip_1/version_None/checkpoints/epoch=2499-step=4999.ckpt (torch, 116476 bytes, 21 tensors)

dec.lin0.bias f4 [64]
0.03232753 -0.2660028 -0.45885012 0.41264963 0.054137643 0.09917471 0.51045597 -0.13459039
-0.51161724 -0.020010913 0.05323391 0.49973983 -0.22157587 -0.32922077 -0.007768597 -0.19690484
0.032062948 0.23250413 0.4564971 0.36177447 0.13141136 -0.06756704 -0.012116096 -0.22903027
-0.051879924 -0.3732321 0.42417225 0.08020082 -0.019730618 -0.19790216 0.17446737 0.24341078
-0.054806095 0.4314874 0.17261301 0.24365218 0.29215375 0.29938695 0.57595867 -0.3323801
-0.060891684 -0.35468438 0.41479075 -0.11979363 0.5761138 -0.4094202 0.2967087 -0.41016823
-0.5628947 -0.051496 -0.42712453 -0.30828685 -0.16560124 0.24484825 0.3328178 0.39491585
-0.3929285 -0.14682539 -0.00840963 0.35320902 -0.20737714 -0.45236972 -0.67618644 -0.08633105
00000000: df69 043d 8531 88be 67ee eabe d046 d33e
00000010: 6fbf 5d3d 1c1c cb3d 3ead 023f 10d2 09be
00000020: 59f9 02bf eded a3bc cd0b 5a3d e6dd ff3e
00000030: c9e4 62be a08f a8be b78f febb 6ca1 49be
00000040: 7054 033d 9015 6e3e fdb9 e93e 813a b93e
00000050: b390 063e 9760 8abd 9782 46bc e986 6abe
00000060: 0b80 54bd 4718 bfbe 1b2d d93e 5440 a43d
00000070: 1ba2 a1bc dda6 4abe 93a7 323e ad40 793e
00000080: 5b7c 60bd ebeb dc3e 77c1 303e f57f 793e
00000090: 2d95 953e 3f49 993e 0772 133f b92d aabe
000000a0: 8f69 79bd 3199 b5be 745f d43e 5d56 f5bd
000000b0: 327c 133f 869f d1be 34ea 973e 9201 d2be
000000c0: de19 10bf 78ed 52bd 11b0 dabe c6d7 9dbe
000000d0: 5f93 29be 80b9 7a3e 1867 aa3e 6932 ca3e
000000e0: ed2d c9be 6559 16be 8bc8 09bc d0d7 b43e
000000f0: ac5a 54be 019d e7be 8e1a 2dbf 55ce b0bd

dec.lin0.weight_v f4 [64, 4]
-0.40648308 0.14036128 -0.25378463 0.31529394 -0.3190211 0.49925858 0.24134529 -0.44905066
0.054599814 0.12824488 -0.07787112 -0.4677224 0.26070634 -0.01905273 -0.12703134 -5.8532198e-05
0.24332754 -0.13843583 0.43855944 -0.33120546 -0.34375083 0.40795782 -0.062231958 -0.45415395
0.48967284 0.28631812 0.32529628 -0.25158173 0.12340753 -0.020529915 0.35397026 -0.30195183
0.21444786 -0.15802564 -0.03331276 0.16068122 0.41345236 -0.18467306 -0.35356203 0.105887204
-0.035523966 0.1182805 0.060609847 -0.12077921 0.35126427 0.18926649 -0.34698668 -0.32865557
-0.32646975 0.3242754 0.5820378 0.38370678 -0.31163853 0.1846569 -0.13419132 0.3253616
-0.4360653 0.4571206 0.34681195 0.3510035 0.09928808 0.057031065 -0.21446253 -0.17916664
-0.05460799 -0.10144213 -0.11920257 0.030332604 -0.0777 -0.3434799 0.44320446 -0.13656381
-0.3430788 0.35350934 0.074726634 -0.24185199 0.5372899 -0.22213453 -0.47438353 -0.24984138
-0.36510578 0.053275988 -0.30600166 -0.4244729 -0.33379823 0.23484428 -0.18716751 -0.47416425
0.46154404 -0.36748976 -0.2876375 0.2977745 0.009688116 0.42969856 0.20653437 0.08778831
0.32721704 0.24872407 -0.18877296 0.50360197 -0.08970413 0.4451885 0.28578004 -0.42469734
0.28490204 -0.4168676 -0.27832904 -0.20614311 0.11721532 0.32880974 -0.3032034 -0.3590032
-0.23777373 -0.05299044 -0.3373208 0.0057809292 -0.055821344 0.39479512 0.376759 0.25550354
0.09700928 0.2918335 0.39456564 -0.25664508 -0.4998611 0.106405295 0.118611105 0.1158059
-0.19367407 0.35924095 -0.1705314 0.30709133 -0.091176175 -0.009630819 0.18678662 -0.18886521
0.0067064767 -0.31150198 0.10751988 0.16493681 0.044916317 0.42379573 -0.44506785 0.26687568
-0.17238274 -0.47152907 0.06621267 0.43457094 0.19203784 -0.19067848 -0.023332497 -0.08101102
-0.51589847 -0.12288302 0.17972855 0.13050048 -0.1954863 0.0956 -0.47061187 -0.39069122
-0.28492668 -0.0005468306 0.08702239 0.016418086 -0.46174505 -0.10413796 0.54655755 0.29573557
0.42462152 0.2809779 -0.006737195 -0.07255313 0.35707065 -0.06546259 0.00607073 0.25588113
-0.24663877 -0.38990518 0.2515841 0.373535 -0.3256209 -0.15425012 0.52250546 0.23011771
0.013385421 0.15023498 -0.46536577 -0.16199605 -0.29196376 -0.13249002 -0.16312374 -0.43174604
-0.26329684 0.17194332 -0.4305671 -0.110071056 0.16901594 0.21910806 -0.04142477 0.33054298
-0.03306218 0.095122896 -0.4104027 0.34910253 -0.01945759 -0.020809025 0.2549683 -0.44042104
-0.070935614 -0.20011863 -0.14373957 -0.5218112 -0.24573487 0.10395128 0.2620884 0.47365272
0.059296776 -0.1925762 0.15672441 -0.071815275 -0.47245786 0.38746032 -0.4183344 -0.44398347
-0.2571865 -0.31782126 0.13936637 0.28465346 -0.2762083 0.08168469 0.09050276 -0.099140346
-0.1662321 0.34106737 0.059218958 0.30567995 -0.18444782 -0.1604395 0.28520134 -0.37977687
0.20379925 -0.13260621 -0.29835644 -0.4172958 -0.32972124 0.05166783 0.33790132 0.10085305
4.0439816e-05 -0.38756534 -0.40811232 -0.00096464186 -0.44511744 0.00247134 0.2721284 -0.2605113
00000000: 8d1e d0be deba 0f3e 0ff0 81be 356e a13e
00000010: bc56 a3be d29e ff3e 3823 773e f8e9 e5be
00000020: 0ea4 5f3d a052 033e e57a 9fbd 4f79 efbe
00000030: 4d7b 853e 7914 9cbc 8114 02be 7880 75b8
00000040: db2a 793e 1fc2 0dbe dd8a e03e c393 a9be
00000050: 1c00 b0be d9df d03e f0e6 7ebd de86 e8be
00000060: 66b6 fa3e 4a98 923e 3c8d a63e 52cf 80be
00000070: 16bd fc3d 5a2e a8bc 973b b53e 6e99 9abe
00000080: 3898 5b3e 79d1 21be f672 08bd 9e89 243e
00000090: 07b0 d33e ef1a 3dbe 1506 b5be 64db d83d
000000a0: 9481 11bd 0c3d f23d 0842 783d 175b f7bd
000000b0: e9d8 b33e 13cf 413e 3da8 b1be 8b45 a8be
000000c0: 0b27 a7be 6d07 a63e 6e00 153f 3775 c43e
000000d0: 168f 9fbe b316 3d3e 7369 09be cc95 a63e
000000e0: f343 dfbe b60b ea3e 5691 b13e bbb6 b33e
000000f0: 8d57 cb3d 6899 693d 119c 5bbe 7677 37be
00000100: a1ac 5fbd e4c0 cfbd 7a20 f4bd 157c f83c
00000110: 2d21 9fbd 99dc afbe b2eb e23e 62d7 0bbe
00000120: 06a8 afbe 2dff b43e 470a 993d 0ca8 77be
00000130: d58b 093f 3c77 63be 66e2 f2be 6bd6 7fbe
00000140: 25ef babe ec37 5a3d 40ac 9cbe 8354 d9be
00000150: 9ae7 aabe 057b 703e d7a8 3fbe a8c5 f2be
00000160: 804f ec3e 9e27 bcbe 3945 93be e675 983e
00000170: e7ba 1e3c 7301 dc3e bf7d 533e 5cca b33d
00000180: fe88 a73e 86b1 7e3e b34d 41be 0fec 003f
00000190: cdb6 b7bd bfef e33e c351 923e ee71 d9be
000001a0: aede 913e ac6f d5be 2581 8ebe 2e17 53be
000001b0: 960e f03d c059 a83e 7a3d 9bbe 44cf b7be
000001c0: f57a 73be 810c 59bd 50b5 acbe f36d bd3b
000001d0: eca4 64bd 9622 ca3e 8ee6 c03e 5cd1 823e
000001e0: cdac c63d 336b 953e 8204 ca3e fc66 83be
000001f0: cbed ffbe 05eb d93d 61ea f23d a52b ed3d
00000200: 7f52 46be 6eee b73e c99f 2ebe 133b 9d3e
00000210: 93ba babd 95ca 1dbc fe44 3f3e e265 41be
00000220: 01c2 db3b 307d 9fbe 6233 dc3d 32e5 283e
00000230: 2cfa 373d c1fb d83e efdf e3be eea3 883e
00000240: 1a85 30be 426c f1be 829a 873d 1580 de3e
00000250: 91a5 443e 3841 43be cb23 bfbc 1be9 a5bd
00000260: ec11 04bf 18aa fbbd c30a 383e eba1 053e
00000270: 902d 48be efc9 c33d 0af4 f0be ae08 c8be
00000280: e9e1 91be 2e59 0fba cb38 b23d 397f 863c
00000290: d969 ecbe 4846 d5bd 32eb 0b3f a76a 973e
000002a0: fe67 d93e 56dc 8f3e b0c3 dcbb bc96 94bd
000002b0: f7d1 b63e 4011 86bd f9ec c63b da02 833e
000002c0: e08e 7cbe a7a1 c7be a2cf 803e fb3f bf3e
000002d0: c8b7 a6be bef3 1dbe ebc2 053f faa3 6b3e
000002e0: 864e 5b3c 33d7 193e 6c44 eebe 4be2 25be
000002f0: 467c 95be 77ab 07be e909 27be d10d ddbe
00000300: d8ce 86be e911 303e 4a73 dcbe ef6c e1bd
00000310: 8412 2d3e dd5d 603e 05ad 29bd ee3c a93e
00000320: 356c 07bd cbcf c23d 4d20 d2be 91bd b23e
00000330: 8665 9fbc b077 aabc 348b 823e de7e e1be
00000340: b146 91bd e6eb 4cbe 7730 13be 6b95 05bf
00000350: eca1 7bbe 69e4 d43d 7330 863e 9c82 f23e
00000360: 2de1 723d b232 45be 5d7c 203e e313 93bd
00000370: ffe5 f1be 3361 c63e ed2f d6be cd51 e3be
00000380: f3ad 83be 78b9 a2be 0fb6 0e3e 19be 913e
00000390: 2d6b 8dbe 4e4a a73d 8359 b93d 180a cbbd
000003a0: bf38 2abe 62a0 ae3e 948f 723d 1582 9c3e
000003b0: e4df 3cbe 414a 24be e905 923e 1d72 c2be
000003c0: c0b0 503e ecc9 07be 2dc2 98be cca7 d5be
000003d0: 39d1 a8be a6a1 533d 6701 ad3e 0b8c ce3d
000003e0: ec9d 2938 f76e c6be 19f4 d0be 05e0 7cba
000003f0: 6fe6 e3be 34f6 213b 6a54 8b3e bd61 85be

dec.lin1.bias f4 [64]
0.011367141 0.10505371 0.07984388 0.07230168 0.022638671 0.06486671 0.0055789007 -0.110710226
0.039004233 -0.036940034 0.09520886 0.07763215 -0.014344435 -0.11084387 -0.12958786 0.06418209
0.007755233 0.17906706 -0.12189467 0.17913805 -0.014058608 0.10397111 0.102288224 -0.067340806
0.094862655 0.1257467 -0.005600147 -0.034327384 0.14279564 -0.088711806 0.12945019 0.028327227
-0.020693218 -0.11352172 -0.10214323 -0.08699827 0.08350435 0.035485156 0.061579406 0.016671896
0.13101071 0.07391809 -0.06491004 0.030464664 0.044724282 0.021864172 0.06030059 0.07718789
-0.07523745 -0.06264047 -0.04798438 -0.037845574 0.0138972895 0.08206281 0.07168078 -0.026834464
-0.035104197 -0.0053518773 -0.061489988 -0.22023438 -0.19003245 0.09011177 -0.11494826 -0.14472967
00000000: 3f3d 3a3c 6626 d73d 3085 a33d e712 943d
00000010: bc74 b93c d6d8 843d 36cf b63b 0bbc e2bd
00000020: e7c2 1f3d 6f4e 17bd ddfc c23d 9bfd 9e3d
00000030: ec04 6bbc 1c02 e3bd aeb2 04be e671 833d
00000040: 9c1f fe3b 5b5d 373e eaa3 f9bd f76f 373e
00000050: 1356 66bc ceee d43d 7d7c d13d fae9 89bd
00000060: 5a47 c23d bec3 003e 7081 b7bb df9a 0cbd
00000070: 0539 123e 89ae b5bd 978e 043e 800e e83c
00000080: d384 a9bc 137e e8bd 7830 d1bd 262c b2bd
00000090: 5404 ab3d e258 113d b03a 7c3d 8093 883c
000000a0: ac27 063e 5e62 973d 8eef 84bd 0891 f93c
000000b0: cf30 373d 7e1c b33c c0fd 763d af14 9e3d
000000c0: 1816 9abd a649 80bd 458b 44bd f603 1bbd
000000d0: 75b1 633c 8c10 a83d 5fcd 923d f3d3 dbbc
000000e0: 6bc9 0fbd cd5e afbb eddc 7bbd 1f85 61be
000000f0: de97 42be 858c b83d fe69 ebbd 0434 14be

dec.lin1.weight_v f4 [64, 64]
-0.066293046 -0.06944474 -0.03186756 -0.026195113 0.06666447 -0.14213866 0.041441917 0.019171536
0.13362242 0.114367835 -0.13136527 0.054274365 -0.0044685663 0.053071573 0.021486307 -0.0022495724
0.024735939 -0.05994764 0.010550971 0.059215114 0.047317456 -0.062563434 -0.024317501 -0.015925974
0.06327355 0.04001631 -0.08878221 -0.017569821 0.048139624 0.10304427 -0.06903072 -0.12614672
0.11358093 -0.006236702 0.08011311 0.02134685 -0.094268754 -0.11189464 -0.16173913 0.15343608
0.041203707 -0.02223168 -0.09898385 0.01718169 -0.062374853 -0.06437046 -0.072749816 -0.009056564
0.23856726 0.07458735 0.13055627 0.020461857 0.0023701845 -0.09745472 -0.036960825 -0.113098584
0.05206777 -0.0030738157 0.040030845 -0.062302656 0.244053 -0.067278996 0.277484 0.0013999903
0.034711972 0.054861613 -0.061258137 0.03501599 0.06292811 -0.0069894656 0.018483508 -0.13184193
-0.0028575023 -0.062100284 -0.05108064 0.039342508 0.058268834 0.06369743 0.056167193 0.112488665
0.008575748 0.10261474 0.040012762 -0.022518178 0.09880882 -0.06831261 -0.041153755 0.07588366
-0.14114755 0.069854 0.09455485 -0.071680464 -0.09929308 0.041775122 0.059783895 0.038594004
-0.10374493 0.06831932 0.019134248 -0.0015934666 0.112226546 -0.029375114 0.019524258 0.06588781
0.093991965 -0.099296965 -0.08511555 0.06541024 -0.09179793 -0.051498428 0.05533514 -0.10934992
-0.0069730957 -0.077291004 0.08730403 0.10667921 0.1473264 0.094136596 -0.05942187 -0.10670109
-0.10971004 0.063204005 0.054196518 0.06347526 -0.07013972 -0.010266053 -0.023933847 -0.09609001
-0.012701904 -0.035603303 -0.045802798 0.10003558 -0.11623361 -0.052709162 0.08239912 0.020006025
-0.109189354 -0.03510656 -0.0037819517 0.004807842 0.12251344 0.043580025 -0.07157972 0.056644432
0.0011322214 -0.0706505 0.0881342 0.013764208 -0.051894933 0.002590272 -0.11012778 -0.040338263
-0.1216165 -0.070124574 0.104664855 -0.05448482 -0.016607344 0.07720182 0.08165235 -0.04827564
0.008522287 -0.09659876 -0.14303003 -0.06306629 -0.24397941 -0.111557856 -0.1289224 -0.060395837
-1.0756723e-06 0.05338119 -0.01665122 0.10898964 0.055799235 0.0723025 -0.084039405 3.3564054e-09
-0.07243675 -0.06778414 0.0064468794 -0.13219003 -0.057823483 -0.16454285 -0.13913967 0.10975492
-0.051412053 -0.0010876461 0.08003632 -0.1323501 -0.23821595 -0.028895378 0.0605427 -0.033073656
-0.042226985 0.1499263 0.0795778 -0.12110457 -0.056552846 -0.12712297 0.031792983 0.14115661
-0.052555557 -0.027818354 0.104384825 -0.10388008 0.06600804 0.0873402 -0.018681183 0.011551297
0.064981565 0.08052611 0.03323127 -0.039187852 -0.09144601 -0.12118824 0.029235294 0.050731823
0.04349552 0.064980455 0.051228452 -0.13385703 -0.11424599 0.049968142 0.04089108 -0.11745749
-0.13752334 0.035680175 0.07943736 -0.031452175 0.003918931 -0.060573004 0.086226165 -0.0071539474
-0.10189894 0.0327415 0.11261777 0.103457764 0.10443067 -0.09598817 -0.026726902 0.03368886
0.013489361 0.050908595 -0.031465776 -0.06386656 -0.03835821 0.123368174 -0.040353715 -0.015748536
-0.12867397 -0.081369966 -0.005043244 -0.09002447 -0.037568804 -0.024024144 -0.105261594 -0.091231704
00000000: a6c4 87bd 0b39 8ebd 8f87 02bd 2297 d6bc
00000010: 6287 883d cc8c 11be 00bf 293d a00d 9d3c
00000020: 51d4 083e af39 ea3d 9e84 06be cc4e 5e3d
00000030: 0d6d 92bb 9461 593d 0d04 b03c 906d 13bb
00000040: 06a3 ca3c a88b 75bd fbdd 2c3c 8c8b 723d
00000050: f3cf 413d 4221 80bd 7f35 c7bc 3077 82bc
00000060: 9095 813d 24e8 233d 73d3 b5bd 96ee 8fbc
00000070: 0e2e 453d e008 d33d fa5f 8dbd 9b2c 01be
00000080: 1e9d e83d 405d ccbb 5812 a43d 97df ae3c
00000090: fa0f c1bd 0429 e5bd f19e 25be 591e 1d3e
000000a0: 38c5 283d 361f b6bc 0bb8 cabd 9ec0 8c3c
000000b0: c67c 7fbd a9d4 83bd dbfd 94bd fc61 14bc
000000c0: fa4a 743e 41c1 983d 8bb0 053e a09f a73c
000000d0: 1955 1b3b 5796 c7bd 3c64 17bd 3ba0 e7bd
000000e0: 0445 553d 1272 49bb 62f7 233d 1231 7fbd
000000f0: 08e9 793e 92c9 89bd 6212 8e3e e17f b73a
00000100: 242e 0e3d 92b6 603d d0e9 7abd ed6c 0f3d
00000110: 74e0 803d e307 e5bb ba6a 973c 9201 07be
00000120: ef44 3bbb de5c 7ebd ef39 51bd 9c25 213d
00000130: 4dab 6e3d cc73 823d 920f 663d 7560 e63d
00000140: 4b81 0c3c ad27 d23d 6ce4 233d 0b78 b8bc
00000150: 475c ca3d 7be7 8bbd d790 28bd e468 9b3d
00000160: fc88 10be 9d0f 8f3d f9a5 c13d 35cd 92bd
00000170: 2c5a cbbd 641c 2b3d f5df 743d bf14 1e3d
00000180: 3978 d4bd 00eb 8b3d 6dbf 9c3c dedb d0ba
00000190: 08d7 e53d 14a4 f0bc 56f1 9f3c 30f0 863d
000001a0: dc7e c03d 355c cbbd 1051 aebd cef5 853d
000001b0: 8e00 bcbd 04f0 52bd 1aa7 623d daf2 dfbd
000001c0: 917e e4bb bf4a 9ebd 75cc b23d a17a da3d
000001d0: bbdc 163e b0ca c03d 5964 73bd 1a86 dabd
000001e0: a8af e0bd 1a71 813d 2bfd 5d3d 51ff 813d
000001f0: 6aa5 8fbd f232 28bc ea10 c4bc d7ca c4bd
00000200: a61b 50bc c5d4 11bd b79b 3bbd 74df cc3d
00000210: e30b eebd 90e5 57bd dfc0 a83d ade3 a33c
00000220: ab9e dfbd e5cb 0fbd 9fda 77bb 1a8b 9d3b
00000230: 54e8 fa3d f880 323d 6398 92bd fe03 683d
00000240: 0c67 943a 36b1 90bd b47f b43d 4683 613c
00000250: c88f 54bd 8ec1 293b ac8a e1bd bc39 25bd
00000260: 1212 f9bd 799d 8fbd 875a d63d 7a2b 5fbd
00000270: 200c 88bc fd1b 9e3d 5939 a73d adbc 45bd
00000280: 10a1 0b3c 92d5 c5bd 7776 12be e628 81bd
00000290: bdd5 79be 7278 e4bd 3c04 04be a061 77bd
000002a0: d25f 90b5 3ca6 5a3d 2468 88bc f635 df3d
000002b0: bd8d 643d 5513 943d da1c acbd 82a6 6631
000002c0: b859 94bd 69d2 8abd 5840 d33b d35c 07be
000002d0: 51d8 6cbd ec7d 28be a17a 0ebe 30c7 e03d
000002e0: 7295 52bd 598f 8eba 15ea a33d c986 07be
000002f0: e2ee 73be 00b6 ecbc 9ffb 773d 3e78 07bd
00000300: 34f6 2cbd 4886 193e b0f9 a23d ac05 f8bd
00000310: f5a3 67bd 862c 02be 5c39 023d 5c8b 103e
00000320: 7f44 57bd 51e3 e3bc b6c7 d53d 14bf d4bd
00000330: 392f 873d 6bdf b23d 4809 99bc a741 3d3c
00000340: 0e15 853d e0ea a43d 831d 083d 7183 20bd
00000350: 0c48 bbbd 8a31 f8bd db7e ef3c 2ccc 4f3d
00000360: 5c28 323d 7914 853d edd4 513d d111 09be
00000370: cdf9 e9bd 65ab 4c3d 687d 273d 8d8d f0bd
00000380: ebd2 0cbe 6025 123d 0eb0 a23d ffd3 00bd
00000390: 606a 803b 661b 78bd 5897 b03d a96b eabb
000003a0: 64b0 d0bd f31b 063d 25a4 e63d aae1 d33d
000003b0: bfdf d53d 7295 c4bd 60f2 dabc 54fd 093d
000003c0: 7b02 5d3c 8885 503d 42e2 00bd 79cc 82bd
000003d0: 801d 1dbd 74a8 fc3d f049 25bd 1303 81bc
000003e0: 1cc3 03be 4ca5 a6bd cc41 a5bb c05e b8bd
000003f0: bfe1 19bd 48ce c4bc 6493 d7bd b0d7 babd

dec.lin2.bias f4 [64]
0.032227516 0.036810163 -0.048722524 0.096376404 0.010295505 -0.08013111 0.055913333 0.10325074
-0.022400105 0.027107866 -0.09842016 0.041184783 -0.08461874 -0.070419356 0.08680309 -0.06485496
-0.03360303 -0.05568359 -0.10149809 -0.10052669 -0.10182984 0.10346497 0.009809901 0.10470886
-0.043354444 -0.12421797 -0.04149334 -0.10689462 0.026912382 0.099624224 0.13392463 0.09020777
-0.25518608 -0.06616773 -0.06304461 -0.031578086 0.011324287 -0.09143734 -0.13758138 -0.10979665
-0.100921854 -0.063089594 0.104681455 0.11729261 0.111491695 0.11170193 -0.060742285 0.115087055
-0.11536294 0.080315135 0.08720608 -0.03899003 0.08592513 0.06641877 -0.047334805 0.095460415
-0.005562347 0.020126276 0.08664222 -0.10779518 -0.051912695 -0.08198517 0.10255629 -0.12021172
00000000: 0001 043d 41c6 163d 4591 47bd fe60 c53d
00000010: 7aae 283c c81b a4bd 6105 653d 2075 d33d
00000020: 6d80 b7bc 5111 de3c 8290 c9bd 60b1 283d
00000030: 974c adbd 0638 90bd d2c5 b13d add2 84bd
00000040: 55a3 09bd 7a14 64bd 3bde cfbd f0e0 cdbd
00000050: 2a8c d0bd 71e5 d33d b5b9 203c 9971 d63d
00000060: 6e94 31bd fe65 febd ecf4 29bd 91eb dabd
00000070: 5b77 dc3c c907 cc3d 8a23 093e dabe b83d
00000080: c0a7 82be f282 87bd 881d 81bd 0658 01bd
00000090: 8189 393c 8043 bbbd 22e2 0cbe 11dd e0bd
000000a0: 1eb0 cebd 1e35 81bd 3b63 d63d 1c37 f03d
000000b0: c255 e43d fbc3 e43d e7cc 78bd c3b2 eb3d
000000c0: 6843 ecbd 437c a43d 1a99 b23d 02b4 1fbd
000000d0: 84f9 af3d 9006 883d 24e2 41bd c080 c33d
000000e0: 5944 b6bb dcdf a43c 7a71 b13d b8c3 dcbd
000000f0: 68a2 54bd d7e7 a7bd 0809 d23d 9031 f6bd

dec.lin2.weight_v f4 [64, 64]
-0.060152348 0.10541465 0.09381527 -0.12364292 0.05676194 -0.006992997 0.09683584 0.105570324
-0.040416557 0.05367436 0.037753988 -0.12591524 -0.025104692 -0.04654146 0.09355734 -0.0113689
0.014564634 0.2213992 -0.09611916 -0.027264718 -0.08696964 0.12070229 -0.09030958 -0.06864353
-0.00768731 -0.12839183 -0.07171452 0.0072724945 -0.04785031 -0.08943239 0.069574215 -0.060886413
0.011978994 -0.039438657 0.05559892 0.030571347 -0.10619125 0.06618267 -0.101998664 0.109108664
0.076065086 -0.10031797 0.08592814 0.063685425 -0.01146523 0.11078415 -0.13022323 0.03698326
0.061680105 -0.103973985 0.11207854 0.025437128 -0.024945294 -0.017717574 0.10196484 -0.07280982
-0.0900098 0.03270917 -0.00425761 0.20385745 -0.07342384 0.0637439 0.03251734 -0.08831507
-0.028261611 0.008445146 0.0012061426 0.043554325 -0.06617027 -0.031721678 -0.06962293 0.106389
-0.004466466 0.021360673 -0.0005837401 0.022794064 -0.049707904 -4.1043514e-24 -0.1076775 -0.06292936
0.011177022 -0.1622857 0.012212044 -0.051311582 0.0027168805 -0.092851825 0.044256113 -0.00031628588
-0.0017021365 0.014744191 -0.018394144 -0.036294796 0.053035762 -0.13595435 -0.011967232 0.0039195395
-0.053159464 0.07564126 -0.0004664943 0.08651515 0.07009005 -0.12647948 -1.8401977e-19 0.057333063
-0.18364955 -0.0989971 -0.00017579767 0.18841963 0.091826364 0.029158875 -0.10856325 -0.0036532579
0.0016703064 0.028236512 -0.114982694 0.016283706 0.12831709 -0.008329176 -0.04892992 0.053971693
-0.07287972 0.035670735 -0.06795715 0.2492688 0.011031745 -0.0014953847 -0.05445927 -0.0095518315
0.00555494 -0.03187041 0.0583218 0.026766466 0.123378046 -0.046242103 -0.10259694 0.050201528
-0.03353145 0.029705577 -0.035277765 -0.02139086 -0.05535004 -0.03779453 0.11585923 0.11571095
-0.017416257 0.09044449 -0.04064815 0.086187735 -0.049072508 0.045980826 0.030687407 -0.15647617
-0.08455785 -0.041984547 -0.01496738 -0.06359274 0.00089272 0.0677219 0.05491036 -0.0012048354
-0.10600822 -0.053670056 0.00022312696 -0.04967977 -0.16292576 0.039111532 0.0024688744 -0.10666126
0.03145361 -0.017988717 0.043988608 0.0022107034 0.05179502 -0.10791597 0.013413999 0.017606998
-0.07892265 -0.10407352 -0.18604659 -0.040969756 0.08716304 -0.04456249 -0.0595552 0.006641737
0.014250064 -0.010147258 0.059503675 -0.0483845 -0.03863458 0.06085603 0.046361927 0.016094428
-0.12684327 -0.12409745 0.12971322 -0.11438957 0.10659999 0.05377872 -0.010185167 0.13869981
0.013181702 -0.0726174 0.0043763905 -0.036211055 0.004769855 0.0916743 0.077004254 0.058428623
-0.06971606 -0.046054997 -0.06663615 0.036153365 0.05790644 0.10476522 0.013655873 0.16925262
-0.016436355 0.06884421 0.077317424 -0.124447085 0.018003035 -0.09004937 -0.00030817444 0.031823065
0.07288512 0.008101024 -0.082875185 -0.09629311 0.081616245 -0.06484746 -0.030617176 -0.09120064
-0.06708699 0.1179581 0.0024400612 -0.103009544 -0.02231206 -0.11797034 -0.12537318 -0.024285903
-0.065344706 -0.039874777 0.09862021 -0.00922397 -0.020811606 0.08639497 0.011499457 0.007941498
0.1022642 0.005514367 -0.047821812 -0.19692859 -0.07310598 0.07084966 0.02335559 0.07187501
00000000: 4f62 76bd a3e3 d73d 3822 c03d 8038 fdbd
00000010: 357f 683d 8325 e5bb de51 c63d 4135 d83d
00000020: d58b 25bd a5d9 5b3d eda3 1a3d edef 00be
00000030: 5ba8 cdbc 42a2 3ebd fe9a bf3d 9f44 3abc
00000040: 81a0 6e3c 79b6 623e 1fda c4bd 425a dfbc
00000050: 231d b2bd c332 f73d 3bf4 b8bd fb94 8cbd
00000060: d5e5 fbbb 2679 03be 10df 92bd 1b4e ee3b
00000070: b0fe 43bd 5428 b7bd ed7c 8e3d 0864 79bd
00000080: 8b43 443c 6e8a 21bd b1bb 633d c370 fa3c
00000090: cc7a d9bd c88a 873d ade4 d0bd 5d74 df3d
000000a0: 03c8 9b3d 8273 cdbd 18fb af3d 816d 823d
000000b0: a9d8 3bbc cde2 e23d 3d59 05be c27b 173d
000000c0: 47a4 7c3d 50f0 d4bd 6f89 e53d 8661 d03c
000000d0: 135a ccbc 7224 91bc f1d2 d03d 511d 95bd
000000e0: 0f57 b8bd 0dfa 053d 6c83 8bbb 02c0 503e
000000f0: 3d5f 96bd 298c 823d e730 053d 88de b4bd
00000100: e584 e7bc 825d 0a3c 6e17 9e3a 0566 323d
00000110: 4784 87bd 97ee 01bd 7796 8ebd 7ae2 d93d
00000120: 6f5b 92bb 94fc ae3c 2306 19ba 9eba ba3c
00000130: 849a 4bbd 87c7 9e98 0586 dcbd 1ce1 80bd
00000140: d41f 373c 392e 26be 0615 483c 182c 52bd
00000150: b10d 323b 1929 bebd e645 353d 2cd3 a5b9
00000160: 391a dfba 9f91 713c 51af 96bc daa9 14bd
00000170: 073c 593d 9e37 0bbe 3612 44bc 7b6f 803b
00000180: bdbd 59bd cee9 9a3d ce93 f4b9 db2e b13d
00000190: 5f8b 8f3d d683 01be 9040 59a0 13d6 6a3d
000001a0: a10e 3cbe febe cabd 5456 38b9 13f1 403e
000001b0: 760f bc3d 98de ee3c 6956 debd 7f6b 6fbb
000001c0: 2fee da3a 4250 e73c 0c7c ebbd 6865 853c
000001d0: 8e65 033e 1977 08bc bd6a 48bd 6c11 5d3d
000001e0: f641 95bd 7a1b 123d 1e2d 8bbd 5240 7f3e
000001f0: 7ebe 343c c900 c4ba af10 5fbd 497f 1cbc
00000200: 3706 b63b 8c8a 02bd d7e2 6e3d 5945 db3c
00000210: a1ad fc3d 5c68 3dbd 581e d2bd 1ea0 4d3d
00000220: 4658 09bd 1c59 f33c 6b7f 10bd e33b afbc
00000230: b9b6 62bd 70ce 1abd 9b47 ed3d ddf9 ec3d
00000240: 8aac 8ebc f63a b93d ad7e 26bd 3283 b03d
00000250: 4100 49bd 6456 3c3d 2864 fb3c 4a3b 20be
00000260: ab2c adbd fdf7 2bbd be39 75bc e93c 82bd
00000270: 6d05 6a3a c8b1 8a3d b0e9 603d 91eb 9dba
00000280: d61a d9bd 22d5 5bbd 30f7 6939 047d 4bbd
00000290: 03d6 26be 6a33 203d d7cc 213b 3871 dabd
000002a0: 80d5 003d 135d 93bc 662d 343d 73e1 103b
000002b0: 0427 543d 0c03 ddbd 64c6 5b3c 8d3c 903c
000002c0: 33a2 a1bd 7f24 d5bd ff82 3ebe e7cf 27bd
000002d0: 8982 b23d 2887 36bd 27f0 73bd eea2 d93b
000002e0: 1a79 693c af40 26bc 20ba 733d d32e 46bd
000002f0: 4b3f 1ebd 2c44 793d 01e6 3d3d 76d8 833c
00000300: 34e3 01be ce26 febd 8bd3 043e 1445 eabd
00000310: 1851 da3d 1347 5c3d b0df 26bc 5307 0e3e
00000320: 11f8 573c 6eb8 94bd d367 8f3b 0b52 14bd
00000330: 724c 9c3b bcbf bb3d 68b4 9d3d da52 6f3d
00000340: 4bc7 8ebd 2aa4 3cbd 8978 88bd 8d15 143d
00000350: 4e2f 6d3d 268f d63d e2bc 5f3c 8f50 2d3e
00000360: 89a5 86bc 31fe 8c3d 9958 9e3d 1dde febd
00000370: 1a7b 933c ce6b b8bd 7992 a1b9 e758 023d
00000380: cb44 953d 28ba 043c 77ba a9bd 5235 c5bd
00000390: 6b26 a73d bfce 84bd dfd0 fabc 67c7 babd
000003a0: e764 89bd 0494 f13d 6fe9 1f3b abf6 d2bd
000003b0: c8c7 b6bc 6f9a f1bd d461 00be 3bf3 c6bc
000003c0: 72d3 85bd bc53 23bd 65f9 c93d 2220 17bc
000003d0: 1a7d aabc d9ef b03d 3868 3c3c 0f1d 023c
000003e0: e56f d13d ddb1 b43b cee0 43bd a6a7 49be
000003f0: 97b8 95bd a019 913d 3954 bf3c 3533 933d

dec.lin3.weight_v f4 [1, 64]
-0.11007015 -0.10510806 -0.100632586 0.01725479 -0.045242984 -0.07724252 -0.055138193 -0.10913298
0.04179613 0.052981637 -0.024700882 -0.037844516 -0.074365884 0.00031412722 0.03517974 -0.025621623
-0.017553559 -0.036882836 0.10635462 -0.047415625 0.05981005 -0.023042733 0.09766392 0.081800036
-0.069861114 0.014471867 0.038834915 0.060368307 -0.06905608 0.08851268 0.14884488 0.03727237
-0.23958519 -0.013836628 -0.29639384 0.0899696 0.098341025 -0.12685178 -0.050540455 -0.010297207
0.028856263 -0.05874829 0.08222847 0.06683983 -0.103522986 -0.06962223 -0.07007552 0.09634938
-0.14247173 0.0206245 0.059421074 0.00182224 -0.009096504 0.14439917 -0.04874704 0.0604386
-0.03677844 -0.069740325 -0.12546103 0.042519156 -0.059276167 -0.05820632 0.063590825 0.08216634
00000000: 756c e1bd e542 d7bd 7518 cebd eb59 8d3c
00000010: b550 39bd 5431 9ebd 96d8 61bd 1d81 dfbd
00000020: 6b32 2b3d 4603 593d 8159 cabc da02 1bbd
00000030: 244d 98bd 71b1 a439 a218 103d 70e4 d1bc
00000040: 7bcc 8fbc 7512 17bd 73d0 d93d e336 42bd
00000050: 62fb 743d 1dc4 bcbc 0504 c83d c786 a73d
00000060: 5813 8fbd 691b 6d3c 5c11 1f3d c244 773d
00000070: 466d 8dbd 2346 b53d cb6a 183e eaaa 183d
00000080: d255 75be 06b3 62bc efc0 97be fb41 b83d
00000090: 0567 c93d 6fe5 01be 8203 4fbd 9eb5 28bc
000000a0: f863 ec3c 0ca2 70bd 6667 a83d 52e3 883d
000000b0: dc03 d4bd 1a96 8ebd c183 8fbd d352 c53d
000000c0: 1ce4 11be b6f4 a83c 8363 733d 3ad8 ee3a
000000d0: 8109 15bc 60dd 133e faaa 47bd 778e 773d
000000e0: fda4 16bd 04d4 8ebd db78 00be 9128 2e3d
000000f0: 91cb 72bd c069 6ebd e83b 823d d346 a83d

exp_avg f4 [64]
8.271401e-05 0.00020831882 0.00013394278 7.98093e-05 -5.628813e-06 -5.6373454e-05 -0.00011760055 6.225885e-05
-2.4658604e-05 4.43074e-05 5.574881e-05 8.430964e-05 -0.00018590447 2.5561803e-05 -8.527125e-05 -1.094255e-05
0.000112557864 6.522376e-05 -3.5494695e-06 0.00014125023 6.3443316e-05 0.0001486775 4.800501e-05 -5.987985e-05
-6.1589155e-05 7.572254e-05 4.5127457e-05 -7.234267e-05 -0.00018261521 -3.702124e-05 -7.6616554e-05 1.0980689e-05
-0.000108451146 -2.9008603e-05 2.5220526e-05 2.366943e-05 6.582501e-05 1.6198816e-05 3.295814e-05 -0.00012931602
-3.011863e-05 -4.9710354e-05 -5.8927395e-05 3.692913e-05 0.00011801982 -2.1122518e-05 0.00021033679 4.121779e-05
-0.00044562365 1.0710328e-05 -0.00018433064 0.000154961 0.00017529307 -8.4048406e-05 1.6060281e-05 -3.4481025e-05
-7.304516e-05 4.6379366e-05 -4.5732522e-05 8.79825e-05 -3.1187414e-05 2.7655775e-05 -0.00089799747 0.0001039347
00000000: bf76 ad38 2870 5a39 fe72 0c39 4b5f a738
00000010: 23df bcb6 8972 6cb8 51a0 f6b8 f790 8238
00000020: f3d9 ceb7 b5d6 3938 d4d3 6938 65cf b038
00000030: 5aef 42b9 8e6d d637 a7d3 b2b8 e595 37b7
00000040: 0b0d ec38 bdc8 8838 6c33 6eb6 921c 1439
00000050: df0c 8538 50e6 1b39 fd58 4938 8027 7bb8
00000060: 6d29 81b8 3bcd 9e38 3d47 3d38 adb6 97b8
00000070: 667c 3fb9 4147 1bb8 33ad a0b8 b339 3837
00000080: 4470 e3b8 8057 f3b7 ab90 d337 b78d c637
00000090: 880b 8a38 b1e2 8737 893c 0a38 0199 07b9
000000a0: 44a7 fcb7 1680 50b8 cf28 77b8 5ae4 1a38
000000b0: 6981 f738 4330 b1b7 da8d 5c39 44e1 2c38
000000c0: 98a2 e9b9 82b0 3337 e148 41b9 077d 2239
000000d0: e0ce 3739 2543 b0b8 31b9 8637 b89f 10b8
000000e0: d22f 99b8 7787 4238 ecd0 3fb8 3f83 b838
000000f0: 3bcf 02b8 53fe e737 9767 6bba 84f7 d938

exp_avg_sq f4 [64]
4.132175e-07 1.1607475e-06 8.790671e-07 1.5680471e-06 2.0819386e-06 6.500576e-07 1.8909028e-06 1.3765583e-06
1.1642874e-06 1.1599169e-06 1.6902012e-06 1.2451569e-06 3.2642276e-06 1.0155276e-07 1.6457794e-06 5.222152e-07
2.3023974e-06 1.5089526e-06 2.5919217e-06 8.6233547e-07 2.5491963e-07 1.1522353e-06 1.6131205e-06 1.181067e-06
1.4406683e-06 1.3705619e-06 1.3896567e-06 1.4257214e-06 5.375381e-07 6.235613e-07 1.2467254e-06 1.1421582e-06
4.6923395e-07 1.1568735e-06 3.7574713e-07 2.0592192e-06 4.0716955e-07 5.519632e-07 1.5552928e-06 7.111059e-07
6.7433484e-07 1.9729188e-07 2.566019e-06 1.0286129e-06 1.9185884e-06 1.3254584e-06 5.2650635e-06 1.5248438e-07
1.0043988e-06 1.1423979e-06 3.1401464e-07 1.8593495e-07 1.089055e-06 6.515887e-07 2.8305973e-07 5.767237e-07
1.971718e-07 2.6064612e-07 1.7369408e-07 2.3893523e-07 3.7106201e-06 2.9683142e-06 6.673743e-06 6.767094e-07
00000000: 2ed8 dd34 fbca 9b35 08f9 6b35 b075 d235
00000010: 6fb7 0b36 9e7f 2e35 edca fd35 2fc2 b835
00000020: 9c44 9c35 71ae 9b35 dfda e235 441f a735
00000030: 010f 5b36 3815 da33 8de4 dc35 5b2e 0c35
00000040: e382 1a36 3787 ca35 e0f0 2d36 3e7b 6735
00000050: e3db 8834 81a6 9a35 6682 d835 2785 9e35
00000060: fc5c c135 26f4 b735 3e84 ba35 6a5b bf35
00000070: 564b 1035 ce62 2735 2955 a735 424c 9935
00000080: 06eb fb34 df45 9b35 4bba c934 1e31 0a36
00000090: f598 da34 9f2a 1435 74bf d035 d3e2 3e35
000000a0: f003 3535 2ed7 5334 df33 2c36 df0e 8a35
000000b0: 19c1 0036 67e6 b135 8daa b036 96ba 2334
000000c0: e1ce 8635 7e54 9935 d895 a834 69a5 4734
000000d0: a52b 9235 d6e8 2e35 6ff7 9734 27d0 1a35
000000e0: 2cb6 5334 eeee 8b34 aa80 3a34 0247 8034
000000f0: f803 7936 4033 4736 04ef df36 1ea7 3535

exp_avg f4 [64, 4]
3.106686e-05 -2.3539913e-05 4.448703e-05 8.556166e-05 0.00012671466 -2.4347848e-05 0.00010100375 -6.0211423e-05
-7.796385e-05 -0.000115386756 0.00018069935 -6.999406e-05 0.00013896187 0.00026380416 0.0002650584 0.00071878254
-0.00013451389 -0.00013240309 -7.8087e-05 -0.00014351464 -6.0670864e-05 3.5305096e-05 -2.0735532e-05 8.1156606e-05
-1.3239713e-06 -3.4604782e-05 -5.2347397e-05 -0.00010860233 -0.00016203678 -0.00012675762 -1.609143e-05 -7.259644e-05
-2.8248676e-05 -9.034918e-05 4.122008e-05 -4.9895287e-05 2.214459e-05 5.9784397e-05 3.239237e-05 0.00012326158
-0.00025219689 -0.00025067554 -0.0002549607 -0.00029262836 0.00014179343 0.00012700501 2.0516121e-05 0.00020530568
-0.0002551927 -0.0001392812 -0.000130862 9.467507e-05 2.688707e-05 7.881835e-06 -1.8169416e-05 1.2267743e-05
-4.376329e-05 3.985834e-05 -0.00011781318 8.276977e-06 -1.8841467e-05 -1.7221055e-05 0.00029102075 -0.00035887773
0.00015037117 0.0002803226 -6.404152e-05 0.0009081574 -2.0497235e-05 -2.4585472e-07 -5.2621548e-05 -0.000151512
-6.865757e-05 0.00020813594 -0.00014702119 0.00036253378 0.0001042143 0.00011995391 8.187251e-06 0.000104103274
8.9421694e-05 7.562044e-05 5.3089552e-05 -0.00010459198 0.00014151292 9.698701e-05 2.1735235e-07 -5.058869e-05
-2.1001084e-05 2.0520316e-05 -2.937411e-05 2.8417828e-05 -0.00011135314 -1.8079701e-05 4.4114026e-06 8.292879e-05
3.4079992e-05 3.0509034e-05 0.00020451579 3.829255e-05 3.4614488e-05 -7.7133125e-05 3.8826918e-05 -6.0597773e-05
-2.0209789e-05 3.5245786e-05 -0.00023169671 0.00021812507 7.389928e-05 0.000116793184 0.0003011239 -0.00012115727
-0.00020986189 -5.8098714e-05 0.00015559133 -0.00018227329 -9.155434e-06 5.7307483e-05 -5.3521915e-05 -1.3997086e-05
-0.00012857375 -7.85961e-05 -4.8992453e-05 -0.0002103509 -5.4682172e-05 1.1901164e-05 -0.00026638704 1.5472773e-05
-9.1277056e-05 1.4636895e-05 0.000181761 2.484946e-05 -0.00013865733 -0.00014744654 -4.6552752e-05 2.9885285e-05
1.5302301e-05 -5.3766707e-05 7.0085094e-05 -0.0001517791 4.331123e-06 -3.180948e-05 1.589353e-05 7.49053e-05
3.4476583e-05 2.6699176e-05 -1.2301381e-05 4.3388372e-05 0.00013313876 3.438348e-05 -1.0390801e-05 0.00025081384
-8.071892e-05 3.2480196e-07 -0.00032477715 0.00011853426 -7.685472e-05 -2.1424701e-05 0.0001103935 -9.8170865e-05
-1.5762342e-05 -3.0610728e-08 -2.3369512e-05 -0.00016663385 -8.414719e-06 -2.1684318e-06 -3.2724813e-05 4.516565e-05
2.247768e-05 3.6291673e-05 -0.00019580686 0.00030151667 3.4362918e-05 6.2750376e-05 -5.141035e-05 -3.378319e-05
2.4009758e-05 5.636858e-06 -0.00020123516 0.00015503532 7.426659e-06 2.9473258e-06 -6.418262e-05 0.00015429148
3.6027785e-05 -1.22471165e-05 -6.7332025e-05 0.00018755377 5.598344e-07 1.6087225e-07 9.40985e-05 -3.5122026e-05
-0.00039939262 0.00010695129 0.00036652535 -0.00029170662 -9.105563e-05 -9.276964e-05 -0.00021617384 7.9653e-05
-3.4723682e-05 3.6016427e-05 0.000104232946 0.000108112756 3.225519e-05 3.2802043e-05 -0.00016255766 -9.525907e-05
0.00018624257 0.0002396028 0.00013968996 -0.00015389753 -2.8054546e-05 3.1199896e-05 7.2762174e-05 -6.240298e-05
2.1163502e-05 -0.00010401443 -0.0002383143 -0.00021399901 1.9639265e-05 4.0345043e-05 -7.4313226e-05 8.505664e-05
-4.105541e-05 -5.071202e-05 -6.999075e-05 -5.9978316e-05 2.819125e-05 -8.298029e-06 3.9804945e-05 -4.7099424e-05
-6.0025613e-05 1.3077984e-05 -7.178709e-05 -3.4765017e-05 3.7298993e-05 3.392604e-05 -4.742434e-05 -6.747306e-05
-0.00021913314 -0.00017857637 0.0006820445 -0.000533084 3.4863147e-05 -4.1185012e-06 -7.089875e-05 0.00033523093
1.00125675e-07 -0.00083741493 0.0008038537 -0.00039610482 7.4649455e-05 2.3504599e-05 -6.8381432e-06 -0.00013100874
00000000: c94d 0238 9477 c5b7 9697 3a38 916f b338
00000010: b5de 0439 9b3e ccb7 fad1 d338 868b 7cb8
00000020: 8680 a3b8 cbfb f1b8 1d7a 3d39 c6c9 92b8
00000030: 4bb6 1139 324f 8a39 89f7 8a39 ae6c 3c3a
00000040: 4c0c 0db9 afd5 0ab9 a4c2 a3b8 6b7c 16b9
00000050: d878 7eb8 8f14 1438 37f1 adb7 9f32 aa38
00000060: 4fb3 b1b5 9a24 11b8 978f 5bb8 6fc1 e3b8
00000070: 6be8 29b9 3dea 04b9 15fc 86b7 eb3e 98b8
00000080: 92f7 ecb7 d979 bdb8 b9e3 2c38 a846 51b8
00000090: 25c3 b937 02c1 7a38 0bdd 0738 c73f 0139
000000a0: 4b39 84b9 1a6d 83b9 3fac 85b9 ea6b 99b9
000000b0: 62ae 1439 a62c 0539 091a ac37 5347 5739
000000c0: 62cb 85b9 030c 12b9 0038 09b9 4b8c c638
000000d0: 8b8b e137 393c 0437 866a 98b7 8ed1 4d37
000000e0: 7a8e 37b8 912d 2738 7812 f7b8 58dd 0a37
000000f0: be0d 9eb7 ef75 90b7 2594 9839 c127 bcb9
00000100: f4ac 1d39 43f8 9239 074e 86b8 6911 6e3a
00000110: 7af1 abb7 04fe 83b4 f5b5 5cb8 31df 1eb9
00000120: 41fc 8fb8 113f 5a39 b329 1ab9 7612 be39
00000130: a08d da38 c48f fb38 fa5b 0937 0552 da38
00000140: e887 bb38 6a96 9e38 79ac 5e38 6458 dbb8
00000150: 1663 1439 8165 cb38 5c61 6934 312f 54b8
00000160: 7c2b b0b7 0b23 ac37 6c68 f6b7 d262 ee37
00000170: 4386 e9b8 dda9 97b7 a905 9436 0eea ad38
00000180: 1df1 0e38 a7ed ff37 4a73 5639 509c 2038
00000190: 062f 1138 88c2 a1b8 16da 2238 5d2a 7eb8
000001a0: 3188 a9b7 e0d4 1338 9df3 72b9 81b8 6439
000001b0: 60fa 9a38 ddee f438 2ae0 9d39 d015 feb8
000001c0: 5f0e 5cb9 05af 73b8 3b26 2339 9d20 3fb9
000001d0: 4a9a 19b7 715d 7038 b87c 60b8 07d5 6ab7
000001e0: c1d1 06b9 f6d3 a4b8 3f7d 4db8 a491 5cb9
000001f0: 895a 65b8 1cab 4737 dda9 8bb9 87cb 8137
00000200: ff6b bfb8 fc90 7537 1997 3e39 cf73 d037
00000210: 8b64 11b9 e19b 1ab9 a341 43b8 29b2 fa37
00000220: 715d 8037 9083 61b8 a6fa 9238 e426 1fb9
00000230: 1054 9136 2b6b 05b8 1953 8537 7a16 9d38
00000240: f39a 1038 0bf8 df37 0762 4eb7 e9fb 3538
00000250: 2a9b 0b39 fb36 1038 2754 2eb7 aa7f 8339
00000260: a447 a9b8 7160 ae34 da46 aab9 9995 f838
00000270: 102d a1b8 32b9 b3b7 0f83 e738 15e1 cdb8
00000280: 5f39 84b7 da78 03b3 a509 c4b7 6fba 2eb9
00000290: f12c 0db7 6085 11b6 0042 09b8 3f70 3d38
000002a0: 738e bc37 e337 1838 8151 4db9 e214 9e39
000002b0: e720 1038 da98 8338 71a1 57b8 6db2 0db8
000002c0: 9068 c937 3e24 bd36 a702 53b9 fa90 2239
000002d0: 8432 f936 acca 4536 c899 86b8 4ec9 2139
000002e0: 8a1c 1738 f778 4db7 9b34 8db8 15aa 4439
000002f0: 8747 1635 3abc 2c34 bf56 c538 fd4f 13b8
00000300: 9265 d1b9 094b e038 332a c039 33f0 98b9
00000310: 1ef5 beb8 528d c2b8 b9ac 62b9 610b a738
00000320: 45a4 11b8 5810 1738 a397 da38 98ba e238
00000330: bf49 0738 ed94 0938 3d74 2ab9 d3c5 c7b8
00000340: 1c4a 4339 e33d 7b39 bd79 1239 8e5f 21b9
00000350: ae56 ebb7 a2dc 0238 e597 9838 58de 82b8
00000360: 4688 b137 5222 dab8 02e4 79b9 ec64 60b9
00000370: 00bf a437 2938 2938 9cd8 9bb8 7060 b238
00000380: e932 2cb8 9eb3 54b8 ffc7 92b8 3a91 7bb8
00000390: 407c ec37 c337 0bb7 3cf4 2638 9f8c 45b8
000003a0: 03c4 7bb8 8369 5b37 678c 96b8 a7d0 11b8
000003b0: 7d71 1c38 cf4b 0e38 7fe9 46b8 5380 8db8
000003c0: 1bc7 65b9 3b40 3bb9 3bcb 323a a9be 0bba
000003d0: 053a 1238 a831 8ab6 7aaf 94b8 efc1 af39
000003e0: ac04 d733 f785 5bba b5b9 523a 4aac cfb9
000003f0: 1f8d 9c38 be2b c537 3473 e5b6 645f 09b9

exp_avg_sq f4 [64, 4]
8.441078e-07 5.763925e-07 3.4990123e-07 2.5551194e-07 1.6216981e-06 5.7665204e-07 5.1796667e-07 2.3134052e-07
9.2586015e-07 7.9920363e-07 2.7040492e-06 1.43263e-06 1.9976821e-06 7.839788e-06 7.3256006e-06 2.9541268e-06
1.3782416e-06 2.5859e-06 2.386743e-07 4.8138907e-07 4.0022474e-07 2.1048437e-07 8.4717465e-07 2.2975647e-07
3.1794147e-07 8.470991e-07 2.1054964e-06 1.2205422e-06 2.1124015e-06 3.6466022e-06 5.932649e-07 8.3049935e-07
3.644022e-06 1.7182925e-05 4.1009953e-06 3.2929302e-06 6.713564e-07 3.283538e-06 1.6460612e-07 4.4209656e-07
7.6651464e-05 2.0027019e-05 1.2461112e-05 8.786363e-06 8.82424e-07 1.4927056e-06 1.0199326e-06 1.034888e-06
2.4989906e-06 1.0279065e-06 1.2824474e-06 1.1730871e-06 3.0097272e-07 1.2866074e-07 1.5179096e-07 8.001796e-08
2.034698e-06 1.4664829e-06 8.955786e-07 9.406425e-07 1.4529862e-06 2.164568e-06 4.7338035e-06 2.7185795e-06
2.0546656e-06 7.246064e-06 7.4673553e-06 1.1234946e-05 2.1363549e-06 2.5658105e-06 1.922004e-06 8.362838e-07
4.093219e-06 4.287759e-06 4.0416894e-06 1.3954116e-06 1.1750313e-06 1.1601427e-06 4.9123196e-07 2.4375953e-07
2.6177105e-07 2.140291e-07 2.0112164e-07 9.9690226e-08 1.6110884e-06 9.388181e-07 3.919123e-07 1.8116006e-07
8.848711e-07 2.8662985e-06 7.0202395e-07 1.5433055e-07 2.2390493e-06 9.1238894e-07 3.686123e-06 1.3511323e-06
7.956787e-07 1.1292724e-06 3.9989854e-07 1.2206292e-06 1.6130251e-06 7.9088306e-07 6.13545e-07 6.0536985e-07
1.5429151e-06 1.34343e-06 8.837624e-07 1.1535864e-06 2.9457376e-06 2.12651e-06 1.0797651e-06 2.108379e-06
1.6187754e-06 1.2643977e-06 1.1643633e-06 9.547845e-07 8.7608055e-07 3.536017e-07 5.776441e-07 5.6648156e-07
1.724607e-06 1.0785527e-06 5.294396e-07 1.2384625e-06 1.0963306e-07 6.376307e-09 2.8990362e-06 1.2303344e-06
1.715608e-06 5.6118756e-07 4.0229077e-07 1.4792958e-07 1.5071471e-05 1.14822e-05 1.5693597e-06 4.123317e-06
4.7787026e-08 2.426583e-07 2.2107624e-06 4.6772678e-07 2.7102587e-06 3.4783707e-07 3.549517e-07 4.6453266e-07
5.0258706e-08 7.845613e-08 5.050529e-07 1.3321834e-07 3.714077e-06 5.2171226e-06 5.707508e-06 2.7723227e-06
3.6878305e-07 1.408516e-07 3.4177508e-06 1.6992686e-06 9.997603e-07 5.8799463e-07 1.3073887e-07 4.669307e-08
4.226543e-07 5.4558157e-08 3.2500582e-06 1.2364378e-06 5.3950846e-08 3.104526e-09 6.917479e-08 5.5496066e-08
2.6572725e-06 1.2016384e-06 6.7012197e-06 5.1229313e-06 1.7368197e-06 1.3684023e-05 1.1003624e-06 3.7122609e-06
5.8374565e-07 6.091175e-07 3.0821845e-06 1.459044e-06 3.733515e-07 8.587856e-08 5.4864273e-07 8.707098e-07
1.0048265e-05 6.3541543e-06 1.4224964e-06 3.543554e-06 5.3232526e-08 1.1964951e-08 7.683405e-08 4.753972e-08
7.033473e-07 2.5445266e-07 5.967645e-07 1.0657997e-06 1.3673388e-06 7.81787e-07 1.1468815e-06 2.0667633e-06
3.0460686e-07 1.1941718e-07 1.0370013e-07 1.0397495e-07 3.4978814e-07 3.5097412e-07 1.6968797e-07 6.62745e-08
5.6031973e-07 7.627771e-07 1.0078933e-06 3.1161468e-07 1.2760967e-06 1.190089e-06 5.631102e-07 4.318943e-07
8.9521166e-07 1.1773203e-06 1.1437548e-06 1.3171325e-06 2.1724199e-07 1.5048717e-07 8.349981e-08 1.094925e-07
5.701034e-08 8.647264e-08 1.1381471e-07 1.8766036e-07 4.6012465e-07 9.955492e-08 5.8018463e-07 7.4977163e-07
6.052921e-07 1.9812596e-07 3.9116586e-07 3.5230514e-08 1.497877e-07 1.4217869e-07 1.4272239e-07 8.4862855e-08
5.0965737e-06 8.943163e-06 2.5991123e-06 1.5404436e-06 2.6343914e-06 1.0528553e-07 3.4675836e-06 3.60475e-06
2.7183467e-09 5.0108974e-06 4.8599863e-06 6.051668e-06 4.2792246e-07 5.9270157e-08 6.8801387e-07 3.6190661e-07
00000000: a596 6235 64b9 1a35 0fda bb34 4b2d 8934
00000010: 1fa9 d935 3acb 1a35 660a 0b35 6666 7834
00000020: a088 7835 db88 5635 3677 3536 cb48 c035
00000030: eb0f 0636 a287 0337 6ece f536 833f 4636
00000040: 05fc b835 6c89 2d36 2523 8034 ce38 0135
00000050: 78de d634 8101 6234 6669 6335 fab2 7634
00000060: 8bb1 aa34 3564 6335 274c 0d36 83d1 a335
00000070: c8c2 0d36 26b8 7436 da40 1f35 7bef 5e35
00000080: d28b 7436 0d24 9037 489b 8936 1cfc 5c36
00000090: 4337 3435 c15a 5c36 96be 3034 4a59 ed34
000000a0: f1bf a038 b2ff a737 1210 5137 2469 1337
000000b0: b7df 6c35 f958 c835 9ee4 8835 7be6 8a35
000000c0: 55b4 2736 99f6 8935 8f20 ac35 f772 9d35
000000d0: 6095 a134 ff25 0a34 fbfb 2234 57d6 ab33
000000e0: d88b 0836 f8d3 c435 b167 7035 7680 7c35
000000f0: 3a04 c335 ff42 1136 10d7 9e36 d770 3636
00000100: e3e2 0936 3723 f336 1890 fa36 ba7d 3c37
00000110: 4c5e 0f36 4a30 2c36 c7fb 0036 fc7c 6035
00000120: 7c58 8936 92df 8f36 d99d 8736 fa49 bb35
00000130: c5b5 9d35 33b6 9b35 34dd 0335 0ede 8234
00000140: 8a89 8c34 dfcf 6534 e5f3 5734 4815 d633
00000150: 933c d835 1703 7c35 0468 d234 e684 4234
00000160: e187 6d35 a25a 4036 b872 3c35 0fb6 2534
00000170: 9342 1636 e4ea 7435 1c5f 7736 8d58 b535
00000180: a096 5535 8191 9735 a3b1 d634 80d4 a335
00000190: 1f7f d835 124d 5435 7eb2 2435 b380 2235
000001a0: 2916 cf35 e74f b435 b13b 6d35 edd4 9a35
000001b0: 63af 4536 2ab5 0e36 72ec 9035 ad7d 0d36
000001c0: b344 d935 60b4 a935 3847 9c35 2526 8035
000001d0: cc2b 6b35 a6d6 bd34 660f 1b35 5110 1835
000001e0: 0c79 e735 cac2 9035 d01e 0e35 3f39 a635
000001f0: 6a6f eb33 9716 db31 108d 4236 f821 a535
00000200: d843 e635 84a4 1635 6cfa d734 93d6 1e34
00000210: 7adb 7c37 aca3 4037 caa2 d235 065b 8a36
00000220: 643e 4d33 b446 8234 9c5c 1436 e11b fb34
00000230: e4e1 3536 5dbe ba34 3190 be34 e264 f934
00000240: 08dc 5733 b77b a833 f992 0735 c70a 0f34
00000250: 5b3f 7936 be0e af36 1f83 bf36 240c 3a36
00000260: 28fd c534 fe3c 1734 835c 6536 6d12 e435
00000270: 812f 8635 afd6 1d35 3a61 0c34 938b 4833
00000280: 2ae9 e234 5453 6a33 931b 5a36 aef3 a535
00000290: 95b7 6733 6657 5531 3e8d 9433 925a 6e33
000002a0: 9853 3236 fb47 a135 0adb e036 a5e5 ab36
000002b0: ac1c e935 6e94 6537 2ab0 9335 2820 7936
000002c0: b2b2 1c35 3c82 2335 87d7 4e36 5fd4 c335
000002d0: 0a71 c834 3d6c b833 7146 1335 b9ba 6935
000002e0: f894 2837 c535 d536 9bec be35 cbcd 6d36
000002f0: c8a1 6433 698e 4d32 f7ff a433 7a2e 4c33
00000300: a9cd 3c35 b59b 8834 5831 2035 990c 8f35
00000310: 6785 b735 fedb 5135 8cee 9935 b9b2 0a36
00000320: d988 a334 2539 0034 c0b1 de33 d548 df33
00000330: 84ca bb34 846d bc34 7933 3634 cb52 8e33
00000340: e168 1635 a5c1 4c35 f346 8735 ff4b a734
00000350: 5946 ab35 26bb 9f35 a328 1735 1adf e734
00000360: 7a4e 7035 6b04 9e35 1e83 9935 54c8 b035
00000370: 0643 6934 9995 2134 8250 b333 2322 eb33
00000380: 88db 7433 d6b2 b933 4c6a f433 b07f 4934
00000390: 0d07 f734 e5ca d533 fcbd 1b35 ea43 4935
000003a0: 5b7b 2235 73bc 5434 6d01 d234 5c50 1733
000003b0: 54d5 2034 c8a9 1834 3b3f 1934 d93d b633
000003c0: 3c03 ab36 980a 1637 696c 2e36 3dc1 ce35
000003d0: 80ca 3036 5519 e233 a2b4 6836 22e9 7136
000003e0: a9cd 3a31 4823 a836 f712 a336 6f0f cb36
000003f0: 37bd e534 3a90 7e33 f4af 3835 114c c234

exp_avg f4 [64]
-8.014561e-05 4.6544672e-05 -4.149364e-05 -4.372941e-05 -2.463061e-06 2.7071523e-05 1.1893154e-05 9.826057e-05
-6.613549e-05 -0.00010448787 -1.0865893e-05 -1.4277516e-05 -1.3125602e-05 6e-45 -4.2945117e-05 -9.63409e-05
1.4213439e-05 -0.00021755902 6e-45 -7.860514e-05 -0.0001542514 8.124907e-05 4.6920984e-05 0.00027134185
1.8604364e-05 -3.2322125e-05 9.469465e-05 0.0001070977 0.00010564059 -1.1030228e-05 -0.00014096011 -0.00013963995
6.182012e-05 -0.00025513268 6e-45 4.497858e-05 -3.2767308e-05 2.898073e-05 6e-45 -1.4913007e-05
-0.00012378092 -7.424666e-06 6e-45 6.4986925e-05 2.1159984e-05 8.6841006e-05 7.1898767e-06 5.9971968e-05
6e-45 6.9961614e-05 0.00026776834 -1.559572e-05 -0.00012390297 -7.753015e-06 -1.6969605e-05 -6.97466e-05
-1.6740452e-05 3.450328e-05 -2.6001415e-05 0.0002191867 -0.00024457095 6e-45 -3.397087e-05 -5.327386e-06
00000000: d913 a8b8 f638 4338 7509 2eb8 196a 37b8
00000010: 114b 25b6 a717 e337 b588 4737 3e11 ce38
00000020: 39b2 8ab8 8020 dbb8 a84c 36b7 7789 6fb7
00000030: 0836 5cb7 0400 0000 f81f 34b8 a00a cab8
00000040: 4176 6e37 8e20 64b9 0400 0000 d0d8 a4b8
00000050: 8bbe 21b9 4364 aa38 06cd 4438 e342 8e39
00000060: 9110 9c37 9e91 07b8 ce96 c638 a499 e038
00000070: 5c8b dd38 780e 39b7 b1ce 13b9 506c 12b9
00000080: 6da5 8138 54c3 85b9 0400 0000 62a7 3c38
00000090: a16f 09b8 a51b f337 0400 0000 e132 7ab7
000000a0: 30cb 01b9 6521 f9b6 0400 0000 9749 8838
000000b0: b880 b137 691e b638 9240 f136 698a 7b38
000000c0: 0400 0000 5bb8 9238 4263 8c39 8ed3 82b7
000000d0: f3eb 01b9 f212 02b7 f359 8eb7 ec44 92b8
000000e0: d96d 8cb7 9db7 1038 9d1d dab7 7bd5 6539
000000f0: c239 80b9 0400 0000 f27b 0eb8 e6c1 b2b6

exp_avg_sq f4 [64]
1.3353086e-06 3.9854935e-06 1.0439877e-06 3.268605e-07 1.4587436e-06 9.0787495e-07 4.1230064e-06 1.9916757e-07
1.8097614e-06 8.486138e-07 7.591164e-08 2.3559385e-06 3.7761606e-07 4.144673e-14 8.5900695e-07 1.5117367e-06
1.8644894e-06 7.017983e-06 6.147472e-09 5.152878e-07 3.036384e-07 1.7817944e-06 2.4617168e-06 1.3299387e-05
2.3975605e-07 2.0719804e-06 8.587687e-07 9.4828687e-07 2.9719913e-06 9.917654e-07 2.0342634e-06 5.3720173e-06
3.3799968e-06 1.5408757e-06 1.4527095e-07 1.2429924e-06 3.13222e-07 4.1137528e-07 1.7885741e-08 3.1315205e-06
4.085443e-06 1.0177623e-06 9.532959e-09 1.5022135e-06 3.659683e-07 6.7775807e-07 6.924618e-07 9.636021e-07
4.166048e-08 1.9794181e-06 1.0253096e-05 1.3687846e-06 7.858938e-07 3.568331e-06 9.2539557e-07 4.955238e-07
3.1510916e-07 1.7984605e-06 1.209457e-07 1.3093956e-05 7.6319577e-07 2.2023851e-08 6.621047e-07 3.4649182e-07
00000000: db38 b335 21bb 8536 251f 8c35 5d7b af34
00000010: 0cca c335 b1b4 7335 5b58 8a36 c4da 5534
00000020: eee6 f235 4ccc 6335 de04 a333 b71a 1e36
00000030: 28bb ca34 d4a8 3a29 8296 6635 e1e6 ca35
00000040: 5e3f fa35 047c eb36 bc39 d331 4f52 0a35
00000050: be03 a334 fd25 ef35 f933 2536 6f20 5f37
00000060: d2b7 8034 5a0c 0b36 2386 6635 c78d 7e35
00000070: 6c72 4736 cd1c 8535 6184 0836 4741 b436
00000080: e7d3 6236 16d0 ce35 c6fb 1b34 e5d4 a635
00000090: e728 a834 fdda dc34 29a3 9932 1d27 5236
000000a0: b015 8936 0c9a 8835 66c6 2332 aa9f c935
000000b0: 4d7a c434 2eef 3535 9de1 3935 1e55 8135
000000c0: 2fee 3233 25d6 0436 b604 2c37 15b7 b735
000000d0: 36f6 5235 7677 6f36 b368 7835 2304 0535
000000e0: 462c a934 a262 f135 4ddd 0134 1dae 5b37
000000f0: 6ade 4c35 f62e bd32 7dbb 3135 7905 ba34
