log/alpha=0.0001/version_None/checkpoints/epoch=199-step=399.ckpt (torch, 116924 bytes, 21 tensors)

dec.lin0.bias f4 [64]
0	0xbe60980b	-0.21933
1	0x3e3e9740	0.18612385
2	0xbec25787	-0.37957403
3	0x3b2a6585	0.0026000452
4	0x3ee4bbec	0.44674623
5	0xbdcdf7c9	-0.10057027
6	0xbdb75dea	-0.089534596
7	0x3d6562fa	0.056002595
8	0xbe022ac1	-0.12711622
9	0x3eb38931	0.35065606
10	0x3bc8d491	0.0061288555
11	0x3e820006	0.25390643
12	0xbd1398ff	-0.03603458
13	0x3ed9fd2f	0.42575976
14	0xbeab053b	-0.33402428
15	0x3ec021d8	0.3752582
16	0xbbab06ae	-0.005219302
17	0xbcf19d32	-0.029493902
18	0xbe591b34	-0.21201783
19	0x3e9e002e	0.30859512
20	0xbe9edacc	-0.31026304
21	0x3d1eed11	0.038800303
22	0x3eef0e0d	0.46690407
23	0x3eddc296	0.4331252
24	0x3e5d45b3	0.2160862
25	0xbeee2a87	-0.4651682
26	0x3ea3c9ea	0.31989986
27	0xbe2d22b0	-0.16907763
28	0x3ea23a53	0.31685123
29	0x3eeda7d8	0.46417117
30	0xbd40f9ec	-0.047113344
31	0xbd833dd5	-0.06408278
32	0xbe210bcf	-0.15727161
33	0x3ecf0561	0.4043379
34	0xbe9fe180	-0.3122673
35	0x3ec6a0a2	0.38794428
36	0x3e173586	0.14766511
37	0x3e5531cc	0.20819777
38	0x3dab6880	0.08369541
39	0x3ef327d2	0.47491318
40	0xbdd906d0	-0.105970025
41	0xbed12921	-0.4085169
42	0x3eb7443d	0.3579425
43	0xbbde87a3	-0.0067910715
44	0xbdd63447	-0.1045919
45	0xbc88ed8f	-0.01671484
46	0xbe86c10e	-0.26319164
47	0xbee900a9	-0.45508316
48	0x3e236dcc	0.15959853
49	0xbef8646d	-0.4851412
50	0x3eec2e87	0.46129248
51	0xbec730c0	-0.3890438
52	0xbdd27f6d	-0.10278211
53	0x3db9e873	0.09077539
54	0x3eeb36c6	0.45940226
55	0x3e4f41fc	0.20240015
56	0xbea8aa44	-0.32942402
57	0x3eb35f3f	0.35033605
58	0xbeca9e47	-0.3957388
59	0xbecb32f9	-0.39687327
60	0xbe28e8c8	-0.16495049
61	0xbed11241	-0.4083424
62	0x3ebc3d1a	0.36765367
63	0xbea0ae8c	-0.3138317

dec.lin0.weight_v f4 [64, 4]
0	0xbeab75ab	-0.3348821
1	0xbeacc502	-0.33744055
2	0xbd3526c8	-0.044226438
3	0x3eed49c9	0.46345356
4	0xbe924e11	-0.28575185
5	0x3eaeff55	0.34179178
6	0xbebb73a5	-0.36611667
7	0x3eee6704	0.4656297
8	0x3e9d1ead	0.30687466
9	0xbe94044e	-0.28909534
10	0x3e13f6b8	0.14449584
11	0x3e92c212	0.2866369
12	0xbdbe0ac2	-0.09279396
13	0xbdecd7ad	-0.115645744
14	0xbea6267b	-0.32451233
15	0xbe77406f	-0.24145673
16	0x3cbf382b	0.023342213
17	0xbe897f3c	-0.26854885
18	0x3eb24f1c	0.3482598
19	0x3e152f83	0.14568906
20	0xbe6ddbb9	-0.23228349
21	0xbdbf1274	-0.093296915
22	0x3ec95d7f	0.39329144
23	0x3e2b4e49	0.16729082
24	0xbdad7b75	-0.08470813
25	0xbcda5db4	-0.02665601
26	0xbe1249e0	-0.14285994
27	0x3ea34996	0.3189208
28	0xbe3e614e	-0.18591806
29	0xbd99154d	-0.07474766
30	0xbd94d02b	-0.072662674
31	0xbe862e60	-0.26207256
32	0x3eaa2825	0.33233753
33	0xbea5d48b	-0.3238872
34	0x3ed06e1b	0.40709004
35	0x3d6a9eee	0.057280473
36	0x3ed7731d	0.42080012
37	0xbe8df4ae	-0.27725738
38	0xbe8664a3	-0.26248655
39	0xbe9e0860	-0.30865765
40	0x3ed74385	0.420437
41	0xbd2ae12a	-0.04171864
42	0x3df82be1	0.12117744
43	0xbe419573	-0.18904667
44	0xbdcd45c0	-0.100230694
45	0xbea056c0	-0.31316185
46	0xbef2f449	-0.47452
47	0xbf033a10	-0.5126047
48	0x3e207afa	0.15671912
49	0xbdfad57f	-0.122477524
50	0xbe0b8de4	-0.13628346
51	0x3e64d4fe	0.22346875
52	0xbdae6586	-0.08515458
53	0xbd86c11d	-0.06579802
54	0x3ebae75f	0.36504647
55	0x3eaec7a1	0.3413668
56	0x3da15ca3	0.07878997
57	0xbea2b3ae	-0.3177771
58	0x3ea461dc	0.3210591
59	0xbecb3e07	-0.3969576
60	0xb91205dc	-0.00013925828
61	0xbe28b739	-0.16476144
62	0xbee41516	-0.44547337
63	0x3cd8430b	0.026399156
64	0xbe771384	-0.24128538
65	0x3e899047	0.26867887
66	0xbebe7577	-0.37198994
67	0xbe0befe6	-0.13665733
68	0xbe8aa5e5	-0.27079692
69	0x3eb176f9	0.3466108
70	0xbef5b37a	-0.47988492
71	0x3e52cfd2	0.2058709
72	0x3df4fc93	0.11962237
73	0xbed2de34	-0.41185153
74	0xbdc0f8fc	-0.0942249
75	0x3e3a7a42	0.182107
76	0xbddac477	-0.10682004
77	0x3ef5fa8b	0.48042712
78	0x3d67ea0f	0.0566197
79	0x3ebeef63	0.37292013
80	0xbd41402f	-0.04718035
81	0x3edb875d	0.4287671
82	0xbe233393	-0.15937643
83	0xbe2a202d	-0.16613837
84	0x3df002cb	0.11719283
85	0x3e84e286	0.25954074
86	0x3e74cf1d	0.23907132
87	0x3dec0f41	0.11526347
88	0x3ecf16af	0.40446994
89	0xbecc45fd	-0.39897147
90	0x3ed1ddf5	0.40989652
91	0xbe22f643	-0.15914254
92	0xbe70810f	-0.23486732
93	0xbef7c413	-0.4839178
94	0xbecf5884	-0.4049722
95	0x3eba1034	0.36340487
96	0xbd48f498	-0.049061388
97	0xbdda8857	-0.10670536
98	0xbe09edc3	-0.13469605
99	0x3ea7db93	0.3278471
100	0x3eef534d	0.4674324
101	0x3dc11280	0.09427357
102	0xbeeaa856	-0.45831555
103	0x3ef1e505	0.4724504
104	0x3e507651	0.20357634
105	0xbed61e7b	-0.4182013
106	0x3e49ca9e	0.19706199
107	0x3ed3e871	0.41388276
108	0xbd84b596	-0.06479947
109	0xbed655af	-0.41862246
110	0xbda3931c	-0.07987043
111	0xbb65c2b7	-0.0035058686
112	0x3d99433e	0.074835286
113	0x3ecaede0	0.3963461
114	0xbec04e02	-0.37559515
115	0xbe1fd7c3	-0.1560965
116	0xbe610936	-0.2197617
117	0x3e96bb7a	0.29439908
118	0xbe891b49	-0.2677863
119	0xbee92449	-0.45535496
120	0xbd5dbea0	-0.054136872
121	0xbed5e4f8	-0.41776252
122	0xbe8d1d1a	-0.27561265
123	0xbea8fc88	-0.33005166
124	0xbed51d31	-0.41623834
125	0x3e99033c	0.2988528
126	0x3e22d153	0.15900163
127	0x3df40f61	0.11916996
128	0x3e1067a3	0.14102034
129	0x3d59ca16	0.05317124
130	0xbd234256	-0.039858185
131	0x3eb24921	0.34821418
132	0xbeb8421f	-0.35987946
133	0x3c1bdbd0	0.009512857
134	0xbee8954c	-0.45426404
135	0xbef5640a	-0.47927886
136	0x3bc7e063	0.006099747
137	0xbd5b3356	-0.053515755
138	0x3c22f3f8	0.009945862
139	0xbeab1c26	-0.33419913
140	0x3e251b94	0.16123801
141	0xbec98f16	-0.39366978
142	0xbe9634a6	-0.29337043
143	0xbead9c20	-0.33908176
144	0x3df54049	0.11975152
145	0x3db8eada	0.090291694
146	0xbe6e632d	-0.2328002
147	0xbdfc88fa	-0.12330814
148	0x3ea37446	0.31924647
149	0xbea82962	-0.32844073
150	0xbedf197f	-0.4357414
151	0x3e8a260e	0.26982158
152	0x3d70fe5e	0.058836333
153	0x3eaf164e	0.34196705
154	0xbd933ad7	-0.07188957
155	0xbe623f1c	-0.22094387
156	0x3e8bf91b	0.2733849
157	0x3dc1257f	0.0943098
158	0x3e8f0698	0.27934718
159	0x3a70ded5	0.0009188478
160	0xbe868a40	-0.2627735
161	0x3ec91975	0.39277235
162	0x3eb8dc17	0.36105415
163	0xbea4f2b0	-0.32216406
164	0x3eaa31fa	0.33241254
165	0x3eabde71	0.33568147
166	0x3e33057a	0.17482558
167	0xbee09f50	-0.43871546
168	0xbe2696bc	-0.16268438
169	0x3e925c0c	0.2858585
170	0xbf041edb	-0.5160958
171	0xbd14a2d2	-0.03628809
172	0x3ee35ac0	0.44405174
173	0xbe3ca6fd	-0.18423076
174	0xbeebf880	-0.46088028
175	0x3ea6d182	0.32581717
176	0x3ebe9365	0.37221828
177	0x3e080503	0.13283162
178	0xbda4f45c	-0.0805442
179	0x3ea32b93	0.31869182
180	0xbdc674aa	-0.09690221
181	0x3dc7055c	0.09717819
182	0x3eb9b75f	0.36272714
183	0x3db645bf	0.08900022
184	0x3ec8632b	0.3913816
185	0x3ec46e14	0.38365233
186	0x3e811dd5	0.25218073
187	0xbedd1fa1	-0.43188193
188	0x3da76092	0.08172716
189	0xbef2e713	-0.4744192
190	0x3eb978ba	0.3622492
191	0xbeb4330a	-0.3519519
192	0xbd8bf7ed	-0.068343975
193	0xbecfd4f0	-0.40592146
194	0xbe8a82ca	-0.2705291
195	0xbd78582d	-0.060630966
196	0xbd42b0c5	-0.04753186
197	0xbd3284c3	-0.043583643
198	0x3edc503f	0.43029973
199	0xbcc8787d	-0.024471516
200	0x3e46055d	0.19337983
201	0x3e6ca684	0.23110396
202	0x3e7aab7e	0.24479482
203	0x3e0da135	0.13831027
204	0xbee6bbea	-0.45065242
205	0x3d2b58fb	0.041832905
206	0xbebed969	-0.37275246
207	0x3ee55349	0.44790104
208	0xbebc9e6e	-0.36839622
209	0x3e478e86	0.19487962
210	0x3ddbbd38	0.1072945
211	0xbd887341	-0.06662608
212	0xbe887a63	-0.26655874
213	0xbe3cfa30	-0.18454814
214	0xbeee8c5a	-0.46591455
215	0xbe22748c	-0.15864772
216	0xbe450beb	-0.19242828
217	0xbf00154a	-0.50032485
218	0xbe645a18	-0.22299993
219	0xbe13b09e	-0.14422843
220	0xbd73c9f2	-0.059518762
221	0x3e8453ee	0.25845283
222	0xbefb0b34	-0.49031985
223	0x3d036fa6	0.032088898
224	0xbda5cb15	-0.080953754
225	0x3ec616b6	0.38689202
226	0xbd960f57	-0.073271446
227	0xbd98f8d2	-0.07469334
228	0x3e71da5e	0.23618457
229	0xbe23c8ce	-0.1599457
230	0x3e92b643	0.2865468
231	0x3a1b305e	0.0005919988
232	0xbe8b02dd	-0.27150622
233	0xbe71793f	-0.23581408
234	0xbe502f11	-0.20330454
235	0x3eee016a	0.46485454
236	0x3ea1b904	0.31586468
237	0x3ee04f28	0.4381039
238	0xbefcb6c9	-0.49358204
239	0xbe961a36	-0.29316872
240	0xbe2a998b	-0.16660134
241	0x3bbf5a77	0.0058396417
242	0x3e9540c4	0.29150975
243	0x3ee0bf85	0.43896118
244	0xbe936ea6	-0.28795356
245	0xbeb74093	-0.35791454
246	0xbdfc733c	-0.12326667
247	0x3ee12eff	0.43981168
248	0x3c74a32c	0.014931481
249	0x3e08b8d4	0.13351756
250	0x3e19d90a	0.150242
251	0xbd664ec2	-0.056227453
252	0xbdeb5f49	-0.114927836
253	0xbe0aac22	-0.13542226
254	0x3db1e4d7	0.08686226
255	0x3ee59b8d	0.44845238

dec.lin1.bias f4 [64]
0	0xbdd503d4	-0.10401121
1	0xbcb0977a	-0.021556605
2	0xbbeeb4f9	-0.007284757
3	0xbd9c9ca2	-0.07647063
4	0xbddc9b96	-0.10771863
5	0x3db59481	0.088662155
6	0xbcbc8c17	-0.023016019
7	0xbdd957c4	-0.10612443
8	0xbdc53cc5	-0.096307315
9	0x3da9b0db	0.08285686
10	0x3ce67790	0.028133184
11	0x3db3a35e	0.08771394
12	0xbc37a1dd	-0.011208025
13	0xbdc7ca61	-0.097553976
14	0xbdc2a8d8	-0.09504861
15	0x3c202cc0	0.009776294
16	0xbdee8212	-0.11645903
17	0x3df62e01	0.12020493
18	0x3d905548	0.07047516
19	0x3c853fb3	0.016265726
20	0x3d92b6c0	0.07163763
21	0x3d492b43	0.049113523
22	0xbd9c838b	-0.07642277
23	0xbd492379	-0.049106095
24	0x3d8d7506	0.06907086
25	0xbbd92aac	-0.0066274013
26	0xbd814dbb	-0.06313654
27	0xbcdfbff6	-0.027313214
28	0xbd0d096d	-0.034432817
29	0xbdbeef01	-0.0932293
30	0x3dc4a3b6	0.09601538
31	0x3db49b06	0.08818631
32	0xbd0cad9f	-0.034345265
33	0xbddd6c8e	-0.10811721
34	0xbd7aaeb8	-0.06120178
35	0x3d7cef08	0.061751395
36	0x3be8d8f7	0.0071059423
37	0xbdf233a0	-0.11826253
38	0xbd1a66a6	-0.03769555
39	0x3db7de0c	0.08977899
40	0x3c855b11	0.016278775
41	0x3c8a9600	0.016917229
42	0x3d1b32e1	0.03789032
43	0x3c566eb5	0.013087918
44	0x3bae89bf	0.005326479
45	0x3d99f7d1	0.0751797
46	0xbb9c2699	-0.0047653434
47	0xbd7764cd	-0.060398865
48	0x3b6a8158	0.0035782661
49	0x3d0f196f	0.034936365
50	0x3dd0a5d9	0.10187883
51	0xbdd74577	-0.10511296
52	0x3dc42d25	0.09578923
53	0xbda574c3	-0.08078911
54	0xbd085f48	-0.033293992
55	0xbc19b5d6	-0.009381732
56	0x3c811ff4	0.015762307
57	0xbdd7d268	-0.10538179
58	0xbc79b111	-0.01523997
59	0x3d8f108d	0.06985579
60	0xbd9076c9	-0.070539065
61	0xbdc56cd4	-0.09639898
62	0xbc46a6c3	-0.01212472
63	0x3cc16989	0.023609893

dec.lin1.weight_v f4 [64, 64]
0	0x3d0e9b43	0.034816038
1	0x3deeec56	0.11666171
2	0x3d65fdf1	0.05615038
3	0x3dd69629	0.104778595
4	0xbd5fa400	-0.054599762
5	0xbc00f7c9	-0.007871577
6	0xbd9c5bd0	-0.07634699
7	0xbd4b5dc4	-0.04964997
8	0xbc91301a	-0.017723132
9	0x3db414b5	0.08793012
10	0xbd4e00ec	-0.050293848
11	0x3c95c16d	0.01828071
12	0xbda9d4e5	-0.082925595
13	0x3d3a1876	0.045433484
14	0xbdbb2d9b	-0.09139558
15	0x3df6c9f9	0.12050242
16	0x3d34c879	0.044136498
17	0x3da5456e	0.08069883
18	0x3d54d6c4	0.05196263
19	0x3d7220bf	0.05911326
20	0xbd7eb5f0	-0.062185228
21	0xbd05f754	-0.032706574
22	0xbd51cd07	-0.05122092
23	0x3bb683a6	0.005569893
24	0xbd836b26	-0.06416921
25	0xbd4260fd	-0.047455776
26	0x3d954ca7	0.07290011
27	0x3c1c9d5d	0.009559003
28	0xbdd79663	-0.10526731
29	0xbd48bc31	-0.0490076
30	0x3d6bde94	0.057585314
31	0x3d577776	0.05260416
32	0x3d190869	0.037361536
33	0x3d418a7b	0.047251206
34	0xbce8671a	-0.028369475
35	0xbdc2cacb	-0.09511336
36	0x3d7f3267	0.062303927
37	0xbbcb6e56	-0.0062082214
38	0xbdce80b6	-0.100831434
39	0xbd6200cf	-0.055176552
40	0xbda0be67	-0.07848816
41	0xbd53e3d1	-0.051730935
42	0xbaceb658	-0.0015770895
43	0x3df3dffd	0.11907957
44	0xbd84a29a	-0.06476326
45	0xbcee090c	-0.029057048
46	0xbdaa464b	-0.083141886
47	0x3d4e8c00	0.050426483
48	0x3deaac60	0.11458659
49	0x3db1eb26	0.08687429
50	0x3d80bc6d	0.06285939
51	0x3e020ee5	0.12700994
52	0x3d9e6899	0.07734794
53	0x3ddf92c1	0.10916663
54	0x3d786a29	0.060648117
55	0xbd9e86b3	-0.077405356
56	0xbd5ab0fb	-0.053391438
57	0x3d440245	0.047853727
58	0xbc1e1bb6	-0.0096501615
59	0x3e0ff58a	0.1405851
60	0xbd39f69d	-0.045401204
61	0xbb819776	-0.003954823
62	0xbc5f7f64	-0.013641212
63	0x3d48e52f	0.04904669
64	0xbaf4c0e1	-0.0018673205
65	0x3db3dd13	0.08782401
66	0xbd18d682	-0.037313946
67	0x3e003e4d	0.12523766
68	0x3d843807	0.06455999
69	0x3e0a34f7	0.13496767
70	0xbccb4e7c	-0.024817698
71	0x3d4b997f	0.049706932
72	0x3d099921	0.0335933
73	0xbb631b44	-0.0034653703
74	0xbd9aa0e5	-0.075502194
75	0x3c011f0c	0.007880937
76	0xbcc199cf	-0.023632912
77	0xbde985f6	-0.11402504
78	0x3d82f3b0	0.06394136
79	0xbc7f2acf	-0.015574171
80	0x3dd4d50a	0.103921965
81	0x3d4208da	0.047371723
82	0x3d0cb8da	0.034355976
83	0x3de520fd	0.11187933
84	0xbd5cba9f	-0.053888913
85	0x3d9ba9cd	0.07600746
86	0x3cd6cd81	0.026221039
87	0x3daf8896	0.085709736
88	0x3ddb60c1	0.10711814
89	0xbd8ac38b	-0.06775578
90	0x3d44a16f	0.048005518
91	0x3cd6f024	0.026237555
92	0xbc90aeb6	-0.017661434
93	0x3dd4a641	0.10383273
94	0xbdfdf958	-0.12401074
95	0xbd29d844	-0.041466013
96	0xbd67ce02	-0.05659295
97	0x3dbda2b2	0.09259547
98	0x3c4666b1	0.0121094445
99	0x3d715b8f	0.058925208
100	0x3d86fc90	0.06591141
101	0x3d7f358d	0.06230693
102	0x3d88e8de	0.06685041
103	0xbd8a7afc	-0.06761739
104	0xbc063f03	-0.008193734
105	0x3ddbb2b7	0.107274465
106	0xbd520328	-0.05127254
107	0xbddde2e1	-0.10834289
108	0xbd1d212d	-0.038361717
109	0x3dcbcadb	0.09950801
110	0xbdcd7177	-0.10031407
111	0x3d9c77a3	0.076400064
112	0xbdab5110	-0.08365071
113	0x3d855d47	0.06511932
114	0xbd691c58	-0.056911796
115	0x3dca853a	0.09888692
116	0xbdb7f7e2	-0.08982827
117	0xbd8ada55	-0.06779925
118	0x3d1048e4	0.035225764
119	0x3c9bb0d4	0.019005217
120	0x3d4c1b0c	0.04983048
121	0xbd9d3ab0	-0.076772094
122	0xbdb9e72f	-0.09077298
123	0xbd1f449f	-0.0388838
124	0x3d9f904e	0.07791196
125	0xbd96d93a	-0.073656514
126	0x3dc6445d	0.09681008
127	0x3de8cac1	0.11366797
128	0x3cf1f161	0.029534044
129	0x3d9bdcf9	0.076105066
130	0xbd897a6b	-0.067128025
131	0xbce969db	-0.028492859
132	0xbd8b7060	-0.06808543
133	0x3d982528	0.07428962
134	0x3df01291	0.11722291
135	0xbdd73c34	-0.1050953
136	0xbdb30414	-0.08741012
137	0xbd3e4d23	-0.046460282
138	0xbdb0b324	-0.08627918
139	0x3d8a2ff4	0.067474276
140	0x3d2a8b24	0.0416366
141	0xbdc70647	-0.09717994
142	0xbd9cd98e	-0.07658683
143	0x3d9e0353	0.07715478
144	0xbc649844	-0.013952319
145	0xbd6a0c32	-0.057140537
146	0xbc5c95ca	-0.013463447
147	0xbdb6896f	-0.08912932
148	0x3a1966d1	0.00058518077
149	0xbc964e75	-0.018347958
150	0xbd6600e5	-0.056153197
151	0x3d88aa5f	0.06673121
152	0x3dc5833f	0.09644174
153	0x3d4b1462	0.049579985
154	0xbd073ea0	-0.03301871
155	0x3df462f2	0.11932935
156	0x3d0fae0f	0.035078105
157	0xbdfd41b6	-0.12366049
158	0xba9d5d90	-0.0012006033
159	0xbdb3b90d	-0.0877553
160	0xbdcaa5cc	-0.098949045
161	0x3dd90103	0.10595896
162	0x3c70ec89	0.014704832
163	0xbd52c6ac	-0.051459
164	0x3d22eae7	0.0397748
165	0xbbab89c9	-0.005234931
166	0xbcddd91e	-0.027081069
167	0x3dc247f1	0.09486378
168	0xbcf6b343	-0.030114776
169	0x3d484436	0.048893176
170	0xbdac109d	-0.08401606
171	0x3c0816ee	0.008306248
172	0x3d89d1bb	0.06729456
173	0x3d740216	0.0595723
174	0xbde7a169	-0.113100834
175	0x3dd3a44b	0.10334071
176	0x3dcb28b5	0.099198736
177	0x3dd77fc4	0.10522416
178	0xbd60167e	-0.05470895
179	0xbb1f7067	-0.0024328472
180	0x3c5d2474	0.013497461
181	0x3db5f9dd	0.08885548
182	0x3c22a185	0.009926205
183	0x3daa9d3a	0.0833077
184	0xbdcb7b96	-0.099356815
185	0x3d386bef	0.04502481
186	0xbda7d79a	-0.081954196
187	0x3d66c043	0.0563357
188	0xbdd58cea	-0.10427268
189	0xbd26dd18	-0.040738195
190	0xbe00c5d9	-0.12575473
191	0xbd68897f	-0.05677175
192	0xbdb00b7a	-0.08595939
193	0x3c346996	0.011011502
194	0xbd1fd699	-0.039023016
195	0x3d274169	0.040833864
196	0x3d81c48a	0.06336315
197	0x3dbc05b0	0.09180772
198	0xbdc46af2	-0.09590711
199	0xbd48b7c2	-0.04900337
200	0xbc85cfc9	-0.016334431
201	0xbdda4d2d	-0.10659251
202	0x3b3aada9	0.0028484857
203	0x3d962d94	0.07332912
204	0xbc3c1c19	-0.011481308
205	0xbd49d733	-0.049277496
206	0xbdab35ad	-0.08359847
207	0x3da83806	0.082138106
208	0x3e0480f9	0.12939824
209	0x3c32fb50	0.010924175
210	0xbd76810b	-0.06018166
211	0x3dbf69f4	0.09346381
212	0x3dc3fc9d	0.095696665
213	0xbde35c3a	-0.11101575
214	0xbc46c167	-0.012131072
215	0xbcea8790	-0.028629094
216	0xbde3b8af	-0.1111921
217	0xbd844251	-0.06457961
218	0xbb495b06	-0.003072442
219	0x3c90accd	0.017660523
220	0xbdc6ea46	-0.09712653
221	0xbd944f64	-0.07241705
222	0xbdaaec92	-0.083459035
223	0x3d9a7344	0.075415164
224	0xbc8a0284	-0.016846903
225	0xbb1eed66	-0.0024250387
226	0x3e2073eb	0.15669219
227	0xbdb80766	-0.08985786
228	0x3d1c2695	0.038122732
229	0xbde5c8be	-0.11219929
230	0xbd73b7a2	-0.059501298
231	0x3d9feb96	0.07808606
232	0xbdd11469	-0.10208971
233	0x3d96b8b8	0.07359451
234	0xbd1e32b7	-0.038622584
235	0xbc4bdb8e	-0.012442483
236	0xbd9c935d	-0.07645295
237	0x3db66d5a	0.08907576
238	0x3daa7158	0.083224
239	0xbdb369e7	-0.08760434
240	0x3de8ac7c	0.11361024
241	0x3d9544e7	0.07288533
242	0xbd760f96	-0.060073458
243	0x3c962a87	0.018330825
244	0x3ad0a66d	0.0015918739
245	0x3db3f33d	0.087866284
246	0x3df8485f	0.12123179
247	0xbc939d6b	-0.018019399
248	0x3cedd35d	0.02903145
249	0xbdae229f	-0.08502697
250	0xbbc69140	-0.0060597956
251	0x3dcdc061	0.10046459
252	0xbc3c9859	-0.011510932
253	0xbc035ca3	-0.008017692
254	0x3dd2568d	0.102704145
255	0xbd828316	-0.06372659

dec.lin2.bias f4 [64]
0	0x3db6e5d5	0.08930556
1	0x3d875c39	0.06609387
2	0xbc5b20f8	-0.01337456
3	0xbdf8dea1	-0.12151838
4	0xb9c50593	-0.0003757892
5	0xbdb5f8ee	-0.0888537
6	0xbc12a0f8	-0.008949511
7	0x3baed658	0.0053356104
8	0xbd106b75	-0.03525873
9	0x3dae6fcf	0.085174195
10	0x3da3a204	0.079898864
11	0x3b365454	0.002782126
12	0x3bbac016	0.005699168
13	0x3cf99ae1	0.03046936
14	0x3cd8bfb8	0.026458606
15	0x3d93e30d	0.07221041
16	0x3df06f77	0.1174001
17	0x3d9c8c9a	0.07644005
18	0xbc5d1767	-0.013494349
19	0xbc99e49b	-0.018785765
20	0x3b9094c9	0.004412268
21	0xbd877123	-0.06613376
22	0x3caa7e64	0.02081222
23	0xbca5afb3	-0.020225381
24	0x3d7bcf34	0.0614769
25	0xbd7c623a	-0.061617114
26	0xbdbd70c1	-0.09250022
27	0x3dd9da6a	0.10637362
28	0xbd13c4b7	-0.036076274
29	0xbde51e08	-0.11187369
30	0x3d4b54fd	0.049641598
31	0xbde9d632	-0.11417808
32	0xbdcc2d96	-0.09969632
33	0xbde9566b	-0.11393436
34	0x3afec8a3	0.0019438457
35	0xbdcf46e5	-0.10120944
36	0xba2d5785	-0.00066124677
37	0x3c04f521	0.008115084
38	0x3ddeaf43	0.10873272
39	0x3d7576b7	0.05992767
40	0x3d8bebd6	0.068320915
41	0xbd07f620	-0.033193707
42	0x3cfe8437	0.031068904
43	0x3db2b46e	0.087258205
44	0xbd96b102	-0.0735798
45	0x3d9ab6d5	0.07554404
46	0x3d0cbbf0	0.03435892
47	0x3d07402f	0.033020195
48	0x3cffdab7	0.031232221
49	0xbdca263d	-0.098705746
50	0xbe09f6ad	-0.13473006
51	0x3bd34ff0	0.0064487383
52	0xbdcf3c78	-0.101189554
53	0xbc963b30	-0.01833877
54	0xbdd4ab1c	-0.10384199
55	0x3d388b00	0.045054436
56	0xbdf215d4	-0.1182057
57	0x3c7b6d6e	0.015345914
58	0xbcc1329a	-0.023583699
59	0x3d8a840a	0.06763466
60	0xbcac2824	-0.021015234
61	0xbe0a6658	-0.13515604
62	0xbdb2b337	-0.08725589
63	0xbde07c56	-0.10961215

dec.lin2.weight_v f4 [64, 64]
0	0xbddc017c	-0.107424706
1	0x3d976bb9	0.07393593
2	0x3dc8a611	0.097973
3	0xbb0dad15	-0.0021618058
4	0x3d5b27bd	0.053504694
5	0xbd378d73	-0.04481263
6	0xbc28b6eb	-0.010297517
7	0x3dc23e5b	0.094845496
8	0x3db57c24	0.088615686
9	0x3dee0ede	0.116239294
10	0x3e12c865	0.14334257
11	0x3b9ba25f	0.0047495808
12	0x3d1ebab0	0.038752258
13	0x3d35e46a	0.044407286
14	0x3db00325	0.0859435
15	0xbc4ccedb	-0.01250049
16	0x3cb74548	0.022371903
17	0xbc9af0a2	-0.01891357
18	0x3df66d5e	0.12032579
19	0xbd2c2a5c	-0.042032585
20	0x3d69fc80	0.05712557
21	0x3c85f438	0.016351804
22	0x3e056b51	0.13029219
23	0x3e0dd10b	0.13849275
24	0xbdaf6fd2	-0.0856625
25	0x3ca201f2	0.019776318
26	0xbcfd7254	-0.030938305
27	0x3d0e56fe	0.03475093
28	0x3dede3fe	0.11615752
29	0xbd9e6f54	-0.07736078
30	0xbd8074fc	-0.06272313
31	0xbd5d7b7a	-0.054072835
32	0xbdc88b86	-0.09792237
33	0xbd6a1212	-0.05714614
34	0x3de83fbc	0.11340281
35	0x3d9bfb33	0.07616272
36	0xbd033566	-0.032033347
37	0x3d9f7e33	0.077877425
38	0xbd986173	-0.07440462
39	0x3d2824cf	0.04105073
40	0x3bea17f4	0.0071439687
41	0xbbc25832	-0.005930924
42	0x3c2a4a90	0.010393754
43	0x3d1efb6a	0.038813986
44	0xbd9da56a	-0.07697566
45	0xbdc9b706	-0.09849362
46	0x3df4e54d	0.11957798
47	0x3daa6651	0.083202966
48	0x3d8b6841	0.06806994
49	0xbdcd4910	-0.10023701
50	0x3b6a5e65	0.003576183
51	0x3dc84343	0.09778454
52	0xbd5036e0	-0.050833583
53	0x3d8d768e	0.06907378
54	0x3cede4c4	0.029039748
55	0xbc61435f	-0.013748973
56	0x3d66bf5b	0.056334835
57	0xbd93d463	-0.07218244
58	0x3dd7d7b0	0.10539186
59	0xbdbfd384	-0.09366515
60	0xbd4b055e	-0.049565665
61	0xbdc83543	-0.09775784
62	0x3d90f1b4	0.07077351
63	0xbdd221df	-0.10260367
64	0x3d27774b	0.04088525
65	0x3d1c56bd	0.038168658
66	0x3da8e284	0.082463294
67	0x3dc38494	0.09546772
68	0x3d265baa	0.04061476
69	0xbca29926	-0.019848417
70	0xbd9f6f54	-0.07784906
71	0xbbc85aab	-0.006114324
72	0xbd86992d	-0.06572185
73	0xbd843fff	-0.06457519
74	0x3e104096	0.14087138
75	0xbbef8dbc	-0.007310597
76	0xbcafe974	-0.021473624
77	0x3e0c259e	0.13686225
78	0xbd22c2b9	-0.039736483
79	0xbcb305bb	-0.021853318
80	0x3d4aabbf	0.049480196
81	0xbd11a435	-0.03555699
82	0x3dd14d15	0.1021978
83	0x3dff17fb	0.12455746
84	0x3dbaca56	0.09120624
85	0xbd8f6d03	-0.07003214
86	0x3dbb65f4	0.091503054
87	0x3ce8faca	0.028439898
88	0x3c958cf8	0.018255696
89	0x3df07881	0.11741734
90	0xbce9cfbb	-0.028541436
91	0x3cf5d091	0.030006679
92	0x3dd39afa	0.10332294
93	0xbdf003a9	-0.11719448
94	0x3dbbdaa9	0.091725655
95	0x3cf60482	0.030031446
96	0xbb199111	-0.0023432414
97	0x3c73423f	0.014847337
98	0xbddf35d1	-0.108989365
99	0xbd0fa0e4	-0.035065547
100	0xbdab7af0	-0.08373058
101	0x3da05d9c	0.078303546
102	0xbdc09250	-0.09402907
103	0x3d834d57	0.06411236
104	0xbdebd656	-0.11515491
105	0x3d6485af	0.055791553
106	0x3e048a24	0.12943321
107	0xbcea8ab5	-0.028630594
108	0xbdd22bda	-0.1026227
109	0xbd4bb770	-0.049735487
110	0xbd2eab68	-0.042643934
111	0x3bd4c065	0.006492662
112	0x3d8f4386	0.06995301
113	0x3e0146ff	0.12624739
114	0x3cb20a9c	0.021733575
115	0x3d4e660d	0.050390292
116	0x3d74404c	0.05963163
117	0xbce87a72	-0.028378699
118	0x3cc28b0f	0.023747949
119	0xbdb55779	-0.08854575
120	0xbc9d647a	-0.01921295
121	0x3d9a769a	0.07542153
122	0xbbe30d49	-0.006929074
123	0xbc21b91b	-0.009870793
124	0x3dff724a	0.12472971
125	0xbd2d1754	-0.042258576
126	0xbdefb47a	-0.11704345
127	0xbdc45921	-0.095873125
128	0xbde41878	-0.111374795
129	0x3d06053c	0.032719836
130	0x3de0cd21	0.10976625
131	0xbd1314d5	-0.03590854
132	0x3d1ed737	0.038779464
133	0x3dc7ab64	0.09749487
134	0x3c887cf1	0.01666114
135	0x3d80c816	0.06288163
136	0x3df683ba	0.120368436
137	0x3d510327	0.051028397
138	0x3deca7dd	0.11555455
139	0xbcaedb4f	-0.021344809
140	0x3d907263	0.070530675
141	0x3e1d8922	0.15384343
142	0xbdbdf182	-0.092745796
143	0x3d05444b	0.032535832
144	0xbda305cd	-0.07960091
145	0x3d8a765d	0.06760857
146	0xbdaa4237	-0.08313411
147	0x3cb89481	0.02253175
148	0xbd850098	-0.06494254
149	0x3d95d639	0.0731625
150	0x379e2233	1.8850993e-05
151	0x3dcff117	0.10153406
152	0xbd2e5907	-0.04256537
153	0xbd23bbcd	-0.039974023
154	0x3de34c77	0.11098569
155	0xbca3985e	-0.019970115
156	0x3c142f9c	0.009044554
157	0xbcb9b2e5	-0.022668311
158	0xbdc85c34	-0.09783211
159	0xbcf4c060	-0.029876888
160	0x3cb15100	0.02164507
161	0xbd69f2ac	-0.057116196
162	0xbdd8d7b7	-0.10588019
163	0x3cd39090	0.025825769
164	0x3b832014	0.0040016267
165	0xbd9f203f	-0.07769822
166	0xbd146aa5	-0.036234517
167	0x3dfb39e1	0.12266899
168	0xbc1bd0f0	-0.009510264
169	0x3d054285	0.03253414
170	0x3db59a99	0.08867378
171	0xbd293027	-0.041305687
172	0x3d437626	0.047720097
173	0xbddc92f1	-0.10770214
174	0x3c9c710e	0.019096877
175	0xbd75df2a	-0.06002728
176	0x3d8eae98	0.06966895
177	0x3d5f20b4	0.054474548
178	0x3d813f85	0.063109435
179	0x3de47ae0	0.11156249
180	0x3dbded33	0.09273758
181	0xbde52c91	-0.11190141
182	0xbd77666d	-0.060400415
183	0xbd7e94a2	-0.062153466
184	0xbcd42807	-0.025897993
185	0xbdcd2667	-0.1001709
186	0xbd3d5b11	-0.046229426
187	0x3d885a30	0.06657827
188	0x3d61826c	0.05505602
189	0x3dbc6061	0.0919807
190	0x3d551194	0.052018717
191	0x3dcb9b6b	0.09941753
192	0xbd951bcf	-0.07280695
193	0x3dacc836	0.08436625
194	0x3d99e132	0.07513656
195	0xbd38c36e	-0.04510825
196	0xbd8804d1	-0.06641544
197	0x3e064b09	0.13114561
198	0x3d8164d9	0.06318063
199	0x3b316e27	0.0027073713
200	0xbb0af8dd	-0.0021205463
201	0x3d8b40ed	0.06799493
202	0xbd29e58d	-0.041478682
203	0xbd7cd1b1	-0.061723415
204	0xbe1284f3	-0.14308529
205	0x3df73666	0.120709226
206	0xbdb67545	-0.08909086
207	0xbda25b76	-0.07927601
208	0xbddcf1a1	-0.107882746
209	0x3ce3acb3	0.02779231
210	0x3c912e69	0.017722325
211	0xbd49cfeb	-0.04927055
212	0xbd9f1dad	-0.07769332
213	0xbdde8c89	-0.10866649
214	0xbdb44d7d	-0.08803842
215	0xbbfc1a5c	-0.007693572
216	0xbccd6ec1	-0.025077226
217	0x3dc794d7	0.09745186
218	0x3da998bd	0.08281086
219	0x3dd5b169	0.10434229
220	0xbc98bd57	-0.018644972
221	0xbd4abbd6	-0.04949554
222	0x3cf6677a	0.030078638
223	0x3db663ae	0.08905731
224	0xbca3f965	-0.020016382
225	0x3dc1112c	0.094271034
226	0x3c7f1ceb	0.015570859
227	0x3dbaebc8	0.09127003
228	0xbd89cfc0	-0.06729078
229	0xbdeb3e80	-0.1148653
230	0x3dab4cb2	0.08364238
231	0xb75da287	-1.3210468e-05
232	0x3d5be82a	0.053688206
233	0x3dd8f869	0.105942555
234	0x3cc75ae0	0.024335325
235	0x3c0d7447	0.00863368
236	0x3d6e0682	0.058111675
237	0x3ba6a514	0.005085597
238	0x3cae733d	0.021295184
239	0x3d9e5613	0.07731261
240	0xbd36311d	-0.04448043
241	0xbde0364c	-0.10947856
242	0xbd2e440b	-0.04254536
243	0x3cbe0f93	0.023200786
244	0x3d2684fd	0.04065417
245	0xbdc3beb6	-0.095578596
246	0x3de382db	0.11108943
247	0xbdaca7f4	-0.08430472
248	0xbdbbcdb3	-0.091700934
249	0xbdbee594	-0.09321132
250	0xbdcd4cc6	-0.10024409
251	0xbcc1dd48	-0.023665085
252	0xbda7f0d9	-0.08200235
253	0x3c95965d	0.018260175
254	0x3dd2f016	0.10299699
255	0x3dd4bda2	0.10387732

dec.lin3.weight_v f4 [1, 64]
0	0x3d2ad33c	0.041705355
1	0x3dbd7c44	0.092522174
2	0x3d8eabb6	0.06966345
3	0x3c4811e7	0.0122112995
4	0x3c2bd132	0.010486888
5	0xbdb718da	-0.08940287
6	0x3d89e0ab	0.06732305
7	0xbd0ea17d	-0.034821976
8	0xbdf35207	-0.1188088
9	0x3dfb5cef	0.12273585
10	0xbd6608a0	-0.05616057
11	0x3d88e4ce	0.06684266
12	0xbd999441	-0.0749898
13	0xbd7a110c	-0.061051413
14	0xbbb9bc3d	-0.0056681917
15	0xbdefe7bd	-0.117141224
16	0x3da92bce	0.08260308
17	0x3de90b75	0.113791384
18	0xbdaa4fef	-0.083160274
19	0xbc98fd27	-0.0186754
20	0xbd484fc4	-0.048904195
21	0xbdaf7925	-0.08568028
22	0x3db53b8b	0.088492475
23	0xbda649df	-0.081195585
24	0x3d190b67	0.03736439
25	0xbdc1812a	-0.09448464
26	0x3b1073fe	0.0022041793
27	0xbd9c474c	-0.07630786
28	0xbddfbf64	-0.10925177
29	0xbce1dc95	-0.027571002
30	0x3d85447d	0.06507204
31	0x3dd2da6f	0.10295569
32	0x3d2923b1	0.041293804
33	0xbda18f61	-0.078886755
34	0xbceabd17	-0.028654618
35	0xbd9455c8	-0.07242924
36	0xbcd4cfb1	-0.025977941
37	0xbd02e569	-0.031957064
38	0xbd6fea9b	-0.058573347
39	0xbddf4dfc	-0.10903546
40	0x3bc5a9ea	0.006032218
41	0x3d259ff4	0.040435746
42	0x3dd2463f	0.10267305
43	0x3dcc1f3d	0.09966896
44	0xbdb05778	-0.08610433
45	0x3dd295e3	0.10282495
46	0xbdc55ac4	-0.09636453
47	0x3dbd7e5e	0.09252618
48	0x3989827c	0.00026227895
49	0xbd42aedb	-0.047530036
50	0xbdbb5129	-0.091463394
51	0x3dd6c0ac	0.10485968
52	0xbdebe706	-0.115186736
53	0xbd6d35ba	-0.057912566
54	0x3d1aabe5	0.037761588
55	0xbd1a9171	-0.03773636
56	0x3d6483d4	0.055789784
57	0xbdda0527	-0.10645514
58	0x3dc4d757	0.09611385
59	0x3d97196e	0.07377897
60	0x3b3260ab	0.0027218263
61	0x3cc1886e	0.023624625
62	0x3d8d8465	0.06910018
63	0x3cd0093a	0.025395025

exp_avg f4 [64]
0	0x3619f84a	2.29433e-06
1	0xb8d7d12d	-0.00010290961
2	0x38a5673c	7.887042e-05
3	0x37a95bc9	2.018911e-05
4	0x38b970fb	8.842532e-05
5	0xb77a8c62	-1.4933847e-05
6	0xb7bc4927	-2.244541e-05
7	0x37bcb4c1	2.2495517e-05
8	0x38095a50	3.2747455e-05
9	0xb825e205	-3.9549563e-05
10	0x380c03a6	3.3382e-05
11	0x380548e3	3.1777552e-05
12	0xb7e83215	-2.7679876e-05
13	0x3789af23	1.6413227e-05
14	0xb81f8274	-3.8030048e-05
15	0xb7ee1fee	-2.838668e-05
16	0xb66e2a56	-3.5489406e-06
17	0xb8408e6f	-4.590902e-05
18	0xb6a97d51	-5.0511812e-06
19	0xb8b55a7b	-8.647606e-05
20	0xb7421aa2	-1.1569502e-05
21	0x37c86f6c	2.3893743e-05
22	0x3808f2d8	3.2651093e-05
23	0x376a65bb	1.3971173e-05
24	0xb8997966	-7.318221e-05
25	0xb8db4b96	-0.00010456813
26	0x36800800	3.8156286e-06
27	0x3667db3f	3.45493e-06
28	0xb8bac0c6	-8.905078e-05
29	0x38124ac7	3.4878754e-05
30	0xb60456c2	-1.9720032e-06
31	0x37894a60	1.6366306e-05
32	0x388e1593	6.775106e-05
33	0xb6ea8639	-6.989369e-06
34	0x385ceb1a	5.2671043e-05
35	0x385ebd84	5.3105425e-05
36	0xb76d7ef8	-1.4155863e-05
37	0xb8dc8fb6	-0.00010517186
38	0x381f5b1c	3.7993406e-05
39	0xb7423636	-1.1575923e-05
40	0xb7426bea	-1.1588427e-05
41	0xb911baff	-0.00013897939
42	0x36a83097	5.0124468e-06
43	0xb5f5203a	-1.8263302e-06
44	0x3827d1bd	4.0011237e-05
45	0x37307cab	1.0519444e-05
46	0xb6fe0ee1	-7.571522e-06
47	0xb65a5681	-3.2534883e-06
48	0xb812aec5	-3.497188e-05
49	0xb75d325b	-1.3184351e-05
50	0xb858d885	-5.1700063e-05
51	0xb7411ea0	-1.1510827e-05
52	0x37b6281d	2.171477e-05
53	0xb7eeabae	-2.8451755e-05
54	0x34860e90	2.497004e-07
55	0xb7feeb53	-3.0388741e-05
56	0xb73ed432	-1.1374288e-05
57	0xb8ae7de0	-8.3204126e-05
58	0x3722fb37	9.714443e-06
59	0xb7991707	-1.8249744e-05
60	0x37bbd0aa	2.2389304e-05
61	0x35d6a181	1.5991246e-06
62	0xb83bec08	-4.4804096e-05
63	0x363bee71	2.8003963e-06

exp_avg_sq f4 [64]
0	0x321c1f59	9.087523e-09
1	0x34eb7105	4.3854394e-07
2	0x33e1593b	1.049361e-07
3	0x344fdfdd	1.9359818e-07
4	0x35c95f2d	1.5003367e-06
5	0x330d1ecf	3.285714e-08
6	0x33868655	6.264296e-08
7	0x32fef209	2.9679557e-08
8	0x349d1c42	2.926409e-07
9	0x35326ea0	6.647115e-07
10	0x3517b887	5.6520406e-07
11	0x3387ca6c	6.323248e-08
12	0x33742d6c	5.6851988e-08
13	0x346fc9c2	2.2332009e-07
14	0x333431c8	4.195479e-08
15	0x33e759fe	1.0773145e-07
16	0x350ec425	5.318455e-07
17	0x34616316	2.0990805e-07
18	0x3221c708	9.416688e-09
19	0x3567d291	8.636062e-07
20	0x335d997f	5.1595176e-08
21	0x359f9862	1.1890772e-06
22	0x3535ab25	6.76768e-07
23	0x34053cac	1.2408663e-07
24	0x339e28f0	7.364895e-08
25	0x360ab67e	2.0669827e-06
26	0x34e9ab6c	4.3524358e-07
27	0x32731e3a	1.4151334e-08
28	0x35325654	6.643579e-07
29	0x34680e78	2.1611947e-07
30	0x341fd9cb	1.4887262e-07
31	0x3324446f	3.8246466e-08
32	0x34b5df93	3.387655e-07
33	0x34ce6d47	3.845e-07
34	0x35c206cc	1.4456105e-06
35	0x349bb601	2.9003425e-07
36	0x36060521	1.9970541e-06
37	0x34e1de67	4.2071335e-07
38	0x347d5431	2.359309e-07
39	0x3585d3c7	9.970908e-07
40	0x35148d66	5.534006e-07
41	0x3543f84d	7.3004486e-07
42	0x339a08f7	7.1728145e-08
43	0x3489cbfb	2.5666654e-07
44	0x365723fb	3.205844e-06
45	0x34b52567	3.374109e-07
46	0x3502063e	4.843786e-07
47	0x33468b1f	4.6226997e-08
48	0x33cc8716	9.524062e-08
49	0x352c0804	6.408666e-07
50	0x3498a71b	2.8433791e-07
51	0x325e09d2	1.2924334e-08
52	0x35a66a19	1.2398842e-06
53	0x34712a3f	2.2460243e-07
54	0x344b9e71	1.8963489e-07
55	0x35e1c724	1.6821764e-06
56	0x3512efbc	5.47381e-07
57	0x34d5db8c	3.9834083e-07
58	0x33125e2b	3.407892e-08
59	0x3499ef1b	2.8672443e-07
60	0x3441a0f0	1.8033074e-07
61	0x31f21465	7.0454456e-09
62	0x350141b0	4.815183e-07
63	0x32760c10	1.4321827e-08

exp_avg f4 [64, 4]
0	0xb580e614	-9.603705e-07
1	0xb581e044	-9.676519e-07
2	0x36be164a	5.665036e-06
3	0xb57347da	-9.062911e-07
4	0x3636cd39	2.7239569e-06
5	0x35e30a38	1.6915792e-06
6	0xb85b1498	-5.223285e-05
7	0xb82bb638	-4.093928e-05
8	0x38d8a207	0.000103298626
9	0x394bcd52	0.00019436076
10	0x37be22ed	2.2666029e-05
11	0x3898e635	7.290804e-05
12	0x39212323	0.00015367246
13	0x39211964	0.00015363615
14	0xb886154b	-6.393584e-05
15	0xb8451d3a	-4.699568e-05
16	0x39a91e20	0.00032256637
17	0x392b702a	0.00016349615
18	0x38a9dfb4	8.100216e-05
19	0x39ade1c0	0.00033165328
20	0xb8283cd6	-4.011098e-05
21	0xb809c937	-3.285074e-05
22	0xb74da4c3	-1.2257314e-05
23	0x3800d77a	3.0718256e-05
24	0xb953fdbe	-0.00020217054
25	0xb94bbb7e	-0.00019429435
26	0xb900b21e	-0.00012273385
27	0xb8932daa	-7.018012e-05
28	0x386a5461	5.586853e-05
29	0x3877310b	5.8935064e-05
30	0xb5989902	-1.1369414e-06
31	0xb88ea5c3	-6.801963e-05
32	0x38b9e2de	8.863745e-05
33	0x38ca779a	9.654388e-05
34	0xb6eaf72c	-7.002518e-06
35	0x38a1cb3e	7.714935e-05
36	0xb8a27eb5	-7.748363e-05
37	0xb90adf13	-0.00013243807
38	0x388b3208	6.6373555e-05
39	0xb8328d92	-4.2570355e-05
40	0x3838493e	4.393723e-05
41	0x395c0a76	0.00020984732
42	0xb8e9e5a1	-0.000111530775
43	0x3933ed75	0.0001715923
44	0xb65731bf	-3.2066453e-06
45	0xb40b59ee	-1.29781e-07
46	0xb7474965	-1.1878413e-05
47	0x37464820	1.1818513e-05
48	0x38b94de7	8.835998e-05
49	0xb87c08a5	-6.0089533e-05
50	0xb99f9f95	-0.0003044574
51	0xb92ec37a	-0.00016666754
52	0xb7148a1f	-8.853646e-06
53	0xb71e0ec2	-9.42097e-06
54	0x35d9ba2e	1.6221945e-06
55	0xb7eeaff9	-2.8453755e-05
56	0xb78c210b	-1.6704687e-05
57	0xb8425567	-4.633274e-05
58	0xb78090a2	-1.5326139e-05
59	0x37b59b65	2.1649243e-05
60	0xb8ab0457	-8.154724e-05
61	0xb8b66085	-8.6964144e-05
62	0x3758f691	1.29320115e-05
63	0x38f0bb93	0.0001147903
64	0x38c89736	9.5649084e-05
65	0x384d7e52	4.8993454e-05
66	0xb7d8a0cc	-2.5824083e-05
67	0xb5bcddd9	-1.4071658e-06
68	0xb6f87379	-7.4044187e-06
69	0xb6cbbaf4	-6.0716357e-06
70	0xb6efc1f4	-7.145334e-06
71	0xb78a1043	-1.6458454e-05
72	0x36730149	3.621057e-06
73	0xb6d0fcda	-6.228319e-06
74	0xb62f1499	-2.6089022e-06
75	0xb6e931eb	-6.9497523e-06
76	0xb90b6cf0	-0.00013296655
77	0xb87c954e	-6.0220533e-05
78	0xb7768f68	-1.4696132e-05
79	0x382dbb6c	4.1420964e-05
80	0x37f2822c	2.8909264e-05
81	0xb5a28f1d	-1.2111592e-06
82	0x36cb7645	6.06364e-06
83	0x37c782cc	2.3783556e-05
84	0x36a3ec28	4.8852708e-06
85	0xb863f875	-5.435241e-05
86	0xb93afb7d	-0.00017832029
87	0xb88404bd	-6.295133e-05
88	0x387670c7	5.8756003e-05
89	0x37c99d07	2.4034189e-05
90	0xb7c44a04	-2.3399487e-05
91	0x37f648cb	2.9359382e-05
92	0xb66ed09b	-3.5586188e-06
93	0xb7435467	-1.1642557e-05
94	0x370ad4bc	8.274972e-06
95	0xb713c545	-8.807813e-06
96	0xb92f8e33	-0.00016742274
97	0xb932d813	-0.00017055897
98	0x38a6459a	7.928461e-05
99	0xb7d82c8f	-2.5769956e-05
100	0xb83d8a93	-4.519017e-05
101	0xb8d3d9ba	-0.00010101819
102	0xb81bd597	-3.71538e-05
103	0x37f0054a	2.8612692e-05
104	0xb739ace1	-1.1067111e-05
105	0xb7f59fad	-2.928063e-05
106	0xb7ef3e1e	-2.8519946e-05
107	0xb735be8f	-1.0832809e-05
108	0x352107c6	5.9988486e-07
109	0x35a440eb	1.2237846e-06
110	0xb5c50dac	-1.4681623e-06
111	0x37951089	1.7769884e-05
112	0xb8d717bb	-0.00010256419
113	0xb88e695a	-6.790711e-05
114	0xb80a97f4	-3.304328e-05
115	0xb914bb10	-0.00014184066
116	0xb7dcdea9	-2.6329728e-05
117	0xb801e354	-3.0967713e-05
118	0xb5f79eec	-1.8449186e-06
119	0xb6cbe21a	-6.076193e-06
120	0xb75877e1	-1.2902515e-05
121	0xb77ca6bd	-1.5059192e-05
122	0x38404236	4.583803e-05
123	0xb78d0cfb	-1.6814554e-05
124	0x3833566b	4.275741e-05
125	0x37e9d730	2.7875969e-05
126	0xb5f946c5	-1.8572542e-06
127	0x385d2d15	5.2732492e-05
128	0x37c0e5e3	2.2995233e-05
129	0x38b44de3	8.5975764e-05
130	0x392e6644	0.0001663203
131	0xb99f9764	-0.00030439638
132	0xb8418b2c	-4.61444e-05
133	0xb8033588	-3.128269e-05
134	0x37c31e26	2.325985e-05
135	0x374e9d2a	1.2315149e-05
136	0x3a5132f1	0.0007980308
137	0x3a1d1f21	0.0005993713
138	0xba06dde9	-0.00051447615
139	0xb950b882	-0.0001990516
140	0xb7c59f29	-2.3558345e-05
141	0xb7551831	-1.2701422e-05
142	0x36d5548a	6.3577363e-06
143	0xb5ca848d	-1.508875e-06
144	0x38a01f89	7.6352684e-05
145	0x38e91516	0.00011114233
146	0x3989591c	0.00026197068
147	0x3a0fc3c6	0.00054841896
148	0xb90cdf38	-0.00013434596
149	0xb920d5cc	-0.00015338435
150	0xb7a7c94a	-2.0001684e-05
151	0xb87eafda	-6.0722094e-05
152	0x38f5b8c8	0.000117169286
153	0x391c2825	0.00014892274
154	0x3889b3d1	6.5661625e-05
155	0x39208fbf	0.00015312339
156	0xb9032799	-0.00012507885
157	0xb8fcde0d	-0.000120576566
158	0x3919ff86	0.00014686407
159	0x384c4719	4.8703605e-05
160	0xb6c49590	-5.8586666e-06
161	0x366a5919	3.4920579e-06
162	0x373b048d	1.1147128e-05
163	0x37b887fb	2.199783e-05
164	0xb90cbe95	-0.00013422438
165	0xb90c2641	-0.00013365691
166	0x36e80462	6.914649e-06
167	0xb9528234	-0.00020075665
168	0x38b4c969	8.6205844e-05
169	0xb7b33666	-2.1363794e-05
170	0x37d38ae2	2.5217832e-05
171	0x379184fc	1.7347273e-05
172	0x37bdb5d6	2.261523e-05
173	0x383ebe1a	4.5476576e-05
174	0x37e2f7a4	2.7056616e-05
175	0x380a067b	3.29078e-05
176	0xb8b4ba76	-8.6178e-05
177	0xb7e7633e	-2.758356e-05
178	0x380750aa	3.2261632e-05
179	0xb8aeb8ef	-8.331413e-05
180	0x38b38e7a	8.5619235e-05
181	0x38d9da57	0.00010388035
182	0xb76d85a6	-1.4157418e-05
183	0x38b0208a	8.398395e-05
184	0xb71b3e03	-9.253158e-06
185	0xb71b4113	-9.253871e-06
186	0x37a5b3da	1.9753283e-05
187	0xb6a59916	-4.9352047e-06
188	0x35a6bcfb	1.2422964e-06
189	0xb6f0f00d	-7.180503e-06
190	0xb6922a2d	-4.356049e-06
191	0x36b91e81	5.5169808e-06
192	0xb743101e	-1.1626658e-05
193	0xb7b939be	-2.2080607e-05
194	0x37010a34	7.691375e-06
195	0x35df5e91	1.6642317e-06
196	0xb90b6ae3	-0.00013295891
197	0xb90a1078	-0.0001316684
198	0x390b0596	0.00013258154
199	0x39a04d21	0.00030575044
200	0xb56d02ca	-8.829344e-07
201	0x378a7367	1.650462e-05
202	0x3984aa23	0.00025303764
203	0x38b9da39	8.8621346e-05
204	0xb7c08b08	-2.2952925e-05
205	0xb7803872	-1.5285073e-05
206	0x36d07bdb	6.2133017e-06
207	0xb78d315f	-1.68315e-05
208	0x37da9b0f	2.605983e-05
209	0xb79df5eb	-1.8830373e-05
210	0x37ed270d	2.8270786e-05
211	0xb810f16f	-3.4557128e-05
212	0x37e4ae94	2.7261012e-05
213	0x37e73424	2.7561626e-05
214	0xb7d92ca4	-2.5889203e-05
215	0xb5b56a30	-1.3516456e-06
216	0x36aeed29	5.213213e-06
217	0x3763c0aa	1.35751125e-05
218	0xb81ee958	-3.7887454e-05
219	0x369d379a	4.6854375e-06
220	0xb7ad6ce7	-2.0673919e-05
221	0xb88556b5	-6.358085e-05
222	0xb6e35344	-6.7748206e-06
223	0xb7cae2f9	-2.4185969e-05
224	0xb80c1a2e	-3.3402983e-05
225	0xb8285eee	-4.014273e-05
226	0xb86c6537	-5.636105e-05
227	0xb8d384fc	-0.00010086034
228	0xb8d82a84	-0.00010307602
229	0xb98f5d63	-0.00027344664
230	0x3833658d	4.2771502e-05
231	0x35617d6e	8.4001556e-07
232	0x360df867	2.1155226e-06
233	0x35f6557d	1.8353309e-06
234	0x3754f05a	1.2692146e-05
235	0x3700a50e	7.667824e-06
236	0x378945be	1.6364149e-05
237	0x36d1b2b0	6.2494873e-06
238	0x3787bc5e	1.618097e-05
239	0xb410ab13	-1.3473282e-07
240	0x38a8a7be	8.042109e-05
241	0x3836eb58	4.3611362e-05
242	0xb7a9247e	-2.0163363e-05
243	0x3759d477	1.2983676e-05
244	0x35a0a935	1.1970175e-06
245	0x35c7d602	1.488894e-06
246	0x35e4659b	1.7016895e-06
247	0x3624ba17	2.4546223e-06
248	0xb9cfd5c0	-0.00039641373
249	0xb9c5bac6	-0.00037713925
250	0x39909971	0.00027580143
251	0xb9c32920	-0.0003722394
252	0x35089194	5.087579e-07
253	0x352d48b4	6.455332e-07
254	0x37cf635a	2.4722587e-05
255	0xb70b0f1c	-8.288564e-06

exp_avg_sq f4 [64, 4]
0	0x3090f641	1.0547369e-09
1	0x30931d82	1.0704044e-09
2	0x319be4b8	4.537096e-09
3	0x31407d8b	2.801104e-09
4	0x34fe13e6	4.7325665e-07
5	0x34784e64	2.3125318e-07
6	0x3494a69b	2.768837e-07
7	0x33c566f3	9.192254e-08
8	0x3419b8f4	1.4316521e-07
9	0x35004d7d	4.7796476e-07
10	0x3335e987	4.235474e-08
11	0x337a01d2	5.8209316e-08
12	0x357b8874	9.370335e-07
13	0x3584b048	9.886071e-07
14	0x341dc3fa	1.469306e-07
15	0x34b78767	3.4184924e-07
16	0x372d2c66	1.0321941e-05
17	0x370bea0c	8.339539e-06
18	0x3671f942	3.6056886e-06
19	0x36248006	2.4512424e-06
20	0x33a90dfd	7.87222e-08
21	0x3367ce6e	5.3971625e-08
22	0x328d2143	1.6429686e-08
23	0x33a88b54	7.848453e-08
24	0x35cc5332	1.5223397e-06
25	0x35b97878	1.3818635e-06
26	0x34e0fb29	4.1905994e-07
27	0x33af5f71	8.166433e-08
28	0x34a0e0c5	2.9965864e-07
29	0x3438e13f	1.721828e-07
30	0x355e9f88	8.2933593e-07
31	0x34336184	1.670615e-07
32	0x34bd1679	3.5220344e-07
33	0x354ac0f6	7.553166e-07
34	0x33893419	6.389036e-08
35	0x34001dcf	1.1931773e-07
36	0x352cd526	6.4385165e-07
37	0x35cdbc89	1.5328561e-06
38	0x3484c41a	2.47296e-07
39	0x3433511a	1.6700179e-07
40	0x34c35a9c	3.6387507e-07
41	0x3723cff1	9.763972e-06
42	0x35c8992c	1.494574e-06
43	0x365b173a	3.2647063e-06
44	0x339bce98	7.255329e-08
45	0x339e6d94	7.3773805e-08
46	0x32a503d8	1.9210276e-08
47	0x338285ea	6.0779556e-08
48	0x35183ebb	5.67157e-07
49	0x35c266a4	1.4483999e-06
50	0x354e28b8	7.6800234e-07
51	0x34942374	2.7592944e-07
52	0x3518fd04	5.69926e-07
53	0x35176f59	5.6413916e-07
54	0x340d3b32	1.3153183e-07
55	0x34fe1ce0	4.7332196e-07
56	0x32691682	1.3567503e-08
57	0x3313c88a	3.4408494e-08
58	0x328567f5	1.5530512e-08
59	0x32ad5008	2.0176245e-08
60	0x34a53e80	3.077912e-07
61	0x34ecd392	4.4112363e-07
62	0x3388b01c	6.3650276e-08
63	0x34b3af3d	3.346885e-07
64	0x35910f8b	1.0807865e-06
65	0x350f2a1d	5.3332934e-07
66	0x33ed84a1	1.10602976e-07
67	0x34af33d9	3.2634014e-07
68	0x34c2d25c	3.6288372e-07
69	0x3442ad52	1.8130712e-07
70	0x331aa91a	3.6009716e-08
71	0x33999abc	7.152764e-08
72	0x31858c0f	3.8867323e-09
73	0x3243d195	1.1398147e-08
74	0x33275e39	3.8968412e-08
75	0x324d6fb8	1.1957972e-08
76	0x366efe06	3.5612625e-06
77	0x350e5fa9	5.3038326e-07
78	0x34943f22	2.7613083e-07
79	0x352da6ff	6.4690533e-07
80	0x3540dc32	7.1846e-07
81	0x337ce196	5.887849e-08
82	0x34674fe1	2.1542611e-07
83	0x34326b85	1.6616657e-07
84	0x350e3482	5.297553e-07
85	0x35995bb2	1.1426075e-06
86	0x378e1309	1.6936583e-05
87	0x37028a34	7.780782e-06
88	0x3585b4a3	9.961844e-07
89	0x35b77407	1.3668331e-06
90	0x33e0439b	1.044311e-07
91	0x33e5287b	1.0671007e-07
92	0x32afe707	2.047774e-08
93	0x32d4b04c	2.4760219e-08
94	0x33d245a8	9.7915574e-08
95	0x339c8eda	7.2903006e-08
96	0x357aad63	9.338457e-07
97	0x3585b877	9.962959e-07
98	0x3597f603	1.1321976e-06
99	0x34849640	2.4696237e-07
100	0x354aab0b	7.5499764e-07
101	0x3623e840	2.442408e-06
102	0x34718522	2.2493307e-07
103	0x3534c872	6.734691e-07
104	0x3477563c	2.303504e-07
105	0x348931ab	2.5554377e-07
106	0x3524b7a8	6.1362016e-07
107	0x33ee3bab	1.1093592e-07
108	0x31726bbe	3.527688e-09
109	0x32594ce6	1.2648547e-08
110	0x33cda74c	9.5764875e-08
111	0x332ff7b2	4.097064e-08
112	0x3549c873	7.5170027e-07
113	0x34df3e56	4.1582342e-07
114	0x35e00ebc	1.6693589e-06
115	0x350da385	5.2764545e-07
116	0x35017f46	4.824145e-07
117	0x34ad1739	3.2240658e-07
118	0x33d54249	9.9306426e-08
119	0x33012a3c	3.0073565e-08
120	0x317daab8	3.6913388e-09
121	0x3327b43b	3.9046636e-08
122	0x33122eaa	3.4035715e-08
123	0x338874f4	6.354267e-08
124	0x334d0ab1	4.7740006e-08
125	0x32ebbef9	2.7444445e-08
126	0x331cdb49	3.652102e-08
127	0x333c7078	4.387445e-08
128	0x3565b780	8.5576175e-07
129	0x35b16f7a	1.3219972e-06
130	0x363036ec	2.6258012e-06
131	0x368aeff4	4.1406547e-06
132	0x350a9e38	5.1639245e-07
133	0x3512185d	5.442469e-07
134	0x34149f3f	1.3841507e-07
135	0x341ee8d8	1.4799605e-07
136	0x380950f0	3.2738724e-05
137	0x38eefd3e	0.000113958944
138	0x37ba6ad5	2.2222675e-05
139	0x370110c4	7.692903e-06
140	0x3482875a	2.4312868e-07
141	0x347fe9e6	2.3833817e-07
142	0x33e1da4d	1.0517088e-07
143	0x337f7829	5.94811e-08
144	0x36a2880b	4.8438137e-06
145	0x36b75e30	5.46479e-06
146	0x383db4ec	4.5229608e-05
147	0x3828434f	4.0117007e-05
148	0x35444df4	7.3129127e-07
149	0x355b3ba4	8.1670646e-07
150	0x338460fb	6.1643696e-08
151	0x3402e9db	1.219227e-07
152	0x348d5410	2.632446e-07
153	0x3504f328	4.952767e-07
154	0x356bd439	8.7853147e-07
155	0x365dd2f0	3.3054348e-06
156	0x3596c59f	1.1233386e-06
157	0x361d0d6f	2.3402642e-06
158	0x37aaf1cd	2.0378176e-05
159	0x367bf540	3.754467e-06
160	0x35bcf8ce	1.4079503e-06
161	0x350a38d4	5.14917e-07
162	0x33c5747a	9.194714e-08
163	0x33b8a12c	8.597485e-08
164	0x34f05f94	4.4773026e-07
165	0x34ec31f3	4.3994768e-07
166	0x342197cf	1.5049521e-07
167	0x358c51b9	1.0454597e-06
168	0x348ddf8c	2.6425948e-07
169	0x33c4ed59	9.1701345e-08
170	0x32d5076b	2.4799837e-08
171	0x3350dd91	4.8630287e-08
172	0x3433de9d	1.675166e-07
173	0x350111d7	4.8082205e-07
174	0x3389755d	6.400908e-08
175	0x339bdd19	7.2579674e-08
176	0x3601161b	1.9235365e-06
177	0x346b4f2b	2.1914882e-07
178	0x36e515c7	6.827267e-06
179	0x37a87023	2.0079378e-05
180	0x36070b75	2.0123236e-06
181	0x35a5d68c	1.2355899e-06
182	0x34276094	1.5588222e-07
183	0x35b7a0e0	1.3681383e-06
184	0x340ebbf1	1.3293153e-07
185	0x341420c3	1.3795493e-07
186	0x34902466	2.6848573e-07
187	0x347f48b7	2.3775179e-07
188	0x307a5acd	9.1078506e-10
189	0x32bb9896	2.1839053e-08
190	0x32840c73	1.5372484e-08
191	0x3246c472	1.1569783e-08
192	0x32f7aa4a	2.8832023e-08
193	0x33dd82c5	1.0314901e-07
194	0x324b99cc	1.18511245e-08
195	0x33f0f40c	1.1220263e-07
196	0x3788ea22	1.632149e-05
197	0x3787d2d3	1.6191427e-05
198	0x35e11562	1.677003e-06
199	0x368a43f0	4.1206295e-06
200	0x345f374c	2.078861e-07
201	0x34481020	1.8632318e-07
202	0x3634c8e0	2.6939015e-06
203	0x357ccfea	9.417987e-07
204	0x31eb4519	6.8472557e-09
205	0x3111ef2f	2.1236237e-09
206	0x3135667e	2.6397227e-09
207	0x31865c95	3.9104386e-09
208	0x360878c2	2.033587e-06
209	0x358960fa	1.0235519e-06
210	0x3694fcee	4.4401886e-06
211	0x33e3f267	1.0614604e-07
212	0x3321b567	3.7650718e-08
213	0x32ce109b	2.3989108e-08
214	0x32bb75d2	2.1823244e-08
215	0x340753f9	1.2603404e-07
216	0x313a7999	2.7135683e-09
217	0x32aa3223	1.9813404e-08
218	0x349fe9d0	2.978618e-07
219	0x3471ceec	2.2520152e-07
220	0x37786837	1.4806216e-05
221	0x35eccb84	1.7642601e-06
222	0x365a049d	3.2487217e-06
223	0x34eb1e15	4.3794049e-07
224	0x37ee3a32	2.839891e-05
225	0x35ca98b2	1.5094613e-06
226	0x360b1d86	2.07298e-06
227	0x366e56b8	3.551524e-06
228	0x35de6011	1.6568248e-06
229	0x365778f6	3.2107905e-06
230	0x3389fae0	6.4251935e-08
231	0x3510077b	5.3655066e-07
232	0x320b24a7	8.099199e-09
233	0x31ce784e	6.009066e-09
234	0x3348ce25	4.6753616e-08
235	0x3186a4d8	3.918654e-09
236	0x33958c34	6.963856e-08
237	0x338af3f1	6.4704984e-08
238	0x33c64ddb	9.234255e-08
239	0x33a75560	7.792073e-08
240	0x34dd3316	4.1201628e-07
241	0x34381db7	1.7147146e-07
242	0x32e95c76	2.7166816e-08
243	0x343acf43	1.7398001e-07
244	0x3107ed50	1.9779982e-09
245	0x3159c8bc	3.169176e-09
246	0x3380a2ff	5.990113e-08
247	0x312bf5ed	2.5023568e-09
248	0x37f59ad9	2.9278382e-05
249	0x3758b35a	1.2916362e-05
250	0x388aecb1	6.62444e-05
251	0x3818df76	3.644774e-05
252	0x32fbc349	2.9309051e-08
253	0x33074a20	3.1499553e-08
254	0x33782851	5.7778667e-08
255	0x316c581e	3.4392609e-09

exp_avg f4 [64]
0	0xb8c43a77	-9.356898e-05
1	0x37ac62bb	2.0549973e-05
2	0xb890b683	-6.9004505e-05
3	0x37f4bf39	2.9176112e-05
4	0xb8a2d85e	-7.7650635e-05
5	0x37c2c158	2.3216635e-05
6	0x36f6e577	7.3580845e-06
7	0x36c9ba06	6.011923e-06
8	0x3840be80	4.5953784e-05
9	0x37b208aa	2.1223288e-05
10	0x372d0047	1.0311668e-05
11	0xb80735ff	-3.2236796e-05
12	0x380a2650	3.2937445e-05
13	0x39201225	0.00015265548
14	0xb72441d1	-9.790486e-06
15	0x00000000	0.0
16	0x355ee398	8.3032637e-07
17	0x38021597	3.1014522e-05
18	0x1c255ac6	5.471124e-22
19	0xb827c7b9	-4.000191e-05
20	0x1da03336	4.24046e-21
21	0x33fa0046	1.1641582e-07
22	0x1a00c9eb	2.6632888e-23
23	0xb3d240e3	-9.79069e-08
24	0xb804fc8b	-3.170645e-05
25	0x38bf3fd0	9.119476e-05
26	0x380d19ce	3.3641052e-05
27	0x372c01d0	1.0252421e-05
28	0x3886f567	6.435328e-05
29	0xb859fa57	-5.196998e-05
30	0x38ab2275	8.1603335e-05
31	0x37b06929	2.1029804e-05
32	0xb87015c5	-5.7240733e-05
33	0x385a7cc4	5.2091447e-05
34	0xb8d5d54a	-0.0001019636
35	0xb6e9abf7	-6.9639605e-06
36	0xb80a091b	-3.2910244e-05
37	0x1b9249f5	2.4201467e-22
38	0x376dedcb	1.4181666e-05
39	0xb8c61da8	-9.4469e-05
40	0xb8faef93	-0.00011965553
41	0x1d3ae743	2.4736455e-21
42	0x383c04d8	4.4827204e-05
43	0x383e67cc	4.53962e-05
44	0x36a753e4	4.986754e-06
45	0xb8fdef6d	-0.000121085766
46	0xb8631b86	-5.414665e-05
47	0x37e8fcf5	2.7774347e-05
48	0xb774e9f5	-1.4598006e-05
49	0xb820bb09	-3.8321163e-05
50	0x37cf6dce	2.4727455e-05
51	0xb76c965c	-1.4101704e-05
52	0xb82206bb	-3.8630078e-05
53	0x37091867	8.171518e-06
54	0xb7d23a06	-2.506097e-05
55	0xb7cb69b0	-2.42487e-05
56	0xb80d922d	-3.3753156e-05
57	0x3702ff4f	7.8080475e-06
58	0x1b5a8093	1.8074082e-22
59	0x38bf02f7	9.108142e-05
60	0x389bfe7b	7.4383766e-05
61	0xb7d1c41a	-2.5006058e-05
62	0xb7b96e9a	-2.2105221e-05
63	0xb830682c	-4.2058688e-05

exp_avg_sq f4 [64]
0	0x3583417c	9.779319e-07
1	0x367d9be6	3.7790683e-06
2	0x35288976	6.278491e-07
3	0x34fe9684	4.74207e-07
4	0x347f069b	2.3751129e-07
5	0x33ed858f	1.1060467e-07
6	0x340c5f14	1.3073105e-07
7	0x35374c27	6.828363e-07
8	0x340410f2	1.2299623e-07
9	0x34af9710	3.2706203e-07
10	0x32fee4a1	2.967346e-08
11	0x3467ad73	2.1576652e-07
12	0x342ee4fe	1.628832e-07
13	0x368d5e8b	4.2131337e-06
14	0x35fad926	1.868965e-06
15	0x00000000	0.0
16	0x34061032	1.2485614e-07
17	0x3490ac46	2.6947436e-07
18	0x320987d7	8.005336e-09
19	0x353c064c	7.004462e-07
20	0x34ff4354	4.754644e-07
21	0x364ccd88	3.0518004e-06
22	0x2e1da274	3.5841954e-11
23	0x332e84bf	4.0633264e-08
24	0x34939cea	2.7495054e-07
25	0x36df052e	6.646521e-06
26	0x3403e4be	1.2283542e-07
27	0x333a2602	4.3341068e-08
28	0x33a89ff4	7.852205e-08
29	0x35bd7882	1.411667e-06
30	0x345558ad	1.9869431e-07
31	0x347a006e	2.328322e-07
32	0x34a5bbf2	3.0870393e-07
33	0x358e7860	1.0614858e-06
34	0x36db4647	6.53489e-06
35	0x35a344d2	1.2164476e-06
36	0x34a1fdd5	3.0173274e-07
37	0x316c02de	3.434415e-09
38	0x35834d81	9.782817e-07
39	0x33b801eb	8.5685166e-08
40	0x35f24271	1.8049742e-06
41	0x34c9b881	3.7573412e-07
42	0x353b4200	6.975897e-07
43	0x34edb7ca	4.4278414e-07
44	0x32d4b84b	2.4763855e-08
45	0x35f4455d	1.8199604e-06
46	0x35264d63	6.195243e-07
47	0x359be143	1.161396e-06
48	0x3384ae5e	6.178446e-08
49	0x365acf41	3.260517e-06
50	0x349f0ad0	2.9623925e-07
51	0x36015ae9	1.9275415e-06
52	0x34956e5d	2.7833713e-07
53	0x3338800d	4.29573e-08
54	0x353dc0ac	7.068836e-07
55	0x33ec1461	1.0993313e-07
56	0x3589bf5b	1.0262987e-06
57	0x33e97714	1.0871568e-07
58	0x31f63228	7.1652444e-09
59	0x374c6f0a	1.2185201e-05
60	0x36055ef9	1.9873826e-06
61	0x346a8243	2.1840337e-07
62	0x35293d9a	6.304705e-07
63	0x33e5452c	1.0676226e-07
