log/alpha=0.0001/version_None/checkpoints/epoch=2499-step=4999.ckpt (torch, 116924 bytes, 21 tensors)

dec.lin0.bias f4 [64]
00000000: a908 dd3e e9e0 ebbd 6a94 f7be 2c8e 883e
00000010: 0cff 06bf d35f f83e 010a f7be fa2b 1d3e
00000020: ae0f 3cbe a809 d93e 42a7 02bf 6ba4 dc3e
00000030: 60b9 6a3e b4cd bcbe 7422 993e 3f30 00be
00000040: 9b32 8b3e 795f 09bd 1630 fbbe 9e0f 8fbe
00000050: 1437 8ebe d04b 83be a034 393c 7083 54be
00000060: 0c2e 0abf 6a69 073f 3b57 92be 82ec 80be
00000070: 3dab 163d f270 f93d ecd6 c03e 30c8 e63e
00000080: 644e c43e bcb3 65bd 81d1 ddbd b624 153f
00000090: af8f dcbe 3fb8 b83e 252a 013f 1c57 9cbe
000000a0: d616 d83d f8ba d63e d2d0 d03e 3d91 793b
000000b0: 9f04 343e 8a91 a4bc 5628 77bd 09fa 393e
000000c0: 7c96 d0be cb3e 70be 4f85 88be 0416 f53b
000000d0: 16f3 7abe 97b1 c9be 7aa0 60be b43d 0abd
000000e0: 074f d93e 666a 9bbd b0ed f7be fc3b f9be
000000f0: 083e d23d 5052 3c3d f970 d13d b275 003d
0.4317067 -0.115175076 -0.48355418 0.2667097 -0.5273292 0.48510608 -0.4824982 0.15348807
-0.18365356 0.4239018 -0.51036465 0.4309419 0.22922277 -0.3687569 0.29909098 -0.12518404
0.27187046 -0.033538315 -0.49060124 -0.27941602 -0.27776396 -0.25643778 0.011304051 -0.20753264
-0.5397651 0.52895224 -0.28582177 -0.2518044 0.0367844 0.12179746 0.37663972 0.45074606
0.38341057 -0.05607961 -0.10830975 0.5825914 -0.43078372 0.3607807 0.5045493 -0.3053521
0.105512306 0.4193952 0.40784317 0.0038080954 0.17579888 -0.02008893 -0.0603412 0.18161787
-0.4073981 -0.23461454 -0.26664206 0.007479431 -0.24506792 -0.39393303 -0.21936217 -0.03375025
0.42443106 -0.07588653 -0.4842353 -0.48678577 0.10265738 0.045976937 0.10226626 0.031362243

dec.lin0.weight_v f4 [64, 4]
00000000: a22b 09bd df14 b5bd 10d2 f1bd f896 a63c
00000010: 48ed 1f3e ba10 3fbd 90e4 4abe 84dc da3e
00000020: 7a5f 723e 84ef 7cbe 20af 01bf 66f5 39be
00000030: b56d f73e e9ca d83e d717 1a3d 72d3 a73e
00000040: 90f5 b43e 6264 efbd fae7 90be 44a4 42bd
00000050: 503d b1bd 0422 c7be 0bc2 f43c 4193 6bbd
00000060: d358 bdbd 4ec1 a13d 7b00 5fbe 3307 e4be
00000070: 9421 d7be d9f8 e13e 18ce bbbe 22b7 4d3e
00000080: 1202 943e 6a09 203d c072 bb3e 1a8e b4be
00000090: 3a3d 73be 9b6a 0cbf dcfb 02be 9433 543e
000000a0: b06a 04bc ff4f 903e 2b49 4dbe 0cd8 493b
000000b0: 7fe0 8c3e 6b35 da3e f5e2 ab3e 2373 da3e
000000c0: 2efc 193e 43ab ea3e 849d 943e 1aa3 fd3e
000000d0: cf1f ec3b f32b d83e a493 d0be 2adf 3a3e
000000e0: d577 ac3e cb68 b93e 4f35 543e f213 b3be
000000f0: 661a d2be 94b7 44be 08b2 90be 28bd 6ebe
00000100: 643a ebbd 6ca7 8cbd ddb5 99be 4433 0bbf
00000110: 7557 eebe 381f 37be ae4d f63e 212c 44bc
00000120: a433 e9be 0e8c c23e 20d3 1c3d 309f 883e
00000130: 92a2 063e af08 e63e fb8d 0cbe a89c f1bc
00000140: 068c 50be 2d25 30be 6b8a 0e3e 1f44 a0be
00000150: 4a46 3d3e a89e 9dbe 5425 b43e 2766 aebd
00000160: 6ecb bb3e 9da3 aabd 03e0 9f3c 9e4f fb3e
00000170: a1db b53e 6a85 bbbe 3f6a 47be 2a34 aebe
00000180: 6ebb 22bd 1162 163e 6b93 2c3e 3665 d8bd
00000190: d672 97be 1eec e43e a662 803e 350b 893c
000001a0: ad75 60bd c49e e5bd 01f2 e13e 5b56 e33b
000001b0: 5955 c73e 7dd9 70be fb20 3c3e 41c0 bb3e
000001c0: 4f9d e33e 3d54 5abe c1d5 62be 9ee1 b33e
000001d0: 6b87 ab3e 932d 3c3e 29a9 cb3e 72a1 45be
000001e0: 6bf6 f0be 6554 4c3e f6f6 a3be 3976 1cbe
000001f0: aad1 8f3e 0da0 29be 4b04 e3be e2d3 2e3e
00000200: 7164 c5be 0059 f93c a854 69be 605d 88be
00000210: 6b9f 52bb d6d7 b43d 1c3c 97be fd88 a13e
00000220: c9d6 dc3e 6ddb a43e fa65 813d e830 863e
00000230: f568 bdbe 1024 ffbe b8a1 e43c 593e cf3c
00000240: 49e6 bc3e f951 cebd 9ab8 5bbd af04 eabe
00000250: f98e 9f3d 5ae2 433e 7037 cb3e cdf1 d8ba
00000260: ea70 40be cb4c e43e 1c63 bb3e e573 ad3e
00000270: b2c9 8d3a 5667 2f3e 3056 fa3d e3ae 143e
00000280: a847 c83c 34e5 94bd a7c6 283d c948 52be
00000290: 0487 993e cd50 36be 4af2 8ebe 2a4d e0bb
000002a0: 1c5b 353e 14d9 8cbe e09d abbe 7bc6 46be
000002b0: 4c5f 98be 7182 093d ee65 aebe e4f9 abbe
000002c0: 0699 6bbd 0e88 e43e c16d 63bd 03cd 22be
000002d0: d934 643d 9f12 963d 3b83 743e 6283 713e
000002e0: 7a87 b63e 8760 c7bd a362 4cbe 7d2d 26bd
000002f0: 6d7a 8c3e 7cf0 533e 75cd 2c3e f782 b43e
00000300: bcf9 cb3e 9a58 06be 82da a93e e11f b13e
00000310: c975 69bd 41ee 793d 50b3 09be ed2c 1fbe
00000320: 3035 ffbd 8fb5 fabe a86a c5be 349e 8ebe
00000330: f34a f33e 8613 013e 0000 aabe 0b01 8ebe
00000340: 7ce9 63be 43f0 b4bd 543a 513e b630 a93e
00000350: 6432 e33d eef8 8f3e 768d 34be 970b c93e
00000360: 6f69 8bbd cd9f 663d 9f2c 203e 300a 4ebe
00000370: 34d7 23bd 903d e03e 5c73 e1be a5db e1be
00000380: 70cf 36be 4808 233d cbd0 aa3d b194 c5be
00000390: 4b3a e6be 8558 d13e 9f62 f2bd f9d5 56be
000003a0: 6065 7e3e 6649 9f3e 669e cdbd f8ad 833e
000003b0: 71f6 d9be 99de 47be 7e5b 9d3d 6219 2ebe
000003c0: 8554 dfbe e81c 193d dc98 cc3e 1b76 f73e
000003d0: 1381 fbbb 5b0b 5bbe f23d b7be ffdd c3bd
000003e0: b710 42be 1cf1 8abe 6f93 e13e 63eb c0be
000003f0: 2cf9 8fbe ba62 6f3d 8b46 a93e c405 e33d
-0.033488877 -0.088418715 -0.11807644 0.02033566 0.1561786 -0.04664681 -0.19813752 0.42746365
0.23669234 -0.24700743 -0.50657845 -0.18160018 0.48325887 0.42342308 0.03762039 0.32778507
0.353436 -0.116890684 -0.28301984 -0.047519937 -0.086542726 -0.3889314 0.029877683 -0.05751348
-0.092454575 0.07898198 -0.21777527 -0.44536743 -0.42017806 0.44135168 -0.36680675 0.20089391
0.2890783 0.039071478 0.36610985 -0.35264665 -0.23753825 -0.5485017 -0.12791389 0.207228
-0.008082077 0.28186032 -0.20047443 0.003079894 0.27515027 0.4261888 0.33571592 0.42665967
0.15037605 0.45833787 0.29026425 0.495385 0.0072059403 0.4222103 -0.4073764 0.18249193
0.33685175 0.36212763 0.2072346 -0.34976155 -0.41035765 -0.19210654 -0.28260827 -0.23314345
-0.114857465 -0.06867871 -0.30021563 -0.543751 -0.465511 -0.17883003 0.4810614 -0.011973412
-0.4554721 0.37997478 0.038287282 0.2668395 0.13147953 0.449285 -0.13726036 -0.029493645
-0.20365915 -0.17201681 0.1391999 -0.31301972 0.18483844 -0.30785108 0.3518473 -0.08515578
0.36678642 -0.08331988 0.019515997 0.4908418 0.35519126 -0.36625224 -0.19474123 -0.34024173
-0.039729528 0.14685847 0.1685311 -0.105661795 -0.295798 0.44711393 0.25075263 0.016728977
-0.054799724 -0.11211923 0.44129947 0.0069377846 0.38932303 -0.23520465 0.18371956 0.36670116
0.44455954 -0.21321197 -0.22151853 0.3513307 0.33501753 0.1837676 0.39777496 -0.19299868
-0.47063002 0.19954069 -0.32024354 -0.15279473 0.28089648 -0.16564961 -0.44339213 0.17073014
-0.38553193 0.030437946 -0.227862 -0.2663374 -0.0032138478 0.0883023 -0.29538047 0.31549826
0.43132618 0.3219866 0.063182786 0.26209188 -0.36994138 -0.498322 0.027909145 0.025298284
0.36894444 -0.10074229 -0.053642847 -0.45706698 0.07790942 0.19129315 0.39690733 -0.0016551554
-0.18793073 0.44589838 0.36599052 0.33877483 0.0010817556 0.17129263 0.1222347 0.14519839
0.02444823 -0.072702795 0.041205075 -0.20535578 0.2998582 -0.1780426 -0.27919227 -0.006845136
0.17710537 -0.27509367 -0.33518887 -0.19411652 -0.29760206 0.033571664 -0.3406214 -0.3358909
-0.05751898 0.4463505 -0.05552459 -0.15898518 0.055714462 0.073277704 0.23878185 0.23585275
0.35650235 -0.09735208 -0.19959502 -0.040570725 0.27437153 0.20697206 0.1687525 0.35256168
0.3983897 -0.13119736 0.3317452 0.34594634 -0.056997094 0.061018232 -0.13447309 -0.15544482
-0.124613166 -0.48966643 -0.38557935 -0.27855074 0.4751812 0.12605104 -0.33203125 -0.2773517
-0.22257036 -0.08834889 0.20432407 0.33044976 0.110935956 0.28119606 -0.17632088 0.39266655
-0.06807219 0.05630474 0.15642022 -0.20121074 -0.040000156 0.43796968 -0.44033325 -0.44112888
-0.17852569 0.03980282 0.08340605 -0.38590005 -0.4496635 0.40887848 -0.11835217 -0.20980062
0.24843359 0.31110686 -0.10039978 0.25718665 -0.42570832 -0.19518508 0.076834664 -0.1700187
-0.4361917 0.037381083 0.39960372 0.48332295 -0.007675299 -0.2139105 -0.35789448 -0.09563827
-0.18951689 -0.27137077 0.44057795 -0.37679586 -0.2811979 0.058443762 0.33061633 0.11085084

dec.lin1.bias f4 [64]
00000000: 23ed 87bd 68cd b1bd 7080 da3d 9894 f5bd
00000010: 57e9 debd b6b5 fdbb 6afd fa3c 5dc6 94bc
00000020: 48d2 e6bc 4047 483b 7caf 213d 763e d6bd
00000030: 65b4 e2bd 5351 b93d 20a6 203d ef8c a4bd
00000040: 83a9 fb3d 39be b93c 3592 bdbc df25 11bd
00000050: 3300 ba3c 2483 943d aee4 d93c 38e4 f83c
00000060: 7245 83bd 064a ba3d 4bf6 03be 5025 2e3e
00000070: bb6a 37bd 0d6d d8bd f9d2 a9bd 9fcf 6b3d
00000080: 5b63 213e 4af5 e2bc f0aa 75be ef67 f33d
00000090: ae0e 01bd 227f a23d 76f1 13be 2523 ffbd
000000a0: e058 91bd ff39 513e 68dc 2f3d 5162 183d
000000b0: b2f3 bdbd a5c6 033e 4851 e03d 68c9 b73d
000000c0: 4699 ef3d ce26 3cbd 9758 ee3d 3c15 5abd
000000d0: dec9 dfbd 2aeb 473e 07dc f1bc 5476 363d
000000e0: d680 febc b28d 163d c03f b13a 5a8e bb3c
000000f0: 1351 0d3d 40ef 80bd 8200 623e 9711 94bd
-0.06637027 -0.08681756 0.10669029 -0.11991233 -0.1088435 -0.007742609 0.030638415 -0.018160993
-0.028176442 0.0030560046 0.039473996 -0.10461132 -0.11069564 0.090487145 0.03922093 -0.080346934
0.12288191 0.022673713 -0.023141006 -0.035436507 0.022705173 0.072515756 0.0265983 0.03038226
-0.0640973 0.0909615 -0.12886922 0.17006421 -0.04477952 -0.10567675 -0.08292193 0.05757105
0.15760557 -0.027704854 -0.23990989 0.11885058 -0.03150814 0.07934405 -0.14447579 -0.12457875
-0.0709703 0.2043228 0.042934805 0.037203137 -0.09274997 0.12868746 0.10953003 0.08973962
0.116991565 -0.045935445 0.11637991 -0.053242907 -0.10927175 0.19523302 -0.029523863 0.04454644
-0.031067293 0.036756225 0.0013523027 0.022895027 0.034501147 -0.06295633 0.22070506 -0.072299175

dec.lin1.weight_v f4 [64, 64]
00000000: 7198 b03d b63e 87bd bec1 febd 7da4 363d
00000010: 7812 dcbd 8478 82bd 15f1 aa3d ea2d 4a3d
00000020: 9d97 843d 5bd7 e13d 3cb2 7f3d b602 fe3d
00000030: 01b8 55bd 6eb8 85bd 4d77 9c3d a74c e0bc
00000040: ce1f 313d e993 473d 126a a1bd 33fc b73d
00000050: 4981 b6bc 4e9a 393e 0ef5 683d f225 03be
00000060: 58b6 bebd d83e abbd 7cb1 c03c 938b b3bd
00000070: ec18 223b 19ac 833d d39c fabd 0183 53bd
00000080: 2249 dfb9 30ae bb3d 08cb a03b 37d1 a23d
00000090: a6d0 6fbd 1a88 1f3d e9f1 943d 451a d03d
000000a0: e060 a2bd a405 d9bc 58f6 903d 38a2 9b3c
000000b0: 59e3 8bbc a60b 0b3d 3d0c aebd 9da4 12bd
000000c0: db65 85bd 56e0 7b3d e53b e33d 425e b5bd
000000d0: d394 dc3d 3c1d 373d 9f50 acbd 21a3 81bd
000000e0: 3be7 b33c 6c9d c73b f6d6 463d ea68 5cbd
000000f0: 5bd9 593d d9a6 bf3d 6c4a 02be 6205 63bd
00000100: 4037 73bb bcd1 d1bd a4c0 8abd 9460 533d
00000110: 06f7 b93d a8bb f1bc f861 a3bd 1c13 4bbd
00000120: 506a 333d 14cb 1d3d 04b6 583d f806 94bd
00000130: 00c7 0cbd 389a a3bc 2a9f f7bd ce26 803d
00000140: f2cd a6bd 7012 febd 0c03 c1bd f0b7 71bd
00000150: 7ad2 f5bd e8da 24bd e8e1 8ebc 40e4 6d3c
00000160: 968e bd3d 50d7 0cbc e624 ec3d 28b9 a33c
00000170: 7a38 d73d d8e0 75bd a81e e3bd 4cf3 b2bd
00000180: 100e a13d a826 d4bc 9239 dabd 02d8 b53d
00000190: c0cd a73b 283a c43c 6cef 2a3d c02b 493b
000001a0: 603c 433c 9021 e5bd e61e a43d 74b3 85bd
000001b0: a893 f73c e076 803b 003e e53d b828 91bc
000001c0: 72f4 d1bd f87e d73c bc0e b2bd e044 6f3d
000001d0: f07a 5f3d da4c b73d 2880 f03c 3a86 f3bd
000001e0: 00a6 4abd 9cd8 d63d 80e2 7cbd 1420 2dbd
000001f0: 2c3e d5bd c2eb dabd 8e58 d2bd 7006 013d
00000200: 710b 8d3d 387f 993d 9856 febd 241c e53c
00000210: bdfa 1abe 0d9a 013e 68d8 09be 2e61 51bd
00000220: dad6 b6bd cc6f 3c3e 442c 87bc d8b5 73ba
00000230: e0db b43d 11a4 c23c 0ffd e9bc bc5f 75bd
00000240: a60f 01bd 257e 03be d219 ec3c d1a4 f73c
00000250: 616f 28bc ab67 dcbd 6f0e cf3d 6901 a3bb
00000260: a786 053d db82 d6bc 1ccd 26be 4468 cb3b
00000270: 915b 89bd ac79 bbbd f0e1 8cbd 2b05 843c
00000280: d051 003e cf13 973d 04fd 043c b47b 603e
00000290: 4d1b 85bc e7d6 5d3d ead0 0bbd dc33 693d
000002a0: 2c8c d93d 48b4 e0bd 39f4 9fbd ea76 03be
000002b0: 43b2 a63d fb27 a93c c70c b53c 2f28 85bd
000002c0: fe76 a1bc 9a71 3cbd dc31 81bd fa61 d2bc
000002d0: c8cb 6abd f423 d4bd 97a5 1e3d 7760 dcbd
000002e0: 4f1e 90bd 4065 91bd 20dd cb3c 31da 19be
000002f0: 9db2 adbd 588f 80bd 3aa8 26bc 4404 003c
00000300: 90c3 7d3d 7070 d63d 4c19 703d cde1 acbd
00000310: aa3b 0bbe 5ce4 bdbd bc3a 1c3a 8577 b1bd
00000320: c259 e2bd 5cf4 013d e4f0 763d 7985 a13d
00000330: 4f46 953d a86b b5bd e105 b8bd 1c92 12bd
00000340: 6850 0e3d b724 c23d 53ee df3d 8bbb d23d
00000350: 9574 8ebd 006e e43d 80da 39bd 06c6 303e
00000360: 195c 263e 5d1a 503d 3cb5 96bc 8203 1d3e
00000370: bf6d 513d d4e5 4fbd 54a9 1abe 1d2f aebd
00000380: 43ba 15bd ed70 14bd 4a1c 4dbb 75fc 933c
00000390: b5c9 173d ee95 1b3d ae15 d93d e02d 523d
000003a0: 77e0 043d b940 2c3d ce82 023c 1696 7abd
000003b0: bc05 183d 6d75 023e a305 553c 8f00 46bd
000003c0: 97b4 233e f1cc de3d 031b 4ebc b5d2 65bd
000003d0: 8462 9cbd fe4c 5d3d 44b4 e73d 4a40 92bd
000003e0: a14b 893c 5429 e43d f1ee 21bc 5e2e 143e
000003f0: d784 8c3d dd9a aebd 928e e93c dac0 36bd
0.08622826 -0.06603758 -0.12439297 0.044590462 -0.1074571 -0.06370643 0.08346764 0.049360193
0.064742304 0.11027404 0.062425837 0.12402861 -0.052177433 -0.06529318 0.07639942 -0.0273803
0.043243222 0.048725042 -0.078815594 0.0898365 -0.022278445 0.18125269 0.056874327 -0.12807444
-0.09312123 -0.08361596 0.023522131 -0.08766856 0.0024734093 0.064293094 -0.12236943 -0.051638607
-0.00042588363 0.09164083 0.0049070157 0.07950061 -0.058548592 0.038948156 0.07272703 0.101612605
-0.07928634 -0.026491947 0.07078236 0.01899825 -0.017076181 0.033946656 -0.08498428 -0.03580152
-0.06513568 0.06149324 0.11095408 -0.08855869 0.107705735 0.044705614 -0.08413815 -0.063299425
0.021960845 0.006091764 0.048544846 -0.05381099 0.053185802 0.093579955 -0.12723702 -0.055425055
-0.003711179 -0.10245082 -0.067750245 0.051605776 0.09080319 -0.029508427 -0.079776704 -0.04957877
0.04380256 0.03852375 0.05290796 -0.07227892 -0.03436947 -0.019970998 -0.12090905 0.062574014
-0.0814475 -0.124058604 -0.09424409 -0.059013307 -0.12003036 -0.040247828 -0.017441705 0.014519751
0.09255712 -0.008596256 0.11530475 0.01998575 0.10508819 -0.06002888 -0.110898316 -0.087378114
0.0786401 -0.025897339 -0.10655512 0.08879091 0.005120963 0.023953512 0.041732237 0.0030696243
0.01191625 -0.11188042 0.08013706 -0.065283686 0.030221775 0.003920421 0.11193466 -0.017719612
-0.10251702 0.02630566 -0.086942166 0.058415294 0.0545606 0.08950205 0.029357985 -0.11890836
-0.049474716 0.10490534 -0.061739445 -0.04226692 -0.10412249 -0.106894985 -0.10270797 0.03150028
0.06886948 0.07494968 -0.1241886 0.02796752 -0.15134712 0.12656422 -0.13461459 -0.05111807
-0.089276984 0.18402022 -0.0165006 -0.0009296811 0.08831 0.023759874 -0.02856305 -0.059905753
-0.031509064 -0.12841089 0.028820906 0.030229958 -0.010280461 -0.107619606 0.10110175 -0.0049745333
0.032599118 -0.026185444 -0.1628918 0.006207498 -0.06706918 -0.091540664 -0.06879032 0.016115746
0.12531209 0.07376825 0.008116964 0.21922189 -0.01624837 0.054160025 -0.034134783 0.056934223
0.10622439 -0.10971886 -0.07810254 -0.12838331 0.081394695 0.020648947 0.02210082 -0.06501805
-0.01971006 -0.046006776 -0.06308338 -0.025681484 -0.057323247 -0.1035842 0.038732138 -0.10760587
-0.07037031 -0.0709939 0.024885714 -0.1502464 -0.084813334 -0.06277341 -0.010171944 0.007813517
0.06195408 0.104706645 0.058617875 -0.084415056 -0.13596979 -0.09272072 0.000595968 -0.08665375
-0.11052276 0.03172718 0.060288325 0.07886786 0.07288801 -0.088584244 -0.08985496 -0.035783872
0.03474465 0.09479659 0.109341286 0.10289677 -0.0695583 0.11153793 -0.045374393 0.1726304
0.1624607 0.050806392 -0.018396966 0.1533337 0.051130053 -0.05075629 -0.15103656 -0.0850508
-0.036554586 -0.036240507 -0.003129738 0.018064717 0.037057597 0.03798478 0.10599838 0.05131328
0.03244063 0.04205391 0.007965757 -0.06117829 0.037114844 0.12740107 0.013001832 -0.048340376
0.15986858 0.10878933 -0.012579682 -0.05610915 -0.07635978 0.054028504 0.1131368 -0.071411684
0.016759695 0.11140695 -0.009883628 0.14470813 0.06861275 -0.085256316 0.028510366 -0.04461751

dec.lin2.bias f4 [64]
00000000: a6f0 a1bd d983 77bd 586a d3bd c36a c3bd
00000010: fed6 bbbc 305b 963d 0c14 043d 48fc 933d
00000020: c177 30bc d45b 8cbd cc27 b4bc deda de3d
00000030: bfd9 1cbc 26ae f0bb c3f2 32bd fd92 b8bd
00000040: 2b26 ebbd eed4 fcbd 80c4 f1bd 0f9a c6bd
00000050: 9da4 943d 742c a8bd b676 4e3c 80c0 71bd
00000060: 1558 ec3d 12b3 d33d c84b fd3d ac0b 7dbd
00000070: d7e1 c2bc 25a4 5cbd 91e3 c73d bb2b a03d
00000080: 5856 283d bf74 6138 137e cabd 986e 4ebd
00000090: 5c36 d23d beda 0abe cfa2 3a3b 0551 dabd
000000a0: 81e5 0f3d 058b 44be 7f93 963d 52dd 143e
000000b0: 2c89 d83d ba6b d53d 6a59 5fbc 7f48 373d
000000c0: afc3 7f3c aa94 ae3d b01e 72bc 692c b3bd
000000d0: ed1f 38be 49df b53c 5266 f7bc b8b7 bf3c
000000e0: 682a c13d c993 2f3e 8901 b7bd 9438 2e3d
000000f0: e2f1 023e 8dd0 8bbc 0f37 b13d c2a5 603d
-0.07907228 -0.060428474 -0.10323018 -0.095418476 -0.022929665 0.073416114 0.03224568 0.07225853
-0.010770739 -0.06853452 -0.021991633 0.10881589 -0.009573399 -0.007344979 -0.043688547 -0.09012411
-0.11481889 -0.123453006 -0.118050575 -0.09697353 0.0725796 -0.08211604 0.012601545 -0.059021473
0.11540238 0.10336889 0.1236797 -0.06177871 -0.02378933 -0.053867478 0.09760202 0.07820841
0.04109797 5.375291e-05 -0.09887328 -0.05039844 0.102642745 -0.13560006 0.002847839 -0.106599845
0.03513098 -0.19193657 0.073523514 0.14537552 0.105730385 0.10420938 -0.013632158 0.044746872
0.015610619 0.08524449 -0.014777824 -0.08748705 -0.17980929 0.022201197 -0.030200157 0.023403034
0.094319165 0.1714622 -0.0893584 0.042534426 0.12787583 -0.017067218 0.0865308 0.05484558

dec.lin2.weight_v f4 [64, 64]
00000000: 1bd1 943d 716b ef3c 9e99 c3bc 1e19 b13d
00000010: f4c5 7bbd 7b8a 88bb 8970 f93d 26d2 a03b
00000020: 7854 e5bc 3edc 9abd 5ac1 af3c eb25 b83b
00000030: b065 d8bd fb43 a63d 9cfe db3d ba39 a63d
00000040: 360a 2cbd 7d87 f4bd 90d9 e5bc 499a 7bbc
00000050: 7aaf f3bd b905 cf3c 22d9 383d fb01 ef3c
00000060: 54e5 8bbd 5491 b0bd c916 ae3d 99b3 1fbd
00000070: dc18 c4bc bf96 a93d dd1f 92bd 696e f73d
00000080: f90d 313d 7ca2 16bd 8f49 73be a852 f3bc
00000090: af62 92bd 1f69 813d 288e 90bd 8ca5 31be
000000a0: 1a41 063e 239a f63d 7c5d b73d cba1 a93c
000000b0: ff67 ca3d 0206 873d c1de 263d 57f7 26bd
000000c0: e2c7 15bd 34a3 df3d 23f3 f3bd ca9e a9bd
000000d0: 8760 c7bd d53b 153d af6f e0bd df2a 31bd
000000e0: 325d 43bd e7c7 873d 0ee4 6d3b bca9 023d
000000f0: d4cc 3ebd e165 f9bd 10a8 0ebc bc26 f0bd
00000100: a08b d7bd 6ab7 303d f3c8 583d fdd6 643d
00000110: 83e8 84bd 66c0 a03d 585f 803d 7098 8d3d
00000120: 16f1 f4bd 1a12 4f3c f3b7 183d 3fe0 233d
00000130: 09c8 d43b 93a3 993d f6c9 023d d71e 583d
00000140: 6510 f7bd 577c 0e3e 3628 41bd 4a53 523d
00000150: 7634 dabd bef1 71bd ac24 5abd 66f6 5cbd
00000160: a247 94bc cc3f d0bd a617 ce3d afe0 88bd
00000170: b82b c43d e16a c6bd 24e7 f4bd 77f8 bbbd
00000180: d198 bb3d cc99 a6bd e1fb 1cbe fce6 f03d
00000190: 0a75 1c3e 28d8 bebd b379 93bd 8e5f e43d
000001a0: 6283 a5bd e872 7cbc 2c34 4fbd 52d1 bc3d
000001b0: 5229 943d 1e68 243e 7e9e 753d 8377 27bc
000001c0: 98f0 a5bc 99c0 d5bd 569e 213e 0140 f23d
000001d0: 4ad6 fb3d 4561 b13b 28b5 c6bd 5ed2 e73d
000001e0: 0799 87bd 9637 f7bd bd63 31bd a608 e7bd
000001f0: 05f0 98bc 60fd 4c3d abe3 dbbd f12e bc3d
00000200: 2ea6 c1bd 5951 233a 3471 17be f73b 053d
00000210: 9766 d43c d837 533c 8980 c33d 52d7 c13d
00000220: 1ba7 a3bc 3f46 563d 320b c8bd 7514 f1bc
00000230: 2f0e 8ebd bcbc 10bd e835 9b3c 6bdc d53d
00000240: a0f9 dabc 4a88 9a3d 1a00 1cbd 3d33 98bd
00000250: b564 a53d 06fc 53b8 cc31 4f3c 8d69 8fbb
00000260: d81b 283d c761 f1bc 1924 2f3c baa7 70bd
00000270: b6f1 003e d48e 78bd 4c2b ef3d 8dfb d63d
00000280: 1d36 b9bc 871a cabd ab12 ad3e 39a4 30bd
00000290: 5034 b43c 9e03 c5bd de16 78bd 5c08 fe3d
000002a0: 488d 493d 22c6 0a3d f728 0732 2c50 96bc
000002b0: 207a 7c3d 6a78 8abd f02d 9cbd 45a9 9a3d
000002c0: e2dc 84bc d02e d3bc 1733 263d 5390 823d
000002d0: 6a6a a2bd bbd7 263d 47b6 133e d3f4 8cbd
000002e0: 17ea eabd fff4 b2bd e05e 8abd 73c2 e03d
000002f0: 264d e83d 5e2e 553b d79c bcbd 0478 31bd
00000300: 601a 24bd 05ca 0ebe 7651 763d 5567 f0bc
00000310: 43e9 c33d 453c abbd a7f2 ac3d c93e a1bd
00000320: b0bb b03d 7157 ecbd 8cf4 d1bd c865 093e
00000330: 1de9 d0bc 563f 7b3d 8a45 69bc 9d39 093d
00000340: 6801 cbbd 247c 94bd 9f44 08be e8f4 a6bc
00000350: f83d 3ebc 4c2f 8ebd 8cb4 fbbd fc30 13be
00000360: 678c 193d c259 273d e9d7 403c 89a8 3d3d
00000370: 22f6 9e3d 2d8c 6abd 68f2 09be 71ac e1bd
00000380: fa87 85bd ae5d 0a3e 00c9 14bd c178 03be
00000390: 5f27 833d 575b c9bd 0381 eb3c 8e05 b3bd
000003a0: 063c ee3d 6a93 c7bb 824b b83d 5634 a63c
000003b0: 9712 97bc bd6d edbd 3280 c5bd 1c97 db3d
000003c0: 0c7b 25bc 13d8 033e d7e1 a53d 76ab 03be
000003d0: a728 c83d f70b 6ebd c23e 14be 3655 313d
000003e0: d870 81bc 0e44 0ebe e5ec 16be ba05 1cbe
000003f0: 45c4 323d 1172 0dbe 35eb 4ebd ef31 db3d
0.07266446 0.029226037 -0.023876961 0.08647369 -0.06146808 -0.004166899 0.121796675 0.004907864
-0.02799438 -0.07561539 0.021454502 0.0056197545 -0.1056627 0.08118435 0.10741922 0.08116479
-0.042001925 -0.11939905 -0.028057843 -0.015356609 -0.11898704 0.025271283 0.04512895 0.029175749
-0.0683085 -0.08621469 0.0850044 -0.038989637 -0.023937635 0.08280706 -0.07134984 0.12081606
0.043226216 -0.03677605 -0.23758529 -0.0297025 -0.07147729 0.063188784 -0.07058364 -0.17348307
0.13110772 0.12041118 0.089533776 0.020707032 0.09883117 0.06592943 0.04073978 -0.040763225
-0.036567576 0.109198004 -0.11911609 -0.0828224 -0.09735208 0.036434013 -0.10958802 -0.043253776
-0.0476963 0.06629925 0.0036299261 0.031900153 -0.046582058 -0.12177635 -0.008707061 -0.11726138
-0.10524678 0.043143667 0.052926015 0.05586909 -0.064896606 0.07849197 0.062681854 0.06913841
-0.11960046 0.012638593 0.037284803 0.04000878 0.0064935726 0.075019024 0.031930886 0.052763786
-0.12063674 0.1391462 -0.04715749 0.051348962 -0.106545374 -0.059068434 -0.05325763 -0.05394592
-0.018100563 -0.10168418 0.10063104 -0.0668348 0.09578651 -0.09688354 -0.11958149 -0.0917825
0.09160007 -0.08134803 -0.15330459 0.11762807 0.15279022 -0.09318572 -0.07200947 0.11151038
-0.080817 -0.015408255 -0.050586864 0.09219612 0.07234444 0.16055343 0.059965603 -0.010221365
-0.020256326 -0.10437126 0.15783057 0.11828614 0.12296732 0.0054132068 -0.097025216 0.11319421
-0.066209845 -0.12071149 -0.04330801 -0.112809464 -0.018669138 0.050046325 -0.107367836 0.09188641
-0.094555244 0.0006230078 -0.14789277 0.03252789 0.025927825 0.012891732 0.095460005 0.09464897
-0.019977143 0.052313086 -0.0976776 -0.0294287 -0.06936299 -0.03533624 0.018946603 0.10442432
-0.026730359 0.07545526 -0.038086034 -0.07431648 0.08075849 -5.0541035e-05 0.01264615 -0.0043765963
0.04104218 -0.02946557 0.010689759 -0.058753707 0.12592205 -0.060683087 0.1167818 0.10497198
-0.022608811 -0.09868341 0.33803305 -0.043125365 0.0219976 -0.096198305 -0.060568683 0.12403938
0.049207002 0.03388036 7.8673486e-09 -0.018348776 0.061639905 -0.067612484 -0.076259494 0.07551817
-0.016218606 -0.025779158 0.040576067 0.06375184 -0.07930453 0.04073308 0.14425002 -0.06882634
-0.1147043 -0.087381355 -0.06756377 0.10974588 0.1134284 0.0032528858 -0.09209602 -0.043327346
-0.040064216 -0.13944252 0.06013628 -0.029346148 0.095659755 -0.08361105 0.0844472 -0.078733034
0.086295485 -0.115401156 -0.10251722 0.13417733 -0.025501782 0.0613397 -0.014237771 0.03350221
-0.099123776 -0.072502404 -0.13307427 -0.020380452 -0.011611454 -0.06942615 -0.12290296 -0.14374155
0.037487414 0.040857084 0.011770227 0.046303306 0.0776179 -0.05726259 -0.13471377 -0.11019219
-0.06520076 0.13512298 -0.0363245 -0.12839033 0.06403994 -0.09831875 0.028748041 -0.08741294
0.11632542 -0.006090571 0.08998777 0.020288628 -0.018441482 -0.115931965 -0.09643592 0.10722181
-0.010100137 0.12875395 0.08099716 -0.12858376 0.09773379 -0.05811688 -0.14477065 0.043294154
-0.015800878 -0.13893148 -0.14738806 -0.1523656 0.04364421 -0.13813044 -0.05051728 0.107028835

dec.lin3.weight_v f4 [1, 64]
00000000: 424c 9d3d de59 c63d 3a77 87bd 7453 a73d
00000010: 88ca 163d 683b e4bd c157 8c3d f764 653d
00000020: 5cc5 e4bd b6a7 113d 206f 0b3c e9f4 473d
00000030: 92e5 99bd b147 803d ba1b df3d 78a7 d1bd
00000040: 0dba 793d 582f dc3c 4371 9b3a f3b4 a63d
00000050: 0293 043c f03f a03d b1d5 b6bd eccc b7bd
00000060: 08d9 bd3c 6c59 30bd 8a42 0c3e 3983 703d
00000070: 5e6b b93d 8bdd 4dbc f7e1 1fbd 83f5 c63d
00000080: 10e0 a1bd 3e13 ba3d 2b93 d2bd ad47 4cbd
00000090: f324 aabc f088 f3bd 9c7c 8b3d be8a 843c
000000a0: 1455 673d e0f3 51be 45ea adba 124f ebbd
000000b0: d25c a8bc f989 6abc 743a 99bc 4f0d e4bb
000000c0: 38db 6dbd 0753 ba3d 19a2 9ebc e351 3c3c
000000d0: 047e 86be e911 ef3d 605c 2b3d 945c 88bd
000000e0: 6457 ad3d c139 17be bc4a 9e3d 2264 613d
000000f0: 7ad7 cd3d c710 5ebc 3aab d83d 7b4c ee3d
0.07680561 0.096851096 -0.066145375 0.08170214 0.036814243 -0.11144143 0.06852675 0.05600449
-0.11170456 0.035560332 0.008510381 0.04881755 -0.0751449 0.06263674 0.1089396 -0.1023702
0.060968447 0.026878044 0.0011859316 0.08139982 0.00809169 0.07824695 -0.08927477 -0.089746326
0.023174778 -0.04305403 0.13697258 0.058718894 0.09053682 -0.012565027 -0.039033856 0.097147964
-0.07904065 0.090857014 -0.10281976 -0.049873043 -0.020769572 -0.11891353 0.06810877 0.016179439
0.05647762 -0.20503187 -0.001326867 -0.11489691 -0.020552073 -0.014315122 -0.01870463 -0.0069595943
-0.05807039 0.090978675 -0.019364404 0.011494133 -0.26268017 0.11673338 0.041836143 -0.06658283
0.08463934 -0.14768125 0.07729098 0.055027135 0.100508645 -0.013553805 0.10579534 0.11635681

exp_avg f4 [64]
00000000: 12e5 a337 5d51 bdb6 4e13 ecb8 dbea 9938
00000010: 3764 45b9 21d0 6439 0e8f 08b9 18c4 3b37
00000020: 16c4 71b9 363f 9d39 260b eab7 6c64 bf38
00000030: 5a8e b4b7 b32e 89b8 1cdb e538 972d 36b6
00000040: 29be d037 0cb7 1b37 0000 0000 3348 63b8
00000050: 1692 f3b7 d322 4ab9 ff3f 6cb8 4397 7db8
00000060: d1f1 8ab9 a088 b239 fc23 2fb9 e789 f4b8
00000070: 301a e4b7 b458 3938 9189 2338 2b1e f236
00000080: c3d0 1a38 cb04 90b8 a0de 9d37 dce7 e339
00000090: aa81 dab6 d735 9a39 bef2 2039 ca84 21b9
000000a0: d40f f436 595f 6c38 98fc 0138 ba6b 42b8
000000b0: 0c52 5638 f977 1fb9 5f02 9cb8 fefd d338
000000c0: 4cf4 72b9 8876 03b9 1b9a d2b7 bec8 15b8
000000d0: f967 ccb8 495b 8bb8 62d4 87b8 3b28 bcb8
000000e0: c84e ba38 4995 9cb7 888f d5b8 3769 7db8
000000f0: 928f c7b8 19a3 7bb7 6223 21b7 056c d137
1.9537783e-05 -5.642111e-06 -0.00011256953 7.339354e-05 -0.00018824717 0.00021821308 -0.00013023263 1.1191725e-05
-0.00023056599 0.0002999247 -2.7900165e-05 9.126295e-05 -2.152396e-05 -6.5413675e-05 0.00010960383 -2.714665e-06
2.4884082e-05 9.281339e-06 0.0 -5.418826e-05 -2.9035884e-05 -0.00019277194 -5.6326386e-05 -6.0460774e-05
-0.00026501578 0.000340526 -0.00016702706 -0.00011660513 -2.7191913e-05 4.419005e-05 3.8990347e-05 7.215674e-06
3.6910886e-05 -6.867348e-05 1.8819526e-05 0.00043469563 -6.512001e-06 0.00029413283 0.00015349218 -0.00015403624
7.2736093e-06 5.6355584e-05 3.0991243e-05 -4.6353533e-05 5.1097988e-05 -0.00015208115 -7.439101e-05 0.00010108574
-0.00023169926 -0.0001253729 -2.5105712e-05 -3.5711324e-05 -9.7468444e-05 -6.64504e-05 -6.476861e-05 -8.972032e-05
8.883845e-05 -1.8666165e-05 -0.00010183366 -6.041789e-05 -9.5158015e-05 -1.499874e-05 -9.604586e-06 2.4965042e-05

exp_avg_sq f4 [64]
00000000: e704 1135 8a2b cb34 eb4f 7736 41b2 1535
00000010: 71a1 8a36 37d2 b735 ed0e ac35 cddc 5f35
00000020: 5967 9235 1a0c 8935 4247 7c35 cf3b 9d35
00000030: 0582 fb34 350e aa35 ddb6 7035 224a 4c34
00000040: 43f7 9b35 1072 2d35 0000 0000 f8a9 8f35
00000050: ce52 1d34 39a1 a035 6fd1 d834 04c5 9f34
00000060: bf72 1236 4e71 ad36 58bf 8135 71cd 5f35
00000070: 7f80 fb34 197b 0635 cdb6 5334 2985 a234
00000080: 12cd 1035 9972 8935 1194 9834 91da af36
00000090: b633 c234 7f5b 2536 fdfe 4535 9270 b335
000000a0: 3b5e cd34 c4d4 6835 327e d535 fd2b c033
000000b0: 4720 5a35 b7e2 8735 2e65 2834 4854 5435
000000c0: 04c5 1b35 a059 6435 47be a734 05e9 3e35
000000d0: 5037 2634 b7b8 e234 33ec b734 b637 ac35
000000e0: 3abd 0234 2587 ff33 6275 3535 4496 e134
000000f0: 84c5 5c34 05e0 b034 03df b534 8489 9c34
5.4023843e-07 3.7843375e-07 3.6852387e-06 5.576622e-07 4.1315147e-06 1.3695743e-06 1.2819343e-06 8.339528e-07
1.0907926e-06 1.0210817e-06 9.398101e-07 1.1714818e-06 4.6846995e-07 1.2670122e-06 8.967307e-07 1.902595e-07
1.1620363e-06 6.4613505e-07 0.0 1.0703798e-06 1.4651889e-07 1.1967851e-06 4.0385518e-07 2.9759406e-07
2.1822486e-06 5.168992e-06 9.666937e-07 8.337293e-07 4.6845886e-07 5.009802e-07 1.9717409e-07 3.0271738e-07
5.3942597e-07 1.0240648e-06 2.841994e-07 5.240851e-06 3.617294e-07 2.4640174e-06 7.3759276e-07 1.3369302e-06
3.8252787e-07 8.673635e-07 1.5906464e-06 8.948698e-08 8.12583e-07 1.0124267e-06 1.5683028e-07 7.90988e-07
5.8028695e-07 8.506704e-07 3.124462e-07 7.1119604e-07 1.5480077e-07 4.2230178e-07 3.4258264e-07 1.2831213e-06
1.2176034e-07 1.18989455e-07 6.759857e-07 4.2018848e-07 2.0560952e-07 3.294555e-07 3.387614e-07 2.915732e-07

exp_avg f4 [64, 4]
00000000: 0123 3bba ca98 22ba df04 633a 7d9f 9cba
00000010: 0f35 96b8 088f 8db8 8a13 22b9 0095 6cb8
00000020: ae53 1bb9 ddf6 88b9 c6dd db38 5040 00b9
00000030: be25 15b8 9fb3 09b8 e2c5 c038 f29f ae38
00000040: a329 4039 bac2 89ba 817a 6db9 460b 84b9
00000050: 6c0c 9238 6f3c 0439 675d 7d3a a1d7 c838
00000060: 7b9b f6b6 8050 5e39 480d e2b9 8f56 c338
00000070: 2217 49b8 b081 4db8 7f74 8637 131c 1438
00000080: 5e2f ce38 0009 1535 8304 73b9 e672 25b9
00000090: 0846 c9b7 f467 67b8 23da d339 1e8e 9738
000000a0: d6ba 19ba dc74 8239 487f 82b9 7a39 8e39
000000b0: 117e abb7 90c5 27b8 aa71 7638 2f6e ca36
000000c0: 9979 3238 1967 3538 d244 bbb8 e2a0 c8b5
000000d0: acc2 1db9 3800 4ab8 fac6 edb7 dc6b 4d38
000000e0: 4f62 3037 7f45 3037 f445 b138 c000 9738
000000f0: 0ae8 afb5 b154 2bb5 3a79 cbb5 d6a3 bd36
00000100: 2d77 8d36 ae41 2536 155e f137 11b6 8ab7
00000110: 8247 8f36 3ad9 d935 f2e0 8e36 f735 61b7
00000120: 0000 0000 0000 0000 0000 0000 0000 0000
00000130: b40f 7338 8e6a 6239 ebf9 9ab8 5536 1bb9
00000140: 98f2 4cb8 03fb 3db8 add8 dd37 5b0c 2c35
00000150: bad0 da39 b3cc 97b9 ac18 0fb8 9ffa 6db9
00000160: b752 15b8 4570 2db9 0a8f a038 fcbb 9f38
00000170: 3ce3 3c38 a369 8d37 ce25 e2b8 451f c338
00000180: 1375 35ba 76c4 0a3b 12c0 3bba d92d c6ba
00000190: 3a43 8439 601b c738 afdd fe38 8635 2537
000001a0: ba40 09ba 2e77 1cba 052d ca39 6433 c639
000001b0: f401 ad38 b01c 32b8 391b 8fb9 fc6d af37
000001c0: eb52 92b8 0106 65b8 62fd 71b7 4aea 3e38
000001d0: 5c6f 1839 9fb9 1d39 8c2c 2eb9 9ab7 7538
000001e0: ac7c 0038 e4eb a537 79a2 47b7 df8a 31b8
000001f0: 31c9 7035 71f7 53b7 39af 0d38 57a8 9638
00000200: 5edd 13b7 3d82 36b8 e195 0439 dc24 85b8
00000210: 7914 a3b9 6631 53b9 a812 22b9 0dc4 1d37
00000220: 0fe8 9fb7 ec6e 69b6 a7a0 b937 eca9 f637
00000230: be15 5438 2aab 7638 0445 593a fda0 37b8
00000240: d3c4 4c38 8513 c138 c3fe 35b8 7991 5e38
00000250: e735 fbb9 d066 2fba 505c e0b9 ff54 1e3a
00000260: 3f5a d238 fb61 3937 d16d 9e38 7d76 2fb8
00000270: 1927 c939 aeb7 d13a 6684 9fb9 a870 433a
00000280: a173 45b9 0a23 fd38 0369 8eb7 d9af 0939
00000290: 5009 0a39 ef9a 0d39 4f44 7a38 79ab cf36
000002a0: 393e f7b3 b08b 0339 e9e1 dfb7 a271 2838
000002b0: ffc6 c2b6 21ce 15b7 90d2 9ab8 4a45 a838
000002c0: 5785 a639 1a7c 8fb8 a105 0438 c484 3839
000002d0: f647 183a 5800 233a b932 1139 9b95 3b3a
000002e0: 7ec6 07b8 2f8c c5b9 c9db 2eb9 e279 e1b8
000002f0: 2760 60b8 dab4 0eb8 607a dd38 6a22 2137
00000300: fe6e 2939 4aa3 abb8 f145 91b9 7651 4438
00000310: f430 d239 b182 e839 c1d2 43ba b028 363a
00000320: 2a34 40b6 c745 37b7 8efd 4b37 ffff ab36
00000330: ea93 6cb7 4b03 38b8 d451 a6b8 bc54 5738
00000340: 5b26 98b9 253a 74b9 a788 41b9 64c0 0139
00000350: 5b23 aab8 bbd1 15b8 8be9 35b9 4018 2539
00000360: 94aa 6f39 e689 523a 5b99 02ba 7a13 39ba
00000370: f8a1 0eb8 3921 a6b4 617e 8db8 ad16 9438
00000380: 96bb 1439 49e6 1b39 3884 8038 e965 28b8
00000390: 32f7 7137 f3e3 9e37 6f4b 42b8 4bcf 0f38
000003a0: 2874 c337 0522 6b38 2ced 55b8 477c bf39
000003b0: e457 cab8 3ca0 89b8 5e19 63b8 cc16 c538
000003c0: f913 d4b8 2fec 36b8 4d60 d0b8 eeb8 cfb6
000003d0: 99e5 29b9 aa7c 32b9 e3a7 e238 68c2 97b8
000003e0: f7b5 d935 b110 9834 b0b2 1fb7 3c00 47b7
000003f0: dcd1 1e36 10d8 9bb8 776c b5b7 fad0 6ab8
-0.00071387 -0.0006202577 0.00086600886 -0.0011949387 -7.16244e-05 -6.7500456e-05 -0.00015456803 -5.640555e-05
-0.00014813125 -0.0002612387 0.00010484042 -0.0001223099 -3.555952e-05 -3.283063e-05 9.192132e-05 8.326759e-05
0.00018326058 -0.0010510304 -0.00022647718 -0.000251854 6.964136e-05 0.00012611014 0.0009665102 9.576907e-05
-7.3494716e-06 0.00021201558 -0.00043115974 9.3144474e-05 -4.794368e-05 -4.899659e-05 1.6028293e-05 3.5312096e-05
9.831668e-05 5.551992e-07 -0.00023175967 -0.00015778429 -2.3993678e-05 -5.5171506e-05 0.0004040758 7.2267125e-05
-0.00058643275 0.000248826 -0.00024890364 0.00027127174 -2.0443493e-05 -3.9999897e-05 5.875683e-05 6.032896e-06
4.2551754e-05 4.324978e-05 -8.929674e-05 -1.4947984e-06 -0.00015045208 -4.8160757e-05 -2.8345257e-05 4.897626e-05
1.0513307e-05 1.0506598e-05 8.4530475e-05 7.200381e-05 -1.3106048e-06 -6.3825706e-07 -1.515996e-06 5.651712e-06
4.2160013e-06 2.4625147e-06 2.877325e-05 -1.6535663e-05 4.2700567e-06 1.6230981e-06 4.258117e-06 -1.342361e-05
0.0 0.0 0.0 0.0 5.795034e-05 0.00021592734 -7.389843e-05 -0.00014802192
-4.8863323e-05 -4.5294884e-05 2.644615e-05 6.409297e-07 0.00041735714 -0.00028953477 -3.4116834e-05 -0.00022695445
-3.5601402e-05 -0.0001654039 7.6560376e-05 7.6167256e-05 4.503432e-05 1.68577e-05 -0.000107835614 9.304149e-05
-0.00069220475 0.0021174229 -0.00071621046 -0.0015119865 0.0002522709 9.4941584e-05 0.000121529556 9.847228e-06
-0.000523578 -0.0005968687 0.00038561985 0.00037803792 8.2496466e-05 -4.2465224e-05 -0.00027295368 2.0912841e-05
-6.977267e-05 -5.4603446e-05 -1.4423715e-05 4.551773e-05 0.00014537334 0.00015041836 -0.00016610528 5.8583544e-05
3.0633688e-05 1.9779378e-05 -1.1899153e-05 -4.2329422e-05 8.969974e-07 -1.2634192e-05 3.378021e-05 7.183913e-05
-8.813424e-06 -4.3513475e-05 0.00012644335 -6.3488e-05 -0.00031105036 -0.0002014093 -0.00015456474 9.403576e-06
-1.9062338e-05 -3.478427e-06 2.2128528e-05 2.9404611e-05 5.0564988e-05 5.881038e-05 0.0008288177 -4.3780532e-05
4.8820697e-05 9.206593e-05 -4.3391028e-05 5.3064407e-05 -0.0004791461 -0.00066910405 -0.00042793388 0.0006039887
0.0001003039 1.1049672e-05 7.554482e-05 -4.1833602e-05 0.00038366838 0.0016000175 -0.00030425488 0.0007455447
-0.00018830459 0.00012070507 -1.6976619e-05 0.00013130846 0.00013164175 0.00013504525 5.9668262e-05 6.189043e-06
-1.1513152e-07 0.00012545171 -2.668887e-05 4.016015e-05 -5.8048167e-06 -8.929085e-06 -7.3825126e-05 8.02377e-05
0.00031761333 -6.841887e-05 3.1476495e-05 0.00017597066 0.0005809063 0.0006218008 0.00013847173 0.0007155777
-3.237137e-05 -0.00037679213 -0.0001667581 -0.000107515385 -5.349531e-05 -3.402387e-05 0.00010560895 9.6043605e-06
0.00016158444 -8.18433e-05 -0.00027708666 4.6805908e-05 0.00040090794 0.0004434786 -0.00074700644 0.0006948812
-2.8640593e-06 -1.0923896e-05 1.2158778e-05 5.125999e-06 -1.4101135e-05 -4.3872085e-05 -7.9307385e-05 5.133891e-05
-0.00029020276 -0.00023291314 -0.00018456821 0.0001237407 -8.112817e-05 -3.5719695e-05 -0.00017348507 0.0001574466
0.00022856361 0.0008031413 -0.0004981958 -0.0007060092 -3.4006283e-05 -3.0944082e-07 -6.746944e-05 7.0614136e-05
0.00014184261 0.0001486774 6.128143e-05 -4.0149233e-05 1.4422274e-05 1.8941215e-05 -4.6323457e-05 3.4286913e-05
2.3299901e-05 5.606005e-05 -5.100404e-05 0.00036522953 -9.6484815e-05 -6.562515e-05 -5.4144642e-05 9.397938e-05
-0.00010112668 -4.3612145e-05 -9.93615e-05 -6.1906094e-06 -0.00016202628 -0.00017021844 0.00010807791 -7.236452e-05
1.6220719e-06 2.832435e-07 -9.518742e-06 -1.1861379e-05 2.366599e-06 -7.431221e-05 -2.162739e-05 -5.5984572e-05

exp_avg_sq f4 [64, 4]
00000000: 4b21 c538 7306 1339 947f 5838 8a00 8f38
00000010: 1600 1535 f0d1 b235 4fc8 6135 c126 0435
00000020: 09bd d735 e1c7 7e36 c0f2 c635 ca0f 3036
00000030: 5769 4033 d51a 8f33 6f7e 0c35 c3bd d934
00000040: 237d 4d37 4097 ff37 4db3 7036 d743 7337
00000050: a240 9b34 046e 8135 b4af 9d37 6758 ba36
00000060: b0d9 0837 d20f 0136 b7a1 8c36 9a3e c235
00000070: 7e4b b234 87b3 3f34 dcf9 7b34 87c1 e733
00000080: 2be5 8435 ae52 f235 75ee 0035 19eb fc34
00000090: b796 8232 1b11 b133 9118 c635 0a15 0435
000000a0: 3a57 3a38 f3a6 6c37 ee19 b137 141a 4e37
000000b0: 7c6a ee34 c358 a634 160b 8635 8bb8 3235
000000c0: 05da f533 18a7 a533 d41a a434 4fb1 fa33
000000d0: 53d4 6035 7fe3 2d35 a072 5e35 6596 2835
000000e0: 1876 cc34 4de1 b734 a4da d835 9801 4135
000000f0: 7481 7933 f4d3 5e32 9eea 9734 789d 0034
00000100: f645 9b35 5432 9735 a5da 5735 1653 8134
00000110: 2d8a cf33 8660 6d32 b03b f633 c857 5934
00000120: 0000 0000 0000 0000 0000 0000 0000 0000
00000130: e838 f834 d05e e336 28fa e836 ccbe b436
00000140: 55c9 ed34 5f44 cb34 15b9 b733 ad17 0b33
00000150: c969 0b36 21c4 a536 29c5 b234 c5ec 9735
00000160: 8fa5 e333 bd25 1736 6f85 0d35 e0ea 0435
00000170: efd5 5834 954c 0c35 f13e 8b34 6ef9 8f34
00000180: 968a 2d39 ae4f a938 81f4 ca37 4987 6c38
00000190: b6b2 7c36 75f5 9536 651f 1337 3e91 7d36
000001a0: 6010 2c37 280d 4837 f378 1736 2276 f336
000001b0: f3da 5135 415b 0e36 aff1 7d35 7193 9e34
000001c0: 57c5 d134 88bd b335 3419 8034 edc8 5f33
000001d0: 4175 2b35 5e50 6035 7859 7035 a8f3 e534
000001e0: d363 2f34 920f 2134 6aac 5534 7136 6534
000001f0: 54c1 ab34 3498 1335 21ed 0c34 5cce d834
00000200: bf5b 6d35 1fa4 0935 b392 9b35 b022 6535
00000210: b57e 1037 8a17 0b36 defe 0d36 061a b536
00000220: 8b6c e432 9df6 6633 7ab0 bf34 663d 6634
00000230: 90e9 0633 4100 3833 ea94 3737 6129 9436
00000240: b05d df34 1e13 0836 1a5b 4135 7508 bc34
00000250: 16ad 8637 98ce 9437 2833 4b37 9ea9 c336
00000260: 5bda 2535 82d1 f534 327c 1d35 0b71 a934
00000270: 2ee9 b537 8d1b 9037 f849 9738 a7d9 8738
00000280: 6d0a 1838 d8c7 df38 830b 4a37 2732 0e37
00000290: 97bd e236 7ade de36 da42 8d35 e148 e935
000002a0: 2dc3 6336 4076 c036 5917 7735 7b9d e535
000002b0: b998 6433 5d1d fa32 55ce f333 543a 0a34
000002c0: 303a 0d37 a082 5435 4457 6536 b8a0 3e36
000002d0: c65e 5d36 7efc 6136 9ce8 ef36 4472 8237
000002e0: ebf5 4335 fc06 5836 25f1 c835 924c 4c35
000002f0: e9b3 0c35 24fc 2235 6806 0236 7640 d735
00000300: 1af2 bc34 5103 ab35 af9b ea34 976e 2834
00000310: a34e bf38 a610 b937 4093 8b38 19ec bc37
00000320: ae96 0732 71f2 fd33 0f68 7534 6acc c133
00000330: 2524 8034 d4c8 7135 4628 d234 305d 1635
00000340: 44bf 1835 4ad9 cb34 269e 9634 63ce 6334
00000350: 9977 cb34 d8b7 3035 737a d434 57e2 7935
00000360: 7fe4 a237 f960 ce36 8f44 d036 8f16 8436
00000370: a31c 0536 afbd 3235 4663 9234 7229 be34
00000380: b32a 4e35 d479 3135 14e3 3535 bc13 dd33
00000390: b470 6234 2c36 0d34 b7b2 ad33 0f41 1e34
000003a0: ba0b 9835 5a29 ea35 0812 2f36 dd5b 8336
000003b0: a87b 8035 f8f1 e934 dc41 2e35 657c 1835
000003c0: a160 e533 1b08 ac33 35a9 e933 5bff a333
000003d0: 64af cf35 9b2b 4536 6f05 ed34 ab3e d635
000003e0: f47f 9633 71b3 b333 5598 ce33 baf5 9f33
000003f0: d1b3 4d35 5856 a934 6f9b ea33 a6e5 4635
9.399893e-05 0.00014021415 5.161723e-05 6.818872e-05 5.550695e-07 1.3323133e-06 8.411052e-07 4.9230226e-07
1.6073765e-06 3.7965294e-06 1.4822799e-06 2.6235234e-06 4.479929e-08 6.663837e-08 5.233805e-07 4.055747e-07
1.2248088e-05 3.04688e-05 3.5867154e-06 1.4499724e-05 2.8918026e-07 9.643268e-07 1.8797677e-05 5.5535234e-06
8.156916e-06 1.9231707e-06 4.191151e-06 1.4472346e-06 3.3210011e-07 1.7853573e-07 2.3467095e-07 1.0791978e-07
9.901463e-07 1.8054468e-06 4.8030716e-07 4.7109714e-07 1.5202529e-08 8.245316e-08 1.4759299e-06 4.920445e-07
4.442709e-05 1.4105567e-05 2.1112119e-05 1.2284629e-05 4.4408432e-07 3.0984492e-07 9.987004e-07 6.657871e-07
1.1448359e-07 7.7138054e-08 3.05669e-07 1.16737844e-07 8.3755475e-07 6.477857e-07 8.2868246e-07 6.280373e-07
3.8083886e-07 3.4250334e-07 1.6156887e-06 7.190042e-07 5.8092567e-08 1.2970293e-08 2.8296648e-07 1.1978216e-07
1.1568761e-06 1.1265024e-06 8.041191e-07 2.4088575e-07 9.664323e-08 1.38171625e-08 1.1466125e-07 2.0241635e-07
0.0 0.0 0.0 0.0 4.6235004e-07 6.776165e-06 6.943261e-06 5.3866297e-06
4.4291178e-07 3.7861443e-07 8.555268e-08 3.2384992e-08 2.077419e-06 4.9402156e-06 3.3298537e-07 1.1319286e-06
1.0600626e-07 2.252272e-06 5.2720765e-07 4.951562e-07 2.0194396e-07 5.2265506e-07 2.5936563e-07 2.681731e-07
0.00016550193 8.0733895e-05 2.4194132e-05 5.639278e-05 3.765495e-06 4.469121e-06 8.769192e-06 3.778448e-06
1.02558115e-05 1.1923992e-05 2.2571155e-06 7.255717e-06 7.817718e-07 2.1212766e-06 9.460154e-07 2.953707e-07
3.9072867e-07 1.33917e-06 2.3860196e-07 5.2103974e-08 6.387309e-07 8.356345e-07 8.953716e-07 4.2831857e-07
1.6334461e-07 1.4999958e-07 1.9899895e-07 2.1347093e-07 3.1991897e-07 5.498325e-07 1.3124783e-07 4.0383281e-07
8.842289e-07 5.1275305e-07 1.1591095e-06 8.5359625e-07 8.61257e-06 2.0726316e-06 2.115899e-06 5.39725e-06
2.6592053e-08 5.377534e-08 3.5704926e-07 2.1442756e-07 3.141173e-08 4.284107e-08 1.0942322e-05 4.415561e-06
4.1605153e-07 2.0276707e-06 7.2030673e-07 3.5023882e-07 1.6054644e-05 1.7739178e-05 1.2111654e-05 5.831199e-06
6.178504e-07 4.5787243e-07 5.8667786e-07 3.1560953e-07 2.1685464e-05 1.7178967e-05 7.214019e-05 6.4778425e-05
3.6249334e-05 0.000106706924 1.20428185e-05 8.475537e-06 6.757396e-06 6.6420153e-06 1.0524775e-06 1.7381063e-06
3.3939243e-06 5.735812e-06 9.2048646e-07 1.7107662e-06 5.3224287e-08 2.9117183e-08 1.1353101e-07 1.2873471e-07
8.417803e-06 7.916624e-07 3.4174454e-06 2.8405757e-06 3.2986732e-06 3.3674582e-06 7.1498343e-06 1.5550417e-05
7.300102e-07 3.2190574e-06 1.4971343e-06 7.6107347e-07 5.241587e-07 6.0716616e-07 1.9375238e-06 1.6037509e-06
3.519388e-07 1.2741458e-06 4.369917e-07 1.5686452e-07 9.122237e-05 2.2061471e-05 6.655464e-05 2.2521288e-05
7.892295e-09 1.18253304e-07 2.285526e-07 9.0244455e-08 2.3868157e-07 9.007174e-07 3.914485e-07 5.601496e-07
5.690274e-07 3.7969795e-07 2.8054745e-07 2.1216105e-07 3.7898715e-07 6.5832637e-07 3.957717e-07 9.3089096e-07
1.9418307e-05 6.1505675e-06 6.2068643e-06 3.9365327e-06 1.9835213e-06 6.6586193e-07 2.726685e-07 3.5420413e-07
7.6803116e-07 6.611492e-07 6.7758197e-07 1.0294704e-07 2.1088891e-07 1.3151356e-07 8.088448e-08 1.4738565e-07
1.1328295e-06 1.7446393e-06 2.6087528e-06 3.9147985e-06 9.572732e-07 4.3575687e-07 6.491589e-07 5.680543e-07
1.068122e-07 8.0108485e-08 1.08806866e-07 7.636728e-08 1.5473747e-06 2.938067e-06 4.4148643e-07 1.5962481e-06
7.008194e-08 8.367977e-08 9.6203316e-08 7.448712e-08 7.663012e-07 3.1541526e-07 1.0924747e-07 7.409493e-07

exp_avg f4 [64]
00000000: 65d9 03b7 0000 0000 1568 1639 5f9f 65b8
00000010: df63 ad38 2e21 dc37 26df 5639 0303 8cb7
00000020: 0400 0000 0000 0000 0251 c737 0400 0000
00000030: e82f a5b7 1e9d 1237 838c 9f38 b96e df36
00000040: a84a 30b8 ef7e b3b6 1978 d938 ae51 0c39
00000050: 3d08 1637 3533 1538 ca0c a1b8 9d07 0cb8
00000060: 0400 0000 0000 0000 0400 0000 ceff c937
00000070: b0a6 1db9 b66f 7db8 b336 4cb9 36fc 91b7
00000080: 47af af37 6daf e0b6 5aee 07b9 9e48 8638
00000090: f550 ff37 647b 47b6 48da a3b9 9fb5 36b9
000000a0: 9be5 eeb6 dc66 9c38 0000 0000 b2fd 0039
000000b0: 929b adb6 0feb 4839 b9e5 1b37 5e09 2203
000000c0: 3deb a2b8 8aa3 dfb7 ce10 0e39 0000 0000
000000d0: 0000 0000 d38a 73b6 feda e6b8 b5b3 dc37
000000e0: feef 9836 ceff 2836 0f67 e4b5 e5de 9ab8
000000f0: 5baa bfb8 0400 0000 61cd 6139 bcd2 81b6
-7.858825e-06 0.0 0.00014343888 -5.474628e-05 8.267885e-05 2.6241494e-05 0.0002049176 -1.6690703e-05
6e-45 0.0 2.376037e-05 6e-45 -1.969184e-05 8.73886e-06 7.607883e-05 6.6588077e-06
-4.20312e-05 -5.3493927e-06 0.00010369736 0.00013381868 8.942615e-06 3.557206e-05 -7.6794604e-05 -3.338569e-05
6e-45 0.0 6e-45 2.4080186e-05 -0.00015034783 -6.042394e-05 -0.00019475333 -1.7402792e-05
2.0943246e-05 -6.6961425e-06 -0.00012963396 6.403144e-05 3.0436067e-05 -2.9725134e-06 -0.00031252415 -0.00017424532
-7.1196823e-06 7.457819e-05 0.0 0.0001230154 -5.1739125e-06 0.00019161052 9.292206e-06 4.7618274e-37
-7.7685785e-05 -2.6659825e-05 0.00013548436 0.0 0.0 -3.6290628e-06 -0.00011008045 2.6309726e-05
4.5578918e-06 2.5182849e-06 -1.7017318e-06 -7.3848096e-05 -9.139321e-05 6e-45 0.00021534182 -3.8690323e-06

exp_avg_sq f4 [64]
00000000: 578f 5834 0000 0000 f6fe 6d35 31a3 5435
00000010: 04d8 8635 976a b835 b307 c736 c8c6 4b36
00000020: 87c1 0225 0000 0000 3e6d dc34 d389 802d
00000030: 4249 a833 6a4f d633 0d44 8535 8c2d 0735
00000040: 2de0 1f35 26a2 2934 4196 c635 6514 e734
00000050: 3cb9 8f35 cd98 0c35 d227 0a36 e971 1235
00000060: 7705 d126 0000 0000 4418 802e 57a2 0836
00000070: 7efa 9836 cc95 f835 688c e035 2ead 9e34
00000080: 0098 0d35 0b1c 5234 9ed1 3f37 b484 8334
00000090: 9bd2 2834 d9a5 a233 8909 cb35 f802 7e36
000000a0: 1c5c 1436 7768 f634 0000 0000 8772 9935
000000b0: e115 2734 0261 a235 b16b af35 82a8 1230
000000c0: 408a 0535 74cd 1434 b32f d735 0000 0000
000000d0: 0000 0000 d761 eb33 0797 7435 a56b d634
000000e0: 72cd 7134 7f8e 1432 3ba4 9e33 e11b 1a35
000000f0: 7202 e735 5796 602e ab22 8b35 d04f a433
2.0168714e-07 0.0 8.8660397e-07 7.921363e-07 1.0046647e-06 1.374009e-06 5.9315585e-06 3.0365063e-06
1.1341272e-16 0.0 4.1057677e-07 1.4613121e-11 7.836435e-08 9.979597e-08 9.929078e-07 5.03577e-07
5.9558334e-07 1.5798341e-07 1.4795879e-06 4.3041942e-07 1.070824e-06 5.237642e-07 2.058678e-06 5.4555e-07
1.450377e-15 0.0 5.8250765e-11 2.0360073e-06 4.559114e-06 1.8521037e-06 1.6730164e-06 2.9555798e-07
5.274778e-07 1.9567976e-07 1.14332925e-05 2.4497206e-07 1.5722837e-07 7.5738804e-08 1.5127454e-06 3.7850677e-06
2.2107333e-06 4.589708e-07 0.0 1.143272e-06 1.5561046e-07 1.2098174e-06 1.3069858e-06 5.3353955e-10
4.974754e-07 1.3858318e-07 1.6032631e-06 0.0 0.0 1.0960837e-07 9.1116857e-07 3.9938928e-07
2.2519615e-07 8.647134e-09 7.387322e-08 5.741004e-07 1.7211553e-06 5.1065232e-11 1.0366397e-06 7.651363e-08
