log/wn:lip_1/version_None/checkpoints/epoch=2499-step=4999.ckpt (torch, 116476 bytes, 21 tensors)

dec.lin0.bias f4 [64]
000000 96 45 ac 3c d0 d7 a4 be 10 c6 e3 be 94 92 d0 3e
       0.021029275 -0.32195902 -0.44487047 0.4073683
000010 c1 7f 0c 3d c3 ff a7 3d 6a 02 03 3f 66 91 1b be
       0.034301523 0.082030796 0.5117556 -0.15192184
000020 bc 91 02 bf 91 65 18 bc 86 85 90 3d ab e1 fc 3e
       -0.51003623 -0.009301559 0.070567176 0.4939092
000030 42 87 8b bd 49 a7 b0 be 51 43 60 bc e5 7a 6a be
       -0.06812908 -0.34502628 -0.0136879245 -0.22898443
000040 f5 9e 45 bb 00 dd 6f 3e 95 f2 ee 3e 9c 44 b9 3e
       -0.003015456 0.23424149 0.4666945 0.36185157
000050 b5 9b 86 3e cb 96 01 be cd f1 1c bd fd 1b 83 be
       0.2629067 -0.12655179 -0.038316537 -0.2560729
000060 f6 93 26 3c 18 14 a3 be c4 9b d9 3e f8 33 ee 3d
       0.010167113 -0.31851268 0.42501652 0.11631006
000070 8c 3f 1e 3d 7d 1c 47 be df d5 25 3e 06 6d 88 3e
       0.03863482 -0.19444461 0.16194867 0.26645678
000080 94 3a bd bb a1 f2 de 3e 86 ce 69 3e a5 62 84 3e
       -0.0057748053 0.43544486 0.22832689 0.2585651
000090 fb 63 b2 3e 8f b7 a5 3e ba 2b 1a 3f 33 02 b0 be
       0.34841904 0.32366607 0.6022297 -0.34376678
0000a0 7f 4d 7c bd e0 77 cb be d4 c9 d6 3e dc 34 ed bd
       -0.061597344 -0.39739895 0.41950858 -0.11582348
0000b0 74 f5 0b 3f a9 23 b5 be fc 89 98 3e 3f 8b 2e bf
       0.54671407 -0.3537877 0.29792774 -0.6818122
0000c0 ed 80 be be 0a 1f af bd 19 d8 e7 be 4e 6f b2 be
       -0.37207738 -0.08550842 -0.45282057 -0.34850544
0000d0 95 25 87 be 29 f2 6f 3e 32 63 b1 3e 1b cc b8 3e
       -0.2639586 0.2343222 0.34645993 0.3609322
0000e0 f0 7f c1 be 92 dc 5a be 99 9e 8b 3c e9 13 df 3e
       -0.3779292 -0.21373203 0.017043399 0.43569878
0000f0 ba f8 56 be 87 84 ed be 3b d4 12 bf 09 5a 10 be
       -0.20993319 -0.46390173 -0.5735509 -0.14096846

dec.lin0.weight_v f4 [64, 4]
000000 a1 a3 d2 be 08 9b f3 3d 74 75 8c be 0f 71 99 3e
       -0.41140464 0.11894804 -0.2743336 0.2996907
000010 c4 64 ad be 66 e8 de 3e 08 76 69 3e 3e be 01 bf
       -0.3386594 0.4353668 0.22798932 -0.5068091
000020 2c 2d 48 3d 71 80 f6 3d 10 f1 9a bd c9 01 ef be
       0.048871204 0.12036217 -0.0756551 -0.4668105
000030 83 21 84 3e 1f 60 4f 3a b0 57 eb bd 86 47 c7 bb
       0.25806817 0.00079107465 -0.114913344 -0.0060815243
000040 e9 9d 79 3e aa 0c 08 be 8c 68 ee 3e cd fd 9f be
       0.24376644 -0.13286081 0.46564138 -0.31248322
000050 ba 03 ba be a9 21 c1 3e ba 01 85 bd fd 24 ee be
       -0.36330968 0.37720993 -0.0649447 -0.46512595
000060 cb ee 01 3f b4 be 92 3e 6f 97 9c 3e 76 ab 86 be
       0.50754994 0.2866112 0.30584285 -0.2630269
000070 7d 3e 0c 3e 00 73 2e bc a0 e3 b4 3e 0e 5b 96 be
       0.13695712 -0.010647535 0.35329914 -0.29366344
000080 92 68 58 3e ba 0e 1b be db 01 a5 bb 6e 5d 38 3e
       0.2113364 -0.15142336 -0.0050356216 0.1800439
000090 65 9c c9 3e e2 5a 43 be 20 bb c5 be aa 39 b6 3d
       0.39377132 -0.19077638 -0.38619328 0.08897717
0000a0 2a ff 0d bd 82 55 d6 3d 83 af 85 3d e4 4c 04 be
       -0.03466717 0.10465528 0.06527617 -0.12919956
0000b0 88 f7 b5 3e ca 31 49 3e 61 ea a9 be f6 ab ab be
       0.35540414 0.196479 -0.3318663 -0.33529633
0000c0 2e f9 93 be 34 93 ca 3e ea f4 fc 3e 5d 1c 0d 3f
       -0.28901047 0.39565432 0.49405605 0.55121404
0000d0 0c 4a 9a be 63 dd 47 3e 10 0a 07 be 5a 81 ae 3e
       -0.30134618 0.19518046 -0.13187432 0.34083062
0000e0 96 46 d9 be f7 cb f4 3e fb ef 9a 3e ff 0d c5 3e
       -0.42436665 0.47811863 0.30261216 0.3848724
0000f0 e6 66 08 3e 1b f7 a5 3d a9 33 5e be 8f 3f 25 be
       0.13320503 0.08103772 -0.21699394 -0.16137527
000100 98 03 81 bd b7 64 e7 bd eb 01 0f be 41 70 1d 3d
       -0.062995136 -0.11298507 -0.13965575 0.03843713
000110 e9 1b a7 bd be a0 b0 be b5 b2 e1 3e 9d 7f 08 be
       -0.0815962 -0.34497637 0.44081655 -0.1332993
000120 07 55 af be c0 45 b2 3e e7 89 76 3d d1 66 82 be
       -0.34244558 0.3481884 0.060190108 -0.25469068
000130 dc 38 0d 3f f9 b7 62 be fb 4c dd be e7 5a 92 be
       0.55164886 -0.22140492 -0.43222794 -0.28584978
000140 ce c1 ae be 28 c4 c2 3d aa 42 b1 be 64 c1 d4 be
       -0.34132236 0.0951007 -0.34621173 -0.41553795
000150 98 2c b3 be 50 d1 68 3e 65 fa 75 be ae 7f d9 be
       -0.3499496 0.22736096 -0.24021299 -0.42480224
000160 5a d7 cb 3e 9a 57 ce be 52 cd 93 be 62 ad af 3e
       0.39812738 -0.4030121 -0.28867584 0.34311968
000170 04 8d 48 bc a6 5c da 3e 16 e1 5a 3e 98 00 aa 3d
       -0.012240652 0.4264881 0.21374926 0.083008945
000180 77 e1 ac 3e be a6 83 3e a3 e1 43 be 93 c5 fe 3e
       0.33765766 0.25713152 -0.19129042 0.49760112
000190 ab b0 a9 bd ed cc ce 3e 38 7a 82 3e 44 07 fb be
       -0.0828565 0.4039072 0.2548387 -0.4902898
0001a0 e5 e1 8f 3e dd 82 d5 be 13 8f a4 be 2c 21 27 be
       0.2810203 -0.41701403 -0.32140407 -0.16321248
0001b0 cb 7a ed 3d ec cc a5 3e 91 28 94 be 7e 1f bf be
       0.115956865 0.32382905 -0.289372 -0.37328714
0001c0 dd d8 81 be 52 7c 60 bd cd fb 93 be f5 52 a0 3a
       -0.25360766 -0.05480606 -0.28903046 0.0012231754
0001d0 ab 30 26 bd bf bf db 3e d2 0e ac 3e 24 59 81 3e
       -0.040573757 0.42919728 0.33605057 0.2526332
0001e0 ad 1f d3 3d e7 36 97 3e 62 5f c5 3e 28 ad 81 be
       0.10308776 0.29534075 0.38549334 -0.2532742
0001f0 92 9d 04 bf f3 11 ec 3d 33 96 f0 3d a8 0c b4 3d
       -0.51802933 0.11526861 0.11747398 0.087914765
000200 a1 28 5d be 72 93 9d 3e 63 13 7c be 34 70 a5 3e
       -0.2159753 0.30776554 -0.2461677 0.32312167
000210 14 7c c7 bd 57 2b 84 bc 1c 3b 11 3e 92 12 50 be
       -0.09740463 -0.016133947 0.14182705 -0.20319584
000220 39 f0 42 bc dc de 9b be 53 c1 87 3d 32 c9 58 3e
       -0.011898094 -0.30443466 0.066286705 0.211705
000230 bb 07 5e 3d 56 dd e6 3e 5f c7 db be 9d f0 7c 3e
       0.05420659 0.4509074 -0.42925546 0.24701162
000240 e5 39 38 be 16 08 f3 be c5 23 5f 3d 6a 02 db 3e
       -0.17990835 -0.47467107 0.05447747 0.4277528
000250 b1 f0 40 3e d9 c1 4a be c3 e3 c3 bc 42 fd 99 bd
       0.18841816 -0.1980051 -0.023912316 -0.07519008
000260 dd 52 05 bf 2f e4 03 be e9 51 3f 3e 0b d4 e6 3d
       -0.52079564 -0.12880014 0.1868359 0.11270913
000270 df 36 49 be 81 16 c1 3d ce c8 05 bf 5f ab 96 be
       -0.19649838 0.094281204 -0.5225953 -0.2942762
000280 69 2a 88 be 90 81 01 bb 64 31 d7 3d ec 0b 52 3c
       -0.26594856 -0.0019761063 0.105074674 0.012820225
000290 d8 8a b3 be 13 3e c3 3d 94 7e 3d 3f 88 d0 ab 3e
       -0.35066867 0.09533324 0.7402127 0.33557534
0002a0 7b c3 d9 3e e0 c0 8f 3e d3 cb 26 bc 3a 69 97 bd
       0.42531952 0.2807684 -0.010180431 -0.07393117
0002b0 87 43 b5 3e b0 72 7f bd 16 e7 88 3b 74 62 84 3e
       0.35403082 -0.062365234 0.004177938 0.25856364
0002c0 9e 28 70 be f6 a9 c4 be 14 2f 7c 3e 01 99 c0 3e
       -0.23452994 -0.3841092 0.24627334 0.37616733
0002d0 c1 2e c4 be d6 ac 58 be 9c 50 f4 3e 7f 17 8c 3e
       -0.3831692 -0.21159682 0.4771775 0.27361676
0002e0 55 1a 97 3c 54 0e 22 3e 44 96 e3 be 7b 6e 3a be
       0.018445173 0.15825778 -0.4445058 -0.18206207
0002f0 cd 5d a5 be 38 33 17 be f6 75 cb be 95 75 bd 3a
       -0.32298127 -0.14765632 -0.39738435 0.0014454598
000300 f8 28 46 be 78 b7 81 3e 90 b1 df be 10 64 9d be
       -0.19351566 0.25335288 -0.43690157 -0.30740404
000310 98 f3 18 3e ba 62 44 3e 8a ff 51 bb 56 6a aa 3e
       0.14936674 0.19178286 -0.0032043182 0.33284253
000320 56 c4 c9 bc 6f 17 12 3e 54 f8 93 be 9f 4e e4 3e
       -0.024629753 0.14266752 -0.28900397 0.44591233
000330 34 c7 bc bc 92 74 c6 bc d2 09 76 3e 2e 09 e8 be
       -0.023044206 -0.024225507 0.24027184 -0.45319504
000340 c6 4b 82 bd 5c d2 4f be 02 e4 af bd 6f ca 08 bf
       -0.06362109 -0.2029509 -0.08588411 -0.5343389
000350 2a 49 83 be 97 ab c2 3d 37 1b 63 3e 72 e4 fb 3e
       -0.25641757 0.095053844 0.2217835 0.49197727
000360 f8 87 80 3d 2a 9c 44 be 0e 41 23 3e ad 57 88 bd
       0.06275934 -0.19200197 0.15942785 -0.06657348
000370 e7 da f1 be fa da bc 3e 79 e6 05 bf db 54 c3 be
       -0.47237322 0.36885816 -0.523048 -0.38150677
000380 3a f1 80 be 4d 3b a0 be ce 3d 04 3e c1 f7 87 3e
       -0.2518404 -0.31295243 0.12914202 0.2655621
000390 82 c3 88 be dd 34 93 3d d9 7f 1b 3e 89 7b 70 bd
       -0.2671166 0.07187817 0.15185489 -0.058711562
0003a0 2d 90 3f be 3d 0c 9f 3e 9a 84 94 3c 5f db c5 3e
       -0.18707342 0.31064025 0.018129636 0.3864393
0003b0 e4 8d 58 be 5d 24 3f be 30 c3 48 3e 99 ef ce be
       -0.21147877 -0.18666215 0.19605708 -0.40417174
0003c0 a8 de 5e 3e 4a 0a 01 be 10 2d 91 be b7 c4 dd be
       0.21764624 -0.12601581 -0.28354692 -0.43314144
0003d0 d4 3c af be 2a ed 6e 3d 34 bd b5 3e 3d 51 78 3c
       -0.34226096 0.058331646 0.35495913 0.015156087
0003e0 29 8d 1c 38 a8 15 a9 be ab 04 0b bf e0 8f 7c 3d
       3.7324764e-05 -0.33024335 -0.54304 0.061660647
0003f0 df ff d6 be bb 06 8c 3c 14 66 72 3e 67 3e a8 be
       -0.4199209 0.017093053 0.23671752 -0.3286011

dec.lin1.bias f4 [64]
000000 86 08 fc 3c d2 41 ee 3d f2 d1 a7 3d fb ec 73 3d
       0.030765783 0.11633648 0.08194341 0.059552174
000010 bc 0a d9 3c 9a 6f 93 3d f8 c5 2e 3b 59 32 72 bd
       0.026494376 0.07199021 0.0026668292 -0.059130047
000020 a1 2e 48 3d 0e 7a 76 bd ce e5 1e 3e fa cb 99 3d
       0.048872594 -0.060174994 0.15517351 0.075096086
000030 7a 8a 63 bc a7 f1 e6 bd 83 32 07 be 27 96 8e 3d
       -0.013887996 -0.1127656 -0.13202862 0.06962233
000040 d2 d8 88 3b 5c 15 0e 3e bd 2c fb bd 31 32 34 3e
       0.0041762376 0.13875335 -0.122643925 0.17597272
000050 8e b3 c9 3b 81 79 c3 3d d8 37 d3 3d 5e 29 aa bd
       0.006155438 0.095446594 0.10313386 -0.083086714
000060 cd bb ed 3d 74 d8 ec 3d 1f 23 4f bb a8 bd d3 bc
       0.11608086 0.11564723 -0.0031606627 -0.025847271
000070 ac e3 fb 3d 52 4f b8 bd d0 3c f7 3d 02 82 d6 3c
       0.12299284 -0.08999504 0.12072146 0.02618504
000080 d8 98 2d bd c8 63 af bd d4 f3 d3 bd 34 13 b7 bd
       -0.04238209 -0.08563954 -0.10349241 -0.089392096
000090 ee 83 b2 3d 39 5f 2a 3d df 90 7b 3d d0 ed 97 3c
       0.0871657 0.041594718 0.061417457 0.018546015
0000a0 c8 be 1a 3e 8c e0 88 3d 28 45 86 bd a6 19 d2 3c
       0.1511184 0.06683454 -0.06556159 0.025646996
0000b0 21 1c 24 3d 8d 15 17 bb c3 a0 4b 3d c3 dd 9e 3d
       0.04006589 -0.0023053617 0.04971386 0.077571414
0000c0 62 08 9d bd da 6f 6a bd 4e 13 7a bd 71 b2 33 bd
       -0.076676145 -0.057235576 -0.061053567 -0.043871347
0000d0 a1 ac 93 b8 a5 7c aa 3d 1f 8c 74 3d c0 e7 51 bd
       -7.041661e-05 0.08324555 0.059703942 -0.051246405
0000e0 80 cc 35 bd 4f 34 16 bd fa 33 ab bd 87 04 5d be
       -0.04438448 -0.03667098 -0.08359523 -0.21583758
0000f0 b3 68 45 be 59 71 b6 3d 23 8a ef bd 8a 42 0f be
       -0.19278221 0.08908338 -0.11696269 -0.13990226

dec.lin1.weight_v f4 [64, 64]
000000 74 69 91 bd b7 fc 00 bd 5d 24 7a bd 15 06 ce bc
       -0.07100192 -0.031491008 -0.061069835 -0.025149385
000010 4e 05 68 3c 19 76 be bd 9f de 49 3d 22 99 12 bd
       0.014161421 -0.09299869 0.049284574 -0.03579057
000020 a0 e2 0b 3e 03 62 bb 3d 68 6a 1a be 15 9f 61 3d
       0.1366067 0.091495536 -0.15079653 0.055083353
000030 c3 6e 8d 3d 18 28 3c 3d 34 01 a4 3c c0 0d 23 bd
       0.06905892 0.045936674 0.020020105 -0.039808035
000040 ef 59 ca 3c cb e5 d9 bd 35 6e 15 3d b1 8e 55 3d
       0.024701087 -0.10639533 0.036482055 0.052138034
000050 98 2b f1 3c 61 61 d9 bc 5f 5f 09 bd c0 5d 0e bc
       0.029439732 -0.026535692 -0.03353822 -0.008689344
000060 20 7c 88 3d 59 e3 95 bd 43 0e bc bd c3 2f 13 bd
       0.066643 -0.07318754 -0.09182408 -0.03593422
000070 f4 73 84 bd 81 96 ee 3d cc 6f 8c bd f1 fc f7 bd
       -0.06467429 0.116498 -0.06857261 -0.121087916
000080 be df ed 3d cf e6 a5 bd 57 cf d8 3d ad 81 b8 3c
       0.11614941 -0.08100664 0.10586422 0.022522772
000090 80 e1 ac bd 37 bb eb bd 91 a8 00 be 1e 64 12 3e
       -0.08441448 -0.11510318 -0.12564303 0.14296004
0000a0 c1 8e 79 3d a3 94 0e bd ec 70 c3 bd 70 e2 c6 3c
       0.060927156 -0.03480972 -0.095430225 0.024277896
0000b0 af eb 28 bd 20 4f 8e bd 21 df aa bd 9a 5f 26 3c
       -0.04124039 -0.06948686 -0.0834334 0.010154629
0000c0 13 b4 ce 3d 3f 92 a4 3d dc 5d e7 3d 2c 39 1a 3c
       0.1009294 0.08035707 0.11297199 0.009413045
0000d0 71 40 e1 3a d9 91 a1 bd 48 d7 f0 bd 66 5a f3 bd
       0.0017185343 -0.07889146 -0.11759812 -0.118824765
0000e0 ec 54 c8 3d 0e 71 1f bc a4 f5 57 3d 94 d1 a8 3c
       0.097818226 -0.009731544 0.052724496 0.020607747
0000f0 17 2a 49 3e 4f de b4 bd 93 ac 5f 3d f6 8a b6 3b
       0.19644962 -0.088314645 0.05460794 0.0055707647
000100 92 0c 11 3d 51 73 5c 3d c1 a3 91 bd 14 92 19 3d
       0.03541238 0.05382091 -0.07111312 0.037492827
000110 9a ae 6e 3d d9 06 32 bc e6 4d b4 3c 7d b3 0a be
       0.05827198 -0.01086589 0.022009801 -0.13545032
000120 80 d2 4d ba 10 f8 87 bd 80 19 57 bd 9b 4f 3a 3d
       -0.00078514963 -0.06639111 -0.052514553 0.045486074
000130 05 23 ee 3c 54 d9 40 3d 7a cd 3b 3d b9 5c d2 3d
       0.029069433 0.04708226 0.045850255 0.10271592
000140 a4 bf 9f 3b 4c d2 cb 3d 2a f7 43 3d b3 f7 98 bc
       0.0048751403 0.0995222 0.047843136 -0.0186728
000150 ab 31 d5 3d 79 13 93 bd 42 40 17 bd a9 af 96 3d
       0.10409864 -0.071814485 -0.036926515 0.07357723
000160 46 b5 0c be ed 58 7c 3d ef 81 cf 3d e3 89 92 bd
       -0.13741025 0.061608244 0.10132205 -0.07155206
000170 47 f4 c5 bd ee e6 14 3d 48 85 71 3d cf 36 38 3d
       -0.09665733 0.036353044 0.058964998 0.044974145
000180 40 9e bf bd 40 27 91 3d 57 61 ac 3c eb 42 87 3b
       -0.09356356 0.070875645 0.021042509 0.0041278503
000190 09 3c f5 3d f4 35 b0 bc bb 60 ec 3c 68 8e 98 bc
       0.119743414 -0.021510102 0.028854718 -0.018622592
0001a0 9d c2 8a 3d ae 10 df bd be 19 a7 bd f6 87 8d 3d
       0.06775401 -0.10891853 -0.08159207 0.06910698
0001b0 9f 41 b5 bd 62 09 a2 bd 27 c0 56 3d c2 c9 e6 bd
       -0.08850407 -0.07911946 0.052429345 -0.11268951
0001c0 69 e1 23 bc 69 0a 90 bd cb 45 d7 3d 7b 08 cf 3d
       -0.010002472 -0.070332356 0.10511359 0.101090394
0001d0 98 e4 0c 3e 75 38 c2 3d 3c 7e 6f bd dc f7 d3 bd
       0.13759077 0.094834246 -0.058469996 -0.1035001
0001e0 a1 3e ed bd ab 0c 54 3d a4 fc 6e 3d ef 4a 94 3d
       -0.11584211 0.051769894 0.058346406 0.07240855
0001f0 0b a8 a4 bd 9a 7b 24 bd 60 92 e9 bd 6c aa c7 bd
       -0.08039864 -0.040156938 -0.11404872 -0.09749302
000200 ac de c3 3d f2 a1 d1 bd 08 80 97 bd ed 95 d3 3d
       0.09563956 -0.10235967 -0.07397467 0.103313304
000210 03 a0 fd bd 69 21 01 be 0b ce 9e 3d b8 ce 0a 3c
       -0.123840354 -0.12610401 0.07754143 0.008472137
000220 be 3c 51 bd 2f 60 e3 bb 4e ad 83 bc 0f 76 a4 ba
       -0.05108332 -0.006938956 -0.016073849 -0.0012547391
000230 e7 ce db 3d d2 55 1b 3e 48 9f 6c bd 34 21 5f 3d
       0.10732823 0.15169457 -0.05776909 0.054475024
000240 59 2f c7 bc 05 3d bd bd 91 39 5b 3d 79 bf 1e 3c
       -0.02431457 -0.09240154 0.053521696 0.009689205
000250 79 8d 9f be 6f 02 2c bd a5 d2 75 bd a9 09 18 bd
       -0.31162623 -0.04199451 -0.06001534 -0.037118588
000260 7b ce d6 bd 20 9c aa bd 4f fd c4 3d db 26 85 bd
       -0.10488602 -0.0833056 0.09618627 -0.06501552
000270 5b ec 35 bd 8c 43 b7 3d d2 90 5d 3d 87 20 72 bd
       -0.04441486 0.089484304 0.05409319 -0.05911305
000280 9e 32 3b 3d f8 9e be bd a9 56 2e be 9e 13 58 bd
       0.04570257 -0.09307665 -0.17025246 -0.052753083
000290 f7 30 6d be e3 d4 02 be 6e cd b8 bd 71 1d d0 bd
       -0.2316321 -0.12776522 -0.090235576 -0.101618655
0002a0 73 3d 02 b3 01 2e 93 3c bf 92 8b bc 19 60 01 3e
       -3.032387e-08 0.017966272 -0.017037747 0.12634315
0002b0 a8 ec 4b 3e 5b 99 a2 3d 25 37 ad bd b1 1e 06 8f
       0.19914496 0.079394065 -0.084577836 -6.612621e-30
0002c0 44 88 fb bd ac c0 53 bd 6c f0 db 3d cd f0 06 be
       -0.1228185 -0.051697418 0.10739216 -0.13177796
0002d0 38 2f 85 bd 3a e8 06 be 06 e1 b8 bd 04 50 c9 3d
       -0.06503147 -0.13174525 -0.09027295 0.09829715
0002e0 db fb 70 bd 4d 81 74 b9 ec 88 e4 3d 3a 66 c3 bd
       -0.058833938 -0.00023317822 0.11158928 -0.095409825
0002f0 69 a4 99 be 80 55 0b bd a1 9d 86 3d 28 d1 18 bd
       -0.30008247 -0.034017086 0.06573034 -0.037308842
000300 8f b2 4c bc b9 ae 05 3e 5e 19 72 3d 94 a2 02 be
       -0.012493744 0.13054933 0.059106223 -0.12757331
000310 2a 2d da bc ba bf ff bd 39 8a b7 3c 61 27 2b 3e
       -0.026632864 -0.12487741 0.022404777 0.1671424
000320 6e 43 3c 3b 8f 47 82 bc 3a b5 d7 3d 65 8a ec bd
       0.0028726715 -0.015903262 0.10532613 -0.11549834
000330 69 18 cd 3d 39 27 28 3e c9 2b 23 bc b9 bf 7d 3b
       0.100144215 0.16421212 -0.00995917 0.0038719012
000340 1a c1 9b 3d c4 84 cd 3d 38 22 bb 3c fc 72 62 bd
       0.076051906 0.10035089 0.022843465 -0.05528544
000350 b9 5d fb bd 53 38 d9 bd 4d 4c 52 3d 88 41 5b 3d
       -0.122737356 -0.10606446 0.051342297 0.053529292
000360 00 ef 00 3d d8 8d 43 3d 39 b9 58 3d 51 0a 13 be
       0.03147793 0.047742695 0.052911017 -0.14359404
000370 18 ad ba bd 39 65 56 3d a8 9b 4d 3d 52 0f ea bd
       -0.09115046 0.052342627 0.050197273 -0.11428703
000380 bd c6 05 be 86 ae 40 3d c0 b3 a3 3d b9 98 37 bd
       -0.13064094 0.04704144 0.07993269 -0.044823382
000390 4f e6 03 3c a6 1d 88 bd da 5a 9d 3d 81 4e dc ba
       0.008050515 -0.0664628 0.07683344 -0.0016808064
0003a0 b8 e4 bc bd ec b3 d8 3d c9 40 c8 3d bd 01 c6 3d
       -0.09223312 0.105811924 0.09777982 0.096683
0003b0 82 5f d2 3d 64 1d a2 bd 79 1c 10 bd fb 80 1b 3d
       0.10272123 -0.07915762 -0.035183404 0.037964802
0003c0 3d c8 f4 3b 11 4c 4c 3d fb 8b 68 bc 71 b1 25 bd
       0.0074701593 0.04987723 -0.01419353 -0.040452424
0003d0 17 cf c7 bb 1b e0 ef 3d 1b bc 37 bc 9a 5f cb bc
       -0.006097685 0.117126666 -0.011214281 -0.02482586
0003e0 ce 20 da bd 31 91 71 bd c3 f5 78 bb df a1 93 bd
       -0.10650788 -0.058976356 -0.0037988282 -0.07208609
0003f0 d5 64 32 bd 23 c3 98 3a bc 79 d9 bd 40 4b bc bd
       -0.043553192 0.0011654835 -0.10618922 -0.0919404

dec.lin2.bias f4 [64]
000000 14 ce 46 3d 8b 44 05 bc 5f f9 70 bd 90 3b b9 3d
       0.048536375 -0.008134018 -0.05883157 0.09044564
000010 7d 70 3c 3c a8 e5 93 bd 21 0c 62 3d 34 81 e8 3d
       0.011501429 -0.07221538 0.05518735 0.113527685
000020 78 c5 aa bc c1 c5 9a 3c 4d 34 d3 bd b9 83 25 3d
       -0.020846114 0.018893125 -0.1031271 0.040408824
000030 c0 b8 4d be f8 20 91 bd ec 79 b0 3d 48 ae 87 bd
       -0.20090008 -0.070863664 0.08617005 -0.066250384
000040 06 eb 0c bd 12 bd f0 bc c8 e1 df bd bc 91 a6 bd
       -0.034403823 -0.02938703 -0.10931736 -0.081332654
000050 f3 0b dc bd 67 da d1 3d 94 fc 94 3a ba c5 ba 3d
       -0.10744467 0.10246735 0.0011366778 0.091197446
000060 e8 ac 3c bd 1a db 08 be fc d7 4f bd 0a 83 e3 bd
       -0.046063334 -0.1336483 -0.050743088 -0.11108978
000070 73 85 bb 3c 28 fa b9 3d 5f 0b e2 3d 24 95 8b 3d
       0.022890782 0.09080917 0.11037325 0.06815556
000080 36 e5 83 be 7e 01 d1 bd d3 b5 0d bd 67 d1 16 bd
       -0.25760812 -0.10205363 -0.03459723 -0.036820795
000090 af 6f d8 3b 37 c9 5f bd 19 4f 11 be df bb e1 bd
       0.0066051106 -0.054635253 -0.1419033 -0.11022162
0000a0 f7 ef dd bd c4 b1 83 bd fc 18 df 3d 70 ea e4 3d
       -0.10836785 -0.064303905 0.10893437 0.11177528
0000b0 1b 41 f7 3d 31 1a f1 3d 49 3a 5b bd d2 0b c9 3d
       0.12072965 0.11772574 -0.053522382 0.09816708
0000c0 ec 15 de bd a1 bb a2 3d c2 77 a2 3d 36 8c 31 bd
       -0.10844025 0.079459436 0.07932998 -0.043346606
0000d0 ba 41 ab 3d 3a c9 6b 3d 24 e2 41 bd 79 68 9e 3d
       0.08362146 0.05756495 -0.047334805 0.0773477
0000e0 d1 9c 96 b9 fb 18 bc 3c 74 52 00 3e 1c 46 b1 bd
       -0.00028727067 0.02296113 0.12531453 -0.086559504
0000f0 30 5d 5e bd f5 e0 a3 bd 3e 2e bd 3d 7e 3c f8 bd
       -0.05428809 -0.080018915 0.092373356 -0.12120913

dec.lin2.weight_v f4 [64, 64]
000000 3b 3a 7e bd 09 da e2 3d 59 ef aa 3d 0c 2d 00 be
       -0.06206725 0.11076743 0.08346433 -0.12517184
000010 15 5d 6e 3d b0 37 aa bc 54 e0 cd 3d 95 e1 f8 3d
       0.05819424 -0.020778507 0.10052553 0.12152401
000020 ff df 13 bd 0a 98 1f 3b ee 8d d2 3d c9 5f de bd
       -0.03610229 0.0024352097 0.10280977 -0.10858113
000030 00 bd ff bc b3 17 65 bd d7 05 c4 3d c6 74 91 ba
       -0.031218052 -0.055930804 0.09571426 -0.0011097423
000040 ef a5 6d 3c 98 11 e8 3d c3 07 d9 bd 0b 9b 88 bc
       0.014504894 0.11331481 -0.105971836 -0.016675493
000050 9b a3 b7 bd 5a 9a fd 3d bf b5 b4 bd d0 76 4b bd
       -0.08966752 0.12382956 -0.08823728 -0.049673855
000060 ca 97 9e 3b 65 a1 11 be 42 5c 90 bd f1 f0 d4 3b
       0.004839872 -0.14221723 -0.07048847 0.006498449
000070 dd 35 61 bc 30 a1 b6 bd 74 d8 4b 3d 37 cc c2 bd
       -0.013745752 -0.08917463 0.049766973 -0.09511607
000080 bf e0 3c bd b6 16 07 bd f5 97 7d 3d 98 6d fe 3c
       -0.046112772 -0.032980643 0.061912496 0.031058118
000090 bd 80 c6 bd dd 4c 93 3d 30 d9 e5 bd fb b7 e6 3d
       -0.09692524 0.07192395 -0.11223066 0.1126556
0000a0 ef 3c ba 3d 3e 81 c4 bd de 51 c6 3d d9 9b 56 3d
       0.090936534 -0.095949635 0.09683584 0.05239472
0000b0 6e 60 7a bc 1a 40 e9 3d 21 f6 fa bd bb f6 8f 3d
       -0.01528178 0.113891795 -0.122539766 0.07029482
0000c0 9d 99 90 3d b2 ec b6 bd 24 65 8e 3d 68 36 a7 3c
       0.070605494 -0.08931865 0.06952885 0.020411685
0000d0 d4 f9 cd bd da d5 7c bc 17 2d ca 3d 65 32 11 be
       -0.100574166 -0.015431846 0.098718815 -0.1417938
0000e0 bc 19 ba bd 2d dc 66 bb 24 1c 4a bb 93 20 67 3e
       -0.0908694 -0.003522645 -0.0030839527 0.2257102
0000f0 c7 df c8 bd 55 61 97 3d e3 9a 06 3d 7a 76 99 bd
       -0.09808307 0.073916115 0.032862555 -0.07493301
000100 3d 70 35 bd 49 e0 c2 bb f1 77 f7 ba 39 5c 28 3d
       -0.044296492 -0.005947147 -0.001888035 0.041103575
000110 3b 1b f6 bc 15 9f b9 bc 0b 05 9e bc e2 c1 33 bd
       -0.030042281 -0.022658864 -0.019289514 -0.043886073
000120 37 a2 22 bd bb e0 b5 3d a0 05 97 bd e0 15 85 bc
       -0.03970548 0.088807546 -0.0737412 -0.016245782
000130 0c ae 73 bd 0d 2f 29 00 23 0f 87 bd e8 cc bf bd
       -0.059492156 3.782134e-39 -0.06594684 -0.09365255
000140 0a 84 e6 3b 82 3f d7 bd 93 9d 07 3a 0c 8f 78 bd
       0.0070347833 -0.1051016 0.00051733217 -0.060683295
000150 82 39 ac 3a 11 42 c9 bd 8f f2 ba 3d a9 11 4a a9
       0.0013139697 -0.09827054 0.09128296 -4.4868328e-14
000160 9f 4b 8d bc 5b 00 cf 3b 30 1b 6d bd 9a d4 f1 bc
       -0.017247973 0.006317181 -0.057887256 -0.029520322
000170 e9 f8 8d 26 63 08 e7 bd e0 56 ce 3c 78 66 d8 3b
       9.851308e-16 -0.112808965 0.02518791 0.006604012
000180 d2 01 32 bd 22 ad a0 3c 31 c7 40 ab 29 ff 3c 3c
       -0.043458767 0.019613806 -6.8488536e-13 0.011535444
000190 ee 97 db 3c ff a3 fe bd 02 20 23 00 c1 28 7f 3d
       0.026805844 -0.124336235 3.225725e-39 0.062294725
0001a0 64 99 8c be 27 e4 ac bd 77 6f 06 ac 5a fa 02 3e
       -0.27460778 -0.08441954 -1.910442e-12 0.12790814
0001b0 62 c9 a7 3d 2d ea a2 3c 35 c3 d9 bd 06 d8 dc bc
       0.081927076 0.019887054 -0.10632936 -0.026958477
0001c0 eb 8f c5 30 d9 12 73 bd 1b 7b 72 0e c5 8c 33 3b
       1.437454e-09 -0.059344146 2.9888076e-30 0.0027397138
0001d0 87 50 2a 3e 1b 27 0b bc 46 61 24 bd bf f3 27 3e
       0.16632281 -0.00849321 -0.04013183 0.16401576
0001e0 67 a9 8e bd f6 b0 06 3e 4f ca 29 bd 43 ba 41 3d
       -0.06965905 0.13153443 -0.041452702 0.047296774
0001f0 23 70 66 aa 3f 7e 88 b1 6c 76 02 bc 5e 02 8d b8
       -2.0467009e-13 -3.9724735e-09 -0.007962804 -6.723845e-05
000200 7a 70 2f ba dd e3 0e bd 48 a8 ba 3d 30 e8 8a 3c
       -0.00066924805 -0.034885276 0.09114128 0.016956419
000210 d5 7c e3 3d 01 8b 72 bd 3a 41 d7 bd 35 96 06 3e
       0.11107794 -0.059214596 -0.10510488 0.13143237
000220 c7 7d 0d bd 1f 26 af 3c c8 c4 60 bd 89 7f 84 bc
       -0.03454378 0.021380482 -0.054875165 -0.016174095
000230 67 bf 42 bd a7 83 83 bd 3b 1a ee 3d 9d 53 e2 3d
       -0.047545817 -0.06421595 0.11626097 0.11051104
000240 93 9e bb bb 57 de db 3d 74 8f 77 bd 2f 10 ab 3d
       -0.0057256906 0.10735767 -0.060439542 0.08352696
000250 f7 17 5f bd 61 ad e3 3c 10 2f 17 bc 18 76 d7 bd
       -0.054466214 0.027792634 -0.009227529 -0.105205715
000260 50 c1 c0 bd c6 9a 53 bd 0f be 9c bc 46 2e 8d bd
       -0.094118714 -0.051661275 -0.019133596 -0.068935916
000270 72 5c a1 bd 4c 31 6d 3d df 68 98 3c 46 02 2b bd
       -0.07878961 0.05790834 0.018604694 -0.041750215
000280 fb 0e 8b bd dd c6 9a bd ba d8 8f b8 bb 60 49 bd
       -0.06789967 -0.075574614 -6.85914e-05 -0.049164515
000290 16 23 07 be 33 8b 06 3d 63 77 7e 3c 20 33 de bd
       -0.13196978 0.032847594 0.015531394 -0.10849595
0002a0 93 25 21 3d 15 cc d0 bc 60 95 94 3d f6 14 2a bc
       0.039342474 -0.025487939 0.072550535 -0.010380974
0002b0 b3 79 2b 3d 12 1c 0b be 15 6b e9 ba 03 73 26 bd
       0.04186411 -0.13584927 -0.0017808402 -0.040637027
0002c0 52 ab d7 bd fa d1 f1 bd 90 dc 3c bc bc 5c 03 bd
       -0.10530724 -0.11807628 -0.011527196 -0.03207086
0002d0 3d 7a bd 3d 99 84 54 bd 26 2e 7a bd bf 88 01 bd
       0.09251831 -0.051884267 -0.061079167 -0.03162455
0002e0 3a 08 a1 3c 15 ae 82 3d 6b 3a 89 3d e4 37 75 bd
       0.019657243 0.0638086 0.067005955 -0.059867755
0002f0 11 fe 63 bd 40 0f d5 3d 20 aa 44 3d 1b a0 cb 3b
       -0.05566222 0.10403299 0.048013806 0.0062141544
000300 73 b0 fa bd c6 0d 05 be c8 12 ca 3d e0 fe 03 be
       -0.12240686 -0.12993535 0.098668635 -0.12890196
000310 f8 21 e7 3d 14 c3 02 3d 7b 64 26 bc 1a 87 f1 3d
       0.11285776 0.031924322 -0.010155792 0.11793347
000320 eb ff ef 3b c6 87 91 bd c1 86 e7 3d 3c 6f 72 bd
       0.007324209 -0.07105975 0.11304999 -0.059188113
000330 ad 06 57 3b 54 ec a2 3d 42 49 a8 3d 35 1f 82 3d
       0.0032810376 0.07955232 0.08217098 0.063536085
000340 3a 92 23 bd ef e8 27 bd 11 41 71 bd 0a b8 31 3d
       -0.039934374 -0.040993627 -0.058899943 0.043388404
000350 87 8f 8e 3d 50 74 de 3d 1a b6 2c 3c 4f e1 40 3e
       0.069609694 0.108620286 0.010541463 0.18835948
000360 93 d8 97 bc 09 81 99 3d de 56 b8 3d f5 4e fc bd
       -0.018535888 0.07495315 0.090009436 -0.12319747
000370 26 6d b2 3c e4 43 a0 bd 01 92 a6 3b 4b c6 0f 3c
       0.021780562 -0.07825449 0.005083323 0.008775304
000380 d3 84 bd 3d 3b 6b a2 3c b3 b9 9f bd 6a e9 ae bd
       0.0925385 0.019826522 -0.07799091 -0.08540614
000390 c3 11 9d 3d 3b fd 89 bd ad 15 d1 bc 2b a9 cf bd
       0.076694034 -0.06737753 -0.025523031 -0.10139688
0003a0 ea f7 4c bd 52 4d 06 3e 83 84 0c 3a 70 62 f2 bd
       -0.050041117 0.13115433 0.0005360322 -0.11835182
0003b0 36 6a 94 bc 4d 90 94 bd 68 b9 04 be 1d 64 9d bc
       -0.018117052 -0.07254086 -0.12961352 -0.019212777
0003c0 c4 e3 60 bd b1 0b 2a bd df 7f 07 3e 66 78 1a 3a
       -0.054904714 -0.041515056 0.13232373 0.00058925746
0003d0 9c d2 8f 3c da bb 91 3d 04 7a ca 3a f3 71 27 3d
       0.017556481 0.07115908 0.001544774 0.040880155
0003e0 6e 61 cf 3d ef 10 a0 3d 6d 3e ed bc 4a df 05 bd
       0.10126005 0.0781573 -0.028960431 -0.03268365
0003f0 10 7e ed bd 99 93 62 3d ff be b9 bc 0b 45 5d 3d
       -0.1159631 0.05531654 -0.022674082 0.054020923

dec.lin3.weight_v f4 [1, 64]
000000 10 7e c1 bd 89 d8 13 be 24 d0 66 bd 55 89 a0 3c
       -0.09447873 -0.1443807 -0.056350842 0.019596735
000010 8b 68 06 bd 66 1c 82 bd 13 cc 3e bd 1c ec ff bd
       -0.032814544 -0.06353073 -0.04658134 -0.12496206
000020 75 c8 21 3d 46 f1 4c 3d 2a f5 ea bc 89 d9 f7 bc
       0.03949781 0.050034784 -0.028681356 -0.030255096
000030 e4 0a 81 be 30 bc 92 39 de 3e 24 3d 29 d5 ad bc
       -0.2520362 0.000279875 0.040099017 -0.021219807
000040 15 3e 7b bc 48 d2 87 bc 03 c0 ea 3d f8 eb 45 bb
       -0.015334626 -0.016579762 0.114624046 -0.0030200463
000050 de 24 7b 3d 46 be 90 bb 6e 08 be 3d 31 7a 9b 3d
       0.061314456 -0.0044172136 0.092789516 0.075916655
000060 f4 11 7c bd dd 17 a0 39 0d da 06 3d f7 bc a5 3d
       -0.06154056 0.00030535358 0.032922793 0.08092683
000070 2e 75 87 bd 4e 52 bb 3d 58 3d 12 3e 06 c5 44 3d
       -0.06614147 0.09146558 0.14281213 0.04803946
000080 07 00 54 be 26 8b ec bd b1 78 8b be 66 03 ba 3d
       -0.20703135 -0.11549978 -0.27240518 0.090826795
000090 7b fa b4 3d d3 2c ce bd c3 db 25 bd 5f b4 cf bb
       0.08836838 -0.10067143 -0.040492784 -0.0063386406
0000a0 02 db ef 3c e6 65 3d bd 91 e6 ba 3d 45 34 8b 3d
       0.029279236 -0.046239756 0.09126008 0.06797079
0000b0 e3 66 d8 bd 41 40 93 bd dc 16 8b bd dd 15 b7 3d
       -0.10566499 -0.0718999 -0.067914695 0.08939717
0000c0 f9 f4 0c be 89 9e cd 3c e3 99 61 3d 25 e6 df 3a
       -0.13765325 0.02510001 0.0550784 0.0017082138
0000d0 f4 45 24 bc 85 60 13 3e f1 31 1c bd 92 02 53 3d
       -0.010026444 0.14392288 -0.038133565 0.051516123
0000e0 1f 4c 07 bd 2e 19 99 bd 19 71 d8 bd a4 4a ba 3d
       -0.03303158 -0.07475506 -0.10568447 0.09096268
0000f0 b7 bc 87 bd 8e 8f 3f bd 28 e7 7c 3d 67 78 af 3d
       -0.066277914 -0.046767764 0.061743885 0.08567887

exp_avg f4 [64]
000000 3d f2 1b b7 27 ec 55 39 61 07 25 39 19 f1 24 b8
       -9.29512e-06 0.00020401237 0.00015738375 -3.9325187e-05
000010 95 cf fc 38 27 56 19 b7 9d d5 d5 b8 9a a9 0c 39
       0.000120549616 -9.13957e-06 -0.0001019642 0.00013414622
000020 09 33 40 b8 d0 8e 6b 37 04 8e a8 37 b7 5a 16 38
       -4.5823897e-05 1.4040343e-05 2.0093292e-05 3.584727e-05
000030 e3 f1 08 b8 0a 5a 63 37 32 83 85 b7 48 77 d9 b6
       -3.26502e-05 1.3551218e-05 -1.5915928e-05 -6.48099e-06
000040 52 c0 f5 b7 42 ae bc 38 05 19 07 b9 6f 09 d0 36
       -2.9295832e-05 8.9969966e-05 -0.00012883924 6.1999813e-06
000050 ba 01 79 38 e9 9a 84 37 e5 e3 1f 37 13 0b 89 38
       5.9367834e-05 1.5807762e-05 9.530199e-06 6.534732e-05
000060 26 64 5b b8 00 21 33 39 df c3 f0 b7 26 a7 ed 37
       -5.230694e-05 0.00017083064 -2.8701439e-05 2.8330436e-05
000070 ac 10 c9 b7 90 03 5b 38 bd 20 bb 37 f0 3f b2 b8
       -2.396883e-05 5.2216987e-05 2.2307382e-05 -8.499611e-05
000080 09 ac e8 b7 3c 10 6f b8 e2 8b 1e b8 3b 56 16 37
       -2.7736665e-05 -5.699716e-05 -3.780041e-05 8.960774e-06
000090 d3 2e 0b b8 d3 91 48 b8 41 49 11 b9 b8 05 68 b8
       -3.318379e-05 -4.7819525e-05 -0.00013855567 -5.5318436e-05
0000a0 f9 a1 91 b8 93 dd 33 39 45 2a 33 b9 67 2e d7 b7
       -6.9443086e-05 0.00017153313 -0.00017086517 -2.5651605e-05
0000b0 9a 35 54 b8 91 50 53 37 52 a2 c4 38 f6 1c 47 b9
       -5.059466e-05 1.2595338e-05 9.376243e-05 -0.00018988908
0000c0 a0 68 5f b8 8a 24 9f b7 26 49 0b b8 4d 78 49 39
       -5.3264783e-05 -1.8971292e-05 -3.3208307e-05 0.0001921367
0000d0 f1 7e 0a 39 6c 85 97 b8 86 e7 93 35 bb ef 2e b8
       0.00013207995 -7.225093e-05 1.1019736e-06 -4.17081e-05
0000e0 bf 19 8d b8 ac 01 0b 38 d9 18 82 b8 d8 7d b9 37
       -6.7281995e-05 3.314174e-05 -6.203511e-05 2.211232e-05
0000f0 1d ec 16 39 20 67 f9 38 ed bb a6 b8 37 6a 0e 39
       0.00014393074 0.00011892454 -7.950501e-05 0.00013581743

exp_avg_sq f4 [64]
000000 32 ef a9 33 14 e1 e7 34 38 5c a2 34 b9 bc 89 35
       7.913185e-08 4.319087e-07 3.024195e-07 1.0262221e-06
000010 c6 95 8a 35 12 06 5b 34 7c 4e 53 35 6b e1 6f 35
       1.0325391e-06 2.0398173e-07 7.8717835e-07 8.9362464e-07
000020 39 d7 81 35 f3 7e b0 35 4e ab e6 34 03 c7 66 35
       9.673887e-07 1.3149969e-06 4.296548e-07 8.5971277e-07
000030 04 3b 51 35 90 72 aa 33 67 8e 5b 35 05 ba 71 34
       7.7944446e-07 7.937081e-08 8.179108e-07 2.2512548e-07
000040 56 c9 19 35 46 1f df 34 ce 80 86 35 40 f6 01 35
       5.7289924e-07 4.155974e-07 1.0021265e-06 4.8414586e-07
000050 69 5c ad 34 9d 14 0c 34 7d 67 60 35 b0 51 f8 34
       3.2290998e-07 1.3046015e-07 8.35971e-07 4.6253035e-07
000060 64 5c ca 34 35 60 9d 34 2b e2 09 35 f0 fb 84 35
       3.7692655e-07 2.931353e-07 5.1365595e-07 9.90809e-07
000070 5e 84 bf 34 50 e5 29 34 8c 22 09 35 1d 1b 50 34
       3.5672832e-07 1.5822775e-07 5.108675e-07 1.9381373e-07
000080 e2 ec 84 34 75 28 fa 34 62 ae 27 34 eb 0a b6 35
       2.475927e-07 4.6595565e-07 1.5616527e-07 1.3563234e-06
000090 2b e8 7a 34 ee 54 cc 34 f7 a6 b3 34 e1 f6 12 34
       2.3367527e-07 3.8059756e-07 3.346283e-07 1.3687124e-07
0000a0 3e a4 44 35 d9 63 3b 35 26 50 9b 35 0d 3c 1b 35
       7.3254694e-07 6.9808226e-07 1.1571726e-06 5.7829385e-07
0000b0 f0 6b e7 34 56 a0 10 34 6f 63 1e 36 7f bd ab 35
       4.3105638e-07 1.3469375e-07 2.3601713e-06 1.2795643e-06
0000c0 46 8b 45 34 6e bd c3 34 55 ac 06 34 4e 9c d4 33
       1.8397722e-07 3.645941e-07 1.2542417e-07 9.900451e-08
0000d0 37 2d 87 33 e8 25 f8 34 9e 05 30 34 19 c0 72 34
       6.294652e-08 4.622118e-07 1.6393321e-07 2.2607891e-07
0000e0 82 06 63 34 26 d4 16 34 ef 36 15 34 d4 da 2c 34
       2.114339e-07 1.4047018e-07 1.3896691e-07 1.6098357e-07
0000f0 4c 5a af 35 0d 7d ac 34 af cd 61 34 b6 e8 1c 34
       1.3064796e-06 3.2128483e-07 2.1029585e-07 1.4613292e-07

exp_avg f4 [64, 4]
000000 a7 61 d5 36 0c 87 93 37 e9 de 45 37 c8 a0 4d 37
       6.359263e-06 1.7586652e-05 1.1794015e-05 1.2256387e-05
000010 a0 fc 81 38 19 35 ae b8 d2 8f 79 b8 57 b6 10 b9
       6.1982544e-05 -8.306857e-05 -5.950017e-05 -0.00013800837
000020 e9 ea d5 37 92 78 6e b7 6a 6e cd 38 ae b1 87 b7
       2.5500967e-05 -1.4213978e-05 9.795728e-05 -1.6175993e-05
000030 4d ae 99 38 cb 0a 87 36 9b 21 1c 39 81 29 1d 3a
       7.3280746e-05 4.02457e-06 0.00014889838 0.0005995259
000040 9d e3 2c b8 0b ae 1c 37 33 cc 0f 35 70 d1 08 b8
       -4.1219977e-05 9.338847e-06 5.35688e-07 -3.261998e-05
000050 df c2 95 37 08 dc 81 38 e1 fc d8 b7 36 1e 29 38
       1.7852928e-05 6.192183e-05 -2.5866962e-05 4.0320876e-05
000060 2f 4b 06 36 d3 c3 b4 b7 79 80 68 b8 fd c7 ae b8
       2.0011319e-06 -2.154886e-05 -5.543276e-05 -8.334217e-05
000070 99 a3 c2 b8 74 3a 8c b8 e8 f9 b8 38 ad c3 8f 38
       -9.281113e-05 -6.686608e-05 8.8203524e-05 6.855219e-05
000080 18 5e 00 b8 c4 4b 0e b9 4f 0c 97 38 8b 28 a9 b8
       -3.060521e-05 -0.000135704 7.202534e-05 -8.0661e-05
000090 1e 57 f5 b7 d8 f4 7b b5 90 c1 c1 b6 ba ad d1 38
       -2.9246843e-05 -9.386108e-07 -5.774382e-06 9.998256e-05
0000a0 bf 59 f7 b7 bd d8 6f b7 bb e1 ec b8 37 82 6e b8
       -2.9486486e-05 -1.4295973e-05 -0.000112954025 -5.6864894e-05
0000b0 17 ef 96 38 96 b0 85 38 3f 04 94 38 70 65 44 38
       7.197091e-05 6.374826e-05 7.057981e-05 4.6824513e-05
0000c0 77 ec 92 b8 9f 17 b7 b8 38 20 2b b8 05 ce 7f 38
       -7.0058675e-05 -8.73052e-05 -4.0799583e-05 6.098861e-05
0000d0 33 0b 7f 37 5f d6 b8 37 46 26 81 b4 3f 76 cb b1
       1.5201792e-05 2.2034334e-05 -2.405597e-07 -5.9215206e-09
0000e0 bb 1c e8 b7 6d 9f 99 b7 09 95 b0 b7 dc 5d 08 37
       -2.7669934e-05 -1.831326e-05 -2.1050235e-05 8.128085e-06
0000f0 3c 46 d2 36 94 e5 59 37 a5 75 f8 38 20 5c 18 b9
       6.266664e-06 1.2987661e-05 0.000118474745 -0.00014530169
000100 b0 ba 10 b8 73 12 81 b8 3f 41 25 39 62 52 a7 39
       -3.450614e-05 -6.154636e-05 0.00015759932 0.00031914102
000110 8c 46 4f 38 5d 9c 74 38 60 3b 1c 38 c3 55 61 b8
       4.9418348e-05 5.8319758e-05 3.7248596e-05 -5.3724052e-05
000120 a4 dc 7d b8 54 6d af 38 e3 b5 1e b9 d7 f1 2a 39
       -6.0525388e-05 8.365014e-05 -0.00015135812 0.00016302556
000130 5b 5d 07 38 56 12 95 37 45 09 18 37 5b fa 15 38
       3.2273452e-05 1.7770722e-05 9.062064e-06 3.575753e-05
000140 e4 fc b5 38 1b 87 9e 38 8f 4d ad 38 f4 d5 fe b8
       8.677857e-05 7.5591925e-05 8.263729e-05 -0.00012151516
000150 80 26 9c 37 ab 30 df 37 4a 0d 5e 38 7c 06 00 b8
       1.8614577e-05 2.6606334e-05 5.29413e-05 -3.0523617e-05
000160 a3 13 86 37 11 98 2b 37 8c bb 19 b7 76 e4 78 b7
       1.5983189e-05 1.02278e-05 -9.163177e-06 -1.4835145e-05
000170 2d 56 07 b8 a9 c8 91 b8 2b d8 d6 38 da ce ac 38
       -3.2266766e-05 -6.951515e-05 0.000102445796 8.240128e-05
000180 80 46 a4 b7 0c 96 ca b7 f0 aa 2f b7 27 9f b0 37
       -1.9583153e-05 -2.4150148e-05 -1.0470612e-05 2.1054946e-05
000190 e9 06 ab 38 bd cc 2f b7 39 7e c9 b7 25 cb 0e b8
       8.1552025e-05 -1.0478482e-05 -2.4019844e-05 -3.404463e-05
0001a0 85 a7 55 37 f2 67 05 37 f2 5c c1 b8 3c e7 42 39
       1.2734793e-05 7.951619e-06 -9.2202696e-05 0.00018587423
0001b0 25 2a 4e 38 0e dc 2b 38 50 bc db 38 c2 90 f8 b7
       4.9153477e-05 4.097452e-05 0.0001047781 -2.9631312e-05
0001c0 28 1c 40 b8 e7 37 27 b7 03 8c 37 38 11 2b 1a 39
       -4.580259e-05 -9.9669915e-06 4.3760996e-05 0.00014702628
0001d0 46 c7 0b 38 af 7f 2b b7 f3 40 15 b7 31 9a 06 38
       3.332577e-05 -1.0222123e-05 -8.896214e-06 3.209169e-05
0001e0 dc 8b a8 b6 d1 4c 8c 36 9b aa 39 b8 33 76 81 b8
       -5.023072e-06 4.1812677e-06 -4.4266326e-05 -6.173216e-05
0001f0 84 e0 39 b8 8e 95 28 37 83 e5 49 b9 a1 54 e6 b7
       -4.4316534e-05 1.0048401e-05 -0.00019254354 -2.7457545e-05
000200 d0 fe a8 b7 7a 76 3e 37 f4 aa b0 38 d7 e6 23 38
       -2.0145817e-05 1.13524675e-05 8.4241765e-05 3.9077215e-05
000210 31 63 fa b7 45 fd b5 b7 cd e2 c6 b7 f7 f7 6e 35
       -2.9848512e-05 -2.169482e-05 -2.3709052e-05 8.9022745e-07
000220 0b 87 17 38 38 cb 7a b8 cd 0b dc b8 e5 08 64 b8
       3.6126974e-05 -5.9793907e-05 -0.000104926155 -5.436772e-05
000230 3c e3 1c 37 c8 24 a4 36 5d 11 0f 38 71 ed 46 38
       9.351232e-06 4.891863e-06 3.4110028e-05 4.7428013e-05
000240 53 3a 6b 37 ec 63 ab b7 f4 b0 5f b8 b7 c4 3e b7
       1.4020671e-05 -2.0431318e-05 -5.3332144e-05 -1.1370684e-05
000250 2d e6 1f 37 17 17 3d 38 34 d3 26 b9 86 f4 10 b8
       9.5307305e-06 4.5082616e-05 -0.00015909673 -3.4560006e-05
000260 ff 85 67 b8 77 97 69 b7 87 d3 73 b9 55 79 dc 38
       -5.5199485e-05 -1.3923148e-05 -0.00023253086 0.00010513017
000270 b9 71 03 b8 9a 63 29 34 41 b6 4e 38 a7 bf 88 b8
       -3.1338746e-05 1.5775586e-07 4.9283964e-05 -6.5206834e-05
000280 12 bc a8 b8 20 eb 21 b5 d0 14 3f b9 8c 3e 58 b9
       -8.045895e-05 -6.0319326e-07 -0.00018222933 -0.00020622666
000290 bf 59 a2 38 a8 02 58 37 0b 67 33 38 04 ab b2 b7
       7.7414785e-05 1.2875222e-05 4.2772892e-05 -2.1298889e-05
0002a0 f7 65 db 37 03 13 64 b6 cd f2 39 b9 03 a5 33 39
       2.6154315e-05 -3.3985714e-06 -0.00017733425 0.00017132242
0002b0 55 1c ff b8 af d1 26 b9 f0 0b ca b7 c3 1e 03 39
       -0.00012164625 -0.00015909107 -2.4085835e-05 0.00012504593
0002c0 65 ec 66 b8 a2 8c 8d b8 46 7d 51 b9 4a f7 d9 37
       -5.5056433e-05 -6.749599e-05 -0.00019978461 2.5983569e-05
0002d0 e1 06 d6 37 b0 6b 67 37 ac 5b d7 b6 cf 36 65 38
       2.5513991e-05 1.3793746e-05 -6.4181713e-06 5.46489e-05
0002e0 91 39 fd 37 4a 3d 04 38 c4 03 32 b7 61 d8 73 38
       3.0186757e-05 3.1528332e-05 -1.06105035e-05 5.8137233e-05
0002f0 8d 1d 4e b9 59 1e bd b8 14 70 4f 39 7a ab 44 38
       -0.000196567 -9.017875e-05 0.0001978281 4.688974e-05
000300 ee a0 5b b8 69 76 71 b7 7e 97 62 38 06 64 66 b8
       -5.2363546e-05 -1.4392289e-05 5.4023687e-05 -5.4929427e-05
000310 c7 01 bf b8 00 3a b7 b8 e7 06 12 b7 e0 3a bb 38
       -9.107921e-05 -8.736923e-05 -8.703885e-06 8.927821e-05
000320 a3 21 c6 b6 d8 8f 71 37 30 18 69 37 2a 84 7e 36
       -5.9047757e-06 1.4398211e-05 1.3893514e-05 3.792588e-06
000330 d7 fd f5 37 a7 c0 fa 37 77 f0 36 b9 04 49 c3 b8
       2.932448e-05 2.9892033e-05 -0.00017446453 -9.311925e-05
000340 48 69 cd 38 3c bb 04 39 ca ee 84 38 a9 cf 8e b8
       9.794772e-05 0.00012658251 6.3387284e-05 -6.8097674e-05
000350 6a b0 a3 b8 c0 d6 5e b8 f9 bc 51 36 5e b0 06 b8
       -7.805305e-05 -5.3128926e-05 3.1253423e-06 -3.2112344e-05
000360 13 2f 00 b6 c9 a9 66 b8 12 94 1d b9 27 0d 49 b9
       -1.9100887e-06 -5.4994398e-05 -0.00015027847 -0.00019173753
000370 60 42 c2 b6 16 0c a4 37 f1 fe 57 b6 b5 95 01 38
       -5.7893776e-06 1.9555951e-05 -3.2185892e-06 3.0895422e-05
000380 ac d4 18 b8 49 cb 3d b8 ff 2a 93 b8 92 8b 64 b8
       -3.643769e-05 -4.5250436e-05 -7.017515e-05 -5.448942e-05
000390 f5 52 c1 b6 4e ef ef 35 69 95 45 b7 ba 0b 3f 37
       -5.7615057e-06 1.7876534e-06 -1.1776902e-05 1.13872175e-05
0003a0 c5 36 48 b8 8e ab c9 37 0a 45 48 b8 d9 50 2a b8
       -4.7734724e-05 2.4040954e-05 -4.7748013e-05 -4.0606454e-05
0003b0 a5 9b 7c 38 41 1b 75 38 4c ba dc b7 d6 b4 91 b8
       6.0226437e-05 5.8437934e-05 -2.6312795e-05 -6.947822e-05
0003c0 fc 32 58 b8 10 25 92 38 15 e2 29 39 e4 78 1d b9
       -5.1545896e-05 6.968726e-05 0.00016201318 -0.00015017722
0003d0 d1 f0 bc 38 27 14 74 b7 09 c6 9f 38 23 e2 3e 39
       9.009394e-05 -1.4548225e-05 7.618598e-05 0.00018204055
0003e0 f4 0e 18 32 46 13 a2 b8 f9 6e 34 38 17 c1 20 b8
       8.850964e-09 -7.728352e-05 4.3018696e-05 -3.83268e-05
0003f0 fe fe 97 38 d2 fd 6a 36 d3 94 a9 b8 b5 81 1b b9
       7.247737e-05 3.501646e-06 -8.086269e-05 -0.00014830272

exp_avg_sq f4 [64, 4]
000000 f2 3e cc 33 7b 63 87 33 ee cd 4f 33 6a ae 51 33
       9.51094e-08 6.304523e-08 4.8383235e-08 4.8820233e-08
000010 24 dc 5d 35 aa 03 81 34 ef 7b 23 34 de 6e cf 33
       8.264926e-07 2.4030788e-07 1.5225645e-07 9.659355e-08
000020 cc 2f 0d 35 11 76 ea 34 36 93 4f 35 b4 3a 0d 35
       5.2596147e-07 4.36718e-07 7.732773e-07 5.261202e-07
000030 82 ab 98 35 52 51 b1 36 0f 1e a0 36 0e 9b 3d 36
       1.1374798e-06 5.284478e-06 4.771871e-06 2.8253448e-06
000040 5b 77 51 35 16 01 cc 35 19 0c 36 34 11 ff d0 34
       7.803225e-07 1.51995e-06 1.6954472e-07 3.8928604e-07
000050 0e c1 c3 34 e2 71 7b 34 73 3d 57 34 85 70 35 33
       3.6462046e-07 2.3417627e-07 2.004579e-07 4.2244682e-08
000060 90 08 9e 33 21 06 b1 34 1c dc 66 35 69 4d 13 35
       7.359006e-08 3.2973279e-07 8.600198e-07 5.4874414e-07
000070 ef 0d df 35 cf 98 3b 36 f3 a7 0b 35 88 be 49 35
       1.661885e-06 2.7954118e-06 5.2025933e-07 7.5155594e-07
000080 7c a4 4f 36 1e 4a 7a 37 86 b6 be 35 79 2e 21 36
       3.0941146e-06 1.4918418e-05 1.4209224e-06 2.401792e-06
000090 c6 ae 7b 35 d1 86 7d 36 38 85 93 33 16 78 b8 34
       9.3759115e-07 3.7778411e-06 6.869453e-08 3.4360045e-07
0000a0 4e 9a e3 37 06 5f 8f 36 b2 f5 7e 36 21 33 34 36
       2.7132362e-05 4.2727943e-06 3.7991963e-06 2.685185e-06
0000b0 bb 49 26 35 79 a4 8e 35 d2 b0 62 35 3c 82 20 35
       6.194711e-07 1.0627692e-06 8.444887e-07 5.979416e-07
0000c0 aa dc 79 35 ee 14 c8 34 9d d5 a5 34 d9 c2 14 34
       9.3080837e-07 3.726813e-07 3.088907e-07 1.3854459e-07
0000d0 12 e2 c3 34 bb 5f 20 34 e9 f5 c1 33 27 9a aa 33
       3.6486068e-07 1.4935988e-07 9.0319936e-08 7.944282e-08
0000e0 ba d7 ac 35 3c 3a 64 35 0b 3d 0f 35 5f b2 d2 34
       1.2877783e-06 8.502136e-07 5.336048e-07 3.924533e-07
0000f0 2a a7 2b 35 5a 0f 82 35 c0 57 da 35 16 3c b9 35
       6.394572e-07 9.690223e-07 1.6267804e-06 1.3801061e-06
000100 7c 04 71 34 96 ad 44 35 40 bf 87 35 bd a9 13 36
       2.2446505e-07 7.326829e-07 1.0113945e-06 2.2003508e-06
000110 13 c3 0d 35 d7 46 20 35 2b d6 fa 34 51 f6 4b 34
       5.2810464e-07 5.970773e-07 4.6721956e-07 1.8995458e-07
000120 43 50 dd 35 a7 1c 04 36 a5 89 91 35 f7 0a 50 35
       1.6489142e-06 1.968621e-06 1.0843402e-06 7.7501994e-07
000130 99 84 39 35 58 8c 31 35 18 60 95 34 b2 85 05 34
       6.9110826e-07 6.6141865e-07 2.782333e-07 1.2435228e-07
000140 6c 6b 1c 35 8a 0c 06 35 8c fa 2b 34 07 f9 5e 34
       5.827085e-07 4.9937137e-07 1.6016764e-07 2.0765957e-07
000150 a3 04 8b 34 9e 48 19 34 46 1c 84 33 19 68 b5 32
       2.589414e-07 1.4275653e-07 6.151872e-08 2.1118511e-08
000160 c3 8c 38 35 05 e0 c9 35 bc 46 bc 34 db 5b bf 33
       6.8750177e-07 1.5040865e-06 3.5069195e-07 8.910839e-08
000170 1c 0b 9e 35 eb de a1 34 5d 6a b1 35 54 54 11 35
       1.1775151e-06 3.015078e-07 1.3218483e-06 5.4139423e-07
000180 13 4e 8a 34 51 ea b7 34 2e 9e c2 34 5a c2 bd 34
       2.576131e-07 3.4256894e-07 3.6250407e-07 3.5345403e-07
000190 bb 1d 1c 35 b4 f3 3a 34 ad 9e 49 34 c2 89 25 34
       5.815779e-07 1.7411259e-07 1.877731e-07 1.5416938e-07
0001a0 16 4b 16 35 59 ba 16 35 1f 5d 6c 34 91 9a 08 35
       5.598862e-07 5.6150526e-07 2.201309e-07 5.088887e-07
0001b0 9a 59 19 36 f2 9b e0 35 3c 7c f2 34 ab 8f e1 35
       2.2850932e-06 1.6734687e-06 4.5166405e-07 1.6805619e-06
0001c0 ef bb 2e 34 24 cb 76 32 0c 85 ff 33 d4 2c 03 35
       1.6273383e-07 1.4365273e-08 1.1898564e-07 4.8866536e-07
0001d0 2d 7c 89 34 10 9f bd 33 6b 54 09 34 4e da e1 33
       2.5608588e-07 8.8299316e-08 1.278983e-07 1.05170884e-07
0001e0 9f ee 81 35 9e b9 33 35 c5 d5 e8 34 87 48 1d 35
       9.680697e-07 6.6952805e-07 4.3368905e-07 5.85926e-07
0001f0 4f a2 d9 32 a4 d8 04 31 8c e3 d2 34 2d 3e 37 34
       2.5335934e-08 1.9331674e-09 3.928111e-07 1.7065823e-07
000200 47 e6 56 35 e5 59 e0 34 cd cc 26 34 a6 5a 0a 34
       8.005631e-07 4.1788658e-07 1.5534461e-07 1.2885229e-07
000210 e4 ec b2 36 90 2b 8c 36 27 be 5d 35 28 f8 f2 35
       5.332391e-06 4.1773965e-06 8.2605624e-07 1.8102628e-06
000220 75 07 ab 33 12 62 54 34 23 a5 82 35 c1 7e 76 34
       7.9641644e-08 1.9779716e-07 9.733816e-07 2.2956648e-07
000230 24 2e f1 35 f7 c1 21 34 45 09 3e 34 de d9 c0 34
       1.7969328e-06 1.5064857e-07 1.7698501e-07 3.5921306e-07
000240 f4 09 90 33 2a 99 a7 33 90 41 9c 34 5e bb 0f 34
       6.707333e-08 7.804404e-08 2.9104967e-07 1.3386077e-07
000250 4b 70 85 36 6f a3 80 36 bf 4d 41 36 5a de 9c 35
       3.9767815e-06 3.8337234e-06 2.8804495e-06 1.1687619e-06
000260 a9 2e ba 33 b4 80 e5 31 84 bd 27 35 0b ba ba 34
       8.6697874e-08 6.679409e-09 6.248813e-07 3.4780564e-07
000270 99 3f 52 34 9c a0 e3 33 4d 6a eb 32 d3 df 40 33
       1.9580911e-07 1.0599726e-07 2.740594e-08 4.490705e-08
000280 d3 00 dc 34 d5 08 e1 32 64 ee 20 36 c2 d0 e7 35
       4.0978793e-07 2.6197464e-08 2.398062e-06 1.7271598e-06
000290 73 75 31 35 6e c0 b0 34 df 54 eb 33 f7 90 11 34
       6.610855e-07 3.2922566e-07 1.0958478e-07 1.3556915e-07
0002a0 dc 36 77 35 a0 79 fb 34 54 22 eb 35 02 3d c7 35
       9.20945e-07 4.6840887e-07 1.7518855e-06 1.4844411e-06
0002b0 a2 fd 87 35 45 96 b2 36 d8 e4 3c 35 b7 4f ea 35
       1.0132101e-06 5.322307e-06 7.036847e-07 1.7457559e-06
0002c0 da 0d 37 34 50 6c 37 34 b2 3f d9 34 4c fd 9a 34
       1.7048242e-07 1.7082607e-07 4.0465744e-07 2.8869033e-07
0002d0 b0 95 32 33 e9 d7 63 32 c1 e1 3b 33 7f 7a fd 32
       4.1579995e-08 1.3262231e-08 4.3744652e-08 2.9508781e-08
0002e0 b4 9e b4 36 af 42 68 36 64 b1 4a 35 1a b4 a2 35
       5.3828935e-06 3.460951e-06 7.5509e-07 1.2122357e-06
0002f0 3c 9a 67 35 94 53 4c 34 87 75 79 35 fb 40 9c 35
       8.6278646e-07 1.9029386e-07 9.2930753e-07 1.1641818e-06
000300 45 22 16 35 69 3d 45 34 a5 68 d3 32 36 b7 a0 32
       5.5929223e-07 1.8369396e-07 2.461122e-08 1.8709766e-08
000310 2f c4 cc 35 d7 cb bf 35 92 2e 0f 35 a8 69 ee 35
       1.5256281e-06 1.4289934e-06 5.333942e-07 1.7763132e-06
000320 5d 0f ed 34 29 02 47 34 26 7d 00 34 93 52 be 33
       4.4155868e-07 1.8534105e-07 1.1966458e-07 8.8625846e-08
000330 21 89 8e 34 f0 fe 8e 34 a9 21 fb 33 41 f1 45 33
       2.6549336e-07 2.6635053e-07 1.1694221e-07 4.6087056e-08
000340 21 4a f6 33 f6 99 18 34 58 49 9e 33 27 18 37 33
       1.14687516e-07 1.4212114e-07 7.3707895e-08 4.2629974e-08
000350 6e 24 9a 35 f6 63 8a 35 71 d8 a4 34 41 4e b2 34
       1.1484497e-06 1.0310894e-06 3.0704862e-07 3.321202e-07
000360 06 c1 ce 34 97 c9 05 35 26 c0 cc 34 67 b2 4a 35
       3.8510933e-07 4.983971e-07 3.8137767e-07 7.5510474e-07
000370 5f a1 13 34 89 e8 f3 33 ba ba 28 33 7f 11 58 33
       1.3749148e-07 1.1357867e-07 3.9285375e-08 5.030733e-08
000380 a2 e2 7f 33 bb ee c3 33 07 9a ca 33 ce c8 82 34
       5.9577935e-08 9.12382e-08 9.4343754e-08 2.4360492e-07
000390 32 57 50 34 a0 57 21 33 fc b1 a5 34 1c 65 aa 34
       1.9403231e-07 3.7565428e-08 3.0863146e-07 3.1738534e-07
0003a0 20 0c e2 34 b5 a7 24 34 56 09 74 34 c5 e8 9f 32
       4.2104602e-07 1.5334702e-07 2.2727667e-07 1.8615887e-08
0003b0 a8 01 08 34 22 14 05 34 ac f4 9a 34 15 75 c7 33
       1.266659e-07 1.2393915e-07 2.8862758e-07 9.287957e-08
0003c0 45 ca 04 36 8e fb 76 36 ef 34 4d 35 24 de e3 34
       1.978727e-06 3.680328e-06 7.644548e-07 4.2443673e-07
0003d0 2a c8 af 34 33 81 d6 32 8c 07 8e 34 0e 5b a0 34
       3.274193e-07 2.4971632e-08 2.6455052e-07 2.9868573e-07
0003e0 e3 e9 1d 31 fa c4 c7 33 9e 6c 2f 33 6d d1 13 34
       2.2979456e-09 9.3024894e-08 4.084415e-08 1.376663e-07
0003f0 ac 85 37 33 2d 66 55 31 f6 21 7b 33 c8 8b 76 33
       4.272958e-08 3.105366e-09 5.847138e-08 5.740347e-08

exp_avg f4 [64]
000000 47 5b bf 36 57 23 4f 38 65 a5 77 b7 d0 b9 e7 b5
       5.7028697e-06 4.938556e-05 -1.4760856e-05 -1.726492e-06
000010 01 20 30 b7 18 ee 3d b8 8f df fe b7 f7 d4 80 34
       -1.0497869e-05 -4.5282854e-05 -3.0383262e-05 2.399681e-07
000020 5d f5 0b b8 9a b8 8f 37 53 60 1e b8 d0 01 7f b8
       -3.3368695e-05 1.713289e-05 -3.7759844e-05 -6.0798426e-05
000030 3d 79 da b7 04 00 00 00 8a 3c f3 b7 40 8d 12 b9
       -2.6044081e-05 6e-45 -2.8996048e-05 -0.00013976265
000040 fb 2f 11 37 93 bf e9 b8 04 00 00 00 f1 bd b3 b8
       8.653845e-06 -0.00011145989 6e-45 -8.5707645e-05
000050 d5 27 a1 36 a9 c3 59 b7 60 03 3f 38 f6 36 ad 38
       4.802811e-06 -1.2979764e-05 4.5541092e-05 8.25952e-05
000060 b3 8c 01 b7 dc dd ff b7 c9 16 05 b8 22 20 33 37
       -7.721758e-06 -3.050168e-05 -3.173089e-05 1.0676713e-05
000070 fb 67 b0 37 69 ab 85 b7 4a 72 93 b7 96 72 36 37
       2.1029255e-05 -1.5934655e-05 -1.7576986e-05 1.08747245e-05
000080 c8 df ad b6 a1 7e 65 b7 04 00 00 00 ca 7f 3d 37
       -5.1818533e-06 -1.3678947e-05 6e-45 1.1295031e-05
000090 72 68 0d b8 5e 02 21 38 04 00 00 00 9e a4 01 37
       -3.3714292e-05 3.8387596e-05 6e-45 7.727327e-06
0000a0 7c cc 38 b9 0f c9 8d b8 04 00 00 00 b4 df 97 38
       -0.00017623784 -6.760854e-05 6e-45 7.241909e-05
0000b0 d7 38 de 37 57 ca c2 37 87 bb 13 b7 fa 04 5b b7
       2.649093e-05 2.3220824e-05 -8.805545e-06 -1.3054576e-05
0000c0 04 00 00 00 c8 e7 3f b7 71 39 9b b7 c5 76 77 b8
       6e-45 -1.1438453e-05 -1.8504188e-05 -5.9e-05
0000d0 3f 4d b4 b8 bb 0d 67 37 45 9e ea b7 c7 cf 5e b7
       -8.597457e-05 1.377187e-05 -2.7968674e-05 -1.3280608e-05
0000e0 d5 c6 aa b6 f8 de 29 36 e1 8f a8 b7 4e c9 c6 39
       -5.089542e-06 2.5312747e-06 -2.009416e-05 0.00037915487
0000f0 19 6d 9f b7 04 00 00 00 f4 63 04 38 95 ff 43 b8
       -1.900508e-05 6e-45 3.156434e-05 -4.6729652e-05
