log/wn:lip_1/version_None/checkpoints/epoch=2499-step=4999-v1.ckpt (torch, 116476 bytes, 21 tensors)

dec.lin0.bias f4 [64]
-0.020776866 -0.06832621 -0.5384583 0.5507961 -0.3421987 0.3944316 -0.43718836 -0.29330394
-0.04700082 0.5188194 0.25492343 -0.54840344 0.015918922 0.026359903 -0.36054173 0.32237422
-0.35256463 0.12200152 0.18510014 0.4315085 -0.24322706 -0.263854 -0.621581 0.21030684
0.09651243 0.05319869 -0.53386384 0.03424392 -0.16946985 -0.45498568 0.22743644 0.064216666
0.58317286 0.18247369 0.49263486 -0.34838095 -0.015821295 0.50216746 -0.40027896 -0.092191316
-0.28925985 0.20256549 0.3362241 -0.11427225 -0.1399477 -0.25983024 -0.34327802 0.16039759
-0.1678053 0.2079509 -0.2971982 0.13530512 -0.048582446 -0.35331464 -0.09220388 0.26369274
-0.4012457 -0.47344378 0.008447903 -0.34434244 0.114609234 0.37774107 -0.20190473 -0.23848315
00000000: 3f34 aabc 9dee 8bbd 67d8 09bf f900 0d3f
00000010: ab34 afbe f0f2 c93e 27d7 dfbe ef2b 96be
00000020: ef83 40bd 59d1 043f 5385 823e 2b64 0cbf
00000030: 6668 823c b9f0 d73c ed98 b8be 3c0e a53e
00000040: 5a83 b4be efdb f93d e48a 3d3e afee dc3e
00000050: 8410 79be df17 87be ef1f 1fbf ad5a 573e
00000060: 4fa8 c53d dfe6 593d 4dab 08bf 5a43 0c3d
00000070: 8189 2dbe e2f3 e8be 19e5 683e 0784 833d
00000080: d14a 153f 62da 3a3e a33a fc3e fd5e b2be
00000090: a99b 81bc 0c8e 003f 5df1 ccbe cdce bcbd
000000a0: de19 94be 546d 4f3e 9125 ac3e 9207 eabd
000000b0: 734e 0fbe 7808 85be 23c2 afbe 443f 243e
000000c0: 27d5 2bbe 15f1 543e 5d2a 98be 6d8d 0a3e
000000d0: 63fe 46bd a8e5 b4be 63d5 bcbd bc02 873e
000000e0: 1470 cdbe 3967 f2be 1369 0a3c a74d b0be
000000f0: 3fb8 ea3d 4767 c13e 1dc0 4ebe ed34 74be

dec.lin0.weight_v f4 [64, 4]
0.20373717 0.25628656 -0.38360953 0.069990836 -0.2915205 -0.15385948 0.38578123 0.14561926
0.020965891 -0.22329253 -0.22321759 -0.03984663 -0.15834098 0.42024362 0.014595238 0.18175451
-0.017609235 -0.26591808 0.16888328 0.4290046 0.19866477 -0.11370677 0.1997241 -0.0061110114
0.0105739515 -0.3925461 0.15596466 0.52506185 0.011342569 0.35942754 0.18622632 -0.103032574
-0.01590206 -0.2699896 0.11878254 0.45490903 0.121656984 -0.31999204 0.22617431 -0.002799131
0.3112744 -0.17363772 0.4480885 0.41621983 -0.13975012 0.27008107 -0.38655162 0.044283684
-0.41046074 0.013785507 0.38917607 0.2706016 -0.0012123337 -0.36202314 -0.13310164 -0.14529383
-0.2404999 -0.043945663 0.5538198 0.29130805 0.29129368 -0.11542361 0.19404727 0.22298323
0.0022406569 -0.36316645 -0.21705103 0.046904996 0.0019196498 -0.18007517 -0.34034017 0.16521336
0.43637624 -0.32934445 0.19094197 0.4442056 0.24880973 -0.38958088 -0.31367794 -0.39054415
-0.23271301 0.24254388 0.5542176 0.35865727 0.0018830826 0.004860549 0.37852952 0.24377155
-0.24450883 0.0074915313 0.6446924 -0.05538287 0.038638208 0.19494751 -0.0018176754 0.3438016
0.008301664 -0.3506957 -0.3439367 0.4658859 0.20383829 -0.33558527 -0.014108702 -0.40064466
-0.047672924 0.023187988 -0.036212668 0.31081426 -0.35229886 0.3793696 0.43023133 0.5295739
-0.29544866 0.13186596 0.3318792 -0.2387418 -0.2777291 0.015899867 -0.42779645 -0.5846137
0.01351477 0.30124336 -0.4109166 -0.3773866 -0.076834075 0.4584906 -0.09074206 -0.41248363
0.19885233 -0.39128911 0.10088281 -0.27012533 0.15890585 0.033735078 0.3348603 -0.22227338
0.16185127 0.38523546 -0.46729654 0.21653756 -0.2589299 -0.23328947 -0.17981082 0.019825269
-0.013517837 0.39292312 -0.3383933 0.015535556 -0.28174016 -0.06487445 0.41598567 0.55869156
0.034765486 -0.09765417 -0.49326107 -0.21678804 -0.09675716 0.39603662 0.36762393 -0.3314033
-0.28027397 0.48743522 -0.34407347 -0.05469199 -0.3235371 0.03602496 -0.47120106 -0.24035369
0.114258945 -0.27115783 0.30125725 0.36522812 0.1499072 -0.11508154 -0.45906815 0.04650006
-0.10610991 0.27870613 -0.16576074 -0.5222936 0.21720722 0.36623102 -0.4711927 -0.32867104
0.24635516 -0.437385 -0.46780998 0.47027478 0.27584743 -0.35709107 0.16130854 0.26775485
-0.17168437 -0.33382028 0.102192566 0.0059537473 -0.1360793 -0.29746503 -0.16561599 0.23629406
-0.309257 -0.2685366 -0.04009679 0.33052462 -0.12924154 -0.058977325 0.16365543 -0.55376875
0.14028183 -0.38306814 0.1884975 -0.46856987 -0.25983292 -0.4813351 0.15934819 0.0073432326
0.3555295 -0.26385626 0.24631052 -0.2737185 -0.1602141 0.31581905 -0.03628274 0.33245426
0.094370075 0.32955605 -0.27585796 -0.0032834245 -0.20229074 0.19911355 0.31923327 0.3463284
-0.44924784 -0.31350952 -0.08801591 -0.0010807186 -0.39560878 0.39974064 0.14757484 0.2876421
-0.03516848 0.16193514 0.21732412 -0.18141833 0.073601246 -0.30874187 -0.24549152 -0.45246488
-0.26784506 -0.053080346 -0.33504596 0.23199077 0.054910347 -0.25045666 0.14460546 -0.52295566
00000000: 7aa0 503e fe37 833e 7868 c4be 5b57 8f3d
00000010: 2d42 95be 578d 1dbe 1e85 c53e 371d 153e
00000020: a9c0 ab3c cca6 64be 2793 64be 3836 23bd
00000030: 2324 22be 2c2a d73e dd20 6f3c db1d 3a3e
00000040: 3e41 90bc 6a26 88be bdef 2c3e 7ea6 db3e
00000050: c76e 4b3e 18df e8bd 7984 4c3e e13e c8bb
00000060: 5e3e 2d3c cdfb c8be 33b5 1f3e 746a 063f
00000070: 2fd6 393c e306 b83e 1db2 3e3e be02 d3bd
00000080: 0945 82bc 143c 8abe 4344 f33d d6e9 e83e
00000090: 4c27 f93d ffd5 a3be 3d9a 673e a071 37bb
000000a0: 5c5f 9f3e 16ce 31be db6b e53e c41a d53e
000000b0: a81a 0fbe 1148 8a3e 18ea c5be cf62 353d
000000c0: e927 d2be 9bdc 613c 1642 c73e 4b8c 8a3e
000000d0: 2be7 9eba 195b b9be cc4b 08be e8c7 14be
000000e0: 9b45 76be 5e00 34bd 22c7 0d3f 5426 953e
000000f0: 7224 953e 3763 ecbd 54b4 463e b755 643e
00000100: fcd7 123b f4f0 b9be a042 5ebe 741f 403d
00000110: c29c fb3a a065 38be 1141 aebe b12d 293e
00000120: b56c df3e d69f a8be 4b86 433e eb6e e33e
00000130: fac7 7e3e 2577 c7be 659a a0be 67f5 c7be
00000140: 524c 6ebe 6c5d 783e 34e1 0d3f eda1 b73e
00000150: c4d1 f63a 3d45 9f3b 9fce c13e 409f 793e
00000160: 8660 7abe 857b f53b 900a 253f 26d9 62bd
00000170: 1943 1e3d 52a0 473e 113f eeba c306 b03e
00000180: b403 083c 638e b3be 7918 b0be 9988 ee3e
00000190: fcba 503e d5d1 abbe 2f28 67bc 4c21 cdbe
000001a0: af44 43bd bcf4 bd3c bc53 14bd 0c23 9f3e
000001b0: 8460 b4be bb3c c23e 4847 dc3e 2892 073f
000001c0: 0c45 97be df07 073e 12ec a93e bb78 74be
000001d0: 8232 8ebe 7040 823c 2308 dbbe 3ea9 15bf
000001e0: 0e6d 5d3c 923c 9a3e a963 d2be d138 c1be
000001f0: 2f5b 9dbd 48bf ea3e f9d6 b9bd 0e31 d3be
00000200: f29f 4b3e 0c57 c8be a69b ce3d de4d 8abe
00000210: 37b8 223e cb2d 0a3d cf72 ab3e a29b 63be
00000220: 57bc 253e 953d c53e 7e41 efbe 06bc 5d3e
00000230: 7692 84be 6fe3 6ebe 5420 38be 9a68 a23c
00000240: eb79 5dbc 382d c93e e341 adbe d888 7e3c
00000250: 3f40 90be e5dc 84bd 13fc d43e 6906 0f3f
00000260: 4166 0e3d e9fe c7bd b78c fcbe affd 5dbe
00000270: 9e28 c6bd 50c5 ca3e 3439 bc3e b1ad a9be
00000280: 1280 8fbe 1c91 f93e 662a b0be b504 60bd
00000290: a8a6 a5be e98e 133d 4441 f1be 471f 76be
000002a0: 9800 ea3d 33d5 8abe 643e 9a3e 2eff ba3e
000002b0: 4681 193e dfaf ebbd fb0a ebbe d976 3e3d
000002c0: 2750 d9bd 92b2 8e3e 2fbd 29be 09b5 05bf
000002d0: 926b 5e3e a282 bb3e 2b40 f1be 9247 a8be
000002e0: 8744 7c3e edf0 dfbe ca84 efbe dbc7 f03e
000002f0: e03b 8d3e a4d4 b6be 112e 253e 2a17 893e
00000300: 07ce 2fbe 7eea aabe 564a d13d a717 c33b
00000310: 5f58 0bbe 564d 98be 3d97 29be 12f7 713e
00000320: ef56 9ebe a17d 89be 883c 24bd 863a a93e
00000330: e557 04be 3592 71bd 4a95 273e cac3 0dbf
00000340: 0aa6 0f3e 8221 c4be 7d05 413e 64e8 efbe
00000350: d208 85be 8e71 f6be 2c2c 233e 809f f03b
00000360: f607 b63e 2b18 87be d338 7c3e d524 8cbe
00000370: 2a0f 24be 09b3 a13e 369d 14bd 7237 aa3e
00000380: 1945 c13d 92bb a83e 413d 8dbe b92e 57bb
00000390: 4e25 4fbe 6ce4 4b3e 8b72 a33e f551 b13e
000003a0: d003 e6be 5284 a0be af41 b4bd e6a6 8dba
000003b0: 3c8d cabe ceaa cc3e dc1d 173e d345 933e
000003c0: d30c 10bd 53d2 253e 378a 5e3e bac5 39be
000003d0: 40bc 963d 6a13 9ebe 2162 7bbe 7aa9 e7be
000003e0: fd22 89be c76a 59bd 258b abbe fd8e 6d3e
000003f0: ace9 603d db3b 80be 7413 143e 6ce0 05bf

dec.lin1.bias f4 [64]
0.06391228 0.04087308 0.04675459 0.03849425 0.06833271 -0.0036301054 -0.10394257 -0.12384047
0.04362105 -0.100530885 0.0012726729 0.07101924 -0.01739768 0.05644905 -0.045659944 0.14779173
-0.08534813 0.09604198 0.0520677 -0.0058992505 -0.12653206 0.052167945 -0.08017585 0.1196057
0.090517804 -0.0994021 -0.07604461 0.07884434 -0.074425474 -0.045180466 0.13580404 -0.007715232
0.121549144 0.077277705 -0.018514715 0.13841194 -0.1525464 0.08526206 0.06327802 -0.1386835
-0.22692959 -0.33018756 -0.12265089 -0.07888826 -0.009600119 -0.13607049 -0.08623057 0.084218346
0.025878206 -0.16421254 0.011805172 0.013615139 0.08226218 0.058419026 -0.11379041 -0.037430633
-0.039792076 -0.09969357 0.1018654 -0.1048427 -0.10636387 0.09197054 -0.063812554 0.0036955734
00000000: 71e4 823d 886a 273d be81 3f3d 26ac 1d3d
00000010: 05f2 8b3d 10e7 6dbb d8df d4bd 13a0 fdbd
00000020: fcab 323d 23e3 cdbd d1cf a63a 8972 913d
00000030: 9485 8ebc 1e37 673d ec05 3bbd b756 173e
00000040: 00cb aebd a8b1 c43d f144 553d 804e c1bb
00000050: 9f91 01be 0eae 553d 3c33 a4bd d5f3 f43d
00000060: 6661 b93d 5493 cbbd 47bd 9bbd 2479 a13d
00000070: 626c 98bd 270f 39bd 3710 0b3e 0fd0 fcbb
00000080: c2ee f83d c643 9e3d 2cac 97bc dcbb 0d3e
00000090: 2035 1cbe e09d ae3d e897 813d 0c03 0ebe
000000a0: 3b60 68be 580e a9be 6430 fbbd 2b90 a1bd
000000b0: d149 1dbc 1056 0bbe a799 b0bd ab7a ac3d
000000c0: 88fe d33c 5527 28be 7b6a 413c 0812 5f3c
000000d0: 1379 a83d ca48 6f3d f20a e9bd dd50 19bd
000000e0: 04fd 22bd 242c ccbd cf9e d03d c5b7 d6bd
000000f0: 4dd5 d9bd 0d5b bc3d 28b0 82bd 6f31 723b

dec.lin1.weight_v f4 [64, 64]
0.11720686 0.14127214 0.09214733 -0.010883629 0.013755887 -0.06122282 -0.015588621 -0.12445062
-0.104750805 -0.09510668 -0.06896197 0.080955595 0.09869703 -0.050269336 -0.048862748 -0.05111221
-0.013446987 0.16123492 0.09543366 0.052593984 -0.09238588 0.08983154 0.06966962 -0.12476577
0.031755164 0.17297266 -0.06545474 -0.14236447 0.11281508 0.09934601 -0.003833568 -0.09360124
0.045183543 0.034137625 0.124026716 0.11716258 0.105211705 -0.015426104 0.147717 0.09989573
0.03259885 0.09555131 -0.058289606 -0.09585856 -0.08263011 0.09002289 -0.071473286 -0.11051727
-0.06599549 0.012453318 -0.048815265 0.036693566 -0.11730201 -2.0787825e-06 -0.03297723 -0.01530724
0.025837319 0.010746497 -0.08734561 -0.00019765818 -0.088299595 0.0018591566 -0.060658615 0.04919972
0.09449108 -0.058288738 0.0018099082 -0.058834516 -0.055846404 0.134612 0.011745168 0.080179125
0.034723908 0.04597715 0.085624084 0.10336226 0.046646975 -0.019894294 -0.10670607 -0.04569345
0.028254312 0.017423451 -0.051186685 0.018720446 0.044009887 0.09502398 0.08625089 0.12490544
0.13064615 -0.04259972 0.0025723102 -0.11203891 0.05866685 -0.09664532 -0.12672365 -0.1171843
0.11953879 0.09936637 -0.10830859 0.05082148 -0.063843764 0.124656156 -0.08217856 -0.07453998
-0.056743823 0.08791329 0.087348014 0.06344126 -0.10160459 0.0079721585 -0.086432666 0.1072156
0.057449207 0.04784696 0.085285366 -0.07224025 -0.00083915074 -0.07630774 0.0310122 0.004885394
-0.16843301 0.01652052 0.063236214 0.07439523 -0.01726218 0.0008790563 0.10513986 0.005020468
0.039428346 0.015345977 -0.10301728 0.057755176 -0.18338828 0.038020562 -0.16925308 -0.10986579
0.1292542 -0.1567614 -0.108030826 -0.056555375 0.030767033 -0.083499044 -0.058726836 -0.08880553
0.08946951 0.044276297 -0.10210327 0.061051957 -0.040243164 -0.054344192 -6.1066e-41 -0.02499016
0.1413056 0.014148471 -0.07188846 -0.08881981 1.232619e-39 -0.123514645 0.010344537 0.027135363
-0.10528173 -0.01344711 0.050755993 0.03289154 -0.009538914 0.00053247146 0.0432574 -0.004683571
-0.009995657 0.16677052 0.047940854 0.04749632 -0.050133076 -0.11633397 -0.044400044 -0.008012028
-0.00553392 0.12124766 -0.013145672 -0.06055066 -0.0020180193 -0.0042319307 0.022142777 0.05807663
-0.14336008 -0.021300578 0.042699248 -0.016862066 -0.16256003 0.04068497 0.025278568 -0.055332504
-0.0060199196 -0.11496445 0.037741374 0.07418271 0.153732 0.08385971 0.13868098 -0.05808093
-0.036615506 -0.0030463685 -0.13416973 -0.024542466 -0.04079475 0.07604394 -0.051264584 -0.0974408
0.0967103 -0.098704614 -0.11787636 0.09134662 0.03570801 -0.071700245 -0.28467748 -0.08140217
0.11012662 0.02607637 0.15332265 -0.045401122 -0.076646104 -0.020908782 -0.08389933 -0.025257537
0.116071135 0.03251045 0.09466972 -0.0009396956 -0.12129707 0.119070455 0.07650015 0.05868288
0.0016297054 0.06617809 -0.058779445 0.029229967 0.11011948 0.12823379 0.1364866 0.010451005
-0.13438533 0.036325574 0.1058891 -0.06446336 0.051679004 -0.00036094236 0.06736363 0.0040574335
-0.04017507 0.033361625 0.028763423 0.016464857 -0.06869676 -0.051230058 0.16202676 -0.07992949
00000000: 260a f03d a5a9 103e bdb7 bc3d 4051 32bc
00000010: 5f60 613c c8c4 7abd 6a67 7fbc f7df febd
00000020: 9787 d6bd 4bc7 c2bd ef3b 8dbd 0ccc a53d
00000030: ab21 ca3d 38e7 4dbd 4e24 48bd 095b 51bd
00000040: c050 5cbc c41a 253e b972 c33d ca6c 573d
00000050: cf34 bdbd 99f9 b73d f2ae 8e3d 3285 ffbd
00000060: b411 023d bf1f 313e 220d 86bd fec7 11be
00000070: 980b e73d ec75 cb3d 993c 7bbb 02b2 bfbd
00000080: 6112 393d e5d3 0b3d b801 fe3d eff2 ef3d
00000090: 3c79 d73d c5bd 7cbc 2043 173e 2296 cc3d
000000a0: 5f86 053d 68b0 c33d 15c1 6ebd 7e51 c4bd
000000b0: fa39 a9bd ec5d b83d 9660 92bd e156 e2bd
000000c0: a528 87bd 0009 4c3c 84f2 47bd fe4b 163d
000000d0: 093c f0bd 3681 0bb6 2213 07bd 38cb 7abc
000000e0: c9a8 d33c 1312 303c 41e2 b2bd 7742 4fb9
000000f0: 6bd6 b4bd f2ae f33a 2b75 78bd a585 493d
00000100: 8a84 c13d 2cc0 6ebd 713a ed3a 76fc 70bd
00000110: 33bf 64bd bad7 093e ce6e 403c f434 a43d
00000120: a83a 0e3d 8952 3c3d ae5b af3d 98af d33d
00000130: e610 3f3d 5cf9 a2bc b688 dabd 0e29 3bbd
00000140: 9675 e73c a0bb 8e3c 21a9 51bd 9f5b 993c
00000150: b643 343d ef9b c23d 4ea4 b03d 6cce ff3d
00000160: 1bc8 053e 0b7d 2ebd 3494 283b a874 e5bd
00000170: a74c 703d fbed c5bd d8c3 01be 53fe efbd
00000180: c1d0 f43d 9880 cb3d e5d0 ddbd 2f2a 503d
00000190: 85c0 82bd ba4b ff3d 3c4d a8bd 6ba8 98bd
000001a0: 366c 68bd e20b b43d 84e3 b23d 7eed 813d
000001b0: 1116 d0bd a89d 023c 9c03 b1bd da93 db3d
000001c0: dc4f 6b3d 2dfb 433d 18aa ae3d b2f2 93bd
000001d0: 74fa 5bba 3b47 9cbd 4c0d fe3c a815 a03b
000001e0: b479 2cbe 0b56 873c fd81 813d 875c 983d
000001f0: 6a69 8dbc 7870 663a 9153 d73d bd82 a43b
00000200: 9e7f 213d b16d 7b3c b9fa d2bd b190 6c3d
00000210: 23ca 3bbe 73bb 1b3d ae50 2dbe 5101 e1bd
00000220: 375b 043e 0f86 20be 443f ddbd 9ca6 67bd
00000230: 250b fc3c 8c01 abbd 8d8b 70bd acdf b5bd
00000240: ca3b b73d 105b 353d 851b d1bd 9e11 7a3d
00000250: 04d6 24bd 0498 5ebd 3aaa 0080 2ab8 ccbc
00000260: 6ab2 103e fdce 673c 423a 93bd 29e7 b5bd
00000270: 0a6c 0d00 3ff5 fcbd 227c 293c fb4a de3c
00000280: f39d d7bd 4451 5cbc 84e5 4f3d 48b9 063d
00000290: 1b49 1cbc 8e95 0b3a ac2e 313d a478 99bb
000002a0: d3c4 23bc e4c5 2a3e a15d 443d 808b 423d
000002b0: 5758 4dbd 8140 eebd d2dc 35bd e244 03bc
000002c0: e355 b5bb b150 f83d f260 57bc f803 78bd
000002d0: bf40 04bb 02ac 8abb c564 b53c c3e1 6d3d
000002e0: fccc 12be 8d7e aebc 68e5 2e3d 5122 8abc
000002f0: 2376 26be 48a5 263d 0015 cf3c 56a4 62bd
00000300: bf42 c5bb 7b72 ebbd b396 1a3d 1bed 973d
00000310: ec6b 1d3e a4be ab3d 6302 0e3e 45e6 6dbd
00000320: 24fa 15bd 95a5 47bb ca63 09be 480d c9bc
00000330: 6518 27bd edbc 9b3d d0fa 51bd 0b8f c7bd
00000340: 0d10 c63d a525 cabd 2969 f1bd f013 bb3d
00000350: 9042 123d 94d7 92bd 3fc1 91be 2eb6 a6bd
00000360: 118a e13d 1d9e d53c 9d00 1d3e 87f6 39bd
00000370: a2f8 9cbd e548 abbc 69d3 abbd e5e8 cebc
00000380: b4b6 ed3d ad29 053d 33e2 c13d e755 76ba
00000390: 996a f8bd 36db f33d 1cac 9c3d 765d 703d
000003a0: d79b d53a 6188 873d b7c2 70bd af73 ef3c
000003b0: 5286 e13d b84f 033e 25c3 0b3e b13a 2b3c
000003c0: 4f9c 09be 20ca 143d 62dc d83d 5e05 84bd
000003d0: 5dad 533d dd3c bdb9 f1f5 893d 38f4 843b
000003e0: 9d8e 24bd 33a6 083d 45a1 eb3c 4fe1 863c
000003f0: e3b0 8cbd 9cd6 51bd 58ea 253e 13b2 a3bd

dec.lin2.bias f4 [64]
-0.10909545 -0.019887982 0.106190145 -0.0010668891 0.014781192 0.12661909 -0.069581926 0.09153209
0.057794042 0.015099203 -0.06130251 0.10318652 -0.03612148 -0.048596893 0.029310768 -0.068540245
-0.075067304 0.016167553 0.022761174 0.10734444 0.010411869 0.12084931 -0.11079262 0.005959561
0.058231905 0.050685573 0.025239795 0.0729871 0.038908288 -0.07418154 0.107006535 0.08963715
0.017470144 -0.033893466 -0.33120972 0.11205896 0.059313785 -0.044026792 -0.06024974 0.11076641
-0.025517512 -0.03261642 0.072366074 -0.018068196 -0.08349778 0.07628687 -0.09652818 -0.011417337
0.12452786 -0.01977517 -0.13560905 -0.04778189 0.07413844 0.10476641 -0.11616805 -0.056802724
0.12842979 -0.024648223 0.07176132 0.04978202 0.074234284 0.04654408 0.1444641 -0.045188636
00000000: 6f6d dfbd 1fec a2bc 387a d93d dcd6 8bba
00000010: d02c 723c 6fa8 013e f880 8ebd 2d75 bb3d
00000020: 72b9 6c3d a662 773c 5718 7bbd 7453 d33d
00000030: 1ef4 13bd 890d 47bd 231d f03c d45e 8cbd
00000040: e3bc 99bd d171 843c a475 ba3c 67d7 db3d
00000050: 8b96 2a3c d87f f73d 3ee7 e2bd 6c48 c33b
00000060: 9484 6e3d ad9b 4f3d b0c3 ce3c 437a 953d
00000070: 4c5e 1f3d 7eec 97bd 3e26 db3d af93 b73d
00000080: 8c1d 8f3c e0d3 0abd 5294 a9be 2b7f e53d
00000090: 03f3 723d 7055 34bd 6ec8 76bd 80d9 e23d
000000a0: 1a0a d1bc cc98 05bd aa34 943d c103 94bc
000000b0: e200 abbd 4a3c 9c3d 91b0 c5bd c80f 3bbc
000000c0: 7608 ff3d 8aff a1bc 19dd 0abe f1b6 43bd
000000d0: e5d5 973d c68f d63d 84e9 edbd f9a9 68bd
000000e0: 1983 033e 12eb c9bc 99f7 923d 3be8 4b3d
000000f0: 2508 983d 01a5 3e3d 66ee 133e b817 39bd

dec.lin2.weight_v f4 [64, 64]
-0.0764125 0.047274202 -0.084978186 0.04527064 0.13279285 0.10888316 -0.0076060193 0.1632702
-5.9932065e-25 0.050671335 -0.05997919 -0.019738406 -0.11741027 -0.0064224876 0.008900665 0.22295243
0.058032297 0.07966378 -0.088082224 6.100146e-07 -0.04919222 -0.10081845 0.073500365 0.13740739
1.373708e-39 0.06860364 -0.02833742 -0.044187266 0.01798955 -0.0039196787 -0.03842123 -0.08062882
0.123463415 -0.02812922 -7.2034e-40 0.021294715 -0.11083163 0.09484185 -0.01937471 0.06744452
0.18107396 0.12025173 -3.2453233e-15 -0.07934356 -0.05029807 0.08892174 0.0029196178 0.08969431
0.0038604722 0.09025573 0.1462879 0.08237496 -0.033825357 -0.071013756 0.06382525 -0.096732475
0.0011575692 0.0408199 0.07733475 0.13464245 -0.013536854 0.05552863 0.06620251 -0.08964338
-0.108070284 0.055467244 -0.123687536 2.25326e-05 -0.08919217 -0.056169644 0.0009481115 -0.04166304
-0.08102547 -0.09889163 -0.116923966 -0.030197896 0.040612247 -0.11619919 0.10564616 0.10565763
-0.038643405 0.078336455 0.06285992 0.10831294 -0.073261075 -0.11822035 0.032824017 -0.020808563
0.07558451 -0.013645984 0.04187638 -0.07291915 -0.09713524 -0.05554476 0.00026607097 -0.10086056
0.032925002 0.10809053 -0.038337037 0.07255455 -0.033038244 0.0468791 0.0013664303 -0.116289265
-0.111921035 0.08379383 0.103651494 -0.0021368088 0.08947979 0.05195735 -0.04689176 -0.064557254
0.08266814 0.047337253 -0.040966995 -0.094059184 0.06615205 0.022589078 -0.008120269 0.06973842
0.09505834 0.0710653 0.019248005 -0.119605094 -0.12086663 -0.1098323 -0.04467398 -0.10156906
-0.02011606 0.09462889 0.17333959 -0.059297416 -0.10218094 -0.15214963 0.11271352 -0.2544557
7.5835e-40 -0.03242413 -0.103964694 0.03938984 -0.038236145 0.11691077 1.0335359e-05 -0.055858452
-0.039156742 0.063422196 0.13352543 0.015688898 -1.5165318e-18 0.08162994 2.591376e-39 -0.12952769
-0.0021964812 0.105320476 -0.042712633 0.070204735 0.07299158 0.072070844 0.12949422 0.095274255
0.034844328 -2.239765e-39 -0.0037792032 0.02197407 -0.016838515 0.05243381 -0.027728409 4.5178927e-11
-0.18825948 -0.076112494 -3.994117e-39 -0.051647145 0.027608471 -0.107871436 0.06694727 0.04871802
1.289835e-39 0.019649718 -0.14733595 0.033687606 0.08752718 -0.052530117 -1.983496e-39 0.063297346
-0.0003174899 0.0072582783 -0.029467015 -0.03515319 -0.07329365 -0.0127488915 -4.123693e-39 -0.043021746
0.09808011 0.13360395 0.052824724 0.08381765 0.078044236 0.057141833 0.13540563 -0.18656698
0.047109246 0.0044197263 0.0972839 0.076783136 0.05475037 0.09809138 -0.06809063 -0.12859829
-0.10951636 -0.12575907 0.12214825 0.05206823 6.7734227e-19 0.14219908 -0.027658768 0.07135938
0.029075485 -0.046479426 0.021353193 -0.041406587 0.06380583 -0.09903631 0.01716135 0.16574009
0.017707493 0.025900485 0.07509343 -0.020616584 0.0041750576 0.08504469 -0.09867291 -0.024986971
-0.15742683 -0.12366392 0.070589274 0.042684965 -0.019303165 -0.044164903 0.08029077 0.052449346
0.00086183724 0.014159246 -0.11217755 0.07349109 -0.09816654 -0.0831832 -0.015494019 0.027549598
0.07632581 0.024512203 -0.0062682065 -0.054111287 -0.025423203 0.018985042 8.964437e-05 -0.02191906
00000000: 287e 9cbd 98a2 413d 0b09 aebd b56d 393d
00000010: d9fa 073e 22fe de3d ea3b f9bb 4e30 273e
00000020: 137b 3997 bf8c 4f3d bdac 75bd 70b2 a1bc
00000030: cc74 f0bd bb73 d2bb 18d4 113c a44d 643e
00000040: 46b3 6d3d c426 a33d 7464 b4bd e2bf 2335
00000050: c87d 49bd e779 cebd 5c87 963d 86b4 0c3e
00000060: 57f5 0e00 1180 8c3d e123 e8bc b5fd 34bd
00000070: d25e 933c a670 80bb 945f 1dbd b920 a5bd
00000080: 63da fc3d 406f e6bc 04d8 0780 4172 ae3c
00000090: b2fb e2bd 723c c23d b6b7 9ebc 5a20 8a3d
000000a0: 746b 393e 8a46 f63d a6d9 69a7 e07e a2bd
000000b0: 5905 4ebd 9a1c b63d 0f57 3f3b a7b1 b73d
000000c0: faff 7c3b ffd7 b83d 7fcc 153e 34b4 a83d
000000d0: 758c 0abd a96f 91bd d0b6 823d ad1b c6bd
000000e0: 94b9 973a c432 273d ae61 9e3d b6df 093e
000000f0: aec9 5dbc fd71 633d 2e95 873d f396 b7bd
00000100: f453 ddbd 9f31 633d e44f fdbd 6404 bd37
00000110: 62aa b6bd 2412 66bd b08a 783a dda6 2abd
00000120: aef0 a5bd b287 cabd d575 efbd 9461 f7bc
00000130: 0759 263d d7f9 edbd 045d d83d 0763 d83d
00000140: 8c48 1ebd dd6e a03d b4bc 803d 2dd3 dd3d
00000150: e709 96bd 831d f2bd 7a72 063d b876 aabc
00000160: 0dcc 9a3d 6893 5fbc 9186 2b3d a356 95bd
00000170: d7ee c6bd e782 63bd 717f 8b39 fb8f cebd
00000180: 5edc 063d 915e dd3d 4c07 1dbd 7b97 943d
00000190: 1c53 07bd 4d04 403d cb19 b33a 1129 eebd
000001a0: db36 e5bd 199c ab3d 3c47 d43d b409 0cbb
000001b0: 2e41 b73d 3bd1 543d 9311 40bd 9836 84bd
000001c0: ea4d a93d b5e4 413d 02cd 27bd 1aa2 c0bd
000001d0: ba7a 873d bb0c b93c e00a 05bc 04d3 8e3d
000001e0: f2ad c23d af8a 913d fead 9d3c 84f3 f4bd
000001f0: ec88 f7bd c2ef e0bd 10fc 36bd 7003 d0bd
00000200: 6fca a4bc cbcc c13d ef7f 313e d9e1 72bd
00000210: 3e44 d1bd 1dcd 1bbe 59d6 e63d 0448 82be
00000220: f941 0800 2acf 04bd 71eb d4bd 3e57 213d
00000230: 819d 1cbd ea6e ef3d 0766 2d37 d5cb 64bd
00000240: d262 20bd 7fe3 813d e4ba 083e 0186 803c
00000250: f4cc dfa1 992d a73d b437 1c00 e8a2 04be
00000260: d7f2 0fbb 43b2 d73d 71f3 2ebd 80c7 8f3d
00000270: 9c7c 953d e199 933d 229a 043e 261f c33d
00000280: edb8 0e3d 8e63 1880 82ac 77bb f702 b43c
00000290: edf0 89bc d6c4 563d b026 e3bc f3b2 462e
000002a0: 18c7 40be dee0 9bbd f97d 2b80 f58b 53bd
000002b0: 292b e23c b3eb dcbd a61b 893d 8c8c 473d
000002c0: 890b 0e00 72f8 a03c 3cdf 16be 04fc 093d
000002d0: 7341 b33d d229 57bd 2e99 1580 0aa2 813d
000002e0: c674 a6b9 dad6 ed3b cf64 f1bc cbfc 0fbd
000002f0: fb1a 96bd bae0 50bc 2ee7 2c80 9237 30bd
00000300: 3ade c83d 79cf 083e bd5e 583d 97a8 ab3d
00000310: a8d5 9f3d 8e0d 6a3d c6a7 0a3e 6a0b 3fbe
00000320: a0f5 403d 5ad3 903b c83c c73d 7a40 9d3d
00000330: ed41 603d 22e4 c83d 1a73 8bbd 45af 03be
00000340: 1d4a e0bd fcc6 00be dd28 fa3d 7f45 553d
00000350: 89ea 4721 a39c 113e a494 e2bc de24 923d
00000360: b62f ee3c 3661 3ebd e4ec ae3c f499 29bd
00000370: a2ac 823d 8dd3 cabd f695 8c3c c5b7 293e
00000380: 4e0f 913c 412d d43c 96ca 993d 1ce4 a8bc
00000390: ecce 883b e92b ae3d 0615 cabd 7ab1 ccbc
000003a0: 8034 21be 8243 fdbd 1c91 903d 6ed6 2e3d
000003b0: ac21 9ebc 42e6 34bd 7d6f a43d 20d5 563d
000003c0: ebec 613a 2ffc 673c 58bd e5bd 7f82 963d
000003d0: 8a0b c9bd f45b aabd a0da 7dbc b2af e13c
000003e0: b550 9c3d d1cd c83c 8765 cdbb cca3 5dbd
000003f0: 5244 d0bc 8586 9b3c 74ff bb38 9a8f b3bc

dec.lin3.weight_v f4 [1, 64]
-0.07752822 7.323762e-09 0.07447185 0.08916584 -0.061292186 -0.06448953 0.05416422 0.06386493
-0.051632624 0.12858376 0.08653747 0.046012934 -0.10126675 -0.09177369 0.09612083 -0.14593546
-0.09652058 0.012131425 -0.039759148 0.079896614 -0.07755995 0.06102617 9.744949e-10 -0.0019082887
-0.04298811 -1.5233928e-14 0.027509859 0.015801251 0.02411562 -0.15757234 -0.09841723 0.06818496
-0.06534737 0.077246904 -0.21565993 -0.048985228 -0.06340774 -0.0017143225 0.06720824 -0.034447365
-0.0011955696 0.102942176 0.080273636 -0.13264957 -0.062276702 0.10853836 -0.16056526 -0.07604869
-0.060972948 0.05941222 0.06019349 0.0015999695 -0.049967993 -0.07884249 -0.16864604 0.07973393
0.0854565 -0.060218204 0.02082683 0.08911888 0.114206836 0.0037279262 0.097591236 0.00010378657
00000000: 1ec7 9ebd 7ea4 fb31 b384 983d 949c b63d
00000010: 840d 7bbd 1613 84bd 4ddb 5d3d 9ecb 823d
00000020: bb7c 53bd 76ab 033e 8f3a b13d 0f78 3c3d
00000030: f164 cfbd d8f3 bbbd ffda c43d 1b70 15be
00000040: 95ac c5bd e2c2 463c 7dda 22bd d6a0 a33d
00000050: c0d7 9ebd 94f6 793d feee 8530 8b1f faba
00000060: 4d14 30bd 0c37 89a8 5b5c e13c a071 813c
00000070: 1f8e c53c a55a 21be f98e c9bd 8ea4 8b3d
00000080: d8d4 85bd a033 9e3d f5d5 5cbe bca4 48bd
00000090: ebdb 81bd 1eb3 e0ba 79a4 893d ae18 0dbd
000000a0: a9b4 9cba 59d3 d23d 8166 a43d 4ad5 07be
000000b0: db15 7fbd 5c49 de3d 386b 24be 6abf 9bbd
000000c0: c5be 79bd 3a5a 733d 738d 763d 11b6 d13a
000000d0: 3dab 4cbd 2c78 a1bd 8cb1 2cbe 8b4b a33d
000000e0: d103 af3d 5da7 76bd 079d aa3c f683 b63d
000000f0: 46e5 e93d 3950 743b eadd c73d fea7 d938

exp_avg f4 [64]
-5.9005392e-06 7.466106e-05 2.3815886e-05 -0.00041857004 7.8663135e-05 -0.00014454647 4.7484886e-05 3.7275368e-05
-5.5566517e-05 -0.00016084648 4.4023105e-05 -9.81905e-05 1.5163359e-05 2.2941631e-05 0.00019050413 6.166946e-05
2.8689881e-05 0.00013389687 4.1535583e-05 0.000102338905 0.00031436732 0.00018364032 0.0002445138 -0.00012988174
8.901059e-05 0.00011120343 -5.0873194e-05 -0.00012233393 0.0001761107 0.00023920804 -7.2859943e-06 -7.9534046e-05
-0.00016419217 0.00014585351 -0.00022313908 4.02429e-05 -5.568772e-05 5.0815266e-05 0.00014725828 0.0001695116
3.7005986e-05 6.873926e-05 2.8892984e-05 -9.751161e-05 0.00015946258 -4.07062e-05 -2.321809e-05 -0.00015158676
3.9582836e-05 -0.00010215487 3.299288e-06 0.00016273762 0.00019519198 0.0 0.00010955107 3.7538925e-05
-0.00014915847 4.409717e-05 -2.5390067e-05 -9.573652e-06 1.51144295e-05 -0.00011810191 -5.556849e-05 0.00014900343
00000000: 3ffd c5b6 5a93 9c38 3ac8 c737 8573 dbb9
00000010: f3f7 a438 6691 17b9 822a 4738 1f58 1c38
00000020: 1810 69b8 e6a8 28b9 73a5 3838 a0eb cdb8
00000030: 2266 7e37 c772 c037 10c2 4739 8a54 8138
00000040: 0dab f037 ab66 0c39 7e36 2e38 c89e d638
00000050: abd1 a439 938f 4039 1632 8039 dd30 08b9
00000060: 32ab ba38 e335 e938 ad60 55b8 c446 00b9
00000070: 5baa 3839 ebd3 7a39 377a f4b6 84cb a6b8
00000080: 002b 2cb9 41f0 1839 71fa 69b9 7cca 2838
00000090: 3c92 69b8 7a22 5538 5869 1a39 ecbe 3139
000000a0: e036 1b38 1c28 9038 365f f237 267f ccb8
000000b0: 6935 2739 f3bb 2ab8 78c4 c2b7 43f3 1eb9
000000c0: bf05 2638 fa3b d6b8 5669 5d36 8ca4 2a39
000000d0: 73ac 4c39 0000 0000 c8be e538 1d73 1d38
000000e0: 6c67 1cb9 faf4 3838 c1fc d4b7 869e 20b7
000000f0: fb93 7d37 7bad f7b8 3612 69b8 ce3d 1c39

exp_avg_sq f4 [64]
4.788293e-07 8.270554e-08 4.565995e-07 2.5238355e-06 5.8517134e-07 1.7543583e-06 2.3281927e-07 3.8252725e-07
2.8868893e-08 4.7796345e-07 4.746187e-07 1.6304758e-06 3.692456e-07 2.1287269e-07 2.0367217e-07 1.772834e-07
1.3831523e-07 1.438342e-06 2.6873423e-07 3.8527318e-07 7.8809836e-07 2.5452758e-07 2.4225207e-07 7.392775e-07
6.127388e-07 1.1061603e-06 1.3766824e-07 2.5831064e-06 4.5407023e-07 5.431109e-07 5.074132e-07 9.578587e-07
1.2038892e-06 5.745156e-07 5.700313e-07 1.1509779e-07 4.8510606e-07 5.665141e-07 1.4437511e-06 1.15000496e-07
8.0828147e-07 5.2080395e-07 1.8929211e-07 4.691175e-07 1.8499389e-06 2.1245705e-07 2.7180363e-07 1.8015363e-06
7.990836e-08 2.065372e-07 6.754346e-08 8.883492e-07 1.4477061e-07 0.0 1.318574e-07 4.0839132e-07
8.8837635e-07 2.163042e-07 4.7268536e-08 1.437242e-07 4.560214e-07 1.2271332e-06 1.8650675e-07 2.7942136e-07
00000000: e688 0035 da9b b133 8f22 f534 2a5f 2936
00000010: ab14 1d35 4b77 eb35 e0fc 7934 255e cd34
00000020: 5efb f732 664d 0035 19cf fe34 b9d6 da35
00000030: bb3c c634 0092 6434 fbb0 5a34 4a5b 3e34
00000040: cd83 1434 0e0d c135 8d46 9034 8bd7 ce34
00000050: b58d 5335 01a6 8834 df0e 8234 c372 4635
00000060: 177b 2435 6177 9435 f5d1 1334 6e59 2d36
00000070: f0c6 f334 4cca 1135 2b35 0835 c68f 8035
00000080: 5195 a135 6938 1a35 4104 1935 ae2b f733
00000090: 3c38 0235 8d12 1835 e9c6 c135 31f6 f633
000000a0: aef8 5835 60cd 0b35 3840 4b34 05db fb34
000000b0: 6b4b f835 c01f 6434 68ec 9134 51cc f135
000000c0: 169a ab33 83c4 5d34 690c 9133 e476 6e35
000000d0: 3e72 1b34 0000 0000 b094 0d34 e040 db34
000000e0: c278 6e35 3f41 6834 4e04 4b33 9b52 1a34
000000f0: 1bd3 f434 fab3 a435 9642 4834 6103 9634

exp_avg f4 [64, 4]
9.714327e-06 4.354411e-06 1.5904867e-05 4.083749e-05 3.2001488e-05 2.1329286e-05 3.4562294e-05 -6.172361e-06
-1.6995099e-06 2.397081e-05 2.0183956e-05 -0.00022211472 1.2989855e-05 -0.00023163317 -0.00052995014 0.00058212946
5.2173928e-05 7.860276e-05 -1.792542e-05 5.6569563e-05 -0.00028888407 -0.0003480022 8.509485e-05 2.3675753e-05
-2.644064e-07 1.1520881e-05 -1.1482913e-05 1.1628967e-05 -0.00011522503 -0.00015781916 0.00023919206 -0.00012431674
-4.183286e-05 -6.135493e-05 4.6765996e-05 -5.0571667e-05 -2.9970497e-05 -0.00015682763 -0.0002073833 0.00021314497
0.00013828465 0.00012924758 -0.00014285241 0.00010344988 -0.00041562863 -0.00012319717 1.7406024e-05 -0.0004339678
-2.1519265e-05 -9.862127e-06 -3.6551985e-05 1.9688969e-05 3.557385e-08 1.07809155e-05 2.1203103e-05 -4.527454e-05
8.474482e-05 2.356822e-05 5.75487e-05 -3.7139576e-05 -2.5036408e-05 -1.984539e-05 -0.00015616049 0.00015574534
-2.5718249e-08 6.5117865e-06 -2.78498e-05 -8.6312444e-05 0.0003518265 0.0003412299 -0.00019251337 -3.2104606e-05
3.7931164e-05 5.9749887e-05 -8.9746536e-05 4.518618e-05 0.00018369287 0.00014532241 -0.00012555053 7.3808245e-05
0.000143431 -8.588187e-06 0.00011483323 -8.043006e-05 0.0001254236 0.00012365417 8.189671e-05 -0.00013338665
0.0001374889 4.4723107e-05 5.219836e-05 1.5157075e-05 -0.00032345488 -0.00032227274 -5.851875e-05 0.00021743846
0.00016891533 0.00016892335 -0.00015106387 1.1702551e-05 0.00023443239 0.00026244056 -0.000106889645 -9.571157e-05
-0.00018337819 -0.00015243689 0.00038721276 2.636894e-05 -0.00026368408 -0.00026119637 0.0001961033 -0.00014850547
0.00012769936 1.8815857e-05 0.00012074216 2.1775975e-05 0.00015859838 8.295452e-05 -9.003399e-05 -6.489948e-06
9.678439e-05 5.1787527e-05 -0.0001416228 0.00020013552 -0.00020655402 -0.00014794037 0.00011705779 -0.00015066014
2.8054936e-05 -0.00017997542 -0.00011747596 0.0002406028 -4.7846028e-05 2.7391603e-05 9.1073326e-07 -2.7278062e-05
-7.84255e-05 -0.00010982136 -3.1050375e-05 0.00018528366 1.5762787e-05 1.4178909e-05 -4.5209606e-05 -5.6098073e-05
-7.45034e-05 -2.7294545e-05 -2.563977e-05 4.9426577e-05 1.249173e-05 3.543599e-05 -2.7629918e-05 3.0462677e-05
9.025072e-05 0.00013873162 9.8118326e-05 -0.00026711888 2.5972544e-05 -8.924252e-05 7.111846e-05 -3.411778e-05
1.3627867e-06 9.249458e-06 4.3550084e-05 -0.00019028067 0.00014734206 0.00012608327 -6.945182e-05 -4.198583e-05
4.937591e-05 1.3035665e-05 6.1738133e-06 -1.1665783e-05 -0.00013846674 -0.00025439492 -2.1470235e-06 -0.00021606973
2.5878855e-05 -9.602406e-05 5.21398e-05 -7.2130446e-05 -7.510674e-05 -7.1628696e-05 5.7610378e-05 -0.00021104011
4.9953865e-06 -5.3170235e-05 3.54726e-05 -1.7157703e-05 -0.00030425543 -0.0003040799 0.00019294159 -0.00021024606
7.5749017e-06 1.4807974e-05 6.1232815e-05 -3.8709888e-05 -4.4320826e-05 -4.2665637e-05 -4.034502e-05 -0.00011014545
1.2972826e-06 1.1166867e-06 1.0490237e-05 2.9586438e-06 0.00023525482 0.000228145 -9.97144e-05 -0.00010791251
6.553595e-05 0.00016996548 2.2141414e-05 -0.00010937985 0.0 0.0 0.0 0.0
0.000113838185 0.0001501991 -3.520099e-05 -2.7338889e-05 0.00023527365 6.764072e-05 -0.0002469153 2.0936273e-05
-0.0002582393 -3.5594392e-05 -0.00012491726 -0.00015991532 -3.4474429e-06 -3.5114477e-05 9.665697e-06 8.409289e-06
-6.310311e-08 -4.5828386e-08 1.2135625e-06 2.0424866e-06 -5.0566654e-05 -3.3397508e-05 -2.3980077e-05 -1.2061236e-05
-8.1398306e-05 -7.566045e-05 -0.00014479534 -0.00021971096 -3.4946475e-05 -0.00011933545 1.878525e-05 6.6175955e-05
-0.00023693437 -0.00020483701 9.6318436e-05 -0.00018408432 8.472769e-05 0.00013741099 -3.1940857e-05 -6.532827e-05
00000000: b7fa 2237 1b1c 9236 716b 8537 ec48 2b38
00000010: 5639 0638 4bec b237 fbf6 1038 2d1c cfb6
00000020: b71a e4b5 ec14 c937 b750 a937 77e7 68b9
00000030: 01ef 5937 8ee2 72b9 5aec 0aba 0c9a 183a
00000040: 54d5 5a38 89d7 a438 8c5e 96b7 1b45 6d38
00000050: 5d75 97b9 1174 b6b9 f374 b238 4b9b c637
00000060: bdf3 8db4 cf49 4137 bca6 40b7 081a 4337
00000070: f8a4 f1b8 427c 25b9 a1cf 7a39 055b 02b9
00000080: b175 2fb8 adab 80b8 9b26 4438 ea1c 54b8
00000090: 2769 fbb7 1972 24b9 0875 59b9 ab7f 5f39
000000a0: 8100 1139 a286 0739 a7ca 15b9 3bf3 d838
000000b0: bbe8 d9b9 7d2e 01b9 2703 9237 2c86 e3b9
000000c0: 4584 b4b7 8375 25b7 654f 19b8 bd29 a537
000000d0: ddc9 1833 aedf 3437 51dd b137 2be5 3db8
000000e0: 07b9 b138 5eb4 c537 7260 7138 51c6 1bb8
000000f0: 4705 d2b7 a779 a6b7 03bf 23b9 924f 2339
00000100: 07eb dcb2 d27f da36 fd9e e9b7 a402 b5b8
00000110: 5a75 b839 1ae7 b239 6add 49b9 0fa8 06b8
00000120: 4718 1f38 f49b 7a38 4e36 bcb8 4b86 3d38
00000130: ae9d 4039 b061 1839 37a6 03b9 80c9 9a38
00000140: f765 1639 fb15 10b7 9fd2 f038 8fac a8b8
00000150: 2484 0339 2aa9 0139 f6bf ab38 b5dd 0bb9
00000160: e52a 1039 1295 3b38 90ef 5a38 244b 7e37
00000170: 6195 a9b9 b7f6 a8b9 0872 75b8 3100 6439
00000180: dd1e 3139 0421 3139 e666 1eb9 1356 4437
00000190: f7d1 7539 2d98 8939 f129 e0b8 c2b8 c8b8
000001a0: 3549 40b9 77d7 1fb9 d102 cb39 de32 dd37
000001b0: 143f 8ab9 2ff1 88b9 14a1 4d39 22b8 1bb9
000001c0: 09e7 0539 bfd6 9d37 f436 fd38 8dab b637
000001d0: 6e4d 2639 def7 ad38 a1d0 bcb8 3bc4 d9b6
000001e0: b9f8 ca38 6f36 5938 9580 14b9 78db 5139
000001f0: 6c96 58b9 7120 1bb9 ec7c f538 86fa 1db9
00000200: 8457 eb37 c9b7 3cb9 6d5d f6b8 534a 7c39
00000210: 48ae 48b8 05c7 e537 1d79 7435 31d3 e4b7
00000220: 5f78 a4b8 e54f e6b8 163c 02b8 b448 4239
00000230: 543a 8437 f3e1 6d37 729f 3db8 d94a 6bb8
00000240: b53e 9cb8 97f6 e4b7 fd14 d7b7 624f 4f38
00000250: 9293 5137 1ba1 1438 ccc6 e7b7 1a8a ff37
00000260: fd44 bd38 7c78 1139 e0c4 cd38 170c 8cb9
00000270: 9ddf d937 b727 bbb8 6f25 9538 b019 0fb8
00000280: ffe8 b635 1f2e 1b37 8ca9 3638 1486 47b9
00000290: d57f 1a39 3835 0439 a9a6 91b8 f119 30b8
000002a0: fb18 4f38 c1b3 5a37 a728 cf36 28b8 43b7
000002b0: 6231 11b9 4f60 85b9 9515 10b6 c790 62b9
000002c0: 6b16 d937 8660 c9b8 afb0 5a38 bd44 97b8
000002d0: a082 9db8 5d37 96b8 aca2 7138 a64a 5db9
000002e0: 0b9e a736 1b03 5fb8 6ac8 1438 e3ed 8fb7
000002f0: 7984 9fb9 ea6c 9fb9 5d50 4a39 7f75 5cb9
00000300: e92b fe36 c46f 7837 1e6a 8038 6d5c 22b8
00000310: 20e5 39b8 e1f3 32b8 2338 29b8 e3fd e6b8
00000320: 4a1e ae35 10e1 9535 3aff 2f37 1d8d 4636
00000330: bcae 7639 353a 6f39 c31d d1b8 164f e2b8
00000340: 5870 8938 c338 3239 53bc b937 dc62 e5b8
00000350: 0000 0000 0000 0000 0000 0000 0000 0000
00000360: 69bc ee38 c47e 1d39 c6a4 13b8 d155 e5b7
00000370: cab3 7639 56da 8d38 6974 81b9 4ea0 af37
00000380: 4b64 87b9 304b 15b8 39fc 02b9 f1ae 27b9
00000390: 9e5a 67b6 e247 13b8 da29 2237 9f15 0d37
000003a0: 4d83 87b3 d8d4 44b3 b1e1 a235 a711 0936
000003b0: 8817 54b8 4d14 0cb8 d328 c9b7 9d5a 4ab7
000003c0: 62b4 aab8 e5ab 9eb8 34d4 17b9 3662 66b9
000003d0: 7e93 12b8 bb43 fab8 0495 9d37 f2c7 8a38
000003e0: 9671 78b9 84c9 56b9 91fe c938 c206 41b9
000003f0: d5af b138 fb15 1039 3cf8 05b8 d900 89b8

exp_avg_sq f4 [64, 4]
2.9278198e-07 2.2857199e-07 3.7332933e-07 3.4721617e-07 2.057551e-08 8.268845e-09 3.3844245e-08 5.7620046e-08
2.144506e-08 1.0605945e-06 1.2284205e-06 1.1500334e-06 4.7698345e-06 1.6137337e-06 3.9367437e-06 2.320098e-06
1.6442478e-07 4.565042e-07 5.291783e-07 2.4007798e-07 1.0387836e-05 1.04355295e-05 3.1308052e-06 3.479079e-06
1.071213e-09 7.5739e-08 1.3926767e-07 4.7992167e-08 1.9245902e-06 2.6057305e-07 1.4589124e-06 6.058521e-07
5.3997052e-08 7.145524e-08 3.649405e-08 3.2621895e-08 5.6039477e-07 6.0689246e-07 8.111657e-07 9.474082e-07
5.590814e-07 9.944962e-07 1.694269e-07 1.2290714e-07 5.5876326e-06 1.2055566e-06 7.3901816e-07 1.8822266e-06
1.1792525e-07 3.2522404e-08 1.0319061e-07 1.2037307e-07 7.5832723e-10 6.8572525e-08 1.1982716e-07 3.3129592e-07
5.756439e-08 1.1258219e-08 5.5418667e-08 1.1217673e-07 4.1799325e-07 6.660697e-07 5.9571215e-07 2.2634687e-07
1.1223339e-09 1.2378017e-07 3.9196883e-07 2.1837856e-07 5.008136e-06 5.706097e-06 1.7108168e-06 9.641769e-07
9.84638e-08 1.3532124e-07 1.1957009e-07 3.9982506e-08 4.862946e-07 6.402412e-07 2.7189438e-07 1.3147522e-07
6.1611036e-07 3.4533542e-07 1.3783217e-07 2.5087436e-07 8.3017545e-07 8.234865e-07 5.9498312e-08 1.5739471e-07
5.3864856e-08 4.01162e-09 1.2350522e-08 1.2984945e-07 4.2745164e-06 3.9534793e-06 1.0164262e-06 1.925749e-06
5.994574e-07 7.5782106e-07 1.3560978e-07 2.1885579e-07 3.0105618e-06 4.2926813e-06 3.2619312e-07 7.3331637e-07
1.0217635e-06 6.925147e-07 7.751289e-07 7.460395e-08 4.2610086e-06 2.5892166e-06 4.5276167e-07 5.2016156e-07
1.9524154e-07 6.2492894e-08 9.058059e-08 3.3541411e-07 2.5823434e-07 1.1272202e-07 1.418087e-07 6.57458e-08
1.0442562e-06 3.755679e-07 1.7799451e-07 3.282244e-07 2.5868596e-06 1.0183329e-06 1.7047195e-07 7.205256e-07
1.2742721e-06 8.7463735e-07 1.6478107e-06 1.032368e-06 5.299496e-07 8.2927824e-07 3.261727e-07 9.598747e-07
5.4433013e-07 3.4702168e-07 5.6600356e-07 3.6148592e-07 5.614895e-08 4.5864002e-08 4.3865955e-07 2.2265223e-07
5.211743e-07 2.9982658e-07 4.1099085e-07 8.484767e-07 3.6618582e-07 3.2467864e-07 3.3015183e-07 1.3073091e-07
1.7619035e-06 2.587764e-06 2.77177e-07 9.632524e-07 1.0526702e-07 4.9961674e-08 5.8665204e-08 6.525375e-08
1.7865456e-06 4.24879e-07 5.434092e-07 3.9166278e-07 6.039643e-07 4.8062867e-07 2.2796776e-07 2.5462805e-07
2.2985397e-07 2.964855e-07 1.7573468e-07 1.0823384e-07 6.9603175e-07 1.6920856e-06 3.948586e-08 5.1609805e-07
3.6594186e-06 1.7694531e-06 9.2865116e-07 2.756836e-07 1.3814855e-07 9.704102e-08 9.374702e-08 2.0956676e-07
9.8029226e-08 2.5662834e-07 1.04116594e-07 4.537952e-08 5.200167e-06 5.7659677e-06 5.2829495e-07 1.4886123e-06
3.3831273e-09 1.20428965e-08 2.5202877e-07 1.5384552e-07 7.087992e-08 9.504466e-08 2.9595088e-07 2.2939432e-07
1.9252433e-08 1.4727183e-08 3.5431377e-08 4.8821242e-08 2.2679926e-06 2.1439698e-06 2.2734503e-07 3.276628e-07
1.1286047e-07 1.8468373e-07 1.3894315e-07 7.160739e-08 0.0 0.0 0.0 0.0
2.0342485e-07 4.2917392e-07 1.66331e-07 1.4837582e-07 1.5033119e-06 3.6652474e-07 2.906176e-07 6.785595e-08
2.0075117e-06 9.2432157e-07 2.1082467e-06 1.1972652e-06 7.3286157e-07 2.6978796e-07 2.3260547e-08 6.473116e-08
8.034376e-10 4.3642406e-10 3.49009e-08 8.644619e-08 3.7858567e-07 1.3057887e-07 4.2806803e-08 1.1437488e-07
2.0569737e-06 1.3085861e-06 6.1328967e-07 1.321929e-06 1.4710681e-06 1.3026403e-06 7.4212136e-07 1.6007411e-07
1.9490666e-07 1.08830626e-07 2.93484e-07 3.337872e-07 2.269815e-07 3.5789398e-07 8.875223e-08 6.3623546e-08
00000000: a62f 9d34 646d 7534 fe6d c834 0769 ba34
00000010: 06be b032 c40e 0e32 245c 1133 e979 7733
00000020: 3036 b832 c059 8e35 35e0 a435 d95a 9a35
00000030: 910c a036 7897 d835 5f18 8436 fbb2 1b36
00000040: bd8c 3034 7615 f534 db0c 0e35 11e4 8034
00000050: 6a47 2e37 4214 2f37 d31a 5236 1f7a 6936
00000060: f539 9330 f5a5 a233 9b89 1534 f21f 4e33
00000070: 3528 0136 e3e4 8b34 d9cf c335 d7a1 2235
00000080: 63ea 6733 ef72 9933 a2bd 1c33 271c 0c33
00000090: 096e 1635 55e9 2235 e2be 5935 6551 7e35
000000a0: c813 1635 a17a 8535 b6eb 3534 75f8 0334
000000b0: 667d bb36 9cce a135 f160 4635 d0a0 fc35
000000c0: 173e fd33 c3ae 0b33 a399 dd33 e63f 0134
000000d0: 8972 5030 2542 9333 d7a9 0034 f7dc b134
000000e0: b73c 7733 2c6a 4132 7805 6e33 cfe5 f033
000000f0: 8e68 e034 f6cb 3235 07e9 1f35 c109 7334
00000100: 9d40 9a30 6fe8 0434 c96f d234 717b 6a34
00000110: 900b a836 0077 bf36 389f e535 de68 8135
00000120: 0c73 d333 d24c 1134 2d63 0034 3bb9 2b33
00000130: e989 0235 0add 2b35 e1f8 9134 a22b 0d34
00000140: c862 2535 8a66 b934 05ff 1334 e9af 8634
00000150: 39d9 5e35 900d 5d35 168b 7f33 5400 2934
00000160: 0959 6733 95d6 8931 2c2e 5432 bf6c 0b34
00000170: d16d 8f36 21a8 8436 236c 8835 1e3c 0136
00000180: 66ea 2035 116d 4b35 229c 1134 9ffe 6a34
00000190: 0f09 4a36 da09 9036 a41f af34 1ed9 4435
000001a0: 8723 8935 3fe5 3935 7412 5035 f535 a033
000001b0: c9f9 8e36 67c2 2d36 1713 f334 3ba1 0b35
000001c0: 96a3 5134 d533 8633 3585 c233 f712 b434
000001d0: 75a3 8a34 9611 f233 1444 1834 2330 8d33
000001e0: 5f28 8c35 a9a1 c934 c21e 3f34 d136 b034
000001f0: e999 2d36 a7ad 8835 f90a 3734 246a 4135
00000200: a807 ab35 9fc8 6a35 582a dd35 e58f 8a35
00000210: dc41 0e35 919b 5e35 d61c af34 0bd5 8035
00000220: 151e 1235 4c4e ba34 78ef 1735 3f12 c234
00000230: 6c28 7133 01fc 4433 e980 eb34 2e12 6f34
00000240: d3e6 0b35 daf7 a034 27a6 dc34 e0c2 6335
00000250: 3298 c434 7e4f ae34 b93f b134 0a5f 0c34
00000260: 8b7a ec35 72a9 2d36 ebce 9434 1a49 8135
00000270: 280f e233 7195 5633 13f7 7b33 a121 8c33
00000280: 3dc9 ef35 ed1a e434 ccde 1135 b945 d234
00000290: 1c20 2235 8d04 0135 4dc7 7434 d0b3 8834
000002a0: c7cd 7634 a82c 9f34 95b1 3c34 2f6e e833
000002b0: f0d6 3a35 9e1b e335 2a97 2933 fd89 0a35
000002c0: 5594 7536 f27d ed35 6c48 7935 aa01 9434
000002d0: fc55 1434 dd64 d033 f851 c933 4605 6134
000002e0: 2384 d233 bbc6 8934 b496 df33 4fe7 4233
000002f0: 187d ae36 4979 c136 27d0 0d35 54cc c735
00000300: 9b7c 6831 38e5 4e32 924e 8734 bc30 2534
00000310: a636 9833 5b1b cc33 2ee3 9e34 6e4f 7634
00000320: 8c60 a532 d602 7d32 362d 1833 86af 5133
00000330: d133 1836 1fe1 0f36 201c 7434 a2e9 af34
00000340: b35d f233 7a4d 4634 6730 1534 94c6 9933
00000350: 0000 0000 0000 0000 0000 0000 0000 0000
00000360: ff6c 5a34 3769 e634 b898 3234 3c51 1f34
00000370: 67c5 c935 c7c6 c434 2e06 9c34 34b8 9133
00000380: cab8 0636 e51e 7835 677b 0d36 b8b1 a035
00000390: ddb9 4435 60d7 9034 7cce c732 5502 8b33
000003a0: e5d8 5c30 3aed ef2f f2e5 1533 4ca4 b933
000003b0: 6b40 cb34 3f35 0c34 94da 3733 419e f533
000003c0: 8a0a 0a36 ada2 af35 f2a0 2435 226d b135
000003d0: 8471 c535 61d6 ae35 3136 4735 d6e0 2b34
000003e0: 8947 5134 45b6 e933 2290 9d34 5d33 b334
000003f0: 33b8 7334 9324 c034 0e98 be33 6aa1 8833

exp_avg f4 [64]
0.00021491302 0.00011331353 5.9094964e-05 -2.4967105e-05 8.394868e-05 -0.00036186044 0.00024393253 0.0007705472
0.0 9.898892e-05 -0.00014680564 -2.1931373e-05 0.00010666123 -9.466493e-05 6e-45 -0.00029576852
-1.8872659e-05 -6.8940044e-06 5.2797302e-05 0.0 6e-45 0.00019355395 6e-45 -8.729996e-05
6e-45 0.00018468336 -2.9971887e-05 -9.5555544e-05 7.13671e-05 5.7681267e-05 0.00022549387 -6.661567e-05
-0.00010680966 6e-45 6e-45 -0.00016723346 2.9604122e-05 0.0001337564 -6.6283974e-05 6e-45
-0.00023859226 -0.00010382571 0.0 -2.9155733e-06 8.628309e-05 0.0001267965 -1.0482717e-05 -0.000108835586
0.0 -2.3423965e-05 2.5553943e-06 -2.0988732e-06 -0.0001412741 -8.480922e-06 0.0 3.655559e-05
0.0 6e-45 1.2290302e-14 -0.00036174312 0.00018573565 6.560424e-05 0.0 -1.3782667e-05
00000000: 465a 6139 bda2 ed38 bcdc 7738 7370 d1b7
00000010: 9b0d b038 16b8 bdb9 24c8 7f39 8cfe 493a
00000020: 0000 0000 4698 cf38 d7ef 19b9 44f9 b7b7
00000030: 50af df38 d986 c6b8 0400 0000 6111 9bb9
00000040: ba50 9eb7 0c53 e7b6 ac72 5d38 0000 0000
00000050: 0400 0000 bef4 4a39 0400 0000 cf14 b7b8
00000060: 0400 0000 90a7 4139 236c fbb7 fe64 c8b8
00000070: ecaa 9538 caee 7138 8d72 6c39 04b4 8bb8
00000080: 00ff dfb8 0400 0000 0400 0000 645b 2fb9
00000090: 5e56 f837 f640 0c39 f001 8bb8 0400 0000
000000a0: 9f2e 7ab9 01bd d9b8 0000 0000 2ba9 43b6
000000b0: e2f2 b438 adf4 0439 edde 2fb7 a93e e4b8
000000c0: 0000 0000 957e c4b7 577d 2b36 5eda 0cb6
000000d0: fa22 14b9 4849 0eb7 0000 0000 4453 1938
000000e0: 0000 0000 0400 0000 0467 5d28 57a8 bdb9
000000f0: 09c2 4239 0295 8938 0000 0000 1b3c 67b7

exp_avg_sq f4 [64]
3.5636376e-06 3.1362997e-06 9.926006e-07 6.224967e-07 7.191475e-08 4.315733e-06 3.3831654e-06 2.26155e-06
0.0 7.1623805e-07 1.5001441e-06 2.6044253e-08 1.9209904e-06 2.7913e-07 1.0427952e-12 1.1464119e-05
5.522527e-07 1.5117145e-07 2.685756e-06 0.0 1.9547347e-13 1.4409715e-06 1.7993253e-11 2.1196226e-07
2.0491875e-09 1.8085155e-06 4.1638788e-07 7.245083e-07 2.4980745e-06 2.4680517e-06 2.6568603e-06 1.5207036e-06
3.3044432e-07 4.8814754e-11 7.734144e-12 3.1594163e-07 3.446201e-08 5.8642735e-07 5.518924e-07 3.7905863e-14
2.9943972e-06 1.3242917e-06 0.0 1.401847e-08 5.048999e-07 1.1608332e-07 7.991024e-09 6.625415e-07
0.0 5.6140766e-07 1.994282e-06 1.6290045e-08 1.9348042e-06 1.8058671e-07 0.0 1.1043337e-06
0.0 1.0581525e-09 2.6872562e-09 8.272781e-06 2.1539563e-07 5.7458533e-07 0.0 1.8369985e-07
00000000: d426 6f36 3879 5236 7f39 8535 a619 2735
00000010: 8d6f 9a33 ddcf 9036 570a 6336 22c5 1736
00000020: 0000 0000 8143 4035 8f58 c935 ebb7 df32
00000030: 5dea 0036 56db 9534 a8c2 922b 0456 4037
00000040: 843e 1435 b151 2234 f03c 3436 0000 0000
00000050: 6415 5c2a 6767 c135 3445 9e2d be97 6334
00000060: b0d1 0c31 1fbc f235 ea8b df34 d57b 4235
00000070: 98a4 2736 cea0 2536 834c 3236 fa1a cc35
00000080: ec67 b134 87b0 562e 7d0f 082d b09e a934
00000090: 6103 1433 fb6a 1d35 c225 1435 7cb6 2a29
000000a0: 5af3 4836 51be b135 0000 0000 e2d5 7032
000000b0: 7588 0735 7b49 f933 e548 0932 81d9 3135
000000c0: 0000 0000 a4b3 1635 81d5 0536 30ee 8b32
000000d0: afd7 0136 4ce7 4134 0000 0000 9e38 9435
000000e0: 0000 0000 6e6e 9130 b6aa 3831 53cb 0a37
000000f0: 8047 6734 343d 1a35 0000 0000 083f 4534
